models/Gaussian_greedy7.pth (torch, 332311 bytes, 32 tensors)

dnets.0.means f4 [63]
0	0x3dc2f9e1	0.09520317
1	0x3fb5ed9e	1.421314
2	0x3fdf50c3	1.7446522
3	0x3ffc8ee2	1.9731104
4	0xbf936a61	-1.1516839
5	0xbfe8b6c6	-1.8180778
6	0x3f6edfb5	0.933101
7	0x3f971fb4	1.180655
8	0xbf9bb1c9	-1.2163631
9	0x3fe84ff2	1.8149397
10	0x3eaf39bc	0.34223735
11	0x3fc73c6f	1.5565318
12	0xc00eda14	-2.2320604
13	0xbf69ff27	-0.91404957
14	0x3fbe01c1	1.4844285
15	0x3faea82a	1.364507
16	0xc0452fd1	-3.0810435
17	0x3bd8220e	0.0065958565
18	0x3e8be955	0.27326456
19	0x400b47aa	2.176249
20	0xc029bd24	-2.6521692
21	0xc0041acb	-2.0641353
22	0xbf63acd9	-0.8893562
23	0xbf708550	-0.9395342
24	0xbf1d1035	-0.61352855
25	0xbec5b141	-0.38611796
26	0x3fc8533a	1.5650399
27	0x3faaa8b3	1.3332733
28	0xbfe23452	-1.7672217
29	0x3df1e5f0	0.11811435
30	0xc007c187	-2.121187
31	0xc00c47ff	-2.1918943
32	0xbedd2859	-0.43194845
33	0x3fa57375	1.292586
34	0x3f029966	0.5101532
35	0xbfffe10c	-1.9990554
36	0x402bb91a	2.6831727
37	0x40047b86	2.0700393
38	0x3fe3b3ef	1.7789286
39	0x3f2dbbcb	0.67864674
40	0x3f328088	0.69727373
41	0x3f82a566	1.0206726
42	0xbfa1db24	-1.2645001
43	0x3f6c1fb7	0.92235893
44	0x3f558cdd	0.83418065
45	0x3f81b33e	1.0132825
46	0x3fba33bc	1.4547038
47	0x3fdb177e	1.7116544
48	0x3f5dd27b	0.8664929
49	0x3c01b4da	0.0079166535
50	0xbfd4a611	-1.661318
51	0xbe1766b2	-0.14785269
52	0xc007229a	-2.111487
53	0xbf82035f	-1.0157279
54	0xbf42bf2e	-0.7607297
55	0x3ff05d80	1.8778534
56	0xc0094a04	-2.1451426
57	0x3f62c86b	0.88587064
58	0xbff54c28	-1.9163866
59	0x4003f2eb	2.0617015
60	0xbf68f94a	-0.91005385
61	0xbf27340b	-0.65313786
62	0xbfd55f6c	-1.6669745

dnets.0.std f4 [63]
0	0x3eec678e	0.46172756
1	0x3fdca7c3	1.7238697
2	0x3f4de6d3	0.80430335
3	0x3e92843c	0.28616512
4	0x3eb5daf0	0.355186
5	0x3fea2a9a	1.8294251
6	0xbcbf2af1	-0.023335906
7	0xbebc7d7e	-0.36814493
8	0x3f0fa84f	0.56116194
9	0x3f4c07e6	0.7969955
10	0xbe1f1618	-0.15535772
11	0x3f403358	0.75078344
12	0x3ff14bd5	1.8851267
13	0x3eeceddf	0.4627523
14	0xbea6d83b	-0.32586846
15	0x3eb1401a	0.34619218
16	0xbf25297b	-0.6451642
17	0x3c8502ce	0.016236689
18	0x4045957b	3.0872486
19	0x3eb48c38	0.35263228
20	0xbd99f273	-0.07516947
21	0x3f81d47d	1.0142971
22	0x3ebbf92e	0.36713547
23	0xbe8afde0	-0.27146816
24	0x400fa516	2.244451
25	0x3ffe333f	1.9859389
26	0x3f1e6269	0.6186891
27	0x3f1ea0af	0.61963934
28	0x3f224397	0.63384384
29	0x3ddd19f8	0.10795969
30	0x3f88859c	1.0665774
31	0x3f8cf0d8	1.1011
32	0x3e40a2dc	0.18812126
33	0xbf0d3071	-0.5515204
34	0x4081b1f4	4.052973
35	0x3f7757c3	0.9661829
36	0x3f87b0d3	1.0600837
37	0x3f96def8	1.1786795
38	0x3f590a3b	0.84781235
39	0x3f05195b	0.51991814
40	0x3e9a992e	0.30194992
41	0xbeae4171	-0.34034303
42	0x3f154e63	0.58322734
43	0x3eaf8900	0.3428421
44	0x3fb19ed9	1.3876601
45	0x3f8d9340	1.1060562
46	0x3f19b689	0.6004415
47	0xbdb7cade	-0.08974241
48	0x3f345a9f	0.70450777
49	0x3c6efd4c	0.014586758
50	0x3f53837b	0.826225
51	0x3e19efad	0.15032835
52	0x3f81c17a	1.0137169
53	0x3ee3e2e6	0.44509047
54	0x3f9f83ae	1.246206
55	0x3f6b8620	0.92001534
56	0x3f02f053	0.51147956
57	0x3fe4ad38	1.7865362
58	0x3f3746ff	0.71592706
59	0x40129627	2.2904146
60	0x3feb9313	1.8404258
61	0x3ff47784	1.9098973
62	0xbf0a530a	-0.5403296

dnets.0.weights_rbf f4 [48, 63]
0	0xbad7c99c	-0.0016463283
1	0xba3cc3e2	-0.00072008197
2	0x3a8b4eab	0.0010628303
3	0x3c820821	0.015873017
4	0x3bee2c7c	0.0072684865
5	0x3ac050de	0.0014672538
6	0x3c820821	0.015873017
7	0xbc267601	-0.01015997
8	0x3bdf4f8c	0.0068149026
9	0x3a99d536	0.0011736515
10	0xbc03b3a0	-0.008038431
11	0x3a6e4aca	0.0009090124
12	0x3aeb75c4	0.0017964174
13	0x3beff0f1	0.0073224236
14	0x3c81b5a4	0.015833683
15	0xbb43fdd1	-0.0029905925
16	0x3c819f89	0.015823143
17	0x3ada479b	0.001665342
18	0xb8c1bfde	-9.238695e-05
19	0x3c820821	0.015873017
20	0x3c820821	0.015873017
21	0x3b7548b4	0.0037427368
22	0x3bc3661d	0.0059631006
23	0x3c90bc37	0.017667873
24	0x3a64f7a6	0.0008734412
25	0x3a5912c2	0.0008280688
26	0x3a2a6d9b	0.0006501318
27	0x3a529057	0.00080323726
28	0x3a8b93bb	0.0010648886
29	0x3ba767ba	0.0051088007
30	0x3b811f17	0.003940474
31	0x3b753356	0.0037414632
32	0x3c45d53c	0.012074765
33	0x3a32734e	0.0006807343
34	0xb8b76de3	-8.746588e-05
35	0x3b6f4813	0.0036511465
36	0x3aa609ff	0.0012667774
37	0x3a1e5131	0.000603932
38	0x3a830c9b	0.0009998264
39	0x3a38c35d	0.00070481544
40	0x390fb65b	0.00013705475
41	0xbc191103	-0.009342435
42	0x3bd53951	0.006507077
43	0xba49b420	-0.0007694382
44	0xba5eb6ec	-0.00084958854
45	0xba058ff4	-0.0005094998
46	0x3a55d4a0	0.0008156989
47	0x3c820821	0.015873017
48	0x399c4ee6	0.00029813423
49	0xbae6fe7f	-0.0017623453
50	0x3ba4ca7e	0.0050290218
51	0xbc1b5523	-0.009480747
52	0x3b5919a7	0.0033126862
53	0x3be9792b	0.00712504
54	0x3a890083	0.0010452423
55	0x3a7f2b74	0.0009733953
56	0x3c22fc3e	0.009947835
57	0xba4da47b	-0.0007844639
58	0x3ac36f51	0.0014910494
59	0xba2a6423	-0.0006499907
60	0x3a731847	0.0009273332
61	0x3a66d1ec	0.00088050845
62	0xb9af507a	-0.0003343856
63	0xbb1305a0	-0.0022433773
64	0xba73fd55	-0.0009307464
65	0xba4cc8b2	-0.00078118884
66	0x3c8216d4	0.015880026
67	0xbd3902fd	-0.045168865
68	0x3add58b7	0.0016887401
69	0x3c884851	0.016636046
70	0xbc01307c	-0.007885095
71	0x3b0c4b54	0.0021407204
72	0xbab3ba14	-0.0013712072
73	0xbcbf7c24	-0.023374625
74	0xba243a07	-0.000626475
75	0x3b0dd73e	0.0021643187
76	0x3b47d2a2	0.0030490537
77	0x3d00220c	0.03128247
78	0xbc8bdb90	-0.017072469
79	0x3c82baf9	0.015958296
80	0x39adbba7	0.00033136943
81	0x39e19eeb	0.00043033747
82	0x3c821b12	0.015882049
83	0x3c820821	0.015873017
84	0x3b79ba9a	0.0038105608
85	0xbc4200c5	-0.011841004
86	0xbd38a86e	-0.045082502
87	0xba2ffec1	-0.00067136815
88	0xba2b0b5b	-0.00065248244
89	0xbab5e31d	-0.0013876889
90	0xb9a28656	-0.00030999136
91	0xbbbed4de	-0.0058237156
92	0x3cb3c935	0.021946529
93	0x3b827c2c	0.0039820876
94	0x3b811e3b	0.0039403713
95	0x3d4159e6	0.047204874
96	0x3860c3d7	5.358815e-05
97	0x39dd62b4	0.00042225944
98	0x3b6f7fc3	0.0036544658
99	0xbb13cc05	-0.0022552025
100	0xbaaf4eeb	-0.001337496
101	0xba3be7fe	-0.00071680534
102	0xbb007e53	-0.0019606545
103	0xba96e47f	-0.0011512189
104	0xbc17fa85	-0.009276037
105	0x3b15b277	0.002284197
106	0x3a4681ab	0.00075724226
107	0xba3a0aa0	-0.000709692
108	0xbaff9585	-0.0019499516
109	0xba713418	-0.0009201183
110	0x3c820821	0.015873017
111	0xbb135648	-0.0022481848
112	0x3ac992a8	0.001537879
113	0x3b84761b	0.0040423996
114	0xbc3766a7	-0.011193908
115	0x3b6acbba	0.0035826997
116	0xbb17949b	-0.0023129347
117	0x3ac29833	0.0014846384
118	0xba57d19e	-0.00082328345
119	0x3cbe3358	0.023217842
120	0x3940f7ff	0.00018402933
121	0xbaf015e2	-0.0018317068
122	0xb9fa862d	-0.00047783685
123	0x39144cb8	0.0001414296
124	0xb9c72dc9	-0.0003799035
125	0xbc95e7e4	-0.01829905
126	0x3a897ab4	0.0010488839
127	0x3b2f720d	0.002677086
128	0x3be569c4	0.0070011336
129	0x3c820821	0.015873017
130	0xbc8a34f7	-0.016870959
131	0xbb08bc46	-0.0020864173
132	0x3c820821	0.015873017
133	0x3d0545f4	0.032537416
134	0xbbdfa2a2	-0.0068248073
135	0x3c034b17	0.008013508
136	0x3c4d213d	0.012520132
137	0x3bcec063	0.0063095554
138	0xbb0e214f	-0.0021687334
139	0xbbc2f124	-0.0059491564
140	0x3c8b553f	0.017008422
141	0x3cec1e65	0.028823087
142	0x3c823466	0.015894126
143	0x39ee018a	0.00045396044
144	0xb956f5de	-0.00020500223
145	0x3c820823	0.01587302
146	0x3c820821	0.015873017
147	0xbbae7be3	-0.005324827
148	0xbc5705ce	-0.013123943
149	0xbc9ef4a3	-0.019403761
150	0xbaa2d1b2	-0.0012422113
151	0xba9b8dd2	-0.0011867827
152	0x3c2d7064	0.010585878
153	0x3bdf63e8	0.0068173297
154	0xbc250e6f	-0.010074242
155	0x3b4655b7	0.0030263492
156	0xbb9ae2cd	-0.004726744
157	0xbb9ca21e	-0.004780068
158	0xbc9d1fa9	-0.019180136
159	0x3c0952fa	0.0083816
160	0xb90c162a	-0.00013359697
161	0xbbbc04d9	-0.0057378826
162	0x3c0bf2aa	0.008541742
163	0x3b9c9be5	0.0047793263
164	0x3bd1addd	0.0063989
165	0x3b926715	0.0044678547
166	0x3c11d810	0.008901611
167	0x3d0609bf	0.03272414
168	0xbbdfddd9	-0.006831866
169	0x3c5e1a1e	0.0135560315
170	0x3b1b469c	0.002369321
171	0x3b4d2983	0.003130526
172	0x3c1cc3f5	0.009568204
173	0x3c820821	0.015873017
174	0x3b87000d	0.004119879
175	0xba13a03c	-0.0005631482
176	0xbba01294	-0.004885027
177	0xbbf46c21	-0.007459179
178	0xbbbe2a93	-0.005803415
179	0xbc273b45	-0.010207002
180	0xbb0bbe44	-0.0021323124
181	0x3bc505f8	0.0060126744
182	0x3c928f35	0.017890552
183	0x3aff6382	0.0019484612
184	0xbc185a24	-0.009298835
185	0x3b2ac5e0	0.0026057884
186	0xbac61803	-0.0015113357
187	0xbab21965	-0.001358789
188	0xbc32ddd3	-0.010917145
189	0x3c13ebf7	0.009028426
190	0x378a6f00	1.650257e-05
191	0x383f98ce	4.568026e-05
192	0x3c820821	0.015873017
193	0x3d00d30c	0.03145127
194	0xbac16b03	-0.0014756623
195	0x3c82650a	0.01591732
196	0xbcb7029a	-0.022340108
197	0xb97b893e	-0.00023988352
198	0x3b1c4842	0.002384678
199	0x3c80e928	0.015736178
200	0xba86df8e	-0.0010290013
201	0xbabbb5e0	-0.0014321171
202	0xba76c3ac	-0.00094133127
203	0x3c6970a6	0.014248049
204	0xbc0e5786	-0.008687859
205	0x3c42caa3	0.011889133
206	0x3bbc7502	0.005751253
207	0xbaf2bf36	-0.001852012
208	0x3c820821	0.015873017
209	0x3c820821	0.015873017
210	0xbb6526bf	-0.0034965721
211	0x3b1ba341	0.002374843
212	0x3d42c955	0.047555286
213	0xba9a3854	-0.0011766055
214	0xba849faa	-0.0010118384
215	0x3b2bab33	0.0026194572
216	0xbaf6ac71	-0.0018819702
217	0xbb9fce10	-0.0048768595
218	0x3c6a7aaf	0.014311477
219	0xbb22506a	-0.0024767169
220	0xbb3824f5	-0.00280982
221	0x3bbea3b1	0.0058178534
222	0xbb1cc20d	-0.0023919374
223	0xbb057b78	-0.0020367783
224	0xbb8703f4	-0.0041203443
225	0x3b9649f4	0.0045864526
226	0x38faf89f	0.00011967238
227	0xb9f0fde0	-0.0004596552
228	0x3ba2fd31	0.0049740304
229	0xbb70fbd6	-0.00367712
230	0xbca13c29	-0.019682007
231	0xba2a730d	-0.0006502129
232	0xbbefc3d5	-0.007317046
233	0x3a003a92	0.000489154
234	0x3ac33cb8	0.0014895415
235	0x3ab6fb6e	0.001396043
236	0x3c820821	0.015873017
237	0x3b502923	0.00317628
238	0xbbaadcdb	-0.0052143163
239	0xbacf3d24	-0.0015811068
240	0xbc84cb7d	-0.016210312
241	0xbb99c62b	-0.004692813
242	0x3991dd14	0.0002782127
243	0xba70662e	-0.00091704994
244	0xb9ac483f	-0.00032860224
245	0xbcbda92b	-0.023151955
246	0xb9d65855	-0.00040883073
247	0xbbe888fe	-0.007096409
248	0xb9fca3b5	-0.00048187157
249	0xba829e7a	-0.0009965443
250	0xba6cf312	-0.0009038906
251	0x3b580825	0.003296384
252	0x3c26303e	0.010143338
253	0x3c209253	0.009800511
254	0x3cb7924a	0.022408623
255	0x3c820821	0.015873017

dnets.0.conv.weight f4 [48, 3, 7, 7]
0	0xbcc3fa22	-0.023922984
1	0x3d792020	0.060821652
2	0xbd94b1f5	-0.07260505
3	0xbb60b4ce	-0.0034287455
4	0xb9bfcaa8	-0.0003658135
5	0xbb766576	-0.0037597097
6	0xbcee0bde	-0.029058393
7	0x3d3f1d11	0.04665858
8	0xbd9fb534	-0.07798234
9	0x3c01919e	0.007908253
10	0xbd99cb12	-0.07509436
11	0x3d80b65e	0.06284784
12	0x3d841f66	0.06451301
13	0x3c498e96	0.012302062
14	0x3d161d9f	0.036649343
15	0x3bb0165e	0.00537376
16	0xbd19b511	-0.037526194
17	0xbdd5380c	-0.10411081
18	0xbc82c196	-0.01596145
19	0xbc3e7bac	-0.011626165
20	0x3d63f6a2	0.05565513
21	0x3d3f2409	0.046665225
22	0xbd17802b	-0.036987465
23	0xbbaa9dcb	-0.0052067987
24	0x3c56f5f2	0.013120161
25	0x3d16b760	0.036795974
26	0x3d79fc3b	0.06103156
27	0xbd8477c3	-0.06468155
28	0xbd0e2ba5	-0.03470959
29	0x3d389082	0.04505969
30	0xbc01dabe	-0.007925687
31	0x3d4e1aec	0.050318643
32	0xbcdefb86	-0.027219545
33	0x3d9d46ef	0.07679545
34	0x3cf1d3c4	0.029519923
35	0x3c093091	0.008373396
36	0x3d42c3aa	0.04754988
37	0x3c135b53	0.008993941
38	0x3d7a283a	0.06107352
39	0x3d6ada04	0.057336822
40	0xbdb914a6	-0.090371415
41	0x3d7a08a2	0.06104339
42	0x3a0cc533	0.0005369961
43	0xbd385434	-0.045002177
44	0xbd988490	-0.07447159
45	0xbd59201e	-0.053009145
46	0xbd6bfe83	-0.05761577
47	0xbd50075f	-0.05078828
48	0x3d428741	0.04749227
49	0xba9069f3	-0.0011017903
50	0xbb62ecee	-0.0034626084
51	0xbc74e877	-0.014948002
52	0x3dc346f0	0.09535015
53	0x3d8ab128	0.06772071
54	0x3cc47f8c	0.0239866
55	0xbcb9628a	-0.022629995
56	0x3d9b9cc7	0.07598262
57	0xbd06a7d1	-0.032874886
58	0xbd2411c9	-0.040056024
59	0xbda2fd9b	-0.07958528
60	0xbd2ae264	-0.04171981
61	0x3d60f030	0.05491656
62	0xbd78091c	-0.060555562
63	0x3d56dd9d	0.05245744
64	0xbcef5141	-0.02921355
65	0x3dc25525	0.09488896
66	0xbc9763d2	-0.018480215
67	0x3da215e6	0.07914333
68	0xbd5c722c	-0.05381982
69	0xbcf116ff	-0.02942991
70	0x3d542b14	0.051798895
71	0x3d4e4a49	0.050363813
72	0xbb89d26c	-0.0042059924
73	0x3d4f12fd	0.050555218
74	0xbd413f42	-0.047179468
75	0xbd7c79f1	-0.06163973
76	0xbd87fedc	-0.066404074
77	0xbd514a7a	-0.051096417
78	0xbc53af66	-0.012920236
79	0xbd1217ca	-0.03566722
80	0xbd114c3f	-0.035473105
81	0x3cd7deb7	0.026351316
82	0xbd38dd14	-0.04513271
83	0x3c366d70	0.01113449
84	0xbc91c2d0	-0.01779309
85	0x3cd6fec9	0.026244538
86	0x3d0007bc	0.031257376
87	0xbd9936f6	-0.07481186
88	0x3cde9900	0.027172565
89	0xbd905301	-0.07047082
90	0x3d2a081e	0.041511647
91	0x3c83a6f0	0.016070813
92	0xbd138f44	-0.0360253
93	0x3d68fb58	0.056880325
94	0x3cb90771	0.022586556
95	0xbcf06dd9	-0.029349254
96	0x3d80c11d	0.062868334
97	0xbc1842b4	-0.009293247
98	0xbd1409fe	-0.03614234
99	0xbc7d5b84	-0.015463714
100	0xbc1ee4d2	-0.00969811
101	0xbc0a101b	-0.008426691
102	0xbd7c23dd	-0.06155764
103	0x3d0151e9	0.031572256
104	0x3d20aa36	0.039224826
105	0xbd7faf73	-0.06242318
106	0x3d31a3da	0.04336915
107	0x3d9b7867	0.07591324
108	0xbd880c17	-0.06642931
109	0xbc4e8f7a	-0.01260745
110	0x3d71372d	0.05889051
111	0xbd105042	-0.03523279
112	0xbcabab1f	-0.02095562
113	0xbc1c9b1d	-0.009558466
114	0x3d4aaf21	0.049483422
115	0xbd97c229	-0.0741008
116	0x3d789972	0.06069321
117	0xbdaade70	-0.08343208
118	0x3d6baa0c	0.057535216
119	0xbda29b9f	-0.079398386
120	0xbc26765e	-0.010160057
121	0xba78d26d	-0.0009491805
122	0x3d8f5760	0.06999087
123	0xbd3b5a12	-0.045740195
124	0x3dc5e5b4	0.09662953
125	0xbda67d63	-0.08129384
126	0xbcc8bf60	-0.024505317
127	0xbc2c4029	-0.010513344
128	0x3cdd51db	0.02701657
129	0x3db3c9ba	0.08778711
130	0xbc76c1eb	-0.015060882
131	0x3cb23183	0.021752125
132	0x3b54ffbb	0.003250106
133	0xbcd7a5d3	-0.026324188
134	0x3c1cf1eb	0.009579162
135	0xbd9f3ee8	-0.0777567
136	0x3d8ae776	0.06782429
137	0xbd58b0a3	-0.05290283
138	0xbd6568a6	-0.056008004
139	0x3d043c4f	0.032284077
140	0x3d25e433	0.04050083
141	0xbae8b16e	-0.0017753073
142	0x3d4e7215	0.050401766
143	0x3cf37b61	0.029721918
144	0x3aa533ef	0.0012603978
145	0xbcfeaf2e	-0.031089392
146	0x3d733c09	0.059383426
147	0x3ca8ec41	0.020620467
148	0x3d062ca2	0.03275741
149	0x3d49194d	0.049096394
150	0x3bd00954	0.0063487682
151	0xbd0d36c4	-0.034476057
152	0xbc5407b0	-0.012941286
153	0x3bf0418c	0.0073320325
154	0xbd17a809	-0.037025485
155	0xbdc32f83	-0.095305465
156	0xbc01b9f1	-0.007917867
157	0xbdbafd20	-0.09130311
158	0xbd023b4a	-0.031794824
159	0x3d20fa1a	0.039301015
160	0xbc4c836c	-0.012482505
161	0x3d85e6fb	0.06538197
162	0x3db38b63	0.0876682
163	0x3cdd651e	0.027025755
164	0xbe15d77b	-0.1463298
165	0x3cd828af	0.026386587
166	0x3c96df74	0.018417098
167	0x3c93d328	0.018045023
168	0xbcc92d14	-0.024557628
169	0xbd8b8c83	-0.0681391
170	0xbde268a8	-0.11055118
171	0xbbdc1a69	-0.0067170155
172	0x3e321bcc	0.17393416
173	0x3d1fbfbe	0.03900122
174	0xbcb2a05e	-0.021804985
175	0xbd527043	-0.051376592
176	0xbd626c70	-0.055279195
177	0x3c8967db	0.016773155
178	0x3ccb7333	0.024835205
179	0xbc02c5ec	-0.007981759
180	0x3c946039	0.018112289
181	0x38800878	6.105093e-05
182	0xbd196596	-0.037450396
183	0xbcadda84	-0.02122236
184	0x3dbb92d3	0.09158864
185	0x3d8b7636	0.06809656
186	0xbca4f0d3	-0.020134365
187	0x3c210222	0.009827169
188	0x3b71dc27	0.0036904903
189	0x3ce645f1	0.028109523
190	0x3acc42f4	0.0015583918
191	0xbc860f2e	-0.01636466
192	0x3c6b727b	0.014370556
193	0x3c2640ed	0.010147315
194	0x3b7e170f	0.0038771068
195	0x3ba744c9	0.0051046354
196	0xbc34ca05	-0.011034493
197	0x3ca146bc	0.01968705
198	0x3d62ba25	0.055353303
199	0x3d00d413	0.03145225
200	0xbd4e827b	-0.050417405
201	0xbd4a3434	-0.04936619
202	0x3cb79e4e	0.022414353
203	0x3d3ae080	0.045624256
204	0xbdae8516	-0.08521478
205	0x3ce72f46	0.028220784
206	0xbd89a9d6	-0.06721847
207	0xbd97d8ab	-0.07414373
208	0x3c9bdf83	0.019027477
209	0x3bf49cab	0.0074649653
210	0x3d856fbd	0.06515453
211	0x3dc6ef2f	0.097135894
212	0x3cb870b8	0.022514686
213	0xbe090fc3	-0.13384919
214	0xbd09e699	-0.03366718
215	0xba318b63	-0.00067727844
216	0x3cfeed51	0.03111902
217	0x3d0e2be3	0.034709822
218	0xbd3d4459	-0.04620776
219	0xbdbb81a2	-0.09155585
220	0x3c60c000	0.013717651
221	0x3e3414f6	0.17586121
222	0x3d109978	0.03530261
223	0x3caa4c50	0.020788342
224	0xbd023a98	-0.03179416
225	0x3c1e3281	0.009655596
226	0xbc0396d6	-0.008031568
227	0x3b8d8dc2	0.0043198774
228	0x3c51c4b9	0.01280325
229	0xbd2b2f48	-0.041793138
230	0x3c7e79e5	0.015531992
231	0x3cba631a	0.022752333
232	0x3c30ec56	0.010798534
233	0x3d9d5904	0.07682994
234	0x3d504d20	0.050854802
235	0xbcf384e0	-0.029726446
236	0xbd552091	-0.05203301
237	0xbd3d36dc	-0.046194896
238	0xbcfd6d52	-0.030935917
239	0x3d305974	0.04305406
240	0xbbd8971b	-0.00660981
241	0xbd10ba35	-0.03533383
242	0x3a978a54	0.0011561611
243	0x3caa2a78	0.020772204
244	0xbd49277b	-0.049109917
245	0x3c15a4e0	0.009133548
246	0x3d1dd288	0.038530856
247	0x3d438948	0.047738343
248	0x3d955baf	0.07292878
249	0xbc794a8e	-0.015215529
250	0xbc400397	-0.011719606
251	0xbcd7b359	-0.026330637
252	0x3c8734c9	0.016504662
253	0xbd93b2bc	-0.07211825
254	0xbaad3871	-0.0013215673
255	0xbc9862ef	-0.018601863

dnets.1.means f4 [63]
0	0x3dc2f9e1	0.09520317
1	0x3fb5ed9e	1.421314
2	0x3fdf50c3	1.7446522
3	0x3ffc8ee2	1.9731104
4	0xbf936a61	-1.1516839
5	0xbfe8b6c6	-1.8180778
6	0x3f6edfb5	0.933101
7	0x3f971fb4	1.180655
8	0xbf9bb1c9	-1.2163631
9	0x3fe84ff2	1.8149397
10	0x3eaf39bc	0.34223735
11	0x3fc73c6f	1.5565318
12	0xc00eda14	-2.2320604
13	0xbf69ff27	-0.91404957
14	0x3fbe01c1	1.4844285
15	0x3faea82a	1.364507
16	0xc0452fd1	-3.0810435
17	0x3bd8220e	0.0065958565
18	0x3e8be955	0.27326456
19	0x400b47aa	2.176249
20	0xc029bd24	-2.6521692
21	0xc0041acb	-2.0641353
22	0xbf63acd9	-0.8893562
23	0xbf708550	-0.9395342
24	0xbf1d1035	-0.61352855
25	0xbec5b141	-0.38611796
26	0x3fc8533a	1.5650399
27	0x3faaa8b3	1.3332733
28	0xbfe23452	-1.7672217
29	0x3df1e5f0	0.11811435
30	0xc007c187	-2.121187
31	0xc00c47ff	-2.1918943
32	0xbedd2859	-0.43194845
33	0x3fa57375	1.292586
34	0x3f029966	0.5101532
35	0xbfffe10c	-1.9990554
36	0x402bb91a	2.6831727
37	0x40047b86	2.0700393
38	0x3fe3b3ef	1.7789286
39	0x3f2dbbcb	0.67864674
40	0x3f328088	0.69727373
41	0x3f82a566	1.0206726
42	0xbfa1db24	-1.2645001
43	0x3f6c1fb7	0.92235893
44	0x3f558cdd	0.83418065
45	0x3f81b33e	1.0132825
46	0x3fba33bc	1.4547038
47	0x3fdb177e	1.7116544
48	0x3f5dd27b	0.8664929
49	0x3c01b4da	0.0079166535
50	0xbfd4a611	-1.661318
51	0xbe1766b2	-0.14785269
52	0xc007229a	-2.111487
53	0xbf82035f	-1.0157279
54	0xbf42bf2e	-0.7607297
55	0x3ff05d80	1.8778534
56	0xc0094a04	-2.1451426
57	0x3f62c86b	0.88587064
58	0xbff54c28	-1.9163866
59	0x4003f2eb	2.0617015
60	0xbf68f94a	-0.91005385
61	0xbf27340b	-0.65313786
62	0xbfd55f6c	-1.6669745

dnets.1.std f4 [63]
0	0x3eec678e	0.46172756
1	0x3fdca7c3	1.7238697
2	0x3f4de6d3	0.80430335
3	0x3e92843c	0.28616512
4	0x3eb5daf0	0.355186
5	0x3fea2a9a	1.8294251
6	0xbcbf2af1	-0.023335906
7	0xbebc7d7e	-0.36814493
8	0x3f0fa84f	0.56116194
9	0x3f4c07e6	0.7969955
10	0xbe1f1618	-0.15535772
11	0x3f403358	0.75078344
12	0x3ff14bd5	1.8851267
13	0x3eeceddf	0.4627523
14	0xbea6d83b	-0.32586846
15	0x3eb1401a	0.34619218
16	0xbf25297b	-0.6451642
17	0x3c8502ce	0.016236689
18	0x4045957b	3.0872486
19	0x3eb48c38	0.35263228
20	0xbd99f273	-0.07516947
21	0x3f81d47d	1.0142971
22	0x3ebbf92e	0.36713547
23	0xbe8afde0	-0.27146816
24	0x400fa516	2.244451
25	0x3ffe333f	1.9859389
26	0x3f1e6269	0.6186891
27	0x3f1ea0af	0.61963934
28	0x3f224397	0.63384384
29	0x3ddd19f8	0.10795969
30	0x3f88859c	1.0665774
31	0x3f8cf0d8	1.1011
32	0x3e40a2dc	0.18812126
33	0xbf0d3071	-0.5515204
34	0x4081b1f4	4.052973
35	0x3f7757c3	0.9661829
36	0x3f87b0d3	1.0600837
37	0x3f96def8	1.1786795
38	0x3f590a3b	0.84781235
39	0x3f05195b	0.51991814
40	0x3e9a992e	0.30194992
41	0xbeae4171	-0.34034303
42	0x3f154e63	0.58322734
43	0x3eaf8900	0.3428421
44	0x3fb19ed9	1.3876601
45	0x3f8d9340	1.1060562
46	0x3f19b689	0.6004415
47	0xbdb7cade	-0.08974241
48	0x3f345a9f	0.70450777
49	0x3c6efd4c	0.014586758
50	0x3f53837b	0.826225
51	0x3e19efad	0.15032835
52	0x3f81c17a	1.0137169
53	0x3ee3e2e6	0.44509047
54	0x3f9f83ae	1.246206
55	0x3f6b8620	0.92001534
56	0x3f02f053	0.51147956
57	0x3fe4ad38	1.7865362
58	0x3f3746ff	0.71592706
59	0x40129627	2.2904146
60	0x3feb9313	1.8404258
61	0x3ff47784	1.9098973
62	0xbf0a530a	-0.5403296

dnets.1.weights_rbf f4 [48, 63]
0	0x38ecba38	0.00011288043
1	0xbabb668c	-0.0014297529
2	0xbbb6c776	-0.005577977
3	0x3c81993f	0.015820144
4	0x3c9d8fea	0.019233663
5	0x3b000d54	0.0019539194
6	0x3c7a3a3f	0.015272676
7	0xbba085c7	-0.00489876
8	0x3c1e9447	0.009678907
9	0xbbb41907	-0.0054961476
10	0xbc84348e	-0.016138341
11	0xbbbedc22	-0.0058245817
12	0x3b18e869	0.0023331887
13	0x3c0b6ccd	0.008509827
14	0x3c7b30c2	0.015331449
15	0x3bfad8a3	0.0076552196
16	0x3c8207d8	0.01587288
17	0xbc012a92	-0.007883685
18	0xb7e1a007	-2.6896609e-05
19	0x3c8005b3	0.015627718
20	0x3c820821	0.015873017
21	0x3bbcfff6	0.0057678176
22	0x3c875cae	0.016523685
23	0x3ca2d506	0.019876968
24	0x3a0a6198	0.0005278825
25	0x39e87c3e	0.00044343056
26	0xbbdd80bc	-0.006759731
27	0xbbe863cb	-0.0070919744
28	0x3c420b33	0.01184349
29	0x3b1e2450	0.002413053
30	0x3bb7875c	0.005600853
31	0x3bb27168	0.005445648
32	0x3cc746ef	0.024325816
33	0xbc05aff0	-0.008159623
34	0xb82f3bf7	-4.1779098e-05
35	0x3bc3d0cb	0.005975818
36	0xbb8485d0	-0.004044272
37	0xbb5c6fe1	-0.003363602
38	0xbbab5cdb	-0.005229575
39	0xbbb73637	-0.0055911797
40	0xbc395b80	-0.011313319
41	0xbbc47afc	-0.005996106
42	0x3c1a39e3	0.009413215
43	0xbc238701	-0.009980918
44	0xbaae0db1	-0.0013279227
45	0xbb1814b8	-0.0023205709
46	0xbbec2aa1	-0.00720723
47	0x3c820821	0.015873017
48	0xbb8b327d	-0.004247962
49	0x3bba3515	0.0056825974
50	0x3bd8ab82	0.006612242
51	0x3ba73303	0.0051025166
52	0x3bbc33da	0.005743486
53	0x3c5279a1	0.012846381
54	0x3aceae17	0.0015768436
55	0xbb9af913	-0.004729399
56	0x3c8257a2	0.015910927
57	0xba648c18	-0.00087183854
58	0x3c23583f	0.00996977
59	0xba959f36	-0.0011415246
60	0x3a865616	0.0010249044
61	0x3a3eb56a	0.00072749576
62	0x3c6a3fc4	0.0142974295
63	0x3b5b39e9	0.0033451265
64	0x3b12245b	0.0022299502
65	0x3bae2159	0.005314034
66	0x3c820821	0.015873017
67	0xbced0d59	-0.028937029
68	0xbb3cf7f8	-0.0028834324
69	0x3c820821	0.015873017
70	0x3c571034	0.013126422
71	0xbc044dd4	-0.008075196
72	0x3b9e9e64	0.004840659
73	0x3bde0d94	0.006776521
74	0x3bafb022	0.005361573
75	0xbb41c698	-0.0029567834
76	0xbbef870b	-0.0073097995
77	0x3c82914f	0.01593843
78	0x3c7ff82e	0.0156231355
79	0x3c4e7543	0.0126012
80	0xb89322b4	-7.01597e-05
81	0xb9ca106a	-0.00038540672
82	0x3c820821	0.015873017
83	0x3c820821	0.015873017
84	0xbbb5b5ee	-0.0055453693
85	0xbc8a10d2	-0.016853724
86	0xbd00a77f	-0.031409737
87	0xbabc2f26	-0.0014357313
88	0xba9fd0d4	-0.0012192973
89	0x3ba61d14	0.0050693844
90	0x3bb9398c	0.005652612
91	0xbc88c3b2	-0.016694877
92	0x3989d751	0.000262911
93	0xbba17e21	-0.004928366
94	0xbba2a119	-0.004963052
95	0xbcbf2da8	-0.0233372
96	0x3bc30db3	0.005952561
97	0xb9d0d655	-0.0003983254
98	0xbbc577fb	-0.0060262657
99	0x3b88c4eb	0.004173865
100	0x3b8ffb30	0.0043939576
101	0x3baba3e4	0.005238043
102	0x3b87fd05	0.0041500353
103	0x3be1a9fa	0.006886718
104	0x3c625d30	0.013816163
105	0xbc02ab40	-0.0079753995
106	0x3bfe9f54	0.0077704582
107	0x3b079998	0.0020690914
108	0x3b42a9a4	0.0029703164
109	0x3babaf2e	0.005239389
110	0x3c820821	0.015873017
111	0x3b7ee193	0.0038891777
112	0xba7efc61	-0.00097269384
113	0xbbb0a0fc	-0.0053902846
114	0xbb5999c4	-0.0033203224
115	0xbbc80fed	-0.006105414
116	0xbc419a69	-0.011816599
117	0xbb2c1c35	-0.002626193
118	0x3ba6c15e	0.005088969
119	0xbbbfbcbe	-0.0058513572
120	0x3ab96cf1	0.0014146847
121	0xbc6612e9	-0.0140425945
122	0x3b023bed	0.0019872144
123	0xbb0d1a8b	-0.0021530713
124	0xbae1b9b4	-0.0017221482
125	0xbca7ca93	-0.020482337
126	0xba3b35ef	-0.00071415206
127	0x3ac6f0fb	0.0015178019
128	0x3bef1fe6	0.0072975038
129	0x3c820821	0.015873017
130	0xbc7b0de8	-0.01532314
131	0xba891471	-0.0010458363
132	0x3c820821	0.015873017
133	0x3cfba2c8	0.030717269
134	0xbb0f332f	-0.0021850576
135	0x3c09d804	0.008413319
136	0x3ca6060a	0.020266552
137	0x3bdb0071	0.006683402
138	0xba84d0ee	-0.0010133067
139	0xbb1cefb2	-0.002394658
140	0x3c696436	0.014245084
141	0x3cadf4bf	0.021234868
142	0x3c8206b9	0.015872346
143	0xbb107841	-0.0022044333
144	0x39171c61	0.00014411054
145	0x3c820792	0.01587275
146	0x3c820821	0.015873017
147	0xbafe3f24	-0.001939748
148	0xbbdde39a	-0.006771517
149	0xbc585ef9	-0.013206237
150	0xb99cde20	-0.00029920135
151	0xb988e06d	-0.00026107152
152	0x3c429ac9	0.011877724
153	0x3bfca755	0.007710377
154	0xbbb967a5	-0.0056581073
155	0x3b6672fa	0.0035163746
156	0xbaca6f43	-0.0015444536
157	0xbad5e3a0	-0.0016318448
158	0xbcb9267f	-0.022601364
159	0x3c22897a	0.009920472
160	0x3945ba68	0.00018856826
161	0xbb10f1b3	-0.002211672
162	0x3c0b5f55	0.008506616
163	0x3b8c3a57	0.0042794156
164	0x3bd7e24b	0.0065882555
165	0x3b87b988	0.00414199
166	0x3c38f6fd	0.011289355
167	0x3d016255	0.031587917
168	0xbb0f066b	-0.0021823894
169	0x3c8409dc	0.016117983
170	0x3a94f18d	0.0011363492
171	0x3b0b274d	0.0021233142
172	0x3c3291cb	0.010899018
173	0x3c820821	0.015873017
174	0x3b68f1ae	0.0035544443
175	0x3bab12a1	0.0052207266
176	0xbac47040	-0.0014987066
177	0xb9cb9d80	-0.00038836524
178	0xbb1b9358	-0.0023738947
179	0xbb73c798	-0.0037197825
180	0xbaa0a2b3	-0.0012255519
181	0x3bc5aa63	0.0060322746
182	0x3c81afee	0.01583096
183	0x3a55ba80	0.0008153096
184	0xbb9e36b4	-0.0048282985
185	0x3abde9a6	0.0014489188
186	0xba323578	-0.00067981286
187	0xb9f77d3f	-0.00047204827
188	0xbbf82ac8	-0.0075734593
189	0x3b122cb5	0.002230448
190	0x3b9d0512	0.004791864
191	0x3c8184d3	0.015810406
192	0x3c820821	0.015873017
193	0xbd42265c	-0.047399864
194	0xbbd1ff40	-0.006408602
195	0x3c820821	0.015873017
196	0x3d26247d	0.04056214
197	0xbc6d520d	-0.014484894
198	0x3c87c2e9	0.016572433
199	0x3d38a390	0.04507786
200	0x3c7a3b27	0.015272892
201	0xbbdd9bbf	-0.006762951
202	0xbc6772be	-0.014126478
203	0x3c85e5d4	0.016344942
204	0x3cc99c3b	0.02461063
205	0x3c81fa95	0.015866557
206	0xbb8c11d9	-0.0042745885
207	0xb9aa3bff	-0.00032469627
208	0x3c820827	0.015873028
209	0x3c820821	0.015873017
210	0xbc40c8ba	-0.011766607
211	0xbcdb3c72	-0.026762221
212	0xbd5b92fd	-0.053606976
213	0xbb32ee28	-0.0027302597
214	0xbb1c9529	-0.0023892617
215	0x3ca16def	0.01970574
216	0x3c8857fe	0.01664352
217	0xbcbb2b02	-0.022847656
218	0x3c9459da	0.01810925
219	0xbc331cd6	-0.010932168
220	0xbc333113	-0.010936993
221	0xbd80df34	-0.062925726
222	0x3c9c2f81	0.01906562
223	0xb982a87a	-0.00024921057
224	0xbc4b8d4d	-0.012423825
225	0x3c786488	0.015160687
226	0x3c364700	0.011125326
227	0x3c75888c	0.014986169
228	0x3c481adb	0.012213434
229	0x3cac7f99	0.021056937
230	0x3d36c559	0.0446218
231	0xbc6bc079	-0.014389151
232	0x3cd7e79a	0.026355553
233	0x3b86fd85	0.0041195774
234	0x3bdf7102	0.0068188915
235	0x3c9e35e4	0.019312806
236	0x3c820821	0.015873017
237	0x3c2d7279	0.010586374
238	0x3b90e8c8	0.004422281
239	0xbc41970f	-0.0118158
240	0xbcae3d5f	-0.021269498
241	0xbc4ce84b	-0.012506555
242	0xbc963c3e	-0.018339273
243	0xbbcabd58	-0.0061871223
244	0x3c67dc2a	0.014151612
245	0x3c7d9f2c	0.015479844
246	0x3b3c0488	0.0028689224
247	0xbca490fb	-0.020088663
248	0x3b8d5248	0.004312787
249	0xbb912073	-0.004428917
250	0xbb638aef	-0.0034720262
251	0xbcdad07d	-0.026710743
252	0x3b63e0d6	0.0034771464
253	0x3bc69f46	0.0060614673
254	0x3caaf5e7	0.020869208
255	0x3c820821	0.015873017

dnets.1.conv.weight f4 [48, 3, 7, 7]
0	0x3cf59f54	0.0299832
1	0x3d7fbae1	0.06243408
2	0xbd7a228e	-0.06106811
3	0x3d6af999	0.05736694
4	0x3cea36d5	0.0285906
5	0xbd1b9d99	-0.037992094
6	0xbdb08178	-0.08618444
7	0xbd85a3b7	-0.06525367
8	0xbcf897a8	-0.030345753
9	0xbd7f7231	-0.06236476
10	0xbc42e966	-0.011896467
11	0x3d3c8618	0.04602632
12	0xbd9ce1a2	-0.076602235
13	0x3d3e7823	0.04650129
14	0x3cd8db11	0.026471647
15	0x3d25164f	0.04030448
16	0x3c18396e	0.009291036
17	0x3d577b40	0.052607775
18	0x3c9b2ade	0.01894134
19	0x3d864981	0.065569885
20	0x3c5d7212	0.013515966
21	0x3cd9f774	0.026607253
22	0xbd46e02c	-0.04855363
23	0x3d32d610	0.043661177
24	0x3d20668d	0.0391603
25	0xbc4eafc3	-0.012615147
26	0xbdc1771a	-0.09446545
27	0xbd952b16	-0.072836086
28	0x3d854035	0.06506387
29	0xbd43fe98	-0.04785022
30	0x3c774520	0.015092164
31	0xbd91e8a2	-0.07124449
32	0x3d8b83ee	0.06812273
33	0x3d6cf239	0.05784819
34	0xbda95993	-0.08269038
35	0x3c7ef57e	0.01556146
36	0xbd3baf46	-0.04582145
37	0x3cd11253	0.025521433
38	0x3d7bc9ef	0.061471876
39	0xbc3b2246	-0.011421746
40	0xbd02a189	-0.031892333
41	0xbd5a8e54	-0.05335839
42	0x3d7feec2	0.062483557
43	0xbd1cae34	-0.03825207
44	0xbd3c5a73	-0.045984697
45	0x3d977ab5	0.073964514
46	0xbcb959f4	-0.0226259
47	0x3d18cea1	0.03730643
48	0x3d6a0e32	0.057142444
49	0xbd02e780	-0.031959057
50	0x3b106359	0.0022031872
51	0x3cb4ce3a	0.022070993
52	0x3da4ef8d	0.08053503
53	0xbd8bd0e2	-0.068269506
54	0x3d8ba722	0.068189874
55	0xbd7514ec	-0.059834406
56	0x3c8ad426	0.016946863
57	0xbb757217	-0.0037452036
58	0x3d44c433	0.048038673
59	0x3d0100c7	0.031494882
60	0x3d61357d	0.05498265
61	0x3d0f1cf6	0.03493973
62	0x3d4a7d27	0.04943576
63	0xbd3bfad8	-0.04589352
64	0xbd3ac75b	-0.045600276
65	0xbcf73bb4	-0.030179836
66	0xbd952067	-0.07281571
67	0xbd7a1776	-0.06105753
68	0x3d369bde	0.04458224
69	0x3d7026e8	0.058630854
70	0xbd788018	-0.060669035
71	0xbcb8123a	-0.022469629
72	0xbd22c8e0	-0.03974235
73	0xbc1c7f20	-0.009551793
74	0x3bb420d6	0.0054970784
75	0xbd622d3f	-0.05521893
76	0xbd4147f3	-0.047187757
77	0x3d05e568	0.032689482
78	0xbc8b484e	-0.017002251
79	0x3d9ec512	0.07752432
80	0xbd0dfa9a	-0.03466282
81	0xbcd990e1	-0.026558341
82	0x3d80c1a1	0.06286932
83	0x3d52bf97	0.051452246
84	0x3d0be897	0.03415736
85	0xbd020d04	-0.031750694
86	0xbbd1caef	-0.0064023654
87	0xbd906a73	-0.070515536
88	0x3c87d0b2	0.016579006
89	0x3d43b0b7	0.04777595
90	0x3d210a54	0.03931649
91	0x3d968913	0.073503636
92	0x3c36b53a	0.011151606
93	0xbd08eaa5	-0.0334269
94	0x3c2e6a58	0.0106454715
95	0xbd94a054	-0.07257143
96	0x3c37e96b	0.011225085
97	0xbc8ce6a7	-0.017199827
98	0x3cd17408	0.025568023
99	0x3cf69491	0.030100139
100	0x3c046f28	0.008083142
101	0x3dabf7f0	0.083969
102	0x3c3815f9	0.011235707
103	0xbc13b8d6	-0.009016236
104	0x3c8e486c	0.017368518
105	0xbcda22e5	-0.026627967
106	0xbd1b2145	-0.037873525
107	0x3da53616	0.08066957
108	0xbce23dee	-0.027617421
109	0x3d3cafe3	0.046066176
110	0x3d896c96	0.06710164
111	0x3d1d91d6	0.038469158
112	0x3ad1ccee	0.0016006508
113	0x3cca7f94	0.024719037
114	0xbd7da23e	-0.061922304
115	0xbd692bc1	-0.056926493
116	0x3d429622	0.04750646
117	0xbd1f3994	-0.03887327
118	0x3d8e41db	0.06946155
119	0x3d845c6f	0.06462943
120	0xbccab349	-0.024743693
121	0x3c823be8	0.015897706
122	0x3ce0db0d	0.027448202
123	0xbd14256d	-0.036168505
124	0xbd97b051	-0.074066766
125	0xbc1a1fa5	-0.009406959
126	0xbbe5648d	-0.007000512
127	0x3d7b29d1	0.061319176
128	0xbd8ab8f1	-0.06773556
129	0xbcb35d20	-0.021894991
130	0x3d8c02b7	0.06836455
131	0x3cf9e0d4	0.030502714
132	0x3d94b0ee	0.07260309
133	0xbd6298bb	-0.055321436
134	0x3d85aa41	0.06526614
135	0xbd6e67b5	-0.05820437
136	0x3c187c2b	0.009306948
137	0xbd06a20d	-0.032869387
138	0x3d0649b6	0.03278514
139	0xbd869af2	-0.06572522
140	0xbdbb1ab7	-0.09135955
141	0xbd3511f7	-0.044206586
142	0xbdb1701b	-0.086639605
143	0x3ae569c2	0.0017502832
144	0xbd3007c6	-0.042976163
145	0xbc4db76a	-0.012555936
146	0xbc9564e9	-0.018236594
147	0x3d267419	0.040638063
148	0xbd73d7ba	-0.059531905
149	0xbd13e05d	-0.03610264
150	0x3ce93e68	0.02847214
151	0x3d5ce7f9	0.053932164
152	0x3d3f111d	0.04664718
153	0xbd903dbd	-0.07043026
154	0xbd978d07	-0.07399946
155	0x3c8418b8	0.016125068
156	0x3c705f16	0.014671108
157	0xbd99e7e1	-0.075149305
158	0xbd8a512a	-0.06753762
159	0x3d912bd6	0.07088439
160	0xbd647c4f	-0.055782612
161	0x3d1b7a60	0.037958503
162	0xbd556409	-0.052097354
163	0xbc41519a	-0.0117992405
164	0x3db729dd	0.08943532
165	0x3da8926c	0.08231053
166	0xbd530fd3	-0.051528763
167	0x3d745740	0.05965352
168	0xbd879b36	-0.06621401
169	0x3d96785e	0.07347177
170	0x3da9d74c	0.08293018
171	0xbd7139a0	-0.058892846
172	0xbd1f0023	-0.03881849
173	0x3b95c561	0.0045706485
174	0xbd3f039f	-0.046634313
175	0x3ceb6fde	0.028739866
176	0xbcfc90ea	-0.03083082
177	0x3cf3d055	0.029762426
178	0xbc7bb850	-0.015363768
179	0x3d41e148	0.047333986
180	0xbc8f70ce	-0.017509844
181	0x3d7f0f2b	0.062270325
182	0xbd1b198d	-0.037866164
183	0x3d0fc76b	0.03510229
184	0x3b9abaa1	0.004721955
185	0x3d2ee8bc	0.04270242
186	0x3cd843f9	0.0263996
187	0x3cc0ce7e	0.023535963
188	0xbd43de53	-0.047819447
189	0xbc64f5f3	-0.0139746545
190	0xbc7fd4b0	-0.0156146735
191	0xbd08fb89	-0.033443008
192	0xbd653d04	-0.055966392
193	0x3da7c3e9	0.08191664
194	0xbd76333f	-0.060107466
195	0x3c9a279b	0.018817713
196	0xbc4565f8	-0.012048237
197	0xbc4cdf74	-0.012504447
198	0x3c4c57d8	0.012472115
199	0xbd1ee1ea	-0.038789667
200	0xbd998602	-0.07496263
201	0x3d918697	0.07105749
202	0xbcb3b065	-0.021934697
203	0x3d4c743d	0.04991554
204	0xbccaffc6	-0.024780165
205	0xbd7f2f51	-0.062300984
206	0x3d83765f	0.06419062
207	0x3d82dee6	0.06390171
208	0xbd49d1ac	-0.049272224
209	0xbce9b654	-0.028529324
210	0x3d768f03	0.06019498
211	0xbd5a4d7a	-0.053296544
212	0xbda6f568	-0.08152276
213	0xbbd18ab5	-0.006394709
214	0xbc30cf6b	-0.01079164
215	0x3d802556	0.06257121
216	0xbdb3aa89	-0.087727614
217	0x3c4d1f27	0.012519634
218	0x3d6c8afc	0.057749733
219	0x3994f747	0.00028412996
220	0xbd1f2835	-0.038856704
221	0xbd37139a	-0.044696428
222	0xbd42a93c	-0.047524676
223	0x3d1bbb77	0.038020577
224	0x3d45ea21	0.048318986
225	0x3d866bb3	0.06563511
226	0xbd47e5c2	-0.0488031
227	0x3d213659	0.03935847
228	0x3d8cacaa	0.068688706
229	0x3be8c1bc	0.007103173
230	0x3d36504b	0.044510167
231	0xbb1ce3fe	-0.0023939605
232	0xbdae206a	-0.08502276
233	0xbc5cae49	-0.013469287
234	0x3d864c14	0.065574795
235	0x3d687ff6	0.056762658
236	0x3c54777c	0.01296794
237	0xbd2b7ca2	-0.041866906
238	0x3d4be971	0.049783174
239	0x3d99fb41	0.07518626
240	0xbdb86dd7	-0.09005325
241	0x3cdfc954	0.02731768
242	0xbd88d17a	-0.066805795
243	0x3d10b7d6	0.03533157
244	0xbd1f2be7	-0.038860228
245	0xbd4f3bf5	-0.05059429
246	0x3dc1d762	0.09464909
247	0xbcbab129	-0.022789555
248	0xbd88c45e	-0.06678079
249	0x3c55e916	0.01305606
250	0xbd702576	-0.058629476
251	0x3d6133db	0.054981094
252	0x3da4b399	0.08042068
253	0xbc8537d6	-0.016261976
254	0x3cec0ec7	0.02881564
255	0xbd37972f	-0.044821914

dnets.2.means f4 [63]
0	0x3dc2f9e1	0.09520317
1	0x3fb5ed9e	1.421314
2	0x3fdf50c3	1.7446522
3	0x3ffc8ee2	1.9731104
4	0xbf936a61	-1.1516839
5	0xbfe8b6c6	-1.8180778
6	0x3f6edfb5	0.933101
7	0x3f971fb4	1.180655
8	0xbf9bb1c9	-1.2163631
9	0x3fe84ff2	1.8149397
10	0x3eaf39bc	0.34223735
11	0x3fc73c6f	1.5565318
12	0xc00eda14	-2.2320604
13	0xbf69ff27	-0.91404957
14	0x3fbe01c1	1.4844285
15	0x3faea82a	1.364507
16	0xc0452fd1	-3.0810435
17	0x3bd8220e	0.0065958565
18	0x3e8be955	0.27326456
19	0x400b47aa	2.176249
20	0xc029bd24	-2.6521692
21	0xc0041acb	-2.0641353
22	0xbf63acd9	-0.8893562
23	0xbf708550	-0.9395342
24	0xbf1d1035	-0.61352855
25	0xbec5b141	-0.38611796
26	0x3fc8533a	1.5650399
27	0x3faaa8b3	1.3332733
28	0xbfe23452	-1.7672217
29	0x3df1e5f0	0.11811435
30	0xc007c187	-2.121187
31	0xc00c47ff	-2.1918943
32	0xbedd2859	-0.43194845
33	0x3fa57375	1.292586
34	0x3f029966	0.5101532
35	0xbfffe10c	-1.9990554
36	0x402bb91a	2.6831727
37	0x40047b86	2.0700393
38	0x3fe3b3ef	1.7789286
39	0x3f2dbbcb	0.67864674
40	0x3f328088	0.69727373
41	0x3f82a566	1.0206726
42	0xbfa1db24	-1.2645001
43	0x3f6c1fb7	0.92235893
44	0x3f558cdd	0.83418065
45	0x3f81b33e	1.0132825
46	0x3fba33bc	1.4547038
47	0x3fdb177e	1.7116544
48	0x3f5dd27b	0.8664929
49	0x3c01b4da	0.0079166535
50	0xbfd4a611	-1.661318
51	0xbe1766b2	-0.14785269
52	0xc007229a	-2.111487
53	0xbf82035f	-1.0157279
54	0xbf42bf2e	-0.7607297
55	0x3ff05d80	1.8778534
56	0xc0094a04	-2.1451426
57	0x3f62c86b	0.88587064
58	0xbff54c28	-1.9163866
59	0x4003f2eb	2.0617015
60	0xbf68f94a	-0.91005385
61	0xbf27340b	-0.65313786
62	0xbfd55f6c	-1.6669745

dnets.2.std f4 [63]
0	0x3eec678e	0.46172756
1	0x3fdca7c3	1.7238697
2	0x3f4de6d3	0.80430335
3	0x3e92843c	0.28616512
4	0x3eb5daf0	0.355186
5	0x3fea2a9a	1.8294251
6	0xbcbf2af1	-0.023335906
7	0xbebc7d7e	-0.36814493
8	0x3f0fa84f	0.56116194
9	0x3f4c07e6	0.7969955
10	0xbe1f1618	-0.15535772
11	0x3f403358	0.75078344
12	0x3ff14bd5	1.8851267
13	0x3eeceddf	0.4627523
14	0xbea6d83b	-0.32586846
15	0x3eb1401a	0.34619218
16	0xbf25297b	-0.6451642
17	0x3c8502ce	0.016236689
18	0x4045957b	3.0872486
19	0x3eb48c38	0.35263228
20	0xbd99f273	-0.07516947
21	0x3f81d47d	1.0142971
22	0x3ebbf92e	0.36713547
23	0xbe8afde0	-0.27146816
24	0x400fa516	2.244451
25	0x3ffe333f	1.9859389
26	0x3f1e6269	0.6186891
27	0x3f1ea0af	0.61963934
28	0x3f224397	0.63384384
29	0x3ddd19f8	0.10795969
30	0x3f88859c	1.0665774
31	0x3f8cf0d8	1.1011
32	0x3e40a2dc	0.18812126
33	0xbf0d3071	-0.5515204
34	0x4081b1f4	4.052973
35	0x3f7757c3	0.9661829
36	0x3f87b0d3	1.0600837
37	0x3f96def8	1.1786795
38	0x3f590a3b	0.84781235
39	0x3f05195b	0.51991814
40	0x3e9a992e	0.30194992
41	0xbeae4171	-0.34034303
42	0x3f154e63	0.58322734
43	0x3eaf8900	0.3428421
44	0x3fb19ed9	1.3876601
45	0x3f8d9340	1.1060562
46	0x3f19b689	0.6004415
47	0xbdb7cade	-0.08974241
48	0x3f345a9f	0.70450777
49	0x3c6efd4c	0.014586758
50	0x3f53837b	0.826225
51	0x3e19efad	0.15032835
52	0x3f81c17a	1.0137169
53	0x3ee3e2e6	0.44509047
54	0x3f9f83ae	1.246206
55	0x3f6b8620	0.92001534
56	0x3f02f053	0.51147956
57	0x3fe4ad38	1.7865362
58	0x3f3746ff	0.71592706
59	0x40129627	2.2904146
60	0x3feb9313	1.8404258
61	0x3ff47784	1.9098973
62	0xbf0a530a	-0.5403296

dnets.2.weights_rbf f4 [48, 63]
0	0xba066703	-0.0005127044
1	0x3a4218f7	0.0007404233
2	0x3b6a9de5	0.003579968
3	0x3c83481a	0.016025592
4	0x3c316eef	0.010829671
5	0xba288067	-0.0006427825
6	0x3d177a33	0.036981773
7	0xbd0271b1	-0.031846706
8	0x38f14ddd	0.00011506279
9	0x3b551dba	0.003251894
10	0x3aa702a8	0.001274188
11	0x3b387e05	0.0028151285
12	0xba214f7e	-0.0006153508
13	0x39ff2d01	0.0004867092
14	0x3d768c7e	0.060192578
15	0xbc644bbd	-0.013934073
16	0x3c974aee	0.018468346
17	0xbc4e38df	-0.012586801
18	0x396dec3d	0.00022690087
19	0x3c83a2f8	0.01606892
20	0x3c820821	0.015873017
21	0xb99c1c04	-0.00029775512
22	0x3a589973	0.0008262612
23	0x3cb274ca	0.021784205
24	0xb9dd18b1	-0.000421708
25	0xb9fa7d9d	-0.00047777305
26	0x3b5d8915	0.003380363
27	0x3b2e5fb3	0.0026607334
28	0x3b15e5a6	0.0022872477
29	0xbb30ca2e	-0.0026975977
30	0xb9d0c3dc	-0.00039818778
31	0xb9c2d66d	-0.00037162323
32	0xb950f00f	-0.00019925855
33	0x3b812a69	0.0039418233
34	0x399f7370	0.0003041285
35	0xb95fa38f	-0.00021327868
36	0x3b439b5c	0.002984724
37	0x3b0c41b2	0.0021401462
38	0x3b57b2fd	0.0032913082
39	0x3abcd93d	0.0014408004
40	0xba84bae7	-0.0010126502
41	0xbd184fb3	-0.037185382
42	0x38b38937	8.5609434e-05
43	0x3913343e	0.00014038474
44	0x3a012f88	0.0004928042
45	0x3a4eb560	0.00078853033
46	0x3b68ac8a	0.0035503232
47	0x3c820821	0.015873017
48	0x3a90c45a	0.0011044845
49	0x3c90effb	0.017692557
50	0xb9d7a9cd	-0.00041134507
51	0x3a326d73	0.00068064703
52	0xb92fe9df	-0.00016776424
53	0x39d2a5ee	0.00040177949
54	0xba718462	-0.0009213147
55	0x3b45f68a	0.0030206763
56	0x3d76d797	0.060264196
57	0x39e03e5a	0.00042771065
58	0x3afb55f6	0.0019175399
59	0x3a59dc75	0.0008310744
60	0xba228357	-0.0006199381
61	0xba15d66b	-0.00057158497
62	0x3b4d9887	0.003137143
63	0xba8c09b4	-0.0010684044
64	0xbaace8a3	-0.001319189
65	0x3aaef403	0.0013347868
66	0x3c820821	0.015873017
67	0xbb445fec	-0.00299644
68	0x3ad66548	0.0016357088
69	0x3c820821	0.015873017
70	0x3d09ec49	0.033672605
71	0xbab03def	-0.0013446192
72	0x3b7310c6	0.0037088855
73	0x3cbdc991	0.023167403
74	0xba460d96	-0.0007555125
75	0x3b014ee2	0.0019730856
76	0xbad356a9	-0.0016123849
77	0x3c823f03	0.015899187
78	0x3cfd3c66	0.03091259
79	0x3c82aa38	0.015950307
80	0xbce8d312	-0.028420959
81	0xba4bcbd6	-0.00077742094
82	0x3c820821	0.015873017
83	0x3c820821	0.015873017
84	0x38cc1c11	9.732706e-05
85	0xbc54741f	-0.012967139
86	0x3be6ce7d	0.0070436583
87	0x39c6f26c	0.0003794612
88	0x39894611	0.0002618288
89	0x3bf2ec14	0.0074133966
90	0xbaa281d7	-0.0012398314
91	0xbc368718	-0.011140607
92	0x3d0482ec	0.03235142
93	0x3aae4638	0.0013296073
94	0x3a8b0511	0.0010606368
95	0x3d366523	0.044530045
96	0x3ab0d102	0.0013490024
97	0xba50ac60	-0.0007960256
98	0xba481089	-0.00076318585
99	0x3bddf1c5	0.006773206
100	0xba60ad63	-0.00085707585
101	0x39c79ca4	0.00038072944
102	0xbb47d77c	-0.003049343
103	0xbbb94379	-0.0056537953
104	0x3ce65a69	0.028119283
105	0xbab5a1b7	-0.0013857399
106	0x3bc4153d	0.005983977
107	0xbac534bc	-0.0015045623
108	0xbab4f5f4	-0.001380621
109	0x3ba3b509	0.0049959463
110	0x3c820821	0.015873017
111	0xbb03c818	-0.002010828
112	0x3d009a42	0.03139711
113	0x3aceb335	0.0015769961
114	0xbca2b09a	-0.0198596
115	0xba9ccd89	-0.001196311
116	0xbbdfbb1d	-0.0068277256
117	0x3aaabdfe	0.0013026593
118	0x38895224	6.547969e-05
119	0x3c5d99b1	0.013525412
120	0xbac2b36e	-0.00148545
121	0xbc1ed277	-0.009693733
122	0xba9cc475	-0.0011960404
123	0x3a826858	0.000994931
124	0x3a361687	0.0006946106
125	0xbc44599a	-0.011984253
126	0xbb83cf64	-0.0040225256
127	0x3a488827	0.0007649683
128	0x3b9c1bd3	0.004764059
129	0x3c8207f0	0.015872926
130	0xbd75fd37	-0.060055938
131	0x39918286	0.00027753803
132	0x3c8c299d	0.017109687
133	0x3d24c7ea	0.040229715
134	0xbbe9b449	-0.0071320874
135	0x3c095d8b	0.008384119
136	0x3c959230	0.018258184
137	0x3b1eaf9c	0.0024213558
138	0x3a209b79	0.0006126683
139	0xbbcefeca	-0.0063169943
140	0x3cb55de3	0.022139495
141	0x3d130871	0.035896722
142	0x3c820647	0.015872134
143	0xbcf45c62	-0.029829208
144	0x39f4975e	0.00046652084
145	0x3c820e69	0.015876012
146	0x3c820821	0.015873017
147	0xbb46618b	-0.0030270542
148	0xbd19e7fe	-0.03757476
149	0xbd700148	-0.058594972
150	0x3901d50a	0.00012381762
151	0x382aca49	4.071955e-05
152	0x3c6f7a14	0.014616508
153	0x3b44b976	0.003001777
154	0xbd044581	-0.032292847
155	0x3a9976a0	0.0011708327
156	0xba7a40df	-0.000954641
157	0xbab2d147	-0.0013642692
158	0xbc7979c0	-0.015226781
159	0x3be83e52	0.0070875073
160	0x3a1ab6dd	0.00059018825
161	0xbb95b8ce	-0.0045691496
162	0x3c3eb9a0	0.011640936
163	0x3a79867c	0.0009518636
164	0x3b59a1a5	0.003320792
165	0xbb3f9911	-0.0029235522
166	0x3b9b69ca	0.0047428356
167	0x3d2391a0	0.0399338
168	0xbbe24e29	-0.00690629
169	0x3c887d83	0.016661411
170	0x394aad32	0.00019328741
171	0xb81a363c	-3.676697e-05
172	0x3c3dac24	0.011576686
173	0x3c820821	0.015873017
174	0xbabcaee7	-0.0014395387
175	0x3cee93d4	0.029123224
176	0xbaa09e08	-0.0012254128
177	0xbc8296f1	-0.015941115
178	0xbbad6992	-0.005292126
179	0xbc9a440b	-0.018831274
180	0xba39a4c3	-0.00070817414
181	0x3b2d934b	0.0026485499
182	0x3c809c38	0.01569949
183	0x39f64cf7	0.0004697812
184	0xbcd0451b	-0.025423577
185	0x3a90b524	0.0011040312
186	0xb8e14d28	-0.000107432075
187	0xb85f6a41	-5.32663e-05
188	0xbd36cf2b	-0.044631165
189	0xbb0acc6b	-0.0021178972
190	0x3abc0ccd	0.0014347077
191	0x3c856ec5	0.01628817
192	0x3c820821	0.015873017
193	0xbb074f62	-0.002064668
194	0xbbada77c	-0.0052995067
195	0x3c820821	0.015873017
196	0x3d73f842	0.05956293
197	0xbc7ad06f	-0.0153084835
198	0x3cb740e5	0.022369811
199	0x3d9898d2	0.07451023
200	0x3c3c42e8	0.011490561
201	0xbbac7198	-0.005262565
202	0xbc2a5f30	-0.010398671
203	0x3c818cba	0.015814174
204	0x3c3d62c1	0.011559189
205	0x3c820db4	0.015875675
206	0xbd397510	-0.045277655
207	0xbb14eefa	-0.002272545
208	0x3c820821	0.015873017
209	0x3c820821	0.015873017
210	0xbc54719d	-0.012966541
211	0xbd156657	-0.036474552
212	0x3d168947	0.03675201
213	0xbb5cfcf4	-0.0033720108
214	0xbb5083a4	-0.0031816745
215	0x3d06ae83	0.03288127
216	0x3c54c8af	0.0129873
217	0xbd1524e3	-0.03641213
218	0x3dad61a1	0.08465887
219	0xbc2ca09d	-0.01053634
220	0xbc343329	-0.010998526
221	0x3c8f3a46	0.017483842
222	0x3cac2f50	0.021018654
223	0xbb0df417	-0.0021660381
224	0xbc71e5aa	-0.014764229
225	0x3cdf6b83	0.027272945
226	0x3bbb27b6	0.005711521
227	0x3c537a61	0.012907595
228	0x3be40eca	0.006959771
229	0x3c845491	0.016153606
230	0x3d6c02ec	0.057619974
231	0xbc7f6151	-0.015587167
232	0x3d144d82	0.03620673
233	0x3a196fc4	0.0005853141
234	0x3b3df3f0	0.002898451
235	0x3ce6f126	0.02819116
236	0x3c820821	0.015873017
237	0x3bbcd7ee	0.0057630455
238	0x3d290c3b	0.04127143
239	0xbc19518b	-0.00935782
240	0xbd5cfd2c	-0.05395238
241	0xbc80fe62	-0.0157463
242	0xbcd4af29	-0.02596243
243	0xbbb7932e	-0.005602262
244	0x3c366bfc	0.011134144
245	0x3c85e45c	0.016344242
246	0xb995bf69	-0.00028562106
247	0xbd094a52	-0.033518143
248	0x3a9eaa29	0.0012105155
249	0xbb8f09f8	-0.004365202
250	0xbb7794c0	-0.003777787
251	0xbd111f54	-0.035430267
252	0x3b3bca57	0.002865454
253	0x3af876c0	0.0018956289
254	0x3bd23e89	0.006416146
255	0x3c820821	0.015873017
