models/Gaussian_joint7.pth (torch, 332311 bytes, 32 tensors)

dnets.0.means f4 [63]
000000 01 a3 c9 3d 5c f9 b7 3f 9f a5 e0 3f 75 22 fb 3f
       0.09845544 1.4372973 1.7550544 1.961989
000010 7e d8 93 bf 52 c1 e9 bf 44 3c 70 3f d3 43 97 3f
       -1.1550443 -1.8262122 0.9384196 1.1817573
000020 dc 2d 9c bf 19 a6 ea 3f 53 52 ae 3e c2 6c c8 3f
       -1.2201495 1.8331939 0.34047183 1.565819
000030 b8 4e 0f c0 6f 8e 6a bf 57 f4 bd 3f 24 4c af 3f
       -2.2391796 -0.91623586 1.4840192 1.3695111
000040 d4 17 45 c0 f7 c5 c7 3b 2d 3b 8e 3e f8 fd 0a 40
       -3.0795794 0.0060965973 0.27779523 2.171751
000050 24 bd 29 c0 84 71 04 c0 00 44 64 bf 69 57 6f bf
       -2.6521692 -2.0694284 -0.8916626 -0.9349275
000060 ae b9 22 bf 11 63 d1 be c4 03 cb 3f 13 10 ac 3f
       -0.63564575 -0.40895894 1.5860524 1.3442405
000070 bd ae e3 bf ca a5 cb 3d 5d 10 08 c0 8e 9b 0c c0
       -1.7787701 0.09943731 -2.1259987 -2.1969943
000080 cb ff db be c1 ce a6 3f d1 fb 04 3f 61 4a 00 c0
       -0.42968592 1.3031846 0.5194674 -2.0045397
000090 86 63 2c 40 44 ef 04 40 88 c9 e4 3f 45 37 30 3f
       2.6935744 2.0771036 1.7874002 0.68834335
0000a0 fd 04 35 3f 0b 1f 82 3f 0a 5e a2 bf 86 30 6f 3f
       0.70710737 1.0165724 -1.2684948 0.93433416
0000b0 1a a2 59 3f 7f 23 83 3f 82 ca bc 3f 68 90 dc 3f
       0.8501297 1.0245208 1.47493 1.7231569
0000c0 9b 4a 60 3f 6b a3 08 3c 02 20 d5 bf 20 f8 09 be
       0.8761384 0.008339743 -1.6650393 -0.13473558
0000d0 c2 7f 07 c0 31 8b 82 bf 35 76 45 bf 99 58 f1 3f
       -2.1171727 -1.0198728 -0.77133495 1.8855163
0000e0 a6 20 09 c0 53 dc 68 3f ad 80 f6 bf 28 21 05 40
       -2.1426177 0.9096119 -1.9258019 2.0801487
0000f0 94 d5 6c bf 93 34 2c bf be 49 d8 bf
       -0.92513394 -0.6726772 -1.6897504

dnets.0.std f4 [63]
000000 bc 8b e9 3e b9 ed da 3f 5e 67 4b 3f 83 f8 98 3e
       0.4561442 1.7103797 0.794546 0.298771
000010 14 9d b5 3e a9 0e e9 3f 58 cc e3 bc 97 3c bf be
       0.35471404 1.8207599 -0.0278074 -0.37350914
000020 35 d2 0e 3f b2 d2 47 3f 19 07 1e be c6 f4 3d 3f
       0.557895 0.7805587 -0.15432395 0.7420162
000030 de 52 f0 3f cc e0 eb 3e e2 13 a8 be 3e 76 b1 3e
       1.8775289 0.46069944 -0.3282767 0.34660524
000040 cb eb 25 bf 5a f4 a0 3c a0 74 45 40 81 59 b8 3e
       -0.64812917 0.019647766 3.0852432 0.36005786
000050 73 f2 99 bd 0e 2a 81 3f 52 a1 ba 3e 24 06 8c be
       -0.07516947 1.0090959 0.36451203 -0.27348435
000060 6a 7a 0e 40 d1 db fb 3f 63 d6 18 3f d0 d3 1b 3f
       2.2262216 1.9676458 0.5970213 0.60870075
000070 c9 e0 1f 3f 7a 2d c1 3d 97 e7 87 3f 3e 4a 8c 3f
       0.6245237 0.09432502 1.0617551 1.0960157
000080 fa 75 45 3e f4 18 0a bf b1 8f 81 40 07 fb 75 3f
       0.19283286 -0.53944325 4.0487905 0.9608616
000090 a9 e8 85 3f cc f2 95 3f 44 f9 56 3f 52 19 03 3f
       1.0461627 1.1714721 0.839741 0.5121051
0000a0 06 17 92 3e 59 a7 b0 be 93 69 14 3f 66 59 a9 3e
       0.2853319 -0.34502676 0.57973593 0.33076018
0000b0 dc 2f b0 3f dc 86 8c 3f 7c 9d 14 3f 57 99 9d bd
       1.3764606 1.0978656 0.580528 -0.07695263
0000c0 17 5e 32 3f 5f 0b 98 3c 8a 92 52 3f f2 9f 15 3e
       0.6967482 0.01856011 0.8225485 0.14611796
0000d0 db 0c 81 3f d5 2c e2 3e a4 56 9e 3f 5e a0 69 3f
       1.0082048 0.4417483 1.2370191 0.91260326
0000e0 aa bf 03 3f 86 78 e2 3f 06 41 35 3f 86 81 11 40
       0.5146433 1.7693031 0.7080234 2.2735305
0000f0 9a da e9 3f 4d 5a f2 3f 4d 9f 05 bf
       1.8269837 1.8933808 -0.521962

dnets.0.weights_rbf f4 [48, 63]
000000 f9 87 ee bb c7 a2 de bb 47 ec f4 bb 21 08 82 3c
       -0.007279393 -0.006794307 -0.0074744555 0.015873017
000010 15 42 fb 3c cc ac 14 3c 21 08 82 3c 95 7f ed bc
       0.030671159 0.009074401 0.015873017 -0.0289915
000020 15 f2 9d 3c cc ad f4 bb 35 9f d3 bc 8f 1b fa bb
       0.019280473 -0.0074670073 -0.025832752 -0.00763268
000030 a4 97 1e 3c 3d b8 a3 3c e8 58 80 3c 53 10 ee bb
       0.009679709 0.019985313 0.015667394 -0.0072651296
000040 59 a0 81 3c c7 6b ca 3a 24 df cd b9 21 08 82 3c
       0.01582353 0.0015443497 -0.000392669 0.015873017
000050 21 08 82 3c 15 d3 5b 3c 8b 2f c7 3c b0 b7 38 3d
       0.015873017 0.013417025 0.024314662 0.045097053
000060 65 bc 89 3b 17 a4 6c 3b 3d b4 1a bc 15 84 0a bc
       0.0042033666 0.0036108547 -0.009442386 -0.008454342
000070 13 e5 6f 3c ca ab 14 3c fa 2a 5c 3c 92 e4 57 3c
       0.014642018 0.009074161 0.013437981 0.013177054
000080 46 a7 12 3d ce 92 1f bc 4c 50 de b9 35 2d 5d 3c
       0.035804056 -0.009739591 -0.00042402965 0.013499548
000090 e9 61 e2 bb 40 09 e5 bb 11 4a f0 bb 27 6f dc bb
       -0.0069086445 -0.006989628 -0.007333048 -0.0067271176
0000a0 c1 54 7c bc b0 d7 ef bc db 70 99 3c de f5 91 bc
       -0.015401066 -0.029277653 0.018730571 -0.017817434
0000b0 76 a1 db bb f1 4d f2 bb 03 e6 16 bc 21 08 82 3c
       -0.0067025973 -0.0073945452 -0.0092101125 0.015873017
0000c0 8c dd e6 bb 5b 70 d0 b9 65 2b 79 3c cc 4f 19 bc
       -0.0070454534 -0.00039756563 0.0152081 -0.009357404
0000d0 36 05 56 3c 87 2f b5 3c 94 28 06 3c fb 52 ea bb
       0.013062766 0.02211739 0.0081883855 -0.0071510053
0000e0 e4 b8 25 3c 50 0c b5 bb 82 c6 63 3c 11 c0 cd bb
       0.010114882 -0.0055251494 0.013902308 -0.0062789996
0000f0 3e 15 d6 3b b3 a5 ab 3b 7b 86 5e 3c 23 28 51 bb
       0.006533294 0.0052382587 0.013581867 -0.0031914792
000100 42 55 a2 bb 1a 1b 17 bc a9 53 80 3c 7a 51 d5 bc
       -0.004954011 -0.00922277 0.015664892 -0.026039828
000110 f4 b8 b4 3b fd dc 8e 3b c0 5e b1 bc be ca 68 3c
       0.005515212 0.00435984 -0.021651626 0.014208494
000120 32 1b 2c bc 89 e6 da bc 05 9c 10 bc 82 24 cc 3b
       -0.010504531 -0.026721256 -0.00882626 0.006229938
000130 89 f8 47 3c 60 9e cd 3c 98 5d d6 bc 45 4d 88 3c
       0.0122052515 0.025099933 -0.026167676 0.016638407
000140 a4 2d d8 3a 51 96 c5 ba 84 95 80 3c 21 08 82 3c
       0.0016493094 -0.0015074705 0.015696295 0.015873017
000150 8a 03 3d 3c 80 98 13 3b ea cc cb bc b6 d4 18 3b
       0.011536488 0.0022521317 -0.024877984 0.0023320145
000160 4e 40 00 3b e6 69 60 bc 0f 3d 27 bc 72 4f 31 3c
       0.0019569579 -0.013697123 -0.010207429 0.010822164
000170 2d 5a ee 3c 5a 72 37 3c 7b a1 34 3c 27 39 54 3d
       0.029095734 0.011196697 0.011024828 0.051812317
000180 3b 18 49 bc c8 de d0 ba fa 5e 42 3c 27 37 2f bc
       -0.012273843 -0.0015935535 0.0118634645 -0.010694302
000190 e7 64 d7 bb d8 2e 0a bc ff 12 af bb 50 ca 75 bc
       -0.006573308 -0.00843402 -0.0053428407 -0.015001848
0001a0 52 9b cd bc 80 6f 69 3c 99 2d 7c bc 01 0a 92 bb
       -0.025098477 0.014247775 -0.015391731 -0.004456759
0001b0 fb 4c b7 bb 45 b0 55 bc 21 08 82 3c 68 80 c2 bb
       -0.0055938936 -0.013042514 0.015873017 -0.0059357174
0001c0 96 96 8c 3b d7 2b 4f 3c 8d 57 81 bc 11 48 3e 3c
       0.004290412 0.01264473 -0.015788818 0.011613862
0001d0 d1 d3 38 3c fa 69 94 3b 25 7d 00 bc 6c f6 13 3d
       0.01128097 0.004529235 -0.007842337 0.036123678
0001e0 c6 d9 78 bb f5 9c 5f 3c eb e0 98 bb a9 7d 61 3b
       -0.00379716 0.013648261 -0.004665484 0.0034407175
0001f0 dc 9d 3a 3b e6 b5 c6 ba 78 1b 11 ba c7 eb d5 3a
       0.002847544 -0.0015160411 -0.0005535404 0.0016320877
000200 f4 fb c5 3b 21 08 82 3c 87 cb 2f bc 00 01 3c ba
       0.006041998 0.015873017 -0.010729677 -0.000717178
000210 21 08 82 3c ba 7f f5 3c 5e 72 69 bb 53 ec e6 3b
       0.015873017 0.029968131 -0.0035621147 0.007047215
000220 c6 6c 18 3c f6 1a b0 3b 69 23 3a ba e6 fe 28 bb
       0.009303277 0.0053743077 -0.00071006134 -0.0025786697
000230 f6 46 8b 3c c0 bc e9 3c 69 34 82 3c b8 99 45 b8
       0.01700161 0.028532386 0.015894132 -4.7111622e-05
000240 46 e9 09 b9 23 08 82 3c 21 08 82 3c 15 1e 4b bb
       -0.00013152239 0.01587302 0.015873017 -0.0030993272
000250 d1 77 01 bc 63 e5 40 bc c9 f1 29 ba ea 5b 34 ba
       -0.007902102 -0.01177344 -0.0006482867 -0.00068801513
000260 fd 02 1b 3c 6c 63 bf 3b 5c 59 d4 bb ff 84 b2 3b
       0.009461162 0.0058407094 -0.006480379 0.0054479833
000270 97 e2 28 bb 06 13 2e bb e4 db 40 bc a3 3b ed 3b
       -0.0025769824 -0.0026561632 -0.011771176 0.0072397753
000280 1a 0b 72 b8 7c 75 61 bb 39 97 f7 3b 2c 29 6f 3b
       -5.7707635e-05 -0.0034402302 0.007555869 0.0036493046
000290 b5 c9 b1 3b c4 ca 71 3b 5b a0 e2 3b f0 b7 f4 3c
       0.0054256567 0.003689454 0.0069160885 0.029872864
0002a0 d0 80 6f bb b3 36 37 3c e1 7d af 3a a4 1a ff 3a
       -0.0036545284 0.011182475 0.0013388955 0.0019462896
0002b0 20 7e 0a 3c 21 08 82 3c 54 8e 47 3b 15 b8 c6 38
       0.008452922 0.015873017 0.0030449824 9.475664e-05
0002c0 b7 1a 21 bb c8 65 04 bc 32 5c 68 bb 11 68 c7 bb
       -0.0024582574 -0.008080907 -0.0035455343 -0.0060854037
0002d0 b6 0f 72 ba 00 33 a2 3b be c1 92 3c 56 df 9a 3a
       -0.00092339085 0.0049499273 0.01791465 0.0011815827
0002e0 0b f9 c6 bb 4f b0 da 3a 5d 23 12 ba 27 d3 21 ba
       -0.0060721687 0.0016684624 -0.00055747275 -0.0006173127
0002f0 f0 96 f0 bb 22 fa eb 3b 77 1b 04 bb e4 1a 5c bb
       -0.007342212 0.007201449 -0.0020157972 -0.0033585364
000300 26 08 82 3c 5a 82 06 3d 15 ba 97 3a d8 e4 7b 3c
       0.015873026 0.032839157 0.0011575843 0.015374385
000310 1c 1b b4 bc 2d 3d 7c 3b 23 0c 80 ba 45 41 0a 3c
       -0.021985583 0.0038488612 -0.0009769242 0.008438413
000320 a1 0e 92 bb f2 23 ae 3a 2d 80 5a 3b 90 bd 8b 3c
       -0.0044573103 0.0013285859 0.003334056 0.017058164
000330 46 f7 bf bb 2c d1 42 3c 3c 77 c6 3b 93 0d d2 ba
       -0.0058583347 0.011890691 0.0060566943 -0.0016025774
000340 68 08 82 3c 21 08 82 3c 5f 60 ab 38 10 e0 c8 3b
       0.015873149 0.015873017 8.171866e-05 0.006130226
000350 7e 4d 45 3d 03 a3 d0 38 66 55 e1 38 b2 53 f0 b9
       0.048169605 9.948576e-05 0.00010744743 -0.00045838725
000360 58 f5 b1 bb db 12 9b ba de 88 a0 3c 06 e7 88 3a
       -0.0054308586 -0.0011831181 0.019596513 0.0010444827
000370 ee 6e 34 3a 74 9d 61 3c bb 3c c0 bb c8 18 ec ba
       0.0006882985 0.01377045 -0.0058666146 -0.0018012756
000380 f1 66 00 ba db e1 b4 3a 5c 62 43 bb 06 d4 7a bb
       -0.0004898152 0.001380022 -0.0029813265 -0.0038273348
000390 04 0e f9 3a 47 66 fc bb 2e 09 a6 bc 11 b1 5f 3b
       0.0019001369 -0.007702622 -0.02026805 0.003413264
0003a0 10 8c 15 bc 7a 0d b9 ba d1 76 9d ba 06 08 f7 ba
       -0.009127632 -0.0014118396 -0.001201356 -0.0018846996
0003b0 21 08 82 3c e3 a9 38 39 12 a7 49 bb f2 17 0d 3b
       0.015873017 0.00017610895 -0.0030769748 0.0021529165
0003c0 8a 1d 9c bc aa 59 8f ba be 4a 8f 3b b3 f8 c7 3a
       -0.019057054 -0.0010936756 0.0043729236 0.0015256613
0003d0 39 84 6e bb 2a 2f bb bc 26 19 e8 ba 46 a9 54 bb
       -0.0036394729 -0.022849638 -0.001770769 -0.0032449528
0003e0 2d 22 16 bb d7 db 7a 3a e0 b1 2e 3a ea bd c6 3b
       -0.0022908554 0.0009569502 0.00066640787 0.00606512
0003f0 0e 2d 17 3c 93 90 15 3c f8 f9 ab 3c 21 08 82 3c
       0.0092270505 0.009128707 0.020993218 0.015873017

dnets.0.conv.weight f4 [48, 3, 7, 7]
000000 b9 8f d5 bc 5c 71 80 3d 17 0d 9f bd 64 82 c1 3a
       -0.026069509 0.062716216 -0.077661686 0.0014763591
000010 79 c1 d3 bb 5c 5a f9 b9 bf b9 03 bd 1b f1 45 3d
       -0.0064622727 -0.00047560304 -0.032159563 0.04832564
000020 94 0c a6 bd a1 93 59 3c dd c0 b8 bd 49 d7 91 3d
       -0.08107868 0.013279826 -0.09021161 0.071211405
000030 f9 6c 99 3d 90 58 ac 3b d5 2d 1e 3d 62 58 3e 3b
       0.07491488 0.005259581 0.038617928 0.002904438
000040 6c 40 ef bc ca cd ee bd 6a a9 17 bb a5 78 a4 bc
       -0.029205523 -0.11660345 -0.002314175 -0.020077059
000050 b9 b4 5d 3d 57 9d 39 3d 2c cf 24 bd 42 60 18 bc
       0.05412743 0.045316067 -0.040236637 -0.009300293
000060 03 d6 aa 3c 05 5a 1d 3d d3 7c 85 3d 1c 3b 9d bd
       0.020854002 0.038415927 0.06517949 -0.0767729
000070 ac 02 1a bd 00 25 40 3d 3a ae 84 bc 5d c5 68 3d
       -0.037600204 0.046910286 -0.016196359 0.056828845
000080 db 65 0b bd d9 e8 a2 3d 56 05 f1 3c 5c 49 f3 3b
       -0.034032684 0.079545684 0.02942149 0.0074245166
000090 c6 5a 4f 3d 14 43 cc 3b cf 3e 8e 3d 36 45 72 3d
       0.050623678 0.0062335823 0.069455735 0.059148036
0000a0 6e 67 d8 bd 0c a7 8d 3d 98 6e c3 3b 33 60 41 bd
       -0.10566603 0.06916627 0.0059641115 -0.047210883
0000b0 cf 80 86 bd 25 bd 3c bd 4f 02 78 bd 51 ec 5d bd
       -0.06567537 -0.04607882 -0.060549077 -0.054180447
0000c0 ee 46 4f 3d 37 5e fa ba ab 1e f8 3a d6 2f a1 bc
       0.050604753 -0.0019101565 0.0018930038 -0.01967613
0000d0 58 77 d0 3d 7b fe 7c 3d 68 85 e3 3c e0 f7 cf bc
       0.10179013 0.06176613 0.027773574 -0.02538675
0000e0 d8 f4 a3 3d ce f2 0d bd 11 47 08 bd 89 99 c0 bd
       0.080056846 -0.034655385 -0.0332709 -0.094042845
0000f0 ec 0e f9 bc 9e fc 86 3d 68 40 87 bd 58 be 64 3d
       -0.030402623 0.06591152 -0.066040814 0.05584559
000100 3b 74 f3 bc 0d a3 d0 3d 30 1f 01 bd 1a 3f bc 3d
       -0.029718509 0.101873495 -0.031523883 0.09191723
000110 19 38 7d bd 5c a4 f2 bc ea 2c 52 3d 5e e5 3e 3d
       -0.061821077 -0.029619388 0.051312365 0.04660546
000120 69 30 03 bc a5 f2 71 3d 00 9f 39 bd ec 6e 69 bd
       -0.008007147 0.059069294 -0.04531765 -0.05699055
000130 ba 22 a0 bd 41 e1 58 bd 8c ab 0c bc d5 7a 35 bd
       -0.078191236 -0.052949194 -0.008585822 -0.044306595
000140 2f a2 d8 bc 67 26 8a 3c 4c 2a 2c bd e3 7c 21 3c
       -0.026444523 0.016864015 -0.042032525 0.0098564355
000150 27 e5 a1 bc ad 51 f2 3c 33 26 e3 3c 6f 11 84 bd
       -0.019762589 0.029579962 0.027728176 -0.06448638
000160 3c 69 df 3c e7 15 b4 bd 32 f0 46 3d 7f 68 a4 3c
       0.02727186 -0.0879324 0.04856891 0.020069359
000170 0c cb 2c bd df c4 82 3d fa 5a de 3c 49 88 08 bd
       -0.042185828 0.063852064 0.02714299 -0.033333097
000180 4c 27 65 3d 23 16 c1 bb 54 d0 12 bd 84 e2 37 bc
       0.05594568 -0.0058925315 -0.03584321 -0.011223439
000190 4f 86 74 bc 2c 43 cb ba 46 78 8a bd cd 82 19 3d
       -0.0149246 -0.001550769 -0.067612216 0.037478257
0001a0 b6 57 11 3d e3 a0 68 bd e6 b6 21 3d f2 0e aa 3d
       0.03548404 -0.05679406 0.039481066 0.08303632
0001b0 cc 70 ab bd 3e bb a7 ba c3 b8 93 3d 11 6f 29 bd
       -0.08371124 -0.0012796891 0.07212975 -0.041365687
0001c0 4f 9e 76 bc 67 a9 1f bc 11 5f 6c 3d e4 be b3 bd
       -0.015052392 -0.0097449785 0.05770785 -0.08776644
0001d0 a0 c9 9a 3d f1 11 ba bd f1 b3 6c 3d 4a 9a a0 bd
       0.07557988 -0.09085453 0.057788793 -0.07841928
0001e0 ec 72 47 bc ab 49 89 bb fd 4c a2 3d 9c 32 38 bd
       -0.012173396 -0.00418969 0.079248406 -0.04497014
0001f0 44 34 ce 3d f7 fd bd bd 4d 62 f0 bc 90 3a 04 bc
       0.100685626 -0.092769556 -0.029343748 -0.008070603
000200 1e bf 8a 3c 24 9a c2 3d 8b 95 c9 bc 5d dc cf 3c
       0.016936835 0.09502056 -0.02460744 0.025373632
000210 9c 50 8b 3b eb 7a e2 bc 05 ef 46 3c fc a9 a6 bd
       0.0042515527 -0.027646502 0.012141948 -0.08137891
000220 95 3e 99 3d 03 1c 59 bd 48 82 99 bd a1 be 2e 3d
       0.0748264 -0.05300523 -0.07495552 0.042662267
000230 c0 9b 2c 3d a3 92 4a bc 5a 58 5d 3d 6e 00 fe 3c
       0.042140722 -0.0123640625 0.054039337 0.031006064
000240 3c 79 e4 bb fd ff 11 bd b8 e0 7f 3d 13 da 6d 3c
       -0.00697246 -0.03564452 0.062470168 0.014517325
000250 36 79 04 3d 0a 73 36 3d f0 a9 34 3c fb 87 31 bd
       0.03234216 0.044543304 0.011026844 -0.04334257
000260 3a ad 8e bc c5 88 eb 3b 98 2c 03 bd a2 24 ad bd
       -0.017416585 0.007187935 -0.03202495 -0.08454253
000270 28 7e 83 3b 61 ad b3 bd aa 76 24 bd 0d 66 28 3d
       0.0040128417 -0.08773304 -0.04015223 0.04111295
000280 a2 35 f5 bb aa 56 71 3d 82 63 b9 3d d1 42 cf 3c
       -0.0074832 0.05892054 0.09052183 0.025300415
000290 b1 1b 28 be d5 4a a9 3c a5 4d b1 3c 86 f6 a2 3c
       -0.16416813 0.020665566 0.02164347 0.019892942
0002a0 92 ea c6 bc d2 46 8f bd 6d 57 fd bd e5 5b 2c bb
       -0.024281774 -0.0699593 -0.12370191 -0.002629989
0002b0 cb 67 45 3e a3 2a 16 3d a1 6a c7 bc 9a 86 3a bd
       0.19277875 0.036661755 -0.024342837 -0.045538522
0002c0 72 85 44 bd 29 ca 94 3c aa bc 3a 3d dd 00 2b ba
       -0.047978826 0.018162804 0.04559008 -0.0006523261
0002d0 b1 c6 1f 3c 02 8a f6 b9 68 d4 11 bd c3 fe b9 bc
       0.009751962 -0.000470236 -0.035602957 -0.022704488
0002e0 f4 01 ae 3d 0d a4 91 3d 0f d6 c4 bc 3a 3c 77 3b
       0.08496466 0.07111368 -0.024027852 0.0037725107
0002f0 e8 dd 40 bb f0 64 f0 3c a1 f1 ab 3b 2b b7 5a bc
       -0.0029429141 0.029345006 0.0052473103 -0.013349335
000300 8d 4b 4d 3c d0 25 4a 3b a4 15 8b bb 62 02 f1 ba
       0.01253022 0.0030845292 -0.004244523 -0.0018387551
000310 4f b4 8d bc b8 3c 8e 3c 1a 8d 45 3d be 3b 06 3d
       -0.017297892 0.017362937 0.048230268 0.03277182
000320 24 b4 65 bd 47 08 41 bd e9 24 c7 3c be f8 2a 3d
       -0.05608 -0.047127035 0.024309592 0.041741125
000330 90 80 a0 bd 9d f3 0b 3d 3f 7c 85 bd 3f a6 9a bd
       -0.07837021 0.034167875 -0.06517839 -0.0755124
000340 c8 da d3 3c 90 2c 5c 3c f7 86 63 3d 06 ff c5 3d
       0.025861159 0.013438359 0.055548634 0.096677825
000350 00 9c 98 3c bd f5 1c be 98 d6 0c bd a0 72 77 3b
       0.018629074 -0.15328117 -0.03438434 0.003775753
000360 bd 3d 06 3d 61 64 e4 3c 39 c6 58 bd 13 0a df bd
       0.032773722 0.027879896 -0.052923415 -0.108905934
000370 3f a7 8b 3c 7d 7b 47 3e 01 54 0a 3d 55 6d 82 3c
       0.017047523 0.19480701 0.03377152 0.015921274
000380 1f e2 03 bd ce c5 ec 3b 60 e8 cf bb 35 df e1 3c
       -0.032198068 0.0072257286 -0.00634484 0.027572254
000390 04 0e 97 3c 80 4f 34 bd 12 30 9b 3c 0d 6c 8f 3c
       0.0184393 -0.04402113 0.01894382 0.017507577
0003a0 49 40 8c 3b aa fb 8e 3d 97 9b 5f 3d c5 5a fe bc
       0.0042801243 0.06981595 0.05459174 -0.031049142
0003b0 f9 08 4b bd 97 68 31 bd 88 0a ec bc e2 59 2a 3d
       -0.049569104 -0.043312635 -0.028813615 0.041589625
0003c0 d4 f1 81 bb 26 99 01 bd 2b 1e 2b bb 1d 17 8b 3c
       -0.0039655957 -0.031640194 -0.002611051 0.016978795
0003d0 5e ba 41 bd b0 1e 92 3a 78 52 08 3d 64 dc 27 3d
       -0.047296874 0.0011148062 0.033281773 0.040981665
0003e0 c0 bf 8d 3d c6 fd de bc 07 45 4c bc 1b 76 ac bc
       0.06921339 -0.027220618 -0.012467629 -0.02105241
0003f0 73 57 85 3c f9 4c 81 bd 54 1e 43 3c ba 18 a8 bc
       0.01627705 -0.063135095 0.011909086 -0.020519603

dnets.1.means f4 [63]
000000 01 a3 c9 3d 5c f9 b7 3f 9f a5 e0 3f 75 22 fb 3f
       0.09845544 1.4372973 1.7550544 1.961989
000010 7e d8 93 bf 52 c1 e9 bf 44 3c 70 3f d3 43 97 3f
       -1.1550443 -1.8262122 0.9384196 1.1817573
000020 dc 2d 9c bf 19 a6 ea 3f 53 52 ae 3e c2 6c c8 3f
       -1.2201495 1.8331939 0.34047183 1.565819
000030 b8 4e 0f c0 6f 8e 6a bf 57 f4 bd 3f 24 4c af 3f
       -2.2391796 -0.91623586 1.4840192 1.3695111
000040 d4 17 45 c0 f7 c5 c7 3b 2d 3b 8e 3e f8 fd 0a 40
       -3.0795794 0.0060965973 0.27779523 2.171751
000050 24 bd 29 c0 84 71 04 c0 00 44 64 bf 69 57 6f bf
       -2.6521692 -2.0694284 -0.8916626 -0.9349275
000060 ae b9 22 bf 11 63 d1 be c4 03 cb 3f 13 10 ac 3f
       -0.63564575 -0.40895894 1.5860524 1.3442405
000070 bd ae e3 bf ca a5 cb 3d 5d 10 08 c0 8e 9b 0c c0
       -1.7787701 0.09943731 -2.1259987 -2.1969943
000080 cb ff db be c1 ce a6 3f d1 fb 04 3f 61 4a 00 c0
       -0.42968592 1.3031846 0.5194674 -2.0045397
000090 86 63 2c 40 44 ef 04 40 88 c9 e4 3f 45 37 30 3f
       2.6935744 2.0771036 1.7874002 0.68834335
0000a0 fd 04 35 3f 0b 1f 82 3f 0a 5e a2 bf 86 30 6f 3f
       0.70710737 1.0165724 -1.2684948 0.93433416
0000b0 1a a2 59 3f 7f 23 83 3f 82 ca bc 3f 68 90 dc 3f
       0.8501297 1.0245208 1.47493 1.7231569
0000c0 9b 4a 60 3f 6b a3 08 3c 02 20 d5 bf 20 f8 09 be
       0.8761384 0.008339743 -1.6650393 -0.13473558
0000d0 c2 7f 07 c0 31 8b 82 bf 35 76 45 bf 99 58 f1 3f
       -2.1171727 -1.0198728 -0.77133495 1.8855163
0000e0 a6 20 09 c0 53 dc 68 3f ad 80 f6 bf 28 21 05 40
       -2.1426177 0.9096119 -1.9258019 2.0801487
0000f0 94 d5 6c bf 93 34 2c bf be 49 d8 bf
       -0.92513394 -0.6726772 -1.6897504

dnets.1.std f4 [63]
000000 bc 8b e9 3e b9 ed da 3f 5e 67 4b 3f 83 f8 98 3e
       0.4561442 1.7103797 0.794546 0.298771
000010 14 9d b5 3e a9 0e e9 3f 58 cc e3 bc 97 3c bf be
       0.35471404 1.8207599 -0.0278074 -0.37350914
000020 35 d2 0e 3f b2 d2 47 3f 19 07 1e be c6 f4 3d 3f
       0.557895 0.7805587 -0.15432395 0.7420162
000030 de 52 f0 3f cc e0 eb 3e e2 13 a8 be 3e 76 b1 3e
       1.8775289 0.46069944 -0.3282767 0.34660524
000040 cb eb 25 bf 5a f4 a0 3c a0 74 45 40 81 59 b8 3e
       -0.64812917 0.019647766 3.0852432 0.36005786
000050 73 f2 99 bd 0e 2a 81 3f 52 a1 ba 3e 24 06 8c be
       -0.07516947 1.0090959 0.36451203 -0.27348435
000060 6a 7a 0e 40 d1 db fb 3f 63 d6 18 3f d0 d3 1b 3f
       2.2262216 1.9676458 0.5970213 0.60870075
000070 c9 e0 1f 3f 7a 2d c1 3d 97 e7 87 3f 3e 4a 8c 3f
       0.6245237 0.09432502 1.0617551 1.0960157
000080 fa 75 45 3e f4 18 0a bf b1 8f 81 40 07 fb 75 3f
       0.19283286 -0.53944325 4.0487905 0.9608616
000090 a9 e8 85 3f cc f2 95 3f 44 f9 56 3f 52 19 03 3f
       1.0461627 1.1714721 0.839741 0.5121051
0000a0 06 17 92 3e 59 a7 b0 be 93 69 14 3f 66 59 a9 3e
       0.2853319 -0.34502676 0.57973593 0.33076018
0000b0 dc 2f b0 3f dc 86 8c 3f 7c 9d 14 3f 57 99 9d bd
       1.3764606 1.0978656 0.580528 -0.07695263
0000c0 17 5e 32 3f 5f 0b 98 3c 8a 92 52 3f f2 9f 15 3e
       0.6967482 0.01856011 0.8225485 0.14611796
0000d0 db 0c 81 3f d5 2c e2 3e a4 56 9e 3f 5e a0 69 3f
       1.0082048 0.4417483 1.2370191 0.91260326
0000e0 aa bf 03 3f 86 78 e2 3f 06 41 35 3f 86 81 11 40
       0.5146433 1.7693031 0.7080234 2.2735305
0000f0 9a da e9 3f 4d 5a f2 3f 4d 9f 05 bf
       1.8269837 1.8933808 -0.521962

dnets.1.weights_rbf f4 [48, 63]
000000 d7 f1 c1 b9 ad 31 eb ba 0f 76 a1 bb 42 99 81 3c
       -0.00036992013 -0.0017943882 -0.0049274038 0.01582015
000010 5d 2d be 3c 55 7b aa 3a 62 70 7d 3c fd db f7 39
       0.02321499 0.0013006727 0.015468689 0.00047275415
000020 f6 f2 1a 3c 71 6e 99 bb 98 a8 6a bc e0 a0 a9 bb
       0.00945734 -0.004682355 -0.014322422 -0.0051766485
000030 f9 96 da 3a 18 9f 04 3c 2d 92 7f 3c a4 18 1b 3c
       0.0016677073 0.0080945715 0.015598816 0.009466324
000040 01 09 82 3c 4f 7d 9a bb a3 f1 0d ba bc 05 80 3c
       0.015873434 -0.004714645 -0.000541473 0.015627734
000050 21 08 82 3c e0 21 ab 3b 66 c1 8b 3c 21 42 cf 3c
       0.015873017 0.005222544 0.017059993 0.025300087
000060 17 07 05 b8 ef 2f e5 b8 77 52 a3 bb 12 4f c5 bb
       -3.1716274e-05 -0.00010928499 -0.004984196 -0.006021389
000070 c4 01 4b 3c 97 93 69 ba dd 26 a9 3b 7c 24 a4 3b
       0.012390558 -0.0008910237 0.0051621036 0.005009232
000080 10 a5 b3 3c 15 dc d4 bb e5 71 11 ba 61 bf b2 3b
       0.021929294 -0.0064959624 -0.00055482826 0.005454943
000090 ce 6c 62 bb 5c 4d 5a bb 10 98 9a bb 03 31 b5 bb
       -0.0034549716 -0.003331027 -0.0047178343 -0.0055295243
0000a0 4f 8c ed bb 58 30 38 b9 7f 54 16 3c 9f b8 a8 bb
       -0.007249392 -0.00017565617 0.009175419 -0.0051489617
0000b0 66 85 e1 ba 7b d0 29 bb 7f fa b5 bb 21 08 82 3c
       -0.0017205894 -0.0025911618 -0.005553543 0.015873017
0000c0 c9 73 8c bb 74 c0 14 3c 73 f2 c8 3b a7 11 ae 3b
       -0.0042862636 0.0090790875 0.006132418 0.005312163
0000d0 db c7 aa 3b c4 a8 53 3c 77 a9 76 3a b2 a7 8e bb
       0.005211813 0.012918655 0.00094094075 -0.004353487
0000e0 af a9 83 3c c5 7d ab ba 86 96 25 3c 12 6f c8 ba
       0.016072122 -0.0013083747 0.010106688 -0.0015291891
0000f0 26 19 e0 39 d5 16 20 39 a7 fb 81 3c 37 26 3c 3b
       0.00042743346 0.00015267295 0.015867068 0.0028709301
000100 e1 6a 18 3b 8a 19 ec 3b 21 08 82 3c 22 21 cf bc
       0.0023257064 0.007205193 0.015873017 -0.025284354
000110 65 9a 5a bb 21 08 82 3c d4 c0 9a 3c 69 a4 f4 bb
       -0.0033356186 0.015873017 0.018890776 -0.0074658883
000120 16 95 e1 3b b3 99 5c 3c 77 b9 ee 3b b0 e9 5d bb
       0.0068842275 0.013464379 0.0072852927 -0.0033861212
000130 a7 3c dd bb e2 f8 83 3c 25 d6 8e 3c 1c 76 4e 3c
       -0.006751615 0.016109888 0.017436096 0.012601402
000140 f9 c0 0f 3b ab dc 0d ba 21 08 82 3c 21 08 82 3c
       0.002193509 -0.0005411605 0.015873017 0.015873017
000150 9b ae b8 bb ae 6a 7b bc 85 3c d5 bc b7 fe da ba
       -0.005636049 -0.015345259 -0.026029835 -0.0016707991
000160 b7 72 be ba e8 11 05 3c 30 6f 05 3c 4c 1d 7e bc
       -0.0014530037 0.008121945 0.008144185 -0.015509915
000170 7f 86 52 3a ae 5d a6 bb 8c 1c a8 bb 11 0b c5 bc
       0.0008030906 -0.0050770855 -0.005130356 -0.024053128
000180 fe bd 14 3c f6 73 0f ba e8 9c c6 bb 8b f7 bf 3b
       0.009078501 -0.00054722966 -0.006061185 0.005858367
000190 0a ec ac 3b 4c 6d e3 3b 17 a1 b6 3b dc 14 40 3c
       0.0052771615 0.0069405194 0.0055734026 0.011723723
0001a0 a2 b1 a2 3c 0d d7 f2 bb 75 6e 53 3c 87 2f 0a 3b
       0.019860093 -0.00741089 0.012904753 0.0021085457
0001b0 7a 18 56 3b 05 92 06 3c 21 08 82 3c 52 3a 9e 3b
       0.0032668398 0.008213525 0.015873017 0.0048287297
0001c0 cb b5 1d 3a 88 c7 ae bb 83 fa 25 bb 1b 2b ca bb
       0.0006016164 -0.0053338446 -0.0025326319 -0.0061696894
0001d0 d8 62 30 bc 1a 2f 4d bb 96 9a d7 3b 12 a7 bd bb
       -0.010765754 -0.0031308592 0.0065797074 -0.0057877386
0001e0 33 d3 b4 3a 11 b8 58 bc ae d7 05 3b b3 aa 20 bb
       0.0013795852 -0.013227479 0.0020422745 -0.0024515807
0001f0 88 3f 02 bb ec 04 99 bc 50 2b 0b bb 3c e7 86 3a
       -0.0019874293 -0.018679105 -0.0021235533 0.0010292302
000200 24 4a e2 3b 21 08 82 3c 97 cf 92 bb db e5 27 ba
       0.006905811 0.015873017 -0.004480313 -0.00064047956
000210 21 08 82 3c bc 75 ce 3c 34 7b 0a 3b 77 79 03 3c
       0.015873017 0.025202624 0.0021130564 0.008024565
000220 50 af cd 3c ca 14 cf 3b 64 9b 00 ba a1 9b dc 3a
       0.02510801 0.006319617 -0.00049059675 0.0016831049
000230 1b a1 5f 3c de 80 8d 3c ce 0a 82 3c 55 a4 c8 bb
       0.01364925 0.017273363 0.015874293 -0.0061231055
000240 f2 64 44 b7 92 07 82 3c 21 08 82 3c 2b af db 39
       -1.17060135e-05 0.01587275 0.015873017 0.00041901445
000250 b8 a4 21 ba 95 10 d3 b9 f2 77 b4 b9 1f f8 b4 b9
       -0.00061662076 -0.0004025741 -0.00034421642 -0.0003451714
000260 45 80 36 3c f1 f5 f1 3b 41 96 43 38 c9 4e 4d 3b
       0.01113898 0.007384055 4.6631558e-05 0.0031327477
000270 92 0c 24 3a b0 5a f6 39 0f 82 a7 bc c6 b8 18 3c
       0.00062579766 0.00046988344 -0.020447759 0.009321397
000280 be 38 33 38 58 14 a9 39 b8 11 05 3c 2b 25 72 3b
       4.272977e-05 0.0003224935 0.0081219 0.0036948423
000290 b9 48 ca 3b 90 1b 7a 3b 9f 47 29 3c be c8 db 3c
       0.00617322 0.0038163401 0.010332017 0.02682912
0002a0 d8 a3 03 3b 09 51 4f 3c d5 16 24 3a 4d 9c c0 3a
       0.0020086672 0.012653598 0.0006259506 0.0014695019
0002b0 79 b2 27 3c 21 08 82 3c 7a f1 41 3b 6e 21 2c 3a
       0.010235422 0.015873017 0.0029593394 0.00065662607
0002c0 c3 7b ae 3a 2b 95 20 3b 15 c8 82 38 1a 0c cd 3a
       0.001331203 0.0024502974 6.236151e-05 0.0015643865
0002d0 26 b4 82 ba 5d ad b6 3b dd 02 86 3c 78 db e0 39
       -0.0009971901 0.0055748657 0.016358787 0.00042888126
0002e0 bd 52 c8 b7 99 ea 86 3a d8 91 1d ba 89 8f fc b9
       -2.3880386e-05 0.0010293304 -0.0006010807 -0.00048172128
0002f0 99 b7 f2 b9 2c 7e 64 3b 2f e2 bc 3b 7c 4a 76 3c
       -0.00046294628 0.0034865243 0.005764268 0.015032407
000300 21 08 82 3c 61 66 47 bd 09 cd a1 bb 21 08 82 3c
       0.015873017 -0.04868162 -0.004937772 0.015873017
000310 e8 52 22 3d 12 2b 62 bc 5f f0 80 3c 4f 69 31 3d
       0.039629847 -0.013804214 0.015739618 0.04331332
000320 60 fc 6c 3c a5 49 ad bb ec d7 5d bc 0b e5 85 3c
       0.014464468 -0.00528832 -0.013540249 0.016344568
000330 1d 61 c9 3c 95 fa 81 3c 1a c2 d6 bb fb f0 7b 3a
       0.02458244 0.015866557 -0.0065539004 0.0009610799
000340 27 08 82 3c 21 08 82 3c b4 15 2b bc 9d 5b df bc
       0.015873028 0.015873017 -0.010442186 -0.027265364
000350 ab 69 62 bd a6 0a b3 ba f5 04 87 ba cc 09 98 3c
       -0.055276554 -0.001365979 -0.001030116 0.018559359
000360 c9 83 7e 3c fa 84 b8 bc b8 4a 80 3c dd e2 1b bc
       0.01553435 -0.022524346 0.015660629 -0.009514538
000370 b9 a5 1b bc a6 af 86 bd 45 3b 91 3c c9 3b 87 3a
       -0.009499961 -0.06576471 0.017728457 0.00103175
000380 da 1f 37 bc 72 43 6f 3c 3d ee 36 3c 15 c0 6a 3c
       -0.011177028 0.014603483 0.011165199 0.0143280225
000390 52 09 3e 3c d4 7a a0 3c 81 6b 31 3d cb c5 5f bc
       0.011598902 0.019589819 0.043315414 -0.013657997
0003a0 f9 a4 cb 3c 96 8a a8 3b 6b 8b f5 3b db 50 94 3c
       0.024858939 0.005143474 0.0074934266 0.018104961
0003b0 21 08 82 3c b4 7c 2b 3c e1 8d 36 3a dc 98 2e bc
       0.015873017 0.010466743 0.00069638906 -0.010656562
0003c0 f6 d2 9b bc 11 d4 37 bc ba e6 94 bc 30 c0 99 bb
       -0.019021492 -0.011219994 -0.018176425 -0.0046921
0003d0 0a 9a 5f 3c 98 97 7d 3c f7 36 83 3b c3 a3 9f bc
       0.013647566 0.015478037 0.004004355 -0.019487267
0003e0 d2 3c af 3b 7c 0f 45 bb 6a 4d 08 bb 62 74 dc bc
       0.0053478265 -0.0030069044 -0.0020798096 -0.026910964
0003f0 32 5a 46 3a b1 93 3e 3b 21 aa 25 3c 21 08 82 3c
       0.0007566541 0.002907973 0.010111363 0.015873017

dnets.1.conv.weight f4 [48, 3, 7, 7]
000000 f1 20 ef 3c f3 fd 7e 3d ca 7e 80 bd 75 59 60 3d
       0.029190512 0.062253904 -0.06274183 0.054772813
000010 7d d1 d6 3c dc 7e 19 bd ca 2a b2 bd d7 5b 8a bd
       0.026222939 -0.0374745 -0.086995676 -0.06755798
000020 44 4f 06 bd 64 9c 7e bd d6 5f 42 bc c9 e9 3e 3d
       -0.032790437 -0.062160864 -0.011863669 0.046609674
000030 6d 25 9c bd 56 ac 3f 3d 61 d1 c0 3c d0 27 1d 3d
       -0.07624326 0.04679521 0.02353734 0.038368046
000040 98 1b e5 3b ab d3 4a 3d 9b d3 91 3c f8 1e 86 3d
       0.006991815 0.04951827 0.017801097 0.065488756
000050 70 71 66 3c 53 bd c1 3c 3d bf 4d bd f3 78 30 3d
       0.014065132 0.023649847 -0.050231207 0.043084096
000060 01 68 23 3d 75 fc 5a bc 11 25 c5 bd d3 1b 95 bd
       0.039894108 -0.0133658545 -0.096262105 -0.07280698
000070 44 7a 80 3d c0 cf 47 bd f9 55 71 3c f2 30 96 bd
       0.0627332 -0.04878211 0.01472997 -0.07333554
000080 34 ae 8a 3d 17 04 6c 3d ff 63 a9 bd f8 47 3d 3c
       0.06771508 0.057621088 -0.08271026 0.011552803
000090 85 7d 40 bd ec ed c9 3c a9 93 79 3d 1f 1b 61 bc
       -0.046994705 0.024649583 0.060931835 -0.013739376
0000a0 5d 9f 0d bd ea 22 64 bd a6 9f 6b 3d 6a 9d 26 bd
       -0.03457581 -0.05569736 0.0575253 -0.040677465
0000b0 d0 bc 4a bd ca e8 8f 3d d2 70 df bc 16 e1 13 3d
       -0.049496472 0.07026823 -0.027275477 0.03610333
0000c0 23 b5 64 3d 86 3e 09 bd 94 07 a9 3a 73 5b 9c 3c
       0.055836808 -0.033506893 0.0012895935 0.019086575
0000d0 55 15 9e 3d 64 4d 91 bd 9e ef 8a 3d 95 10 7c bd
       0.077189125 -0.07094839 0.067839846 -0.06153925
0000e0 1c 95 5e 3c c3 70 00 bc f1 4f 3c 3d e4 b9 f6 3c
       0.013585355 -0.0078393845 0.045974676 0.030117936
0000f0 42 bf 60 3d 71 ee 0c 3d c4 aa 46 3d e9 7b 46 bd
       0.054869898 0.034407083 0.0485027 -0.048458014
000100 7f a5 42 bd 74 c2 07 bd 13 84 9c bd 5d d8 7e bd
       -0.04752111 -0.03314443 -0.07642379 -0.06221806
000110 d4 6e 34 3d a9 43 71 3d 04 34 7e bd 48 55 c1 bc
       0.044051006 0.058902416 -0.062061325 -0.023600236
000120 c1 a7 25 bd 88 da 11 bc c7 4b a8 3b ed 03 6a bd
       -0.040443186 -0.0089022 0.0051359865 -0.05713265
000130 97 23 42 bd cc 7c 07 3d f0 85 85 bc 50 ee 9f 3d
       -0.047397222 0.033078 -0.016299218 0.078091264
000140 27 81 12 bd ab f6 d0 bc 7b d6 81 3d f6 fe 53 3d
       -0.0357677 -0.025508245 0.06339737 0.05175682
000150 21 6b 0c 3d eb 34 f2 bc 17 43 a7 bb 81 c2 8d bd
       0.034281854 -0.029566249 -0.0051044333 -0.06921864
000160 93 1c 82 3c 7b 89 3e 3d 88 84 1c 3d 4d c4 95 3d
       0.015882766 0.04651783 0.03821233 0.07312832
000170 97 b9 55 3c 2e 7d 0a bd 2d d6 29 3c 40 7f 98 bd
       0.013044736 -0.033810787 0.010366005 -0.07446146
000180 b1 b2 40 3c c4 38 8d bc 2a 4f c7 3c e4 6f f2 3c
       0.011761353 -0.017238982 0.02432974 0.02959437
000190 78 73 a5 3b 63 5b a2 3d bf 05 d9 3b 48 42 33 bc
       0.0050491653 0.07927587 0.0066229994 -0.010941096
0001a0 34 c8 68 3c a7 ca f0 bc ac e4 27 bd b4 e0 a1 3d
       0.014207888 -0.029393507 -0.040989563 0.07904187
0001b0 84 35 f3 bc fa 67 37 3d 26 b0 85 3d e4 e9 14 3d
       -0.029688604 0.044776894 0.06527738 0.036355868
0001c0 7b 0d 04 3a 7e 93 c3 3c 3e f6 83 bd a2 f3 7a bd
       0.0005037409 0.02387404 -0.06443451 -0.061267503
0001d0 6b 4a 38 3d f0 fb 23 bd f0 cb 8b 3d 83 11 85 3d
       0.044992846 -0.04003519 0.06826007 0.06497481
0001e0 a3 d7 cc bc 1e 95 83 3c 08 9c e2 3c 1a f6 19 bd
       -0.025005167 0.016062316 0.027662292 -0.037588216
0001f0 90 24 9d bd 94 e3 2c bc d0 79 8f bb af 11 82 3d
       -0.07672989 -0.010552306 -0.004378535 0.06351029
000200 b3 e7 86 bd c6 1f be bc 45 b1 8c 3d 7e a0 fb 3c
       -0.06587162 -0.02320851 0.06869749 0.030716177
000210 a6 16 94 3d 66 e5 57 bd c5 e3 8d 3d b4 3e 62 bd
       0.07230882 -0.052709006 0.06928209 -0.05523558
000220 d2 96 41 3c 65 d6 08 bd f4 db 00 3d 30 d0 88 bd
       0.0118157435 -0.033407588 0.031459764 -0.066803336
000230 94 50 b7 bd 2f 24 27 bd fc 5b ae bd 40 66 34 3b
       -0.08950916 -0.04080599 -0.085136384 0.0027526766
000240 42 74 34 bd c3 95 36 bc db 30 8e bc 05 2d 25 3d
       -0.044056185 -0.011144104 -0.01735728 0.040326137
000250 36 3c 6d bd 38 ce 0b bd 10 dd c7 3c 63 fc 52 3d
       -0.05791875 -0.034132212 0.024397403 0.051510226
000260 0c 01 40 3d d6 ba 8f bd 39 8d 96 bd 34 65 89 3c
       0.046876 -0.07018058 -0.07351155 0.01677189
000270 53 92 66 3c 11 97 9e bd a4 d9 85 bd 19 4c 94 3d
       0.014072972 -0.077436574 -0.06535652 0.07241077
000280 03 3d 5e bd b0 24 1f 3d 83 30 45 bd 41 fe 0d bc
       -0.054257404 0.038853347 -0.048141968 -0.008666576
000290 39 41 ba 3d 14 c4 ac 3d 9d 4c 4e bd 40 35 74 3d
       0.090944715 0.084358364 -0.050366033 0.059621096
0002a0 86 c5 84 bd 7f 66 98 3d f3 7a a8 3d 2a a9 7a bd
       -0.06482987 0.074414246 0.08226576 -0.061196484
0002b0 f9 e8 2c bd a6 b2 6f 3b 05 f9 36 bd 3a 2c ce 3c
       -0.042214368 0.0036574989 -0.044671077 0.025167573
0002c0 66 67 f2 bc b9 ce 05 3d f6 08 8f bc 04 58 3c 3d
       -0.02959032 0.03266785 -0.017460328 0.045982376
0002d0 b5 dc 9d bc 31 86 7a 3d 75 5c 23 bd 09 b3 07 3d
       -0.01927028 0.06116313 -0.039883096 0.033129726
0002e0 73 ff 4b 3b 59 79 31 3d 17 46 fe 3c 18 e5 c2 3c
       0.0031127601 0.043328617 0.03103928 0.023790881
0002f0 92 54 41 bd 42 10 53 bc ea 2f 6c bc d8 78 07 bd
       -0.047199793 -0.012882294 -0.0144157205 -0.03307423
000300 a2 2d 65 bd f8 f7 a6 3d 8e de 7c bd f7 92 9a 3c
       -0.055951722 0.08152765 -0.061735682 0.018868906
000310 ec 5f 47 bc 02 d6 2d bc 26 60 7f 3c 35 5d 28 bd
       -0.012168866 -0.0106101055 0.015586888 -0.041104514
000320 5e 01 9c bd 7d 1b 94 3d 44 6b b0 bc ca f5 50 3d
       -0.07617448 0.072318055 -0.021535523 0.051015653
000330 63 1f c3 bc 6e ec 7c bd f2 22 85 3d 1a c5 8a 3d
       -0.023818677 -0.061748914 0.06500806 0.067758754
000340 c3 01 40 bd b3 68 da bc 99 b4 78 3d ad b7 4a bd
       -0.04687668 -0.026661253 0.060719106 -0.049491573
000350 0d d0 9f bd a6 55 56 bb a9 98 03 bc f0 07 84 3d
       -0.078033544 -0.003270486 -0.0080320025 0.064468265
000360 c2 86 b3 bd 57 0b 68 3c 54 ad 74 3d c0 44 36 b9
       -0.087659374 0.01416286 0.05973561 -0.00017382484
000370 05 a9 20 bd d2 8d 44 bd 18 2e 42 bd a8 90 27 3d
       -0.03922369 -0.047986813 -0.04740724 0.04090944
000380 48 e1 37 3d 93 a4 88 3d 66 f0 3e bd 6a 7b 1e 3d
       0.04489258 0.06672015 -0.04661598 0.038691916
000390 f7 74 89 3d b7 31 c0 3b 48 9e 32 3d 1c e1 9d bb
       0.067117624 0.0058653015 0.04360798 -0.004818095
0003a0 c0 f0 b3 bd 97 16 7a bc 36 9a 89 3d b0 62 7b 3d
       -0.08786154 -0.015264175 0.067188665 0.061373413
0003b0 04 aa 5d 3c bc e5 28 bd 6c 52 50 3d f1 c1 9c 3d
       0.013529304 -0.041234717 0.050859854 0.07654179
0003c0 6e 10 b8 bd 4a 75 e5 3c 04 f8 89 bd e9 02 0c 3d
       -0.08987509 0.02801003 -0.06736758 0.034182463
0003d0 a3 b9 1b bd 70 2a 50 bd 3a 0d c6 3d 41 47 a3 bc
       -0.038018834 -0.05082172 0.096704915 -0.019931437
0003e0 84 21 90 bd 7c fe 2f 3c 01 7a 74 bd cd a8 5e 3d
       -0.070376426 0.010741826 -0.059686664 0.0543602
0003f0 d4 ed a6 3d 21 36 79 bc c8 9f f1 3c 60 b3 39 bd
       0.08150831 -0.015210659 0.029495135 -0.04533708

dnets.2.means f4 [63]
000000 01 a3 c9 3d 5c f9 b7 3f 9f a5 e0 3f 75 22 fb 3f
       0.09845544 1.4372973 1.7550544 1.961989
000010 7e d8 93 bf 52 c1 e9 bf 44 3c 70 3f d3 43 97 3f
       -1.1550443 -1.8262122 0.9384196 1.1817573
000020 dc 2d 9c bf 19 a6 ea 3f 53 52 ae 3e c2 6c c8 3f
       -1.2201495 1.8331939 0.34047183 1.565819
000030 b8 4e 0f c0 6f 8e 6a bf 57 f4 bd 3f 24 4c af 3f
       -2.2391796 -0.91623586 1.4840192 1.3695111
000040 d4 17 45 c0 f7 c5 c7 3b 2d 3b 8e 3e f8 fd 0a 40
       -3.0795794 0.0060965973 0.27779523 2.171751
000050 24 bd 29 c0 84 71 04 c0 00 44 64 bf 69 57 6f bf
       -2.6521692 -2.0694284 -0.8916626 -0.9349275
000060 ae b9 22 bf 11 63 d1 be c4 03 cb 3f 13 10 ac 3f
       -0.63564575 -0.40895894 1.5860524 1.3442405
000070 bd ae e3 bf ca a5 cb 3d 5d 10 08 c0 8e 9b 0c c0
       -1.7787701 0.09943731 -2.1259987 -2.1969943
000080 cb ff db be c1 ce a6 3f d1 fb 04 3f 61 4a 00 c0
       -0.42968592 1.3031846 0.5194674 -2.0045397
000090 86 63 2c 40 44 ef 04 40 88 c9 e4 3f 45 37 30 3f
       2.6935744 2.0771036 1.7874002 0.68834335
0000a0 fd 04 35 3f 0b 1f 82 3f 0a 5e a2 bf 86 30 6f 3f
       0.70710737 1.0165724 -1.2684948 0.93433416
0000b0 1a a2 59 3f 7f 23 83 3f 82 ca bc 3f 68 90 dc 3f
       0.8501297 1.0245208 1.47493 1.7231569
0000c0 9b 4a 60 3f 6b a3 08 3c 02 20 d5 bf 20 f8 09 be
       0.8761384 0.008339743 -1.6650393 -0.13473558
0000d0 c2 7f 07 c0 31 8b 82 bf 35 76 45 bf 99 58 f1 3f
       -2.1171727 -1.0198728 -0.77133495 1.8855163
0000e0 a6 20 09 c0 53 dc 68 3f ad 80 f6 bf 28 21 05 40
       -2.1426177 0.9096119 -1.9258019 2.0801487
0000f0 94 d5 6c bf 93 34 2c bf be 49 d8 bf
       -0.92513394 -0.6726772 -1.6897504

dnets.2.std f4 [63]
000000 bc 8b e9 3e b9 ed da 3f 5e 67 4b 3f 83 f8 98 3e
       0.4561442 1.7103797 0.794546 0.298771
000010 14 9d b5 3e a9 0e e9 3f 58 cc e3 bc 97 3c bf be
       0.35471404 1.8207599 -0.0278074 -0.37350914
000020 35 d2 0e 3f b2 d2 47 3f 19 07 1e be c6 f4 3d 3f
       0.557895 0.7805587 -0.15432395 0.7420162
000030 de 52 f0 3f cc e0 eb 3e e2 13 a8 be 3e 76 b1 3e
       1.8775289 0.46069944 -0.3282767 0.34660524
000040 cb eb 25 bf 5a f4 a0 3c a0 74 45 40 81 59 b8 3e
       -0.64812917 0.019647766 3.0852432 0.36005786
000050 73 f2 99 bd 0e 2a 81 3f 52 a1 ba 3e 24 06 8c be
       -0.07516947 1.0090959 0.36451203 -0.27348435
000060 6a 7a 0e 40 d1 db fb 3f 63 d6 18 3f d0 d3 1b 3f
       2.2262216 1.9676458 0.5970213 0.60870075
000070 c9 e0 1f 3f 7a 2d c1 3d 97 e7 87 3f 3e 4a 8c 3f
       0.6245237 0.09432502 1.0617551 1.0960157
000080 fa 75 45 3e f4 18 0a bf b1 8f 81 40 07 fb 75 3f
       0.19283286 -0.53944325 4.0487905 0.9608616
000090 a9 e8 85 3f cc f2 95 3f 44 f9 56 3f 52 19 03 3f
       1.0461627 1.1714721 0.839741 0.5121051
0000a0 06 17 92 3e 59 a7 b0 be 93 69 14 3f 66 59 a9 3e
       0.2853319 -0.34502676 0.57973593 0.33076018
0000b0 dc 2f b0 3f dc 86 8c 3f 7c 9d 14 3f 57 99 9d bd
       1.3764606 1.0978656 0.580528 -0.07695263
0000c0 17 5e 32 3f 5f 0b 98 3c 8a 92 52 3f f2 9f 15 3e
       0.6967482 0.01856011 0.8225485 0.14611796
0000d0 db 0c 81 3f d5 2c e2 3e a4 56 9e 3f 5e a0 69 3f
       1.0082048 0.4417483 1.2370191 0.91260326
0000e0 aa bf 03 3f 86 78 e2 3f 06 41 35 3f 86 81 11 40
       0.5146433 1.7693031 0.7080234 2.2735305
0000f0 9a da e9 3f 4d 5a f2 3f 4d 9f 05 bf
       1.8269837 1.8933808 -0.521962

dnets.2.weights_rbf f4 [48, 63]
000000 70 8e 86 ba ea 4b 48 3a 4e ae a9 3b bb 89 7a 3c
       -0.0010265838 0.00076407066 0.0051782494 0.015291627
000010 80 de 38 3c 35 0f bb b9 a1 0e 18 3d ca 67 cf bc
       0.011283517 -0.0003567875 0.037123326 -0.025318045
000020 0f da ff 39 f7 8d ab 3b eb 59 0b bb 64 78 8b 3b
       0.00048799856 0.0052354294 -0.0021263312 0.004256295
000030 47 ab 9d b9 4e ca 23 3a ab 1b 85 3d 0a 18 e8 bb
       -0.00030072985 0.0006248102 0.06499418 -0.007082944
000040 50 8a 98 3c 42 af 91 bc a8 09 c9 39 6e 33 81 3c
       0.01862064 -0.017783765 0.00038344902 0.015771594
000050 21 08 82 3c ca 8c 5f 39 94 27 75 3a 2c e0 b6 3c
       0.015873017 0.00021319385 0.0009351906 0.02232369
000060 f8 c7 d8 b9 18 ed 0e ba ee b9 e3 3b 57 87 97 3b
       -0.0004134772 -0.00054522 0.006949655 0.004624288
000070 b4 ec 4b 3b e6 6f 3a 3a 82 03 de 38 4c 0c 09 39
       0.0031116428 0.0007112011 0.00010586438 0.00013069919
000080 81 16 94 ba ba 84 df 3b ed 2b 02 3a 97 f7 9e 39
       -0.0011298211 0.006821242 0.0004965652 0.00030320577
000090 cd a1 9e 3b 9c a4 27 3b 1a fc 96 3b c0 92 61 3a
       0.0048410655 0.0025580293 0.0046076896 0.00086049363
0000a0 a3 7c ae b8 7a 44 01 bd c6 5d fe 39 52 bb 8f 3b
       -8.320182e-05 -0.031559445 0.00048516522 0.004386344
0000b0 aa d6 dd 39 ce 01 2b 3a 36 af dc 3b 67 07 82 3c
       0.00042312342 0.0006523401 0.006734754 0.01587267
0000c0 6d df 5f 3a c1 da 51 3c 85 94 a6 38 1d cc 19 3b
       0.0008540068 0.012808503 7.943161e-05 0.0023467608
0000d0 40 50 b8 39 25 be 25 3a 1e 14 27 ba 06 ec 85 3b
       0.00035155006 0.0006322584 -0.0006373542 0.004086974
0000e0 4c 66 7f 3d 64 c2 ee 39 e6 44 30 3b 40 e7 72 3a
       0.062353417 0.0004553973 0.0026896535 0.00092660263
0000f0 26 5b ec b9 2f 52 fa b9 0f 16 86 3b 15 e8 d1 ba
       -0.0004508134 -0.00047744947 0.004091985 -0.00160146
000100 4c 18 0a bb b1 fc f6 ba 21 08 82 3c 05 9f 25 bb
       -0.002107161 -0.0018843618 0.015873017 -0.0025271785
000110 95 31 24 3b 21 08 82 3c 7a 85 f4 3c db 67 fd 3a
       0.0025053967 0.015873017 0.029848803 0.001933332
000120 ed 34 ee 39 8e 00 7d 3c 21 4f 84 bb 8a ec 41 3b
       0.0004543433 0.015442027 -0.004037753 0.002959045
000130 e4 3f ea 3a df 3c 82 3c 6d 72 fc 3c 38 aa 82 3c
       0.0017871824 0.015898166 0.030816281 0.015950307
000140 af ad b9 bc e2 63 74 ba 21 08 82 3c 21 08 82 3c
       -0.022665827 -0.0009322745 0.015873017 0.015873017
000150 e0 1f 2d 3b 49 76 20 bc 57 d0 c9 3b f7 79 eb 39
       0.0026416704 -0.009793826 0.0061588692 0.00044913564
000160 6b ab 9d 39 0f 3a 71 3b c6 09 a4 bb d6 54 0c bc
       0.0003007309 0.0036808287 -0.005006048 -0.008565148
000170 01 e7 ed 3c 88 c7 76 3b 12 c2 61 3b cb 04 40 3d
       0.029040815 0.003765555 0.003444795 0.04687957
000180 21 1f 39 bb 21 c9 7a ba b4 97 f5 3a 2b 0c 83 3b
       -0.0028247314 -0.00095667137 0.0018737228 0.0039992533
000190 89 26 40 bb 01 d6 2e bb 4a 57 c6 bb b7 ac 32 bc
       -0.0029319844 -0.002667785 -0.006052886 -0.010905436
0001a0 c0 c4 b8 3c 29 07 f4 3a 9e a6 60 3a 71 93 11 bb
       0.022554755 0.0018617857 0.000856975 -0.0022213126
0001b0 2c f4 2b bb 21 55 96 3a 21 08 82 3c 06 96 8d bb
       -0.0026238067 0.0011469462 0.015873017 -0.0043208627
0001c0 ef 77 1f 3d ba 88 90 3b e6 42 82 bc 7e 46 b4 3a
       0.038932737 0.0044108303 -0.01590104 0.0013753918
0001d0 29 0b 64 bb 6f c2 0a 3b bd cb 34 bb e9 9b 5d 3c
       -0.003479669 0.002117302 -0.0027587258 0.013525941
0001e0 80 94 02 bb 70 d9 e2 bb 22 27 f5 ba 06 c6 a7 3a
       -0.0019924939 -0.006922893 -0.0018703679 0.0012800104
0001f0 4a 15 5f 3a d0 05 30 bc 5f 77 70 bb e2 1b 7c 39
       0.0008509947 -0.010743573 -0.0036692244 0.0002404298
000200 d1 16 5d 3a f0 07 82 3c 72 ba 59 bd 5d 86 df 3a
       0.0008433881 0.015872926 -0.053156324 0.0017053593
000210 9d 29 8c 3c 78 37 15 3d c0 6c ae ba 05 e4 8e 3b
       0.017109687 0.036429852 -0.0013307557 0.004360678
000220 2f 2a 38 3c 80 e9 cb ba 4e 93 0f 3b da 8f a0 b9
       0.011240526 -0.0015557259 0.0021907869 -0.00030624756
000230 57 83 b4 3c a7 ef 0f 3d 68 06 82 3c f0 69 e0 bc
       0.022035284 0.03514066 0.015872195 -0.027394265
000240 0b c6 4b 3a 69 0e 82 3c 21 08 82 3c 85 24 51 3a
       0.0007773346 0.015876012 0.015873017 0.0007978159
000250 2d 06 f8 bc 18 cb 4c bd 31 01 44 3a b8 33 25 3a
       -0.030276382 -0.049998373 0.0007476984 0.0006301957
000260 e9 5f 23 3c b5 e4 cc ba d1 c1 da bc 14 6a 01 3a
       0.009971597 -0.0015632125 -0.026703747 0.00049367663
000270 3d 38 2f 3b a6 ca 0e 3b ea 0d 25 bc 15 14 0b 3b
       0.0026736401 0.0021788268 -0.010074118 0.0021221687
000280 8f c3 68 3a e9 86 13 ba b9 f9 04 3c 9a 64 b2 ba
       0.0008879238 -0.0005627708 0.008116179 -0.0013610304
000290 3e d5 bc b9 e0 af d0 bb f5 26 a1 b9 00 36 12 3d
       -0.00036017032 -0.006368622 -0.00030737338 0.03569603
0002a0 87 04 a0 ba 7e 4b 47 3c 3c d2 5d b9 99 61 95 ba
       -0.001220838 0.012163995 -0.00021154521 -0.0011396884
0002b0 08 06 e1 3b 21 08 82 3c a8 09 82 bb a2 65 f8 3c
       0.006867174 0.015873017 -0.0039684363 0.0303219
0002c0 02 23 50 3b b5 5f 23 bc 89 68 b8 ba 65 1b 48 bc
       0.0031759148 -0.009971549 -0.001406924 -0.012213563
0002d0 b5 52 33 3a 38 8f 3d ba 90 d1 80 3c 91 93 ab 39
       0.00068406324 -0.0007231119 0.015724927 0.00032725607
0002e0 e2 64 a4 bc 36 5d 3c 3a 74 2c 55 3a 1b 2b 36 3a
       -0.020067636 0.00071855204 0.0008131929 0.0006949172
0002f0 b8 48 25 bd 50 a7 b2 ba ad e4 0c 3b ca 85 72 3c
       -0.040352553 -0.0013630185 0.0021498606 0.014802406
000300 21 08 82 3c 21 90 41 ba 88 43 66 bb 21 08 82 3c
       0.015873017 -0.00073838426 -0.0035135467 0.015873017
000310 0c 02 6e 3d 22 96 2c bc 9b 6c aa 3c d7 34 84 3d
       0.05810742 -0.010533841 0.02080374 0.06455391
000320 ad bc 22 3c 3b 38 5e bb 89 6f ab bb ad 8c 81 3c
       0.009932679 -0.0033908028 -0.005231802 0.01581415
000330 d5 20 3d 3c b4 0d 82 3c 6f 1b 13 bd 5e d6 8d ba
       0.011543472 0.015875675 -0.035914835 -0.0010821333
000340 21 08 82 3c 21 08 82 3c c4 3a 20 bc 19 ab f5 bc
       0.015873017 0.015873017 -0.009779636 -0.029988812
000350 ba 44 19 3d ed 6d 04 bb fe 0f f3 ba 60 e2 fa 3c
       0.03741906 -0.0020207122 -0.0018544195 0.030625522
000360 41 0a 31 3c 56 58 07 bd c5 94 a2 3d 2f ea f4 bb
       0.010805667 -0.033043228 0.07938532 -0.007474206
000370 95 ed 02 bc 7b 75 e0 3c 14 44 95 3c bf 39 80 ba
       -0.007991214 0.027399769 0.018220939 -0.0009782835
000380 38 be 3b bc c5 a8 d6 3c 1e 5a b0 3b a8 59 3e 3c
       -0.011458926 0.026203522 0.0053818366 0.011618055
000390 ca c8 b7 3b 0d c4 36 3c 2f 09 5e 3d 67 1f 33 bc
       0.0056086527 0.011155141 0.054207977 -0.01093278
0003a0 c1 8a 03 3d 31 99 b0 3a 7f cc 54 3b 68 53 d3 3c
       0.032114748 0.0013473389 0.0032470522 0.025796607
0003b0 21 08 82 3c 42 44 a9 3b 3a a3 4a 3d 9b ef bc bb
       0.015873017 0.0051656077 0.04947207 -0.005765868
0003c0 dd db 44 bd ba 36 4d bc 52 55 a6 bc 7a 6d 7d bb
       -0.04806124 -0.012525255 -0.020304356 -0.003866999
0003d0 a1 3d 25 3c 29 e7 85 3c 24 b1 27 3a d9 c6 f4 bc
       0.010085494 0.016345577 0.00063969404 -0.029879974
0003e0 45 1e 04 3b a9 79 3b bb bc 0b 1b bb e8 93 0b bd
       0.0020159644 -0.002860645 -0.0023658117 -0.0340766
0003f0 b0 77 13 3b 5d 97 f1 3a ed 5c 01 3c 21 08 82 3c
       0.002250176 0.0018431951 0.00789569 0.015873017
