models/Gaussian_greedy5.pth (torch, 115607 bytes, 32 tensors)

dnets.0.means f4 [63]
000000 5e bb b3 3e a1 e7 14 3f 32 13 14 bf 50 86 9d bf
       0.35103887 0.5816594 -0.5784179 -1.2306614
000010 6b 95 8b 3f f4 e8 68 bf 76 10 a4 3f 13 8b e6 3e
       1.0904974 -0.9098046 1.2817523 0.4502798
000020 ea 51 06 c0 ee 46 18 bf 1a 92 d9 3f 00 cb 26 bf
       -2.0987496 -0.5948323 1.6997712 -0.65153503
000030 81 23 90 bf a9 e7 9e 3f c4 e9 07 c0 be 40 87 bf
       -1.1260835 1.2414447 -2.123643 -1.0566633
000040 32 67 61 bf 39 44 b6 3f 7b e7 8f 3f 08 29 29 c0
       -0.8804809 1.423957 1.1242517 -2.6431293
000050 b0 a2 36 3f 01 d8 cc 3e 52 9d ab 3e 66 9a 9c bf
       0.7134199 0.40008548 0.33518463 -1.2234619
000060 a6 0d 07 40 3b c1 7d bf 05 ef 07 40 89 0d 90 bf
       2.110208 -0.9912297 2.1239636 -1.1254131
000070 0d 08 f7 be 82 4c 75 3d d7 b2 26 3e 6b 81 51 3d
       -0.4824833 0.059887417 0.1627916 0.051148813
000080 d3 b8 9a 3f 3f 55 9c 3f 74 3c ee bf 7e 2c 95 3f
       1.2087654 1.2213515 -1.8612199 1.1654203
000090 e8 50 ab 3f 14 50 33 3f 34 ed d7 bf de 0a 72 3f
       1.3384066 0.70044065 -1.6869264 0.9454783
0000a0 a6 bd d0 3f fa c4 4b be 05 de 8a bf e3 ce a9 3f
       1.6307876 -0.1989936 -1.0849005 1.3266262
0000b0 b0 ef 51 3f d1 1d 2f 3c d1 89 92 3d b6 48 84 3f
       0.8200636 0.010688261 0.07155193 1.033469
0000c0 f9 9a cf 3f 7f 34 3a 3f 67 4e 08 40 6e 91 1c 3f
       1.6219169 0.7273635 2.1297853 0.6115941
0000d0 0c 9f cc bf f2 cb d2 3e 86 69 e4 bf 11 16 2f c0
       -1.5986037 0.41171223 -1.7844703 -2.7357218
0000e0 f8 29 b4 3e ac e1 c1 bf 49 c0 24 bf b2 ba 5b 3f
       0.3518827 -1.5146995 -0.64355904 0.8583175
0000f0 f0 5b 36 bf c7 f2 46 3f 84 c8 93 3f
       -0.71234035 0.777142 1.1545568

dnets.0.std f4 [63]
000000 a1 d3 53 3f 20 c4 81 3e 8b 8b e2 3f 94 50 69 3f
       0.82744795 0.25344944 1.7698835 0.9113858
000010 ce 34 00 bf fc 36 94 3f 5c b4 1c 3f 62 f6 3d 3e
       -0.50080574 1.157928 0.61212707 0.18551019
000020 e0 77 a5 3f aa 86 a1 3e 1c 8c 92 3f dc 8e b4 3e
       1.2927208 0.31548053 1.1449008 0.35265243
000030 20 6d 01 3f f0 d1 af bf 41 87 aa 3f d2 56 0e 3f
       0.50557137 -1.3735943 1.3322526 0.5560123
000040 a2 0c 88 3e d5 d2 ca 3d 90 14 9f 3d b1 eb 44 3e
       0.26572138 0.09903494 0.07767594 0.19230534
000050 7a 79 74 bf c4 1c a7 3f 31 da da 3f 49 7e 69 3e
       -0.9549786 1.3055654 1.7097837 0.2280208
000060 f1 61 bd 3e 6f f7 93 3f 82 23 97 3f ca ec ad 3e
       0.36988786 1.1559886 1.1807711 0.33969718
000070 eb ca a2 3e fe 7d bf 3e a5 d4 a0 bd de 8b e2 3d
       0.3179544 0.37400812 -0.07853059 0.11061834
000080 af a4 d9 3e e2 e0 16 3f fc f8 0a 3f e8 99 83 3f
       0.42508456 0.58936894 0.5428617 1.0281343
000090 86 84 19 3f cd 30 56 3f cf dc 51 3f 08 f4 bc 3f
       0.5996784 0.83668214 0.8197755 1.4761972
0000a0 45 b6 62 3f 90 fc c1 3f cf 1b 17 3f 34 66 92 3f
       0.8855937 1.5155201 0.5902681 1.143744
0000b0 75 ee 9a 3e 1c ff 44 bc a1 5f bb 3d e9 61 f7 3e
       0.30260053 -0.012023713 0.09149099 0.48316887
0000c0 79 16 08 3f 5f a7 92 be a9 a5 d6 be 83 c3 d2 3f
       0.5315929 -0.2864332 -0.41923264 1.6465915
0000d0 01 f4 c1 3f f3 64 7b 40 a8 5c 79 3f 0d 59 ad 3f
       1.5152589 3.9280365 0.9740701 1.3542801
0000e0 69 76 31 3e e7 85 69 3f f8 75 8d 3f d4 3e 89 3e
       0.17330326 0.91219944 1.1051626 0.26805747
0000f0 6b 21 b2 3f 79 71 79 3f 00 1e 09 3f
       1.3916448 0.9743877 0.535614

dnets.0.weights_rbf f4 [24, 63]
000000 42 48 b1 3c af 45 9e 3d d9 da 93 bc 0d f1 33 bd
       0.0216409 0.07728135 -0.01804869 -0.043931056
000010 9f 33 77 3d 40 2b 01 bd 5a 64 75 3d a7 a4 fa 3d
       0.060351964 -0.031535387 0.059910156 0.12238436
000020 5e b5 3d bd 9e 6e b2 bd 9d de fc 3c f8 68 94 bd
       -0.046315543 -0.08712505 0.030867869 -0.07246584
000030 40 58 b6 bd 96 9e 9d 3c 6f 86 38 bd 58 1f 8a bd
       -0.08903551 0.019240659 -0.04505008 -0.067442596
000040 99 7d ac 3d 21 08 82 3c 21 08 82 3c 21 08 82 3c
       0.08422393 0.015873017 0.015873017 0.015873017
000050 c1 7d e0 3c a6 dd d7 3b b0 b6 62 ba 2b 08 82 3c
       0.027403714 0.006587702 -0.00086484384 0.015873035
000060 21 08 82 3c 73 f7 05 bd 8c fd 1a 3d 3a 2e e4 bb
       0.015873017 -0.03270669 0.037839457 -0.0069635184
000070 45 ff bc bd 77 b1 b8 3c 04 b7 5b 3d b3 16 18 3d
       -0.09228376 0.02254556 0.053641334 0.037131023
000080 74 95 be 3d 32 8c 5b 3d d9 46 b2 bc ad 9f f9 3c
       0.0930585 0.053600498 -0.021762298 0.030471647
000090 36 90 94 3d 56 0d 07 3d 47 64 95 bd 33 68 5b 3c
       0.072540686 0.032971703 -0.07294517 0.013391542
0000a0 03 b0 2f 3d 2e 3f 4c bc 3f 25 81 bd a3 74 df 3c
       0.042892467 -0.012466235 -0.06305932 0.027277296
0000b0 ff e9 c0 3d 39 5b bd ba 82 f0 e4 3b ed f2 67 3d
       0.09419631 -0.0014446742 0.0069866786 0.056628156
0000c0 77 b2 ac 3d 04 1e bf 3d 21 08 82 3c 4e 28 a5 3b
       0.08432477 0.09331897 0.015873017 0.005040205
0000d0 e6 75 05 bd 80 8c ee bb 9b 8d 6f bd 9d 47 7f bd
       -0.03258314 -0.0072799325 -0.058484655 -0.062324155
0000e0 4a 5d 92 3d 6f bc 52 bd 0f ed eb bc 74 dc eb 3d
       0.071467 -0.051449236 -0.028799562 0.115166575
0000f0 a0 06 c9 bc 66 ca e3 3c 5d d7 7a 3d 8f 21 a1 3b
       -0.024539292 0.027806472 0.061240543 0.0049173306
000100 fa 15 8a 3a b6 f3 b3 3a 44 11 39 3b d8 8d 61 3b
       0.0010535114 0.0013729248 0.002823905 0.003441682
000110 ce 58 11 3b ac 02 80 3b 1e 6d 3d ba 2f 6e 90 3a
       0.0022178176 0.0039065685 -0.00072260376 0.0011019165
000120 9c 5b 0f 3b c1 45 64 3b 02 23 b3 3b 6d 8d 08 bc
       0.0021874672 0.0034831616 0.0054668197 -0.0083345
000130 17 54 4d 3b 75 e3 98 3a d0 8c 3c 3a e9 c8 d5 39
       0.003133064 0.0011664467 0.00071926136 0.00040776216
000140 21 08 82 3c 21 08 82 3c 21 08 82 3c 8f f4 90 3b
       0.015873017 0.015873017 0.015873017 0.004423685
000150 de c2 43 3b f9 c8 09 3b db b6 cb 3c 21 08 82 3c
       0.0029870789 0.002102433 0.024867466 0.015873017
000160 7f 55 0e 3b 32 b6 43 3b 50 45 a3 bb 14 7d 84 bb
       0.002171844 0.0029863236 -0.004982628 -0.004043231
000170 d9 ae d7 3b 50 66 3f 3b c9 6c c3 ba 79 3b 82 bb
       0.0065821228 0.002920527 -0.001490974 -0.003974375
000180 18 7f 77 3b f2 61 f5 bb cf 81 82 3b ec b9 34 3b
       0.0037764963 -0.0074884826 0.0039827595 0.0027576638
000190 be b1 a1 3b f8 e4 99 bb 0c f2 3c 3b 22 19 60 3b
       0.0049345186 -0.0046964847 0.0028830795 0.0034194668
0001a0 85 07 03 3b 97 a1 01 3b 04 27 6e 3b 18 7c 32 bb
       0.0019993496 0.0019780153 0.0036339173 -0.002723461
0001b0 ff a5 a9 39 ff 93 6a 3b 46 b8 8c 3b 61 24 c6 ba
       0.0003235787 0.003579378 0.004294428 -0.0015117043
0001c0 8e 34 6c bb 21 08 82 3c f9 24 1f 3b 81 60 b1 3a
       -0.0036042067 0.015873017 0.0024283512 0.0013532789
0001d0 88 4b 83 3a 40 73 bb b9 bc c3 6e bb c3 0d d2 3b
       0.0010017017 -0.00035753287 -0.0036432585 0.006410332
0001e0 49 f4 06 3b 2e 5d 23 3b a3 9d 9f b9 f0 5f e4 3a
       0.0020592383 0.0024927366 -0.00030444292 0.0017423611
0001f0 a7 fd 8d 3b 92 04 63 3b 3a 52 b4 bb d5 3d 3d bb
       0.004333216 0.0034640175 -0.005502966 -0.0028875966
000200 88 bc 1e 3b db 21 66 3b 13 e0 41 ba 86 28 1e 3b
       0.002422126 0.0035115394 -0.00073957554 0.002413304
000210 9e 33 a2 ba fa 02 01 bc ba de 83 3b 8e f2 a9 3b
       -0.0012375002 -0.007874245 0.004024354 0.0051863855
000220 d7 33 5b bb 7d 8b d5 3b 01 b4 8c 3b bb a5 90 bb
       -0.0033447647 0.0065168724 0.004293919 -0.004414288
000230 82 10 82 3b 70 4e 9f 3b fc 49 02 bb 21 08 82 3c
       0.003969253 0.0048616454 -0.0019880524 0.015873017
000240 21 08 82 3c 21 08 82 3c f4 f8 8e bb 5a 2b ae bb
       0.015873017 0.015873017 -0.0043631736 -0.0053152265
000250 2c d8 87 bb 1c c7 90 3c ea 07 82 3c 1d 9b 26 3b
       -0.0041456427 0.017673068 0.015872914 0.0025422045
000260 85 5a 0f bb 26 1a 87 3d 19 19 9b 3d bf 29 52 bc
       -0.0021874022 0.06596784 0.075731464 -0.012827336
000270 2c 6b 9d 3c 27 b5 87 3c f6 4c 57 bc 79 a8 87 b9
       0.019216143 0.016565872 -0.0131409075 -0.00025874728
000280 b6 1f 03 3d 15 7d 75 bb a8 89 5c bb 05 1f 7f bb
       0.032012664 -0.0037458588 -0.0033651385 -0.0038928401
000290 36 75 73 3b c8 33 9a bb 31 bc d5 ba 31 a1 6d 3a
       0.003714872 -0.00470588 -0.0016306696 0.0009064852
0002a0 21 7c a6 3b 45 d1 7f bb a6 bb 93 bb 96 a7 5c b9
       0.0050807153 -0.0039034646 -0.0045084534 -0.00021043266
0002b0 b9 c5 91 3c ed 91 ff 38 a4 db be bc eb 65 95 bb
       0.017794477 0.00012186528 -0.023298092 -0.0045592687
0002c0 c5 05 82 3c 90 92 98 bb 72 89 49 3b 24 b5 9d b9
       0.015871892 -0.0046561435 0.003075209 -0.00030080334
0002d0 12 b8 86 3b 53 6c 6d 3b a2 72 06 bb 1b df 8e 3b
       0.0041112984 0.0036227896 -0.0020515104 0.0043600923
0002e0 e7 5f 02 3b 1f f5 ff bb 05 ba 14 3b 9b cd 8b bb
       0.0019893588 -0.007811203 0.0022693884 -0.0042664534
0002f0 70 61 8c ba f6 c5 9c 3a 5c 82 5c 3b 83 e1 ff 3a
       -0.0010710191 0.0011960852 0.0033647036 0.0019522164
000300 ed 46 18 3b 21 0d 3c b8 f3 34 07 3b de 76 05 3b
       0.0023235634 -4.483492e-05 0.0020630925 0.002036504
000310 c2 1e c5 bb b9 8a 25 3b 9b c3 24 bb 8f d1 7c 3b
       -0.0060156295 0.0025259687 -0.0025141004 0.0038577055
000320 ba 30 eb 38 31 b2 60 3a 72 b4 36 3b b5 3a 26 3b
       0.00011214749 0.00085714745 0.002787855 0.0025364582
000330 fc 06 b7 3a af 42 7b 3c b4 24 6c 3c 6d c1 51 3c
       0.0013963873 0.015335723 0.014413048 0.012802464
000340 21 08 82 3c b8 00 64 3a fe 73 c9 3a 3c a0 15 3b
       0.015873017 0.0008697617 0.0015369651 0.0022831103
000350 25 08 82 3c d9 2f 12 3e 3c 46 08 3b f6 1f c8 3b
       0.015873024 0.14276065 0.0020793816 0.0061073257
000360 78 da 11 3a 5e cf 15 bd 6c 60 96 3b 09 26 17 3b
       0.00055638654 -0.036574714 0.004589131 0.0023063442
000370 2a be c4 3b 8a 41 18 b9 ae a8 bb 3a a0 b1 5a 3c
       0.0060041146 -0.00014520265 0.0014317238 0.013348013
000380 42 d7 05 3b c7 b5 52 3b 0a a1 2d 3a ef 7f ad 3b
       0.0020422493 0.0032151805 0.0006623423 0.005294792
000390 56 a2 1f 3b 60 09 88 3b 62 a9 d7 3a 27 d6 b5 3a
       0.0024358234 0.004151508 0.0016453678 0.0013873026
0003a0 f5 3a 32 3b fe 00 2f bb cb 88 e2 b9 3f 35 ef 37
       0.0027195786 -0.0026703472 -0.00043207998 2.8515815e-05
0003b0 4a 93 da 38 fb 89 ea 3c de 13 f3 ba c9 d2 05 3e
       0.00010422485 0.028630247 -0.001854535 0.1306869
0003c0 3b ed 19 3b 9a f8 0f 3b f8 82 81 3b 4d b1 28 3b
       0.0023487348 0.0021968246 0.0039523803 0.0025740445
0003d0 22 8d 96 3b 99 6c bb 3b 3f 68 04 3b 6d d9 09 3b
       0.004594461 0.005719733 0.0020203737 0.0021034137
0003e0 2c f7 49 bb c6 8f e8 3a 02 86 7f 3a 33 4d d0 39
       -0.0030817492 0.0017743043 0.0009747447 0.0003973037
0003f0 ea aa e9 3c de 48 94 3d f5 45 ea bc 17 04 47 bd
       0.028523881 0.07240461 -0.028597811 -0.048587885

dnets.0.conv.weight f4 [24, 3, 5, 5]
000000 ba de a6 3b 49 8c 68 3d 7c 63 a1 bd fd 61 2b bc
       0.005092469 0.05677441 -0.07880303 -0.010460374
000010 60 fb 14 bd 68 74 01 bd a2 59 a5 bc 60 3c 19 3e
       -0.036372542 -0.031605154 -0.020184342 0.14964437
000020 9e 91 81 ba 16 54 a2 3c 10 5d 9b 3c 1e 52 31 be
       -0.0009885316 0.019815486 0.018965274 -0.17316481
000030 d3 05 9d 3d 80 da 3b bb 94 b5 22 3d 26 5f 83 bd
       0.076671265 -0.0028664172 0.039723948 -0.064146325
000040 77 77 14 bd 14 69 37 3e 0b cb dc bc f2 ae 3d 3d
       -0.036246743 0.17911178 -0.026952287 0.04630942
000050 b6 2c 33 ba 86 9b a4 3b de 1f 44 3c 7c 39 49 bd
       -0.00068349706 0.0050234227 0.011970488 -0.049127087
000060 24 db cd bb 35 aa 84 bc e3 df 1b bd 06 fc 3f bc
       -0.006282227 -0.016194442 -0.038055312 -0.011717802
000070 d2 e6 45 3d 7f 8b 94 bc 52 84 4f 3d 4e a0 85 3b
       0.04831583 -0.018132923 0.0506633 0.0040779477
000080 ec e8 9b bb bb 64 0f be 53 46 87 bd 80 46 fb 3d
       -0.004757991 -0.1400327 -0.0660521 0.12269306
000090 74 23 2f 3e 67 3f 24 be c7 d3 bd 3c a9 de 34 bd
       0.17103368 -0.16039811 0.023172272 -0.044157658
0000a0 ec e3 f2 3c fb 4a 23 bb e1 7f 52 be 93 1a 00 bc
       0.029649697 -0.0024916518 -0.20556594 -0.007818836
0000b0 ca 7f 32 bd d3 89 0b 3d 3e 77 92 3c 86 ee a5 3d
       -0.0435789 0.034066986 0.017879125 0.08102135
0000c0 d6 36 9f 3d 9c 40 aa ba 7e a9 30 3c 68 08 47 3d
       0.07774131 -0.0012989226 0.010782598 0.048592
0000d0 54 13 f8 bc f2 ca 12 3d cd b5 c3 3c 9e 91 26 3b
       -0.030282654 0.035838075 0.0238904 0.0025416384
0000e0 c3 df 3f bd 9f 99 2d bb a2 4e cf 3d 2a 1c dc 3c
       -0.046844255 -0.002648927 0.1012242 0.026868898
0000f0 7c d3 f7 bd d4 2b b3 bb 5f a7 51 be 2a da 9c 3d
       -0.12100884 -0.005467871 -0.20474003 0.07658799
000100 1a ca 27 3d 98 2f b8 3b f2 93 94 3d 2d 73 3c 3d
       0.040964223 0.005620908 0.07254781 0.046008278
000110 0b e1 b4 bc e6 4e ab 3c 64 3e ac bc 0c 1c f6 bc
       -0.022079965 0.020911645 -0.021025844 -0.03004267
000120 1b 74 68 bd f1 79 50 3a d8 36 02 3c 37 65 3c bd
       -0.05675135 0.0007952741 0.007947646 -0.045994963
000130 14 f0 ec 3d 27 ee 1b bd d8 14 b8 bc 9b 71 2e bc
       0.11569229 -0.038068917 -0.022470877 -0.010647203
000140 08 bf b5 bd 5b 98 d9 bd 8f d7 0f 3d d5 71 2c bb
       -0.08874327 -0.106247626 0.035117682 -0.0026312966
000150 19 08 18 3d 41 0b 73 3d ea 5c 17 bd 72 40 3a bd
       0.037117098 0.059336904 -0.036953844 -0.045471616
000160 4e 27 d0 bd b8 88 c0 3d 87 4c 19 bd 5e d1 dc 3d
       -0.10163747 0.09401077 -0.037426498 0.10782121
000170 4e 99 ef 3d 06 06 04 3d c9 8e 73 bd dc af dd 3c
       0.116991624 0.032232307 -0.059462342 0.027061395
000180 d0 bb 1e 3d 5e f4 d3 bd f7 72 bb bd 66 a8 46 bd
       0.03875333 -0.10349344 -0.09152787 -0.04850044
000190 0f 64 f8 bc 74 7e b9 bd 7e be 8f 3d 1f 07 a7 bd
       -0.03032115 -0.09057322 0.070187554 -0.08155655
0001a0 84 ca 8b 3d 7f bc e9 3b f9 82 02 3e a7 fa b2 bd
       0.06825736 0.007133066 0.12745275 -0.087392144
0001b0 de 1b 8f bb 0e cd ab 3b 8a a4 4a bd 7d 56 f3 3c
       -0.0043673357 0.0052429503 -0.049473323 0.029704327
0001c0 ca 30 60 bd 34 4b d9 bc f2 9a 84 3d c2 41 3f 3c
       -0.05473403 -0.026525117 0.06474866 0.011673393
0001d0 06 22 da bc a3 89 85 bd 0f 08 bd 3c 30 81 8e bd
       -0.026627552 -0.06520393 0.023075132 -0.06958234
0001e0 de c3 b0 bd d3 ba cc 3d 54 74 80 3c 78 b8 97 bb
       -0.08631109 0.099965714 0.01568047 -0.0046301447
0001f0 d9 29 a4 bd 0c 13 c7 3d a5 d7 2d 3d 30 e7 84 bd
       -0.08015794 0.0972043 0.042441983 -0.06489408
000200 9f 3e 94 bd f0 e3 de bd 8e 7b aa 3d 55 52 89 3d
       -0.072385065 -0.108833194 0.083243474 0.06705157
000210 fb 0e b2 bd f5 11 f9 3d f4 74 b6 bc 27 52 c7 3d
       -0.086942635 0.12161628 -0.022272564 0.09732466
000220 87 e4 19 3c c1 5d 8c bd 14 8a b4 bd 18 60 bb bd
       0.009392864 -0.0685382 -0.08815399 -0.09149188
000230 ad 88 67 3d 05 3f cb bd c6 40 ad bd f0 4d d1 3d
       0.05652683 -0.099241294 -0.0845962 0.102199435
000240 c5 36 d5 3d b0 12 42 3d 77 88 68 bd 60 95 b8 bd
       0.10410837 0.047381103 -0.056770768 -0.09012866
000250 2e 39 30 3d dc be bc 3b c9 7d 0f be 78 96 34 bd
       0.04302328 0.005760057 -0.14012827 -0.04408881
000260 cf 30 20 3c d5 24 94 bd 05 e0 4a 3b 68 96 3e bb
       0.009777262 -0.07233588 0.003095628 -0.0029081348
000270 79 1b df 3c cd 8d 08 be 5e b7 18 be cb 9c 41 bd
       0.02723478 -0.13335343 -0.14913699 -0.04726867
000280 48 60 0c 3e 34 a4 38 3d 11 90 a2 bd 79 af 03 3d
       0.13708603 0.04507847 -0.07937635 0.032149766
000290 05 e9 c5 3c 3f b4 83 3d 0a ea 39 bb bc 4f b4 bc
       0.024158964 0.064308636 -0.0028368258 -0.022010677
0002a0 da c5 e8 3c 80 2c 80 3d c9 09 40 bb b9 0c 88 3d
       0.028414655 0.06258488 -0.0029302707 0.06643052
0002b0 ff e9 fd 3d ea f6 88 3d df c6 d5 3b 80 66 eb bd
       0.12398147 0.0668772 0.0065239514 -0.1149416
0002c0 a6 14 38 bd 75 6f c0 3d 4e 7d 2d bc 5f 36 72 3c
       -0.044941567 0.09396259 -0.010588957 0.014783471
0002d0 73 64 f1 bc b0 64 9d 3d 3c d8 c2 bd 30 87 f8 bd
       -0.029466843 0.0768522 -0.095139 -0.1213516
0002e0 71 9c 94 bc a0 32 e9 3d 2b 7f 6d 3d 45 f4 76 b8
       -0.018141003 0.11386609 0.057982605 -5.8878464e-05
0002f0 fb bb 6d 3d 37 d8 1b 3c d9 1a 83 bc 90 cb 82 bd
       0.0580406 0.009511999 -0.016004013 -0.06386483
000300 d8 96 a7 bc b4 34 09 3d 79 8f f4 3c e6 5d 02 bd
       -0.02045767 0.033497527 0.02985357 -0.03182783
000310 ab d2 f8 bc b0 15 9e 3d 27 3f 04 3d 2b c4 80 3c
       -0.030373892 0.0771898 0.03228679 0.01571854
000320 3a 45 a4 bd e7 99 8e 3d 5b 5d 28 3e 57 bd 62 3d
       -0.080210164 0.06962948 0.16441862 0.05535635
000330 0d d3 b5 3d d1 de 62 bc 6e ed cf 3d 7a e9 28 bc
       0.08878145 -0.013847069 0.10152708 -0.010309571
000340 ba 7d 82 bd 88 6b ee 3b 56 87 86 3d c2 fc 14 3d
       -0.06371637 0.0072760023 0.06568782 0.03637386
000350 a0 4d 09 bd 71 a8 a8 3d 15 df 31 bb 79 db 5a bd
       -0.033521295 0.08235253 -0.0027141024 -0.05343196
000360 fc ed 78 bd be ec 1e bd 95 42 9d bc 07 8d 84 bc
       -0.060773835 -0.038799994 -0.019196788 -0.016180528
000370 99 e1 84 bd 91 ff aa bd 78 b0 98 ba d9 47 46 bd
       -0.06488342 -0.08349527 -0.0011649271 -0.048408363
000380 96 17 a9 bd 06 40 5b 3d 8e 79 9b 3c d5 75 29 3d
       -0.08256452 0.053527854 0.01897886 0.04137214
000390 4d 78 b1 bd 93 87 57 3d 40 62 da 3d a6 05 13 3c
       -0.08665524 0.052619528 0.10663271 0.008973515
0003a0 d4 f5 f9 bd cd d2 24 3c b1 15 f2 3c a9 75 c3 3d
       -0.12205091 0.010060024 0.029551359 0.09543926
0003b0 3b 43 9f 3d 5a 13 0e bb 17 a3 51 3d 65 a7 5a 3d
       0.07776495 -0.0021679015 0.051180925 0.053382296
0003c0 99 0e 4c bc fe df dc bc 32 1d 56 bb ff 5c ac 3d
       -0.012454652 -0.026962277 -0.003267121 0.08416175
0003d0 ea b2 b6 bc 47 df 94 3d 5a a5 f6 bb 50 f2 37 bd
       -0.02230211 0.07269149 -0.0075270357 -0.04490882
0003e0 e4 2a bd bd a5 de 61 bd 79 ac cc 3d 3e 25 a3 3d
       -0.09236696 -0.05514397 0.09993834 0.07966088
0003f0 06 17 94 3d 41 8c 8d bd 43 4c b9 3d 90 83 d3 3d
       0.07230954 -0.06911517 0.09047749 0.10327828

dnets.1.means f4 [63]
000000 5e bb b3 3e a1 e7 14 3f 32 13 14 bf 50 86 9d bf
       0.35103887 0.5816594 -0.5784179 -1.2306614
000010 6b 95 8b 3f f4 e8 68 bf 76 10 a4 3f 13 8b e6 3e
       1.0904974 -0.9098046 1.2817523 0.4502798
000020 ea 51 06 c0 ee 46 18 bf 1a 92 d9 3f 00 cb 26 bf
       -2.0987496 -0.5948323 1.6997712 -0.65153503
000030 81 23 90 bf a9 e7 9e 3f c4 e9 07 c0 be 40 87 bf
       -1.1260835 1.2414447 -2.123643 -1.0566633
000040 32 67 61 bf 39 44 b6 3f 7b e7 8f 3f 08 29 29 c0
       -0.8804809 1.423957 1.1242517 -2.6431293
000050 b0 a2 36 3f 01 d8 cc 3e 52 9d ab 3e 66 9a 9c bf
       0.7134199 0.40008548 0.33518463 -1.2234619
000060 a6 0d 07 40 3b c1 7d bf 05 ef 07 40 89 0d 90 bf
       2.110208 -0.9912297 2.1239636 -1.1254131
000070 0d 08 f7 be 82 4c 75 3d d7 b2 26 3e 6b 81 51 3d
       -0.4824833 0.059887417 0.1627916 0.051148813
000080 d3 b8 9a 3f 3f 55 9c 3f 74 3c ee bf 7e 2c 95 3f
       1.2087654 1.2213515 -1.8612199 1.1654203
000090 e8 50 ab 3f 14 50 33 3f 34 ed d7 bf de 0a 72 3f
       1.3384066 0.70044065 -1.6869264 0.9454783
0000a0 a6 bd d0 3f fa c4 4b be 05 de 8a bf e3 ce a9 3f
       1.6307876 -0.1989936 -1.0849005 1.3266262
0000b0 b0 ef 51 3f d1 1d 2f 3c d1 89 92 3d b6 48 84 3f
       0.8200636 0.010688261 0.07155193 1.033469
0000c0 f9 9a cf 3f 7f 34 3a 3f 67 4e 08 40 6e 91 1c 3f
       1.6219169 0.7273635 2.1297853 0.6115941
0000d0 0c 9f cc bf f2 cb d2 3e 86 69 e4 bf 11 16 2f c0
       -1.5986037 0.41171223 -1.7844703 -2.7357218
0000e0 f8 29 b4 3e ac e1 c1 bf 49 c0 24 bf b2 ba 5b 3f
       0.3518827 -1.5146995 -0.64355904 0.8583175
0000f0 f0 5b 36 bf c7 f2 46 3f 84 c8 93 3f
       -0.71234035 0.777142 1.1545568

dnets.1.std f4 [63]
000000 a1 d3 53 3f 20 c4 81 3e 8b 8b e2 3f 94 50 69 3f
       0.82744795 0.25344944 1.7698835 0.9113858
000010 ce 34 00 bf fc 36 94 3f 5c b4 1c 3f 62 f6 3d 3e
       -0.50080574 1.157928 0.61212707 0.18551019
000020 e0 77 a5 3f aa 86 a1 3e 1c 8c 92 3f dc 8e b4 3e
       1.2927208 0.31548053 1.1449008 0.35265243
000030 20 6d 01 3f f0 d1 af bf 41 87 aa 3f d2 56 0e 3f
       0.50557137 -1.3735943 1.3322526 0.5560123
000040 a2 0c 88 3e d5 d2 ca 3d 90 14 9f 3d b1 eb 44 3e
       0.26572138 0.09903494 0.07767594 0.19230534
000050 7a 79 74 bf c4 1c a7 3f 31 da da 3f 49 7e 69 3e
       -0.9549786 1.3055654 1.7097837 0.2280208
000060 f1 61 bd 3e 6f f7 93 3f 82 23 97 3f ca ec ad 3e
       0.36988786 1.1559886 1.1807711 0.33969718
000070 eb ca a2 3e fe 7d bf 3e a5 d4 a0 bd de 8b e2 3d
       0.3179544 0.37400812 -0.07853059 0.11061834
000080 af a4 d9 3e e2 e0 16 3f fc f8 0a 3f e8 99 83 3f
       0.42508456 0.58936894 0.5428617 1.0281343
000090 86 84 19 3f cd 30 56 3f cf dc 51 3f 08 f4 bc 3f
       0.5996784 0.83668214 0.8197755 1.4761972
0000a0 45 b6 62 3f 90 fc c1 3f cf 1b 17 3f 34 66 92 3f
       0.8855937 1.5155201 0.5902681 1.143744
0000b0 75 ee 9a 3e 1c ff 44 bc a1 5f bb 3d e9 61 f7 3e
       0.30260053 -0.012023713 0.09149099 0.48316887
0000c0 79 16 08 3f 5f a7 92 be a9 a5 d6 be 83 c3 d2 3f
       0.5315929 -0.2864332 -0.41923264 1.6465915
0000d0 01 f4 c1 3f f3 64 7b 40 a8 5c 79 3f 0d 59 ad 3f
       1.5152589 3.9280365 0.9740701 1.3542801
0000e0 69 76 31 3e e7 85 69 3f f8 75 8d 3f d4 3e 89 3e
       0.17330326 0.91219944 1.1051626 0.26805747
0000f0 6b 21 b2 3f 79 71 79 3f 00 1e 09 3f
       1.3916448 0.9743877 0.535614

dnets.1.weights_rbf f4 [24, 63]
000000 0e 48 27 3b e0 5e 82 3b 5f 92 ff 3a ba 8c b2 3a
       0.0025525126 0.003978595 0.0019498578 0.0013622262
000010 62 0c aa ba 9a 31 08 3b f4 82 be b9 da be 0f 3d
       -0.0012973661 0.0020781518 -0.00036337192 0.03509412
000020 86 66 e0 39 2b 0c aa bb 7c 96 19 3b 66 32 77 bb
       0.00042800995 -0.005189439 0.0023435643 -0.0037719249
000030 96 c5 43 bc 5e e9 19 3b 68 d4 1c 3a b4 dc b1 bb
       -0.011948964 0.0023485045 0.0005982579 -0.005427921
000040 20 58 aa bd 21 08 82 3c 21 08 82 3c 21 08 82 3c
       -0.0831759 0.015873017 0.015873017 0.015873017
000050 96 9d 16 3b 3e 21 1a 3b d5 d7 0d 3b df e5 b9 3b
       0.0022982112 0.002351835 0.0021643538 0.0056731547
000060 21 08 82 3c bd 04 05 3b 63 24 26 3b e4 c3 89 bd
       0.015873017 0.0020297014 0.0025351278 -0.06726816
000070 93 9e 92 3b b6 97 28 3b c2 61 ed 3c 51 b6 1a bc
       0.00447447 0.0025725192 0.028977279 -0.009442882
000080 ae 38 91 3b 69 0e 06 ba c6 33 4a bd 11 a7 12 3b
       0.0044318056 -0.00051138416 -0.04936578 0.0022377411
000090 70 42 96 ba 55 92 0b 3b bf 4a 9d bb f5 aa 16 3b
       -0.0011463892 0.0021296937 -0.00480017 0.0022990082
0000a0 42 46 d0 3a ed 39 0b 3b 84 7a 7c bb 6c d5 18 3b
       0.0015890079 0.0021244243 -0.0038525173 0.0023320569
0000b0 8b 5c b5 3b 88 6b 6d 3c d9 53 82 3c d9 9c c5 ba
       0.0055347136 0.0144909695 0.015909122 -0.0015076651
0000c0 c9 64 ea 3b 98 0b 9e 3b 21 08 82 3c 24 47 11 3b
       0.007153128 0.0048231594 0.015873017 0.0022167647
0000d0 ff 5e e4 3a d9 52 f4 3a 74 59 ed ba 3f 8c b9 ba
       0.001742333 0.0018640413 -0.0018108324 -0.0014156176
0000e0 62 48 26 3c 4d 16 d6 b9 38 94 11 3b c7 93 ab 3c
       0.010149093 -0.00040833876 0.002221359 0.02094449
0000f0 38 07 05 3b e2 96 15 3b 80 65 8a ba 51 bd b5 3b
       0.0020298492 0.002282553 -0.0010558814 0.00554625
000100 9b 21 24 bc bb 67 56 bb 83 ed a6 bb d1 0d 03 bc
       -0.010017778 -0.0032715637 -0.0050942316 -0.0079989
000110 2d 9e 6a bb ad 50 d4 bb 3c b2 c1 bb e4 62 0d bc
       -0.0035799847 -0.006479344 -0.00591114 -0.008629534
000120 5c a6 89 bc b3 7f fa 3a 2e 91 39 bc 61 a1 3f bc
       -0.01680296 0.0019111544 -0.011326117 -0.011696191
000130 8d 40 ed 3a 83 7d 09 bc b3 f5 45 bc 25 c2 10 3d
       0.0018100903 -0.008391741 -0.012082505 0.0353414
000140 21 08 82 3c 66 e3 84 3c 21 08 82 3c 6f 3d 77 3b
       0.015873017 0.016221713 0.015873017 0.0037725826
000150 ab 00 b2 3a 0b ca 6d ba 82 3f 20 3d 1e 0c 82 3c
       0.0013580521 -0.0009070939 0.039123066 0.015874919
000160 a6 7e 7f bb a4 59 be 3a e2 c1 8d 3d a9 fa 97 3d
       -0.00389854 0.0014522565 0.06921746 0.074208565
000170 4d 07 75 3c c5 fe 93 bc 66 45 11 bd c2 1b 0f 3b
       0.014955354 -0.01806582 -0.035466574 0.0021836613
000180 e4 f1 b0 bb 58 68 27 3d 53 3f 32 3b 17 34 21 bc
       -0.0053999294 0.040870994 0.0027198389 -0.009839079
000190 86 73 82 3b 44 f0 35 bc dd 5d aa 3a 39 f5 e0 38
       0.0039810566 -0.011104647 0.0012997944 0.000107268286
0001a0 77 59 fc ba 7a df 25 bc 97 d7 1c 3b e2 b5 0d bc
       -0.0019252737 -0.010124082 0.0023932212 -0.008649321
0001b0 85 b3 54 3c cb 86 d5 3c f7 b3 04 bc f1 d7 d8 3a
       0.012982254 0.02606525 -0.008099548 0.0016543848
0001c0 66 5f f5 bb 3a de 81 3c 27 d0 b0 38 13 b1 b6 bb
       -0.007488179 0.015853036 8.4311054e-05 -0.005575308
0001d0 2e a7 64 bb e9 3c 36 bc 87 1f 31 bc 98 dc 35 bc
       -0.0034889686 -0.011122921 -0.010810739 -0.011099957
0001e0 fe 52 08 bc 6a 87 26 bb a2 55 83 3b b5 f4 59 bb
       -0.008320568 -0.0025410303 0.004008011 -0.003325743
0001f0 48 eb 69 3b d3 e6 fb bb 8e 92 4e bb 8a a5 a5 3c
       0.0035693217 -0.0076874285 -0.003152046 0.020220537
000200 3d c1 38 bb b8 a5 ed ba 67 53 4f 3c 3d a8 d4 ba
       -0.002819135 -0.0018131053 0.012654162 -0.0016224455
000210 75 e3 48 3c b1 a3 8f 3d 08 41 10 bb a6 cd d4 bc
       0.012261261 0.070136435 -0.0022011418 -0.025976967
000220 fc 29 50 bb e4 ef 71 bc cf 9a 12 bd 73 2c 6b bb
       -0.0031763306 -0.014766667 -0.03579217 -0.0035884648
000230 67 11 00 bb 4c 37 37 bc 20 4c 99 3c 21 08 82 3c
       -0.0019541623 -0.011182617 0.018713057 0.015873017
000240 21 08 82 3c 21 08 82 3c 3b 4e 39 bb 0a 27 54 bb
       0.015873017 0.015873017 -0.0028275389 -0.0032371902
000250 84 c0 4f bb 21 08 82 3c 21 08 82 3c ff 91 c5 ba
       -0.0031700442 0.015873017 0.015873017 -0.0015073417
000260 c4 5c bc ba 2c ba d6 bd 84 3c 21 be e6 61 87 bb
       -0.0014370908 -0.10484728 -0.15745741 -0.0041315435
000270 00 61 a0 3d 3a 57 70 3c b3 07 36 3d 4d bd e3 3b
       0.07831001 0.014669234 0.044440936 0.0069500566
000280 d2 b6 6c bd 6b cf 3a bb 60 ce c0 3c ee 51 17 bb
       -0.05779154 -0.0028504978 0.023535907 -0.0023089605
000290 43 c4 8e bc 99 da 60 bb cd f2 2d b8 e2 c0 42 bb
       -0.01742757 -0.0034309982 -4.147254e-05 -0.0029717018
0002a0 8e 70 0c bc 53 91 57 bb df 0e 15 3d 6a 5a 45 3c
       -0.008571757 -0.0032893016 0.036391135 0.012045482
0002b0 b8 49 7d 3d 6f 57 13 3c 88 a2 39 3d 95 d3 0f 3d
       0.06183788 0.008993014 0.045321018 0.03511389
0002c0 21 08 82 3c a7 a4 54 bb ca 42 ae ba 00 60 4d bb
       0.015873017 -0.0032446773 -0.0013295051 -0.0031337738
0002d0 19 86 d2 bb bc ef 2c bc ad 5b 7a 3c 6e fe 58 bb
       -0.006424677 -0.010555204 0.015280646 -0.0033110636
0002e0 eb f5 05 bb 39 7f 5a 3d 13 13 17 bb ff 11 39 bb
       -0.0020440768 0.053343985 -0.002305214 -0.0028239486
0002f0 0f ca 5c 3c 9b 36 51 3b f8 70 d0 3b db 4f 46 bb
       0.013475909 0.0031923417 0.006361123 -0.003026
000300 5a b6 d9 bb d3 55 1a 3c cd 28 9c bb 8d af 21 3c
       -0.0066440525 0.009419876 -0.004765606 0.009868515
000310 44 b6 ab 3c cf dd e2 bb 0b d3 59 bc f8 23 c3 3b
       0.020960934 -0.0069234143 -0.0132949455 0.0059552155
000320 e4 7a 40 bc 5c d1 5e bc f9 ec 5c 3b f0 77 dc bb
       -0.011748049 -0.01359972 0.0033710583 -0.006728165
000330 c3 47 3a bc db be 92 bc 21 08 82 3c 21 08 82 3c
       -0.011369648 -0.017913273 0.015873017 0.015873017
000340 21 08 82 3c 9b 4f 8b 3b 40 7a 7f 3a 92 68 91 b9
       0.015873017 0.004251433 0.00097456947 -0.00027734466
000350 93 5a 83 3c 21 08 82 3c 91 09 a2 bb de 54 f6 3b
       0.0160344 0.015873017 -0.004944988 0.007517441
000360 2a 88 bd bc 0f b4 1d bc 93 ea 6b 3b 52 21 50 3c
       -0.023136217 -0.009625449 0.0035997971 0.012703257
000370 80 8f 9e ba 45 75 42 3c 2f 07 1c 3c d6 5b e3 bc
       -0.001209721 0.01186878 0.009523197 -0.027753752
000380 c2 77 aa 3b a8 07 28 3c 3d d6 a8 3b 15 60 2e bc
       0.0052022645 0.010255732 0.0051524923 -0.010643025
000390 eb 1e 14 3b 85 c6 08 3c a5 4b 1d bb 53 53 2b bc
       0.0022601436 0.008348112 -0.0024001386 -0.010456878
0003a0 34 1f 9e 3b d2 1b ea 3b a4 28 f8 3b c4 8b db 3b
       0.004825497 0.0071444297 0.007573204 0.006700011
0003b0 73 de 13 3c e6 82 4b 3c ba a1 ed 3b 1b 08 82 3c
       0.009025204 0.012421345 0.0072519453 0.015873006
0003c0 9d 4e 55 3a bc 2f a1 bb 22 f0 b3 ba 38 aa 12 bc
       0.00081370195 -0.0049190205 -0.0013728181 -0.008951716
0003d0 c7 e3 07 bc 64 a1 00 3c 46 cb 03 bc 84 eb 8d bb
       -0.008294052 0.0078509785 -0.00804407 -0.004331054
0003e0 db 25 41 3c 26 2e 7a bb 9d 00 8f 3b 39 78 1e 3c
       0.011788811 -0.003817448 0.004364087 0.009672218
0003f0 74 47 8f 39 55 b0 ab bb 1f a2 19 3a 89 d4 89 b9
       0.00027328322 -0.0052395263 0.0005860645 -0.00026289027

dnets.1.conv.weight f4 [24, 3, 5, 5]
000000 4d c3 36 3d 87 ef d3 bc 35 d1 7d bd ae 44 d7 3c
       0.044619847 -0.025871051 -0.061967093 0.026277866
000010 02 b7 90 bd cb 0f 5a 3d 4e 7c 8d bd 87 7b 85 3d
       -0.07066156 0.053237718 -0.06908475 0.065177016
000020 14 fe ff 3c 3b 09 e5 bc 23 ea b5 bc 64 26 8b 3d
       0.031249084 -0.027958503 -0.022206372 0.06794432
000030 0d b0 77 bd e5 39 65 3c f2 56 f3 bc 4f 28 d6 3c
       -0.06047063 0.013990854 -0.029704545 0.026142268
000040 12 fb 28 3c f5 c9 27 bd 8d a7 c1 bd f1 da 52 bd
       0.010313766 -0.040964086 -0.09455786 -0.05147833
000050 e1 2b d9 3d 8c 06 b8 bc fa d4 c2 bd 5d 60 6c bd
       0.10604072 -0.02246406 -0.09513278 -0.057709087
000060 4c 24 62 3c 9b 0e 9b 3d 50 76 c8 bd a4 b3 da 3c
       0.013802599 0.07571145 -0.09788191 0.026696987
000070 55 b7 ae bc 6f fa a2 3d cd 1b b5 bd c1 74 c2 3c
       -0.021327654 0.07957923 -0.08843193 0.023737313
000080 32 b4 89 3d ae ea 9e 3c 2f 28 d8 3d cc ab c4 bd
       0.06723823 0.019399013 0.105545394 -0.0960308
000090 37 1b 8e 3d 5a 5e dc bd 35 0f 5b 3d 07 8e d5 bd
       0.069387846 -0.10760184 0.0534813 -0.1042748
0000a0 fa cf 42 bb 86 e0 42 3d 90 a8 60 bd f5 2f bd 3c
       -0.0029726014 0.047577403 -0.054848254 0.023094157
0000b0 ad b4 b7 bd b0 d9 f5 3c 99 5a bf bc 2c 78 94 bd
       -0.08970008 0.030011028 -0.02335863 -0.072494835
0000c0 4e 03 f5 3d da c3 b9 3d a3 af 96 3d 10 ce b8 bd
       0.11963521 0.09070559 0.07357719 -0.09023678
0000d0 18 1d a1 3d 5b 3a 32 3c 7a b7 95 3d f6 4d 0e bd
       0.07866877 0.010878171 0.07310386 -0.034742318
0000e0 f3 07 01 3b 92 e3 cd bd 41 a3 94 3d 3c 67 97 bd
       0.0019688576 -0.10053171 0.07257701 -0.07392737
0000f0 fd 51 c3 3d fb 42 56 bd bd b9 02 bd 36 16 b6 bd
       0.095371224 -0.05230997 -0.031915415 -0.08890955
000100 73 64 a4 3d 95 27 a9 bd e8 16 87 3d 68 bf 64 3c
       0.08026972 -0.08259503 0.06596166 0.01396165
000110 75 7c 8e bd 72 3f 81 bd 45 cd 98 3d f4 a2 64 bd
       -0.06957332 -0.06310929 0.07461027 -0.055819467
000120 7e a1 bb bd aa c7 03 3e 66 1a b2 bd 03 c4 c9 bb
       -0.091616616 0.12869135 -0.08696441 -0.0061573996
000130 2b f1 f5 bc 1e 85 63 bb 84 6b d5 3c 40 62 21 bd
       -0.030022224 -0.0034716795 0.026052244 -0.03940034
000140 e4 ae d9 3d cc 02 ce 3d 16 3e 95 3d fb 61 52 bd
       0.10629061 0.10059127 0.072872326 -0.051362973
000150 96 c7 fb bc 6c 72 09 bd 6f 48 c7 3d 8b 8c 2a 3d
       -0.030734818 -0.033556387 0.097306125 0.04163794
000160 67 42 f1 bc 77 4c fc bc e5 e4 a5 bb 08 4f 3d bd
       -0.029450608 -0.03079818 -0.0050626867 -0.04621795
000170 39 15 a2 bd 2e da 89 3d e4 9e ca 3d 84 42 56 bd
       -0.07914204 0.067310676 0.09893587 -0.052309528
000180 4c d0 fb bd 32 69 08 39 e5 36 06 be df fa 92 3d
       -0.12295589 0.00013009159 -0.13106878 0.07176756
000190 28 ac a2 3d 37 6a e8 bd a2 82 c8 bc 3a c5 9e 3d
       0.079429924 -0.11348384 -0.024476353 0.07752462
0001a0 32 e8 81 bb c7 42 6d bd e7 7e f9 3d 66 6b 36 3d
       -0.0039644474 -0.057925012 0.12182408 0.044536017
0001b0 ee 15 37 3d a9 07 f3 3b 68 27 8f 3d b1 ec dd 3c
       0.04469865 0.0074166846 0.06989938 0.027090402
0001c0 a2 a4 d6 3d 55 68 91 bc 43 ff 19 bd 3f 67 78 3c
       0.1048062 -0.017749945 -0.037596952 0.015161335
0001d0 b9 c1 44 bd 21 ec 81 bd c0 9a 93 3d e7 73 14 bd
       -0.04803631 -0.06343866 0.072072506 -0.036243346
0001e0 b9 ae 88 bd e2 6e ec bd 45 f1 ff 3a 1d 47 08 bd
       -0.06673951 -0.11544587 0.001952686 -0.033270944
0001f0 60 2c 3e bd bb 8f ff 3c 97 90 cd bd b7 c0 8f bd
       -0.046429038 0.031196466 -0.10037344 -0.07019179
000200 7e 2d 34 3d f9 39 d9 bb 89 cf 57 3d 0f 8b 78 3d
       0.043988697 -0.0066292253 0.052688155 0.06067949
000210 ea 96 ae 3d 7b 94 4c bd e7 9d 4e bd 8d 4d a3 3d
       0.08524878 -0.04994629 -0.050443556 0.07973776
000220 c7 0e dd 3d 67 bf 18 3d 39 26 50 3d 0f 92 81 3d
       0.10793834 0.03729191 0.050817702 0.063266866
000230 7b 55 c0 bd 99 16 7b bd e3 36 7b 3d b8 12 98 bd
       -0.09391304 -0.061300848 0.06133164 -0.07425445
000240 9e 99 df 3c 73 c4 0b 3d 58 b7 b5 bd d4 7b 86 bc
       0.02729493 0.034122895 -0.08872861 -0.016416468
000250 e3 95 bc bd 84 60 02 bd 0d 5e d7 bc 3a ae 33 bc
       -0.09208276 -0.031830326 -0.026289964 -0.010966832
000260 de ca d1 3c 4f 6b d9 3d be 10 61 bd 6d 70 2c 3d
       0.02560943 0.106161706 -0.054947607 0.042099405
000270 b9 68 97 bd c4 93 df 3c 04 91 ac 3d 70 a7 d7 3c
       -0.07393021 0.02729214 0.08426097 0.026324958
000280 43 bb 4d 3c 2a a1 04 bd e5 2b fa bd 7c c1 84 3d
       0.012556854 -0.03238026 -0.122154035 0.06482217
000290 33 6e 68 bd d5 27 ca 3b 28 14 1f bd 58 ab 2c 3d
       -0.05674572 0.006169299 -0.038837582 0.042155594
0002a0 55 27 f4 3d 1b 25 cc 3c 9a 74 2b bd 70 9e 18 bd
       0.119215645 0.024920037 -0.041859247 -0.037260473
0002b0 68 60 86 3b 26 6b 91 bd f8 50 02 bd 66 fd 50 3d
       0.004100848 -0.07100515 -0.0318155 0.05102291
0002c0 4c 9d 63 3c b7 31 0a be b4 6a d1 bd 4e 26 3c bd
       0.013892483 -0.13495527 -0.1022543 -0.045934968
0002d0 18 65 7b bd 6f e2 a8 bd c8 53 ad 3d 95 25 9c 3c
       -0.061375707 -0.08246314 0.08463246 0.01906089
0002e0 3b 96 fe bd d0 97 5f bd fe 05 18 3e 46 07 ad 3d
       -0.12430998 -0.05458814 0.14846036 0.08448653
0002f0 80 7d 45 3d 1e 18 5a bd cb 87 0c bb 12 cd 06 3c
       0.04821539 -0.053245656 -0.0021443244 0.0082276035
000300 43 c1 ed 3d 3d 22 d6 bb 67 01 87 bb 8a a1 9f 3d
       0.11609127 -0.0065348432 -0.00412004 0.07794483
000310 21 e4 28 3d e7 14 a5 bc 69 a1 4f 3c a4 9a 67 3a
       0.041233186 -0.020151569 0.0126727605 0.0008834994
000320 73 62 4b bd b3 6e 45 3d cc 90 81 3d c0 8d 59 3b
       -0.049654435 0.048201274 0.06326446 0.0033196062
000330 21 43 be 3d 77 eb 94 3d ee a9 dc 3c 99 eb 49 3c
       0.092901476 0.07271474 0.026936498 0.012324237
000340 fa 8c 0b be ea 38 cf 3d 84 96 31 bb 69 80 12 3d
       -0.13627997 0.10118277 -0.002709777 0.035766993
000350 ae 80 ea bd a0 6e 8e bd 4a 71 d6 3d e9 7e 68 3c
       -0.11450325 -0.06954694 0.10470827 0.014190414
000360 50 59 41 bd 52 10 a8 bd 23 86 10 be 70 4c e4 bc
       -0.047204316 -0.08206238 -0.14113669 -0.02786848
000370 5e 25 c3 bc fc 1e 2f 3c 23 94 64 3c a1 25 52 3d
       -0.023821529 0.01068854 0.013951334 0.051305417
000380 c9 25 27 3d e8 08 c3 bc 98 9b 5d 3d 83 85 9e 3d
       0.04080752 -0.023807958 0.054103464 0.07740309
000390 ea eb 01 3d da e7 fe 3c aa 63 5a bd 89 ff 9e 3d
       0.031719126 0.031116415 -0.053317703 0.07763583
0003a0 94 a2 84 3d 5e 09 21 bd c1 1a 38 3d ef 30 de 3b
       0.06476322 -0.039315574 0.04494739 0.0067807357
0003b0 33 85 13 3d 71 5a a4 bd 89 f2 be bc f2 a7 fb bc
       0.0360157 -0.08025063 -0.02330901 -0.030719731
0003c0 d8 3a b6 3a 2b 60 88 3d a0 67 56 bd 55 2b 08 bb
       0.0013903035 0.066589676 -0.05234492 -0.002077778
0003d0 00 5b ec bc cd ab 8d bd 7f 71 46 bd 21 8d 8c 3c
       -0.028851986 -0.06917534 -0.048448082 0.01715714
0003e0 fc 5b 18 bd b9 b2 8e bc 94 3e e8 bc 3a ef 83 bc
       -0.037197098 -0.017419206 -0.028350152 -0.016105283
0003f0 81 d8 d7 bc 84 db bf 3c 73 b8 77 3d a2 9d d0 3c
       -0.026348354 0.023420103 0.06047864 0.02546579

dnets.2.means f4 [63]
000000 5e bb b3 3e a1 e7 14 3f 32 13 14 bf 50 86 9d bf
       0.35103887 0.5816594 -0.5784179 -1.2306614
000010 6b 95 8b 3f f4 e8 68 bf 76 10 a4 3f 13 8b e6 3e
       1.0904974 -0.9098046 1.2817523 0.4502798
000020 ea 51 06 c0 ee 46 18 bf 1a 92 d9 3f 00 cb 26 bf
       -2.0987496 -0.5948323 1.6997712 -0.65153503
000030 81 23 90 bf a9 e7 9e 3f c4 e9 07 c0 be 40 87 bf
       -1.1260835 1.2414447 -2.123643 -1.0566633
000040 32 67 61 bf 39 44 b6 3f 7b e7 8f 3f 08 29 29 c0
       -0.8804809 1.423957 1.1242517 -2.6431293
000050 b0 a2 36 3f 01 d8 cc 3e 52 9d ab 3e 66 9a 9c bf
       0.7134199 0.40008548 0.33518463 -1.2234619
000060 a6 0d 07 40 3b c1 7d bf 05 ef 07 40 89 0d 90 bf
       2.110208 -0.9912297 2.1239636 -1.1254131
000070 0d 08 f7 be 82 4c 75 3d d7 b2 26 3e 6b 81 51 3d
       -0.4824833 0.059887417 0.1627916 0.051148813
000080 d3 b8 9a 3f 3f 55 9c 3f 74 3c ee bf 7e 2c 95 3f
       1.2087654 1.2213515 -1.8612199 1.1654203
000090 e8 50 ab 3f 14 50 33 3f 34 ed d7 bf de 0a 72 3f
       1.3384066 0.70044065 -1.6869264 0.9454783
0000a0 a6 bd d0 3f fa c4 4b be 05 de 8a bf e3 ce a9 3f
       1.6307876 -0.1989936 -1.0849005 1.3266262
0000b0 b0 ef 51 3f d1 1d 2f 3c d1 89 92 3d b6 48 84 3f
       0.8200636 0.010688261 0.07155193 1.033469
0000c0 f9 9a cf 3f 7f 34 3a 3f 67 4e 08 40 6e 91 1c 3f
       1.6219169 0.7273635 2.1297853 0.6115941
0000d0 0c 9f cc bf f2 cb d2 3e 86 69 e4 bf 11 16 2f c0
       -1.5986037 0.41171223 -1.7844703 -2.7357218
0000e0 f8 29 b4 3e ac e1 c1 bf 49 c0 24 bf b2 ba 5b 3f
       0.3518827 -1.5146995 -0.64355904 0.8583175
0000f0 f0 5b 36 bf c7 f2 46 3f 84 c8 93 3f
       -0.71234035 0.777142 1.1545568

dnets.2.std f4 [63]
000000 a1 d3 53 3f 20 c4 81 3e 8b 8b e2 3f 94 50 69 3f
       0.82744795 0.25344944 1.7698835 0.9113858
000010 ce 34 00 bf fc 36 94 3f 5c b4 1c 3f 62 f6 3d 3e
       -0.50080574 1.157928 0.61212707 0.18551019
000020 e0 77 a5 3f aa 86 a1 3e 1c 8c 92 3f dc 8e b4 3e
       1.2927208 0.31548053 1.1449008 0.35265243
000030 20 6d 01 3f f0 d1 af bf 41 87 aa 3f d2 56 0e 3f
       0.50557137 -1.3735943 1.3322526 0.5560123
000040 a2 0c 88 3e d5 d2 ca 3d 90 14 9f 3d b1 eb 44 3e
       0.26572138 0.09903494 0.07767594 0.19230534
000050 7a 79 74 bf c4 1c a7 3f 31 da da 3f 49 7e 69 3e
       -0.9549786 1.3055654 1.7097837 0.2280208
000060 f1 61 bd 3e 6f f7 93 3f 82 23 97 3f ca ec ad 3e
       0.36988786 1.1559886 1.1807711 0.33969718
000070 eb ca a2 3e fe 7d bf 3e a5 d4 a0 bd de 8b e2 3d
       0.3179544 0.37400812 -0.07853059 0.11061834
000080 af a4 d9 3e e2 e0 16 3f fc f8 0a 3f e8 99 83 3f
       0.42508456 0.58936894 0.5428617 1.0281343
000090 86 84 19 3f cd 30 56 3f cf dc 51 3f 08 f4 bc 3f
       0.5996784 0.83668214 0.8197755 1.4761972
0000a0 45 b6 62 3f 90 fc c1 3f cf 1b 17 3f 34 66 92 3f
       0.8855937 1.5155201 0.5902681 1.143744
0000b0 75 ee 9a 3e 1c ff 44 bc a1 5f bb 3d e9 61 f7 3e
       0.30260053 -0.012023713 0.09149099 0.48316887
0000c0 79 16 08 3f 5f a7 92 be a9 a5 d6 be 83 c3 d2 3f
       0.5315929 -0.2864332 -0.41923264 1.6465915
0000d0 01 f4 c1 3f f3 64 7b 40 a8 5c 79 3f 0d 59 ad 3f
       1.5152589 3.9280365 0.9740701 1.3542801
0000e0 69 76 31 3e e7 85 69 3f f8 75 8d 3f d4 3e 89 3e
       0.17330326 0.91219944 1.1051626 0.26805747
0000f0 6b 21 b2 3f 79 71 79 3f 00 1e 09 3f
       1.3916448 0.9743877 0.535614

dnets.2.weights_rbf f4 [24, 63]
000000 da 92 72 bb ea 81 77 bb 96 a6 d9 3a 08 b6 80 3b
       -0.00370138 -0.0037766644 0.0016605433 0.00392795
000010 54 c3 bf bb 44 67 1e 3b 5d d6 9e bb bf 26 a1 3b
       -0.0058521423 0.0024170438 -0.0048473314 0.004917949
000020 cc 4c 98 3b 38 ba d6 3b 6a 3d 92 bb 38 6c 7d 3b
       0.004647827 0.0065529607 -0.0044628875 0.003866924
000030 16 26 10 3c 77 cc 43 bb ed c8 93 3b b9 e6 dd 3b
       0.008798143 -0.002987651 0.004510036 0.006771889
000040 ca c6 be 3d 21 08 82 3c 21 08 82 3c 21 08 82 3c
       0.0931526 0.015873017 0.015873017 0.015873017
000050 42 59 7f bb c1 16 08 bb 66 ad 94 ba 21 08 82 3c
       -0.0038963114 -0.0020765516 -0.0011343181 0.015873017
000060 21 08 82 3c 30 65 27 3b c5 d1 ab bb f1 52 c3 3d
       0.015873017 0.002554249 -0.0052435123 0.09537304
000070 e3 7a 33 3d e8 8e 94 bb 9d 12 0a bc 34 c0 e0 bc
       0.043818366 -0.0045336373 -0.008427289 -0.0274354
000080 16 de fc 3b 64 2a fc bb 88 7c 03 3d e0 42 88 bb
       0.0077169044 -0.007695483 0.032101184 -0.0041583627
000090 26 18 05 ba 97 9d 95 bb 23 b8 f1 3b 12 99 23 bb
       -0.0005077146 -0.0045659053 0.007376687 -0.0024963063
0000a0 df 10 da bb da b3 8b 3a 08 65 c5 3b 4d fd 79 bb
       -0.006654843 0.0010658458 0.0060240068 -0.0038145364
0000b0 ef a6 d4 3b 42 52 1a 3c c9 88 33 3d fd c8 0f bc
       0.0064896266 0.009419026 0.04383162 -0.008775947
0000c0 f4 c5 dc 3b fa d2 bf 3b 21 08 82 3c 01 c0 eb ba
       0.006737465 0.005854008 0.015873017 -0.0017986299
0000d0 7b 2c 38 3b 45 2f 9c 39 a8 0d d3 3b eb 6d bf 3b
       0.0028102684 0.00029789857 0.006440837 0.0058419607
0000e0 0e 50 70 bc 52 1d aa 3b 70 23 08 3b 89 b7 62 3c
       -0.014667524 0.0051914835 0.0020773076 0.0138377035
0000f0 06 2e 00 3b e1 02 80 bb ff 12 a6 bb 32 36 74 bb
       0.0019558682 -0.003906593 -0.0050681825 -0.0037263748
000100 ce e4 ad 3c 36 7c 2c 3a 07 eb ff 3b a4 57 eb 3b
       0.021227267 0.0006579788 0.00781 0.0071820784
000110 bb d2 84 3b 8b df bc 3b 2d 58 59 3c 58 41 f6 3b
       0.0040534413 0.005763953 0.013265652 0.007515114
000120 2f ee b3 3c 71 eb a6 bb df 37 cf 3c b4 44 61 bb
       0.02196416 -0.005093985 0.025295196 -0.0034373226
000130 48 d3 8d bb 1f f8 ee 3b 2c 4a 80 3c af 0d 6f bb
       -0.004328165 0.007292762 0.015660368 -0.0036476662
000140 21 08 82 3c 21 08 82 3c 21 08 82 3c 2b d7 77 bb
       0.015873017 0.015873017 0.015873017 -0.003781746
000150 ce 40 5a bb 04 94 38 bb 21 08 82 3c 21 08 82 3c
       -0.0033302787 -0.0028164396 0.015873017 0.015873017
000160 98 c1 8d 3b 6c 84 a9 bb 18 df 68 bd 96 8b 3b bd
       0.0043260567 -0.0051732566 -0.056853384 -0.045787416
000170 99 58 03 bc 90 ce 46 bc dd 0d 40 3c 1d aa a1 3c
       -0.008016729 -0.012134209 0.011722055 0.019734437
000180 13 92 bf 3a 35 d1 87 bd 25 0f 8c bb 21 86 57 3c
       0.0014615677 -0.066317 -0.0042742663 0.013154537
000190 0e 07 69 bb 53 fd ab 3a c2 c8 80 bb 6a 02 8b bb
       -0.0035557183 0.0013121761 -0.003930182 -0.004242231
0001a0 3a 2b a9 b9 b5 7b 7d 3c ac 4b 94 bb 81 cb aa 3c
       -0.00032266398 0.015471389 -0.0045256224 0.020848991
0001b0 b3 c4 f0 3b 58 7f 56 3c 38 bb 88 3b f6 bd 95 3c
       0.007347667 0.013091885 0.004172709 0.018279057
0001c0 88 eb b1 3c 21 08 82 3c 03 30 5c bb c5 48 87 3b
       0.021718755 0.015873017 -0.0033597953 0.004128548
0001d0 e7 5f 0e bb 00 ee 07 3c 34 82 33 3a bb cd b5 3c
       -0.0021724643 0.00829649 0.000684771 0.022192826
0001e0 19 79 27 3c 30 e2 63 3b f9 3c 8d 3c 66 a4 15 3b
       0.010221743 0.003477227 0.017240988 0.0022833585
0001f0 70 99 7b bb e2 87 f1 3b 7e 1b bb 3a b6 28 0e 3c
       -0.0038391016 0.007370935 0.0014275161 0.008676698
000200 ac 65 4d 3a 18 82 35 ba 01 3b fe 3b 06 1c 70 ba
       0.00078352797 -0.00069239875 0.0077584987 -0.0009159449
000210 5b 0e 00 3c ce 31 a5 3c f5 1a 80 3a 11 70 2b bc
       0.007815923 0.02016535 0.0009773659 -0.01046373
000220 c6 ab 7f 3b 52 c1 8d ba e5 ef a7 bc 0a 03 52 3b
       0.0039012297 -0.001081506 -0.020500133 0.0032045268
000230 fb 44 80 3a f7 25 dd 39 8a b3 c6 3c 21 08 82 3c
       0.0009786183 0.0004218069 0.024255533 0.015873017
000240 cd 8f 79 3c 21 08 82 3c 90 d8 36 3b 7c a9 0a 3b
       0.015232039 0.015873017 0.0027900077 0.002115815
000250 21 34 13 3b 04 08 82 3c aa 93 81 3c df 0e 60 ba
       0.0022461491 0.015872963 0.015817482 -0.0008547138
000260 4a 37 93 3b 73 cf 42 bd 36 05 cb bd 39 63 6f bb
       0.004492675 -0.04756112 -0.09913103 -0.0036527647
000270 3d 69 8a 3b 75 ff 9b bc f3 3e e1 3b 36 01 d1 3b
       0.004223971 -0.01904271 0.006873959 0.006378318
000280 ed b0 f2 bc 39 97 6a 3b 10 40 22 3c 02 66 3c 3b
       -0.02962538 0.0035795702 0.009902969 0.0028747325
000290 a1 2b 0b bc 27 82 3c 3b 56 70 9f 3b c4 1f 7b 3a
       -0.008494289 0.00287641 0.0048656864 0.00095796236
0002a0 47 a1 7c 3a f8 d8 68 3b d4 a7 4b 3c fe e1 90 3b
       0.00096370693 0.0035529714 0.01243015 0.0044214716
0002b0 6e 18 19 3c e7 20 e5 3b cf e2 f5 3a cf 16 54 3c
       0.009344203 0.0069924477 0.0018759611 0.012944891
0002c0 97 be 79 3c 62 fe 24 3b 38 2a 6e 39 22 8f 25 3b
       0.015243194 0.0025176038 0.00022713176 0.0025262316
0002d0 ba 80 2f b9 ad 4a 9a bb ed f2 f7 3b 99 7c 6e 3a
       -0.00016737255 -0.004708609 0.007566801 0.0009097546
0002e0 a8 8f 9a ba a4 bb db 3b c6 8f 22 b9 ad 8c 40 3b
       -0.001179208 0.006705718 -0.00015503084 0.0029380724
0002f0 00 b4 03 3c fb a7 e5 ba 67 04 82 3c be f3 8d 39
       0.008038521 -0.0017521376 0.01587124 0.00027075218
000300 0a a3 a2 3b 82 74 93 3b 51 82 22 3b d1 8a 90 3b
       0.0049632834 0.004499973 0.0024796913 0.0044110795
000310 d9 86 2e 3c a3 6d bd 3b c2 75 82 3c 00 d9 76 bb
       0.010652267 0.005780892 0.015925292 -0.0037665963
000320 c4 35 91 3c 3c 6a f5 b8 01 42 2b bb 62 92 b4 3b
       0.017725833 -0.00011702298 -0.002613187 0.0055106143
000330 fa b3 53 3c 19 15 3c 3c 21 08 82 3c 21 08 82 3c
       0.012921328 0.011479639 0.015873017 0.015873017
000340 21 08 82 3c 76 66 12 bb b0 3f bf ba c8 22 a4 ba
       0.015873017 -0.0022338904 -0.0014591124 -0.0012522573
000350 e9 08 82 3c 21 08 82 3c 72 cc 2a 3b 5a 22 ae bb
       0.01587339 0.015873017 0.00260618 -0.0053141536
000360 ad d1 66 bb 47 b5 88 bc 22 5a 4e bb b5 90 76 bb
       -0.0035220191 -0.016688002 -0.0031486829 -0.0037622873
000370 2a b4 f9 bb ba 24 c1 3c 2a f7 b9 ba d8 c1 d7 bc
       -0.007620354 0.023577083 -0.001418804 -0.02633755
000380 10 0f 3f bb ee b6 7c 3c b0 f5 0f bb 46 fa 3d 3b
       -0.0029153265 0.015424473 -0.002196651 0.0028988286
000390 77 05 0e bb d2 d4 a1 bb c1 17 39 39 e1 fe 47 3c
       -0.0021670738 -0.0049387002 0.00017651824 0.012206764
0003a0 6e c3 45 bb ae 31 a0 3c 98 ca ac 3b 6d 9a b1 3c
       -0.00301763 0.01955494 0.0052731745 0.021680081
0003b0 c8 25 8d 39 78 54 ca 3c 35 92 a4 3c 21 08 82 3c
       0.00026921765 0.024698481 0.020089248 0.015873017
0003c0 af c3 d6 ba 1c 6b 12 3b 84 d4 93 ba 5c 38 01 3c
       -0.0016385223 0.0022341674 -0.0011278545 0.007886972
0003d0 4c 63 0e 3b aa 87 89 3c b2 45 00 3c 49 69 19 3b
       0.0021726666 0.016788322 0.007829117 0.0023408702
0003e0 13 e8 99 3b 4f 5e a8 3a 1c 64 18 bb f9 41 b1 3b
       0.004696855 0.0012845489 -0.002325303 0.005409476
0003f0 8e 3f b8 3b 33 23 06 bc 43 b2 85 bb e2 12 ec bb
       0.0056228107 -0.008187103 -0.0040800883 -0.0072043994
