models/Gaussian_joint5.pth (torch, 115607 bytes, 32 tensors)

dnets.0.means f4 [63]
000000 4d 17 b8 3e 62 0d 16 3f 48 98 15 bf 34 2b 9e bf
       0.35955277 0.5861417 -0.5843549 -1.2356935
000010 81 bc 8c 3f c0 74 6c bf 86 07 a5 3f cf f4 e9 3e
       1.0995027 -0.92365646 1.2892921 0.45694587
000020 12 9e 06 c0 5e 97 17 bf bc e2 da 3f 59 64 26 bf
       -2.1033978 -0.59215343 1.7100444 -0.6499687
000030 04 a4 90 bf 09 0c a2 3f dc 37 08 c0 0b 9f 87 bf
       -1.1300054 1.2659923 -2.1284094 -1.0595411
000040 97 2f 5e bf ab 28 b5 3f 1d 1e 91 3f 08 29 29 c0
       -0.86791366 1.4153036 1.1337315 -2.6431293
000050 3f 2d 3a 3f 2e 41 d0 3e fa 6b ad 3e 38 e1 9b bf
       0.7272529 0.40674728 0.33871442 -1.2178106
000060 69 27 07 40 83 5c 80 bf 3c 58 08 40 d8 63 8f bf
       2.1117804 -1.0028232 2.1303854 -1.1202345
000070 e6 e0 f6 be 9c 5d 8e 3d 05 fb 23 3e 61 f1 35 3d
       -0.4821846 0.06951448 0.16013725 0.04441965
000080 12 c7 9a 3f 5e 70 9d 3f 62 0d ed bf 27 d1 96 3f
       1.2092001 1.2299917 -1.8519709 1.1782578
000090 ad 2a ac 3f 1e 7f 36 3f 43 83 d8 bf a4 b1 77 3f
       1.3450524 0.71287715 -1.6915058 0.96755433
0000a0 ae 9d d1 3f 0f 45 51 be 3a 45 8b bf fb bd ab 3f
       1.6376245 -0.204365 -1.0880501 1.3417352
0000b0 ae 76 55 3f 8e 6c 73 3c d5 46 87 3d 53 8d 85 3f
       0.83384216 0.014857424 0.06605307 1.0433754
0000c0 b7 2b cf 3f 90 2e 3d 3f 9f 5c 08 40 6b 35 1f 3f
       1.6185216 0.73899174 2.1306531 0.62190884
0000d0 7c b8 cd bf 8a 86 d4 3e aa ef e4 bf fb 5f 2f c0
       -1.6071925 0.41508895 -1.788564 -2.7402332
0000e0 6b ac b5 3e 58 67 c2 bf ff 4b 26 bf 54 a6 59 3f
       0.35483107 -1.5187788 -0.6495971 0.8501942
0000f0 c3 18 38 bf 5a 9b 4a 3f 91 dc 94 3f
       -0.71912783 0.791433 1.1629812

dnets.0.std f4 [63]
000000 c4 a9 52 3f c6 44 7f 3e df 17 e2 3f bd 22 68 3f
       0.8229029 0.24928579 1.7663535 0.90678006
000010 09 38 fc be 57 d3 93 3f 34 dd 1a 3f ef d0 3d 3e
       -0.492615 1.1548871 0.6049378 0.18536733
000020 c4 e6 a4 3f 49 a9 a1 3e d6 ea 90 3f fc a0 b4 3e
       1.2882924 0.31574467 1.1321666 0.3527907
000030 5c c3 00 3f 5f 70 ad bf f5 ef a9 3f de e2 0d 3f
       0.50298095 -1.3549918 1.3276354 0.55424297
000040 5f 8a 8e 3e 1b 3e d1 3d 30 39 9a 3d b1 eb 44 3e
       0.27839944 0.10216924 0.07530439 0.19230534
000050 45 38 72 bf 82 d1 a6 3f d4 bb da 3f ef 8f 74 3e
       -0.9461711 1.3032687 1.708857 0.23883031
000060 ea 90 bc 3e a3 66 93 3f c3 38 96 3f 77 47 b1 3e
       0.3682931 1.1515697 1.1736072 0.34624836
000070 dc 29 a5 3e 6d 05 b9 3e db a4 a8 bd e7 aa d8 3d
       0.322585 0.36136952 -0.08234569 0.10579472
000080 71 a6 d8 3e c9 bd 14 3f 7f e2 0c 3f 76 81 81 3f
       0.42314485 0.5810209 0.55033106 1.0117633
000090 9a e5 17 3f 1a 99 53 3f d9 e0 50 3f 6a 98 bb 3f
       0.5933472 0.8265549 0.8159309 1.4655888
0000a0 89 da 60 3f 8c af c0 3f 61 96 16 3f c7 f6 8f 3f
       0.8783346 1.5053573 0.5882321 1.1247185
0000b0 3b 5c 95 3e f4 df 91 bc 1a 54 9a 3d 87 a8 f2 3e
       0.2917193 -0.017806984 0.07535572 0.473942
0000c0 34 9f 08 3f b6 f8 8e be e3 54 d6 be 06 4c d2 3f
       0.53367925 -0.27924126 -0.41861638 1.642945
0000d0 d0 9e c0 3f bd 4a 7b 40 42 7a 78 3f da ce ac 3f
       1.5048466 3.9264367 0.9706155 1.3500626
0000e0 7b c9 2c 3e 87 a9 68 3f a6 58 8d 3f 67 d5 8a 3e
       0.16873734 0.9088368 1.1042678 0.27115938
0000f0 b7 df b1 3f ed e7 76 3f 6f 22 07 3f
       1.3896397 0.9644764 0.52786916

dnets.0.weights_rbf f4 [24, 63]
000000 9a 03 b6 3c d6 07 9e 3d 6e 76 8b bc b0 c8 2c bd
       0.022218514 0.07716338 -0.017024245 -0.042183578
000010 91 3e 76 3d 4c fc f7 bc fc b9 74 3d 0e 75 fa 3d
       0.06011826 -0.030271672 0.05974768 0.12229358
000020 a7 e4 36 bd d5 86 aa bd 77 71 ff 3c 1c 13 8d bd
       -0.044651654 -0.083264984 0.031182034 -0.068884104
000030 ed 20 af bd 51 5f a2 3c 11 dc 31 bd bd 38 84 bd
       -0.08551202 0.019820841 -0.043422762 -0.064561345
000040 72 9a bd 3d 21 08 82 3c 21 08 82 3c 21 08 82 3c
       0.09257974 0.015873017 0.015873017 0.015873017
000050 92 85 e4 3c d3 79 f1 3b fb 1a 48 34 11 0b 82 3c
       0.027895723 0.007369259 1.8636267e-07 0.015874417
000060 21 08 82 3c 51 a1 00 bd d0 00 1c 3d cf 8b a4 ba
       0.015873017 -0.031403843 0.038086712 -0.0012553873
000070 53 df b6 bd d3 17 ba 3c 09 35 5f 3d d1 61 12 3d
       -0.089293145 0.022716438 0.054493938 0.035737816
000080 ee 1a be 3d cd d5 5a 3d 02 3b a3 bc 4c ad fc 3c
       0.0928248 0.053426553 -0.019925598 0.030844353
000090 e5 2c 94 3d d4 a1 08 3d e1 5f 90 bd b7 c5 66 3c
       0.072351255 0.033357456 -0.070495375 0.014085225
0000a0 27 fe 2f 3d 04 90 3c bc ce 32 77 bd 9b da e2 3c
       0.042966988 -0.011508945 -0.060351186 0.02769213
0000b0 72 96 bf 3d b0 71 4c bb 86 bf dc 3b d6 f7 66 3d
       0.09354867 -0.0031195693 0.0067366986 0.0563887
0000c0 d8 56 ac 3d bd 4b be 3d 21 08 82 3c cb 93 bf 3b
       0.08415002 0.0929179 0.015873017 0.0058464757
0000d0 31 18 00 bd fa c7 cf bb 10 2b 67 bd 2e c4 77 bd
       -0.03127307 -0.0063409777 -0.056437552 -0.060489826
0000e0 88 a8 92 3d ab 99 4a bd 3f 60 e2 bc e8 86 eb 3d
       0.07161051 -0.049462955 -0.027633784 0.11500341
0000f0 98 f7 bf bc d3 b8 e7 3c 9c f6 79 3d 6f 13 67 3b
       -0.023433492 0.028286373 0.0610262 0.0035259386
000100 e7 0c 52 3b 17 ec 36 39 43 cb 08 3b 23 46 76 3b
       0.0032051147 0.00017444823 0.0020873107 0.0037578426
000110 62 94 98 3a b8 e4 73 3b f2 d0 20 3b d3 ef a7 39
       0.0011640901 0.0037215184 0.0024538604 0.00032031405
000120 7e bb 36 3b d9 5b 14 3b 11 99 c0 3b 6f 3e 08 bc
       0.002788275 0.0022637753 0.005877622 -0.008315667
000130 d6 9f ec 3a df d4 bd 39 47 3e 21 3a 7c cd 06 bb
       0.0018053006 0.0003620749 0.00061509426 -0.0020569256
000140 21 08 82 3c 21 08 82 3c 21 08 82 3c 6d 5c 49 3b
       0.015873017 0.015873017 0.015873017 0.0030725256
000150 1d b8 da 3a 31 41 58 3a 02 40 a7 3c 21 08 82 3c
       0.001668695 0.00082494604 0.020416263 0.015873017
000160 54 18 96 3a aa 1d f1 3a cf 4f fc bb f1 55 84 bb
       0.0011451342 0.0018395681 -0.0076999436 -0.0040385653
000170 aa 9a a5 3b b9 3b ea 3b f9 cb 38 ba 8c 0e 36 bb
       0.005053838 0.007148233 -0.0007049437 -0.0027779667
000180 d0 67 6f 3b ee 0b 1b bc 9b 0b 31 3b a5 0d 33 3b
       0.0036530383 -0.0094632935 0.0027014974 0.0027321365
000190 4b b1 6c 3b 94 9f a5 bb cf 16 cc 3a 8a 2c 24 3b
       0.0036116417 -0.0050544236 0.0015570762 0.0025050961
0001a0 10 f5 46 3a cf 1f ea 3a f8 7c 19 3b 94 1c 8d ba
       0.0007589618 0.0017862263 0.0023420434 -0.0010765963
0001b0 65 13 a8 39 f2 f4 9a 3b c7 e3 98 3b f2 30 5d ba
       0.00032057907 0.004728907 0.004665825 -0.00084377744
0001c0 35 95 e2 ba 21 08 82 3c a9 10 94 3a 13 22 b4 39
       -0.0017286899 0.015873017 0.0011296469 0.00034357663
0001d0 cd 94 72 b9 3f d9 6f ba 5f 88 8d bb 8d 73 18 3c
       -0.00023134351 -0.00091494987 -0.004319235 0.009304893
0001e0 df 89 c0 3a 40 bc b2 3a 64 10 a5 3a 85 9f 19 3a
       0.0014689526 0.0013636425 0.0012593386 0.0005860257
0001f0 05 e3 43 3b 30 99 6c 3b 7c ff 1a bc 60 a6 f6 ba
       0.0029889953 0.003610205 -0.009460326 -0.0018817894
000200 99 39 17 3c c4 d9 fc 3b 94 ec 69 bb 0f 4d fe 3b
       0.009230041 0.0077163894 -0.003569399 0.007760651
000210 d3 bd a1 bb e6 e3 aa bb c3 5c 05 3c 6f 55 5f 3b
       -0.004935959 -0.005215156 0.008139792 0.0034078022
000220 2f 18 02 bc e3 00 b8 3b aa 50 e8 3a 23 8a 0d bc
       -0.007940336 0.00561534 0.0017724235 -0.008638891
000230 41 c8 05 3c e7 69 bb 3b 1c 40 f6 bc 21 08 82 3c
       0.00816542 0.0057194117 -0.030059867 0.015873017
000240 21 08 82 3c 21 08 82 3c d7 90 10 bc df 4c 00 bc
       0.015873017 0.015873017 -0.008823595 -0.0078308275
000250 d4 75 9b bb 85 a6 88 3c 01 08 82 3c 69 47 fe 3b
       -0.004744271 0.016680965 0.015872957 0.0077599776
000260 06 4e dd bb 25 56 2c 3d 26 fd a0 3d e3 c6 86 bc
       -0.006753686 0.04207434 0.07860784 -0.016452258
000270 1f 5e 0f 3c a1 c3 0c 3c 6e 54 48 bc cb 2e 7f bb
       0.008750468 0.008591563 -0.012227161 -0.0038937803
000280 a6 f0 a4 3c 7f 2b 09 bc 08 93 db bb 5d e9 0c bc
       0.020134281 -0.008372187 -0.006700877 -0.00860056
000290 91 bf ba 3b 4e 8b 0a bc ee 1e c9 bb 91 26 17 3c
       0.005699106 -0.008456064 -0.0061377203 0.009225504
0002a0 5e 50 d8 3b e8 75 0a bc 00 bc b8 ba 26 4f 45 b8
       0.0066013774 -0.008450963 -0.0014094114 -4.7042173e-05
0002b0 b2 d8 23 3c eb 06 30 bb 0b de bf bc f0 fd 0c bb
       0.010000395 -0.0026859592 -0.023421308 -0.0021513663
0002c0 b8 08 82 3c 12 17 f3 bb 4e 81 04 3c 55 b5 79 3b
       0.015873298 -0.0074185217 0.008087469 0.0038102467
0002d0 be 17 f0 3b 6e d4 ec 3b d8 0f 93 bb d0 9e 00 3c
       0.007327049 0.007227472 -0.0044879727 0.007850364
0002e0 05 35 ff 3b b3 0d 16 bb ef 68 07 3c 37 78 0f bc
       0.007788303 -0.002289635 0.008264764 -0.008756689
0002f0 7b 4b 8a bb 88 5e a2 39 16 59 90 3b b8 57 b4 3a
       -0.0042204238 0.0003096948 0.004405151 0.0013759052
000300 02 ed 49 3b a9 10 9f b9 07 26 f1 3a 97 a4 ec 3a
       0.0030811434 -0.00030339256 0.0018398174 0.0018054423
000310 e3 63 78 bb 1b e8 40 3b 44 87 a8 3b 2c 6e 51 3b
       -0.0037901334 0.002943522 0.005143078 0.0031956537
000320 f2 11 e4 3b 63 1e d4 3b 24 84 03 3b 81 8b 3c 3b
       0.006960147 0.006473349 0.0020067776 0.0028769674
000330 1d b7 b4 3b c6 8f b6 3c 33 e2 6c 3c 73 d9 f9 3b
       0.005514993 0.022285353 0.014458227 0.007624799
000340 21 08 82 3c f1 5f 37 37 bb d5 4b 3a 71 93 ce 3a
       0.015873017 1.0929988e-05 0.0007775684 0.0015760494
000350 12 09 82 3c bd 5c 12 3e 5f 02 fb 3a d5 fb b5 3b
       0.015873466 0.1429319 0.0019150487 0.0055537024
000360 8f 49 9b 3b 21 f2 f8 bc b2 77 57 3b 2c 0e 51 bb
       0.0047389935 -0.030388894 0.003287774 -0.0031899316
000370 58 0d f0 3b 96 ce 32 b9 f2 98 9a 3a cf 9b 6f 3c
       0.0073258094 -0.00017052362 0.0011794849 0.01462455
000380 e1 dd a6 3a 0d c6 49 3b ee 57 63 b9 4e 62 fd 3b
       0.001273092 0.0030788213 -0.00021681163 0.007732666
000390 7f 58 d9 3a dd 23 73 3b 56 f1 84 3a 7d 12 a3 3b
       0.001658216 0.0037100234 0.0010142724 0.004976569
0003a0 03 b3 00 3b 11 f6 6c bb 6e 87 d5 3b 79 1d 2e b9
       0.001963795 -0.003615741 0.0065163886 -0.00016604913
0003b0 2a e1 4f b9 6d 9c ef 3c fd 47 1f bb c9 aa 07 3e
       -0.00019824938 0.029249394 -0.0024304383 0.13248743
0003c0 ff f5 d2 3a eb 57 02 3b 43 d9 57 3b 4d be 80 3b
       0.0016095041 0.001988883 0.0032935895 0.0039289356
0003d0 c0 a7 ae 3b c3 69 7b 3b 6b 9c 57 3b 38 29 e5 3a
       0.005330056 0.00383626 0.003289963 0.0017483598
0003e0 5d 16 8c bb 18 18 ab 3a 4c f3 03 39 f7 f9 2c 39
       -0.004275127 0.0013053445 0.00012583769 0.00016496317
0003f0 a4 fa e9 3c a8 b1 93 3d b7 c2 e0 bc e7 42 41 bd
       0.028561898 0.072116196 -0.027436597 -0.047182944

dnets.0.conv.weight f4 [24, 3, 5, 5]
000000 68 0f 64 3b 11 3e 4d 3d c5 e4 ac bd e2 67 b3 bc
       0.0034799222 0.05010802 -0.08442072 -0.021900121
000010 b0 ab 31 bd 3a 04 e8 bc 17 54 a5 bc 76 d9 16 3e
       -0.043376625 -0.028322328 -0.020181699 0.14731392
000020 d1 88 dd bb f6 7d 6d 3c 21 d8 b9 3c b7 43 36 be
       -0.0067606946 0.014495363 0.022686066 -0.17799269
000030 f2 dc 9f 3d ba 8f 8b bc 18 17 03 3d be d0 66 bd
       0.07805814 -0.017036308 0.032004446 -0.056351416
000040 a9 1b 16 bd 5f 85 3a 3e 5c ac 04 bd 61 8e 2e 3d
       -0.036647473 0.1821494 -0.032390937 0.04261625
000050 80 8e b9 3b 85 08 fc 3b d5 6d 37 3c 89 9a 72 bd
       0.0056627393 0.0076914453 0.01119562 -0.059229407
000060 59 01 34 bc d3 30 a3 bc c5 3d 21 bd b8 fb 62 bb
       -0.010986649 -0.019920742 -0.03936555 -0.00346349
000070 d6 ac 80 3d 75 a5 1b bb 63 5b 3e 3d 3f 53 ee 3b
       0.06282966 -0.0023749743 0.046473872 0.0072731073
000080 29 d7 bf bb 0b 5d 00 be 93 d4 59 bd 19 67 f7 3d
       -0.0058545065 -0.12535493 -0.053181242 0.12080211
000090 14 52 34 3e 62 b7 24 be b8 0d 10 3d 29 cd 04 bd
       0.17609435 -0.1608558 0.035169333 -0.03242222
0000a0 73 8d b0 3c c9 aa 00 bc 78 1b 59 be 7d af 23 3b
       0.021551823 -0.007853218 -0.21201885 0.0024976425
0000b0 75 19 09 bd cd f5 d1 3c 1b 90 89 3c 69 19 a0 3d
       -0.033471543 0.025629902 0.016792348 0.078173466
0000c0 93 27 b1 3d 0c 74 47 3c 59 8a 86 3c 1f 42 4c 3d
       0.08650126 0.012173664 0.016423391 0.049867745
0000d0 93 57 01 bd 9f 9b d5 3c ef 8b 5b 3c 79 c8 dc 3b
       -0.031577658 0.026075182 0.013400062 0.0067377654
0000e0 ec 20 1e bd 8f df 05 bc 5d df c6 3d 30 19 5f 3c
       -0.038605615 -0.008170976 0.09710572 0.013616845
0000f0 5a 12 f3 bd 9a b7 23 bb fc 02 54 be 9e 70 87 3d
       -0.11868735 -0.0024981261 -0.20704263 0.06613277
000100 4b 94 d9 3c fe 00 73 3c 2f 49 a8 3d 8d f1 4b 3d
       0.02655997 0.0148317795 0.08217084 0.049790908
000110 d7 69 b8 bc b2 f2 56 3c 45 4f 81 bc 15 e2 be bc
       -0.022511406 0.0131193865 -0.015784869 -0.023301164
000120 8d 79 6a bd 73 1a 9d ba c3 40 9a 3b 2e 17 38 bd
       -0.057244826 -0.0011986032 0.004707427 -0.04494398
000130 c8 c4 ed 3d 66 ea 19 bd 0a 7b b0 bc 1e 7b 23 bc
       0.11609799 -0.037577055 -0.021543045 -0.009978084
000140 a0 46 b5 bd 80 b4 d9 bd 4d c7 12 3d 3a dd 1a bb
       -0.08851361 -0.10630131 0.0358346 -0.0023630396
000150 59 af 19 3d 82 56 73 3d ca 78 16 bd f6 a9 39 bd
       0.03752074 0.059408672 -0.036736287 -0.045328103
000160 12 18 d0 bd cb 5d c1 3d ab d1 18 bd 08 11 de 3d
       -0.10160841 0.09441718 -0.03730933 0.10843092
000170 68 89 f1 3d 17 70 05 3d 67 60 6e bd 7e 35 e0 3c
       0.11793786 0.0325776 -0.058197405 0.027369257
000180 ac a3 1f 3d 19 a6 d2 bd 86 80 ba bd e1 16 41 bd
       0.03897445 -0.10285587 -0.09106545 -0.04714096
000190 dd 2b e7 bc 4a 0d b7 bd 1a 2b 93 3d 32 0a a3 bd
       -0.028219158 -0.089380816 0.07185955 -0.07960929
0001a0 30 f3 8e 3d 8f a1 0c 3c 8c b6 03 3e 4a 2e af bd
       0.06979978 0.00858344 0.12862605 -0.08553751
0001b0 5c 87 3b bb 60 0f d9 3b ac 02 47 bd 63 bf fe 3c
       -0.0028614616 0.0066241473 -0.048586532 0.03109712
0001c0 1c 43 5b bd 56 fc ce bc ca 1a 87 3d 24 43 57 3c
       -0.053530797 -0.025266808 0.065969065 0.013138566
0001d0 18 a8 c9 bc 70 9d 81 bd 2d ee c8 3c 67 80 8a bd
       -0.024616286 -0.06328857 0.024527634 -0.06762772
0001e0 6a a2 ac bd db 39 d1 3d 5a fa 92 3c f1 f4 41 bb
       -0.084294155 0.10216113 0.017941643 -0.002959546
0001f0 45 3d 9f bd 03 ab c6 3d e3 3e 2a 3d 84 3c 85 bd
       -0.07775358 0.09700587 0.04156388 -0.06505683
000200 98 19 92 bd 19 28 dd bd 01 ed a8 3d 6b 43 87 3d
       -0.07133788 -0.10798664 0.0824833 0.06604656
000210 28 70 b1 bd 52 99 fa 3d 7a 40 b2 bc 3d 87 c5 3d
       -0.0866397 0.12236275 -0.02175926 0.09644935
000220 82 06 12 3c 17 55 8d bd 20 80 b4 bd 5e c1 bb bd
       0.008912684 -0.06900995 -0.088135004 -0.09167741
000230 70 5b 66 3d 8d 32 cb bd 56 ef ac bd 01 68 d1 3d
       0.056239545 -0.09921751 -0.08444087 0.10224915
000240 79 b9 d5 3d f9 af 42 3d 25 76 68 bd 6b 0e b8 bd
       0.10435767 0.0475311 -0.056753296 -0.08987125
000250 a0 c5 2f 3d c3 b1 c8 3b 7d 05 0c be ac 8a 30 bd
       0.04291308 0.0061247065 -0.13673969 -0.043100998
000260 d5 c8 80 3c d7 cb 92 bd 9e 17 8a 3a a2 d8 a4 3a
       0.015720764 -0.071677856 0.0010535603 0.0012576769
000270 4f 38 11 3d ed 54 0a be 35 15 18 be ee 78 2b bd
       0.03545409 -0.13508959 -0.1485184 -0.041863374
000280 f7 a4 10 3e 41 f6 2f 3d 43 0a a3 bd 1e 18 26 3d
       0.14125429 0.042959455 -0.07960942 0.040550344
000290 94 d2 ae 3c b6 bb 8c 3d 60 e7 21 bc d4 62 a2 bc
       0.021340646 0.068717405 -0.009881824 -0.019822516
0002a0 20 7b 0a 3d 64 ba 85 3d ad 6e 46 bb b8 f9 6f 3d
       0.033808827 0.06529692 -0.003027837 0.05858776
0002b0 c4 e3 f1 3d b0 c9 80 3d 62 71 84 3b 98 bd e9 bd
       0.11811021 0.06288469 0.0040418366 -0.11413115
0002c0 5f 54 41 bd 5a 56 c5 3d 02 26 51 bc 85 f5 1c 3c
       -0.047199603 0.09635611 -0.012765409 0.009580021
0002d0 e9 3b ef bc 36 0b ac 3d 65 3d c7 bd bd 90 f8 bd
       -0.029203372 0.08400576 -0.09728507 -0.12136982
0002e0 a3 14 88 bc bf 0c ee 3d 59 59 5d 3d bf f9 8e bb
       -0.016611403 0.11623525 0.054040287 -0.004363268
0002f0 4a 51 83 3d 3f bb 76 3b 74 66 01 bc ae 18 95 bd
       0.06411989 0.0037648228 -0.007897962 -0.07280098
000300 df ea a9 bc 9f 0a 1e 3d a8 00 08 3d 91 b0 07 bd
       -0.020741878 0.038584348 0.03320375 -0.03312737
000310 32 19 1c bd 01 82 94 3d 3d 92 e2 3c 41 24 2e 3c
       -0.038109966 0.07251359 0.027657622 0.010628761
000320 30 79 a2 bd de da 8a 3d 19 0f 2d 3e c3 d3 5b 3d
       -0.07933271 0.06780027 0.1690029 0.05366875
000330 8a 07 a4 3d f0 06 2a bc 14 1b e6 3d c2 aa 42 bc
       0.080092505 -0.010377631 0.112356335 -0.011881532
000340 d8 ba 80 bd 02 66 0f 3c 1f 43 94 3d 3d 0a 11 3d
       -0.062856376 0.008752348 0.07239365 0.035410155
000350 a9 9c 11 bd 97 9c b4 3d 03 36 22 bc c5 38 33 bd
       -0.035549793 0.0881893 -0.009900573 -0.04375531
000360 3b a3 91 bd 94 17 24 bd 4b 2e 87 bc fc 0f 6b bc
       -0.07111212 -0.04006155 -0.016501566 -0.014347073
000370 67 cb 6e bd bd 02 b2 bd f7 29 87 bb 61 db 52 bd
       -0.05829945 -0.086919285 -0.0041248756 -0.051478747
000380 0d 08 af bd c5 da 56 3d 31 04 91 3c 84 26 25 3d
       -0.085464574 0.05245473 0.017702194 0.040319934
000390 54 3b b3 bd 2f ae 51 3d a4 7a d8 3d ba 2c fb 3b
       -0.0875155 0.051191505 0.10570267 0.007665244
0003a0 9a fa fa bd ab c1 10 3c ef e1 e4 3c 81 66 c0 3d
       -0.1225483 0.008835237 0.027939765 0.09394551
0003b0 e2 32 9c 3d d7 38 5d bb eb e8 49 3d 0c 00 52 3d
       0.076268926 -0.0033755803 0.049294394 0.051269576
0003c0 5b f4 61 bc 2b 3b e9 bc bb 99 9e bb 3c 60 a8 3d
       -0.013791169 -0.028470596 -0.0048401034 0.0822148
0003d0 71 ff c5 bc fc f7 91 3d c4 6d 12 bc bf d6 3c bd
       -0.024169656 0.071273774 -0.008937303 -0.046103235
0003e0 4a 0f c0 bd 04 4c 69 bd 0c e3 c9 3d 25 9a 9f 3d
       -0.09377916 -0.05695726 0.09857759 0.077930726
0003f0 21 d1 91 3d 1a 34 8f bd ae fb b5 3d e7 78 d1 3d
       0.07119966 -0.069923595 0.08885895 0.102281384

dnets.1.means f4 [63]
000000 4d 17 b8 3e 62 0d 16 3f 48 98 15 bf 34 2b 9e bf
       0.35955277 0.5861417 -0.5843549 -1.2356935
000010 81 bc 8c 3f c0 74 6c bf 86 07 a5 3f cf f4 e9 3e
       1.0995027 -0.92365646 1.2892921 0.45694587
000020 12 9e 06 c0 5e 97 17 bf bc e2 da 3f 59 64 26 bf
       -2.1033978 -0.59215343 1.7100444 -0.6499687
000030 04 a4 90 bf 09 0c a2 3f dc 37 08 c0 0b 9f 87 bf
       -1.1300054 1.2659923 -2.1284094 -1.0595411
000040 97 2f 5e bf ab 28 b5 3f 1d 1e 91 3f 08 29 29 c0
       -0.86791366 1.4153036 1.1337315 -2.6431293
000050 3f 2d 3a 3f 2e 41 d0 3e fa 6b ad 3e 38 e1 9b bf
       0.7272529 0.40674728 0.33871442 -1.2178106
000060 69 27 07 40 83 5c 80 bf 3c 58 08 40 d8 63 8f bf
       2.1117804 -1.0028232 2.1303854 -1.1202345
000070 e6 e0 f6 be 9c 5d 8e 3d 05 fb 23 3e 61 f1 35 3d
       -0.4821846 0.06951448 0.16013725 0.04441965
000080 12 c7 9a 3f 5e 70 9d 3f 62 0d ed bf 27 d1 96 3f
       1.2092001 1.2299917 -1.8519709 1.1782578
000090 ad 2a ac 3f 1e 7f 36 3f 43 83 d8 bf a4 b1 77 3f
       1.3450524 0.71287715 -1.6915058 0.96755433
0000a0 ae 9d d1 3f 0f 45 51 be 3a 45 8b bf fb bd ab 3f
       1.6376245 -0.204365 -1.0880501 1.3417352
0000b0 ae 76 55 3f 8e 6c 73 3c d5 46 87 3d 53 8d 85 3f
       0.83384216 0.014857424 0.06605307 1.0433754
0000c0 b7 2b cf 3f 90 2e 3d 3f 9f 5c 08 40 6b 35 1f 3f
       1.6185216 0.73899174 2.1306531 0.62190884
0000d0 7c b8 cd bf 8a 86 d4 3e aa ef e4 bf fb 5f 2f c0
       -1.6071925 0.41508895 -1.788564 -2.7402332
0000e0 6b ac b5 3e 58 67 c2 bf ff 4b 26 bf 54 a6 59 3f
       0.35483107 -1.5187788 -0.6495971 0.8501942
0000f0 c3 18 38 bf 5a 9b 4a 3f 91 dc 94 3f
       -0.71912783 0.791433 1.1629812

dnets.1.std f4 [63]
000000 c4 a9 52 3f c6 44 7f 3e df 17 e2 3f bd 22 68 3f
       0.8229029 0.24928579 1.7663535 0.90678006
000010 09 38 fc be 57 d3 93 3f 34 dd 1a 3f ef d0 3d 3e
       -0.492615 1.1548871 0.6049378 0.18536733
000020 c4 e6 a4 3f 49 a9 a1 3e d6 ea 90 3f fc a0 b4 3e
       1.2882924 0.31574467 1.1321666 0.3527907
000030 5c c3 00 3f 5f 70 ad bf f5 ef a9 3f de e2 0d 3f
       0.50298095 -1.3549918 1.3276354 0.55424297
000040 5f 8a 8e 3e 1b 3e d1 3d 30 39 9a 3d b1 eb 44 3e
       0.27839944 0.10216924 0.07530439 0.19230534
000050 45 38 72 bf 82 d1 a6 3f d4 bb da 3f ef 8f 74 3e
       -0.9461711 1.3032687 1.708857 0.23883031
000060 ea 90 bc 3e a3 66 93 3f c3 38 96 3f 77 47 b1 3e
       0.3682931 1.1515697 1.1736072 0.34624836
000070 dc 29 a5 3e 6d 05 b9 3e db a4 a8 bd e7 aa d8 3d
       0.322585 0.36136952 -0.08234569 0.10579472
000080 71 a6 d8 3e c9 bd 14 3f 7f e2 0c 3f 76 81 81 3f
       0.42314485 0.5810209 0.55033106 1.0117633
000090 9a e5 17 3f 1a 99 53 3f d9 e0 50 3f 6a 98 bb 3f
       0.5933472 0.8265549 0.8159309 1.4655888
0000a0 89 da 60 3f 8c af c0 3f 61 96 16 3f c7 f6 8f 3f
       0.8783346 1.5053573 0.5882321 1.1247185
0000b0 3b 5c 95 3e f4 df 91 bc 1a 54 9a 3d 87 a8 f2 3e
       0.2917193 -0.017806984 0.07535572 0.473942
0000c0 34 9f 08 3f b6 f8 8e be e3 54 d6 be 06 4c d2 3f
       0.53367925 -0.27924126 -0.41861638 1.642945
0000d0 d0 9e c0 3f bd 4a 7b 40 42 7a 78 3f da ce ac 3f
       1.5048466 3.9264367 0.9706155 1.3500626
0000e0 7b c9 2c 3e 87 a9 68 3f a6 58 8d 3f 67 d5 8a 3e
       0.16873734 0.9088368 1.1042678 0.27115938
0000f0 b7 df b1 3f ed e7 76 3f 6f 22 07 3f
       1.3896397 0.9644764 0.52786916

dnets.1.weights_rbf f4 [24, 63]
000000 94 2e c4 3a c6 9e 03 3c 70 42 a7 3a 7a 31 90 3a
       0.0014967495 0.00803346 0.0012760889 0.0011001073
000010 ee ab b5 ba 0b 4a d1 3a bc 2c 98 ba bd 81 24 3d
       -0.0013860443 0.0015967501 -0.0011610012 0.04016279
000020 da 5c b6 38 67 bf ac bb 79 19 93 3a a7 7d 80 bb
       8.695731e-05 -0.0052718404 0.0011222801 -0.003921229
000030 e7 3e 51 bc 1c a1 ac 3a 3b b5 80 39 b6 ab bc bb
       -0.012771345 0.0013170573 0.0002454909 -0.005757774
000040 14 3e b3 bd 21 08 82 3c 21 08 82 3c 21 08 82 3c
       -0.08752075 0.015873017 0.015873017 0.015873017
000050 a4 36 99 3a ca e8 c2 3a 4f e1 b2 3a d5 80 10 3c
       0.0011689258 0.0014870402 0.001364747 0.008819778
000060 21 08 82 3c 29 c8 cd 3a 2f 77 a8 3a 62 95 90 bd
       0.015873017 0.0015699911 0.0012852902 -0.070597425
000070 98 02 ab 3b 87 63 65 3a 5c a7 2a 3d 99 09 42 bc
       0.005218815 0.00087504875 0.041663513 -0.011843109
000080 17 12 cd 3b 67 85 a3 ba 21 63 53 bd 59 47 87 3a
       0.00625826 -0.001247567 -0.05160821 0.0010320946
000090 8a c8 e1 ba 4f a7 6b 3a 89 f6 a7 bb 50 f0 b1 3a
       -0.0017225903 0.00089894695 -0.005125825 0.0013575647
0000a0 10 17 9f 39 f5 48 b8 3a 3e ee 86 bb dd 35 99 3a
       0.00030344026 0.0014059829 -0.004117756 0.0011689026
0000b0 26 99 05 3c 4e 53 21 3c 80 da 8e 3c 7b 32 c6 ba
       0.008154189 0.009846522 0.017438173 -0.0015121246
0000c0 a8 26 04 3c 72 ba 03 3c 21 08 82 3c c4 62 b3 3a
       0.008065857 0.0080400575 0.015873017 0.0013686051
0000d0 31 65 a5 3a af a3 91 3a de 64 08 bb 8c dc e3 ba
       0.0012618658 0.0011111404 -0.0020812075 -0.0017384454
0000e0 88 2f 8c 3c b7 16 2c ba 7b 4f dc 3a 24 28 b1 3c
       0.017112508 -0.0006564664 0.0016808355 0.021625586
0000f0 29 1d bb 3a 93 12 96 3a ea e4 b9 ba 4d af ac 3b
       0.0014275658 0.0011449627 -0.0014182602 0.005269921
000100 25 22 36 bc ef 07 8e bb 4f 37 86 bb bc ea 18 bc
       -0.011116539 -0.004334442 -0.0040959488 -0.009333309
000110 b5 8d 76 bb f2 b7 f2 bb 0b 7d 0e bc 9b 19 f4 bb
       -0.0037621085 -0.007407182 -0.008696805 -0.0074493415
000120 2b 00 4a bc c6 ce 03 3b 62 da e4 bb 8a 70 c5 bb
       -0.012329142 0.002011226 -0.006984041 -0.0060253786
000130 77 a0 e3 3a ea 0b ef bb 01 1c 06 bc 81 f3 32 3d
       0.0017366548 -0.0072951214 -0.008185388 0.043689255
000140 d2 07 82 3c dd 28 4a 3c 21 08 82 3c c1 1b 7f 3b
       0.01587287 0.012338844 0.015873017 0.0038926455
000150 83 0d b8 39 d6 73 36 bb e0 04 10 3d a9 53 81 3c
       0.00035105282 -0.002784004 0.0351609 0.015786963
000160 ff 6e 81 bb d7 fb b9 3a 98 e9 99 3d c1 f7 99 3d
       -0.0039499993 0.0014189434 0.075152576 0.075179584
000170 94 7d 6e 3c 53 43 61 bc d4 90 f7 bc 33 70 ac ba
       0.014556307 -0.0137489615 -0.030220427 -0.0013155997
000180 9a e9 ce bb e4 f5 3a 3d 89 fd 3f 3b b0 02 37 bc
       -0.0063144686 0.045644656 0.0029295406 -0.011170074
000190 41 5f 8d 3b 7f c4 01 bc 3b 89 7a 3a 3c 95 17 b8
       0.0043143337 -0.0079203835 0.0009557192 -3.614019e-05
0001a0 de 5c 91 bb a7 56 db bb 38 c0 25 3b 45 b4 27 bc
       -0.0044361195 -0.0066936794 0.0025291573 -0.010235851
0001b0 55 8e b4 3c 1e c4 02 3d 79 97 18 bc 2d 08 2a bb
       0.022040525 0.031925313 -0.009313458 -0.0025944815
0001c0 3a f9 0b bc b2 02 7b 3c a5 05 4f ba fe 3c ae bb
       -0.008543307 0.015320467 -0.00078972644 -0.0053173294
0001d0 79 40 b7 bb d1 08 14 bc 39 a2 14 bc a0 d2 58 bc
       -0.0055924025 -0.009035305 -0.00907188 -0.013233811
0001e0 78 19 d6 bb 7d 0a 51 bb 34 85 14 3b a8 0c 82 bb
       -0.006533798 -0.003189712 0.0022662403 -0.003968794
0001f0 9a 1c 73 3b ed 18 12 bc 49 0b 19 bc 78 18 bd bb
       0.0037095905 -0.008917076 -0.0093410695 -0.005770739
000200 09 f0 30 3b 39 76 6f 3c cc 81 15 bc 4d 9a 27 3c
       0.002699854 0.014615589 -0.009125184 0.010229659
000210 7c f9 09 bc 2e 2f 2a 3d b2 9a 59 3c 11 a3 ba bb
       -0.008421298 0.0415489 0.013281511 -0.0056957086
000220 8c 71 8d bc c5 48 ad 3b 57 00 86 bc f1 59 43 bc
       -0.017266057 0.005288216 -0.016357584 -0.011923299
000230 31 40 59 3c e5 41 04 3c 26 f0 ef 3c 21 08 82 3c
       0.013259933 0.008072351 0.029289316 0.015873017
000240 21 08 82 3c 21 08 82 3c 07 83 4c bc d1 de a8 bb
       0.015873017 0.015873017 -0.012482411 -0.005153515
000250 16 03 43 bb 21 08 82 3c 21 08 82 3c 3a 79 32 3c
       -0.0029756478 0.015873017 0.015873017 0.0108931605
000260 35 05 8a bc 0e 2f c8 bd 88 d6 0c be 74 d4 05 bc
       -0.016848186 -0.097746 -0.13753712 -0.008168329
000270 06 27 57 3d 89 2d ee 3a 2d 9e bc 3c 7c 00 63 bc
       0.05252745 0.001817153 0.023024643 -0.013855096
000280 4d d8 62 bd da a8 7e bc ae fa 23 3b ab 4f 66 bc
       -0.05538206 -0.015543187 0.0025021243 -0.01405708
000290 ee c6 6d 3a e6 41 0e bc 1d e9 91 bc 79 b6 6f 3a
       0.00090704754 -0.008682704 -0.017811352 0.0009144317
0002a0 94 fa 2b 3c 3f 43 7a bc e4 ab 4f 3c f7 27 8a 3c
       0.010496754 -0.015274822 0.012675259 0.01686476
0002b0 da d9 40 3d c1 b3 52 bc 13 22 fb 3c 8c 4c 24 3c
       0.04708276 -0.0128602395 0.030655896 0.010028016
0002c0 21 08 82 3c 41 92 a5 bb cb 52 2e 3c 2e 3a b6 ba
       0.015873017 -0.005052835 0.010639857 -0.0013902837
0002d0 ff 35 34 3c d2 49 b9 3b 55 19 3b bc 19 e0 65 3c
       0.010999202 0.005654552 -0.011419614 0.01403048
0002e0 f6 92 07 3c 01 1f 05 3d d8 e2 c4 3b f1 02 53 bc
       0.008274784 0.03250027 0.006008487 -0.012879119
0002f0 69 78 02 bc 3f 0d 43 3b c4 3c f0 3b 73 19 9f bb
       -0.007963278 0.0029762534 0.0073314626 -0.0048553287
000300 9c 8f f4 bb 5e b4 37 3c 1f dd d1 bb de 16 3e 3c
       -0.0074634086 0.0112124365 -0.0064045335 0.011602132
000310 aa d1 a9 3c 67 93 ff bb 9a 89 2b bc 68 c8 e3 3b
       0.020729858 -0.007799554 -0.0104698185 0.0069513805
000320 69 46 1b bc 27 08 3c bc 97 e1 71 3b 44 0a fb bb
       -0.009477236 -0.011476553 0.0036908144 -0.007661136
000330 1b 05 2a bc b4 61 31 bc 21 08 82 3c 21 08 82 3c
       -0.010377194 -0.010826517 0.015873017 0.015873017
000340 21 08 82 3c fb c0 98 3b 34 75 18 39 02 6c c6 ba
       0.015873017 0.004661677 0.00014539511 -0.001513839
000350 c5 5c 83 3c 21 08 82 3c 9a 21 d5 bb 73 dc 0d 3c
       0.016035447 0.015873017 -0.0065042498 0.008658516
000360 ec 7a 92 bc b2 11 0e bc 49 03 da 3a 61 f8 96 3c
       -0.01788088 -0.008671211 0.0016633059 0.018428983
000370 1b 6d 17 bb ee 2d 5f 3c 10 89 38 3c 3c 57 d7 bc
       -0.0023105803 0.01362179 0.011263147 -0.026286714
000380 71 92 c5 3b ad 26 45 3c 10 86 be 3b 54 20 29 bc
       0.00602942 0.012033147 0.0058143213 -0.010322649
000390 45 90 0b 3b c5 bc 1f 3c 21 6a 8d bb 35 ed 1f bc
       0.0021295708 0.009749596 -0.00431563 -0.009761144
0003a0 c8 e2 b6 3b 61 a5 0d 3c f0 b6 18 3b 55 b5 16 3c
       0.0055812337 0.008645386 0.0023302399 0.009198506
0003b0 82 6e 31 3c 13 a8 65 3c 9e 82 0b 3c 23 08 82 3c
       0.01082957 0.014017123 0.008515028 0.01587302
0003c0 a8 f9 3e 38 c5 da d1 bb a0 13 37 bb db 8c 17 bc
       4.553204e-05 -0.006404253 -0.0027935281 -0.009249891
0003d0 48 65 11 bc 0a d7 07 3c 06 a0 0a bc cb 61 cb bb
       -0.008874245 0.008291015 -0.008461004 -0.006206726
0003e0 08 3e 65 3c a7 58 b6 bb c6 7f 9e 3b 10 b7 3b 3c
       0.01399184 -0.0055647674 0.004837009 0.01145722
0003f0 66 8b 30 ba b0 e1 b6 b9 52 e9 ef 3a 99 36 58 3a
       -0.0006734639 -0.00034881895 0.0018303788 0.0008247882

dnets.1.conv.weight f4 [24, 3, 5, 5]
000000 61 92 3c 3d ce bf b2 bc 7a 0b 6b bd bd a5 ef 3c
       0.046038035 -0.021819975 -0.05738399 0.029253835
000010 42 4e 8b bd a4 a3 62 3d 78 89 87 bd df bb 87 3d
       -0.06802036 0.05533184 -0.06618017 0.066276304
000020 b4 f9 07 3d 76 07 c9 bc bc 50 b9 bc cd 3d 8e 3d
       0.03319712 -0.02453969 -0.022621505 0.06945381
000030 2a 92 80 bd 6c b0 55 3c ad 9c e5 bc 2e f5 c2 3c
       -0.062778786 0.0130425505 -0.02802881 0.023798551
000040 35 17 27 3c 2a 81 37 bd d7 74 c9 bd 2a 52 57 bd
       0.010198404 -0.044800915 -0.098367386 -0.052568592
000050 c9 d7 d0 3d 0c 70 b6 bc 04 41 c2 bd 68 ff 5f bd
       0.10197408 -0.022270225 -0.09485057 -0.054686934
000060 14 b4 8b 3c 57 37 9a 3d 98 2c c5 bd 0e 61 e1 3c
       0.017053641 0.075300865 -0.09627646 0.0275121
000070 5c 17 ba bc 86 51 9e 3d 82 4a b3 bd 1d fe cb 3c
       -0.022716217 0.07730393 -0.087544456 0.024901444
000080 04 20 87 3d 0c a4 92 3c 3f 65 d6 3d f7 09 c7 bd
       0.06597903 0.01790049 0.1046853 -0.097186975
000090 fb ff 8e 3d 84 2b e4 bd f7 45 4c 3d e3 2d d9 bd
       0.06982418 -0.111411124 0.04987141 -0.10604455
0000a0 f7 b6 c5 bb e8 a7 3e 3d a2 22 77 bd ed 7b 89 3c
       -0.006033774 0.046546847 -0.060335763 0.016782725
0000b0 4f 24 c0 bd 36 f3 c9 3c eb e4 cb bc 3d 75 99 bd
       -0.09381925 0.024652105 -0.02488943 -0.074930646
0000c0 64 e9 f4 3d 4f da b9 3d de 65 9a 3d ee 74 b0 bd
       0.11958578 0.09074842 0.07538961 -0.086160526
0000d0 31 99 a8 3d 0d 38 4a 3c 07 ce 96 3d 25 95 00 bd
       0.08232344 0.012342465 0.07363515 -0.031392235
0000e0 d2 c7 c5 3b 6d bd c9 bd 9e 98 98 3d 94 f1 91 bd
       0.0060357833 -0.09850583 0.074509844 -0.071261555
0000f0 de 0a c7 3d f8 04 46 bd c6 e5 01 bd c5 d7 b4 bd
       0.097188696 -0.048344582 -0.03171327 -0.08830217
000100 4f b8 a9 3d 72 b0 a8 bd 3a 13 8d 3d 1d 14 55 3c
       0.08287107 -0.08236779 0.06888433 0.013005284
000110 e1 26 92 bd 33 1a 80 bd 7b 8d 94 3d a8 71 5a bd
       -0.07136322 -0.06254997 0.07253548 -0.053331047
000120 1c 46 b7 bd 60 16 08 3e ca 93 a8 bd 0a 2c 1c bc
       -0.08948919 0.13289785 -0.082313135 -0.009531984
000130 39 5f 02 bd 3f ab d6 bb 99 41 cc 3c ff 66 15 bd
       -0.031829093 -0.006551176 0.024933623 -0.036475178
000140 7e aa d5 3d a3 6d cf 3d f4 79 91 3d 8a 70 56 bd
       0.104329094 0.101283334 0.07103339 -0.05235342
000150 af 85 e5 bc f0 c7 06 bd 21 c9 cd 3d d6 d7 2c 3d
       -0.028017847 -0.03290552 0.10048128 0.042198025
000160 95 0b f0 bc d7 b9 e6 bc e2 7f 89 bb 83 de 30 bd
       -0.029302398 -0.028164787 -0.004196153 -0.043180954
000170 a4 43 a2 bd 51 a6 89 3d f4 8b ca 3d 96 c5 58 bd
       -0.07923058 0.067211755 0.09889975 -0.052922808
000180 38 5b fb bd de 19 ab ba a5 d8 04 be f7 7a 93 3d
       -0.12273258 -0.0013053974 -0.12973268 0.07201188
000190 da 15 9c 3d 47 ac eb bd 2b 2a e6 bc 05 83 9a 3d
       0.07621355 -0.11507469 -0.02809628 0.07544521
0001a0 2c 9d 13 bb 97 b9 72 bd 42 aa fb 3d 0b f1 2d 3d
       -0.0022524102 -0.059259024 0.122883335 0.042466205
0001b0 be 51 2f 3d 76 6a 17 3c 50 2c 91 3d 10 e5 fa 3c
       0.042802565 0.009241691 0.0708853 0.030626804
0001c0 a6 af d8 3d 45 6e 88 bc 8f f5 0e bd a4 0f 81 3c
       0.10580377 -0.016654143 -0.03490215 0.015754528
0001d0 ca 84 39 bd fd 2c 81 bd 15 b5 96 3d 82 0c 0f bd
       -0.045292653 -0.06307409 0.073587574 -0.034924038
0001e0 7b 99 89 bd 79 08 ec bd a0 fb 81 3a 18 d2 fd bc
       -0.06718727 -0.115250535 0.0009916909 -0.03098397
0001f0 ad 1e 38 bd a7 28 e8 3c ac b4 cf bd 9b 50 95 bd
       -0.04495113 0.028339697 -0.10141882 -0.07290765
000200 04 da 31 3d 10 1a 4e bb 90 5d 4e 3d 5e 64 7b 3d
       0.043420807 -0.003144864 0.050382197 0.061375014
000210 db d6 a9 3d db 90 51 bd 91 82 41 bd 19 7d a2 3d
       0.082929336 -0.051163536 -0.04724366 0.07934017
000220 83 2a e2 3d 49 a2 17 3d f9 77 50 3d db bd 87 3d
       0.11043265 0.03702 0.050895665 0.06628009
000230 c1 37 c1 bd e8 7e 72 bd 13 24 7a 3d 82 80 95 bd
       -0.09434462 -0.05920306 0.06106956 -0.072999015
000240 d6 da ec 3c 5b d0 03 3d 5f df b6 bd 2c a8 8e bc
       0.028912943 0.032181125 -0.089293234 -0.017414175
000250 66 ae b6 bd ab 74 f0 bc 36 03 c5 bc 7d 9c 30 bc
       -0.089199826 -0.029352507 -0.024049383 -0.010779497
000260 3e 01 d2 3c 67 ba d4 3d 2e b5 70 bd a1 3f 3d 3d
       0.025635358 0.10387116 -0.058766536 0.04620326
000270 7e 0f 92 bd 11 4c db 3c 7b 9e ad 3d 57 36 c2 3c
       -0.07131861 0.02676967 0.084774934 0.023707552
000280 15 14 a0 3c 4f 16 ea bc 2a 5c f6 bd 92 e4 8a 3d
       0.019540826 -0.02857509 -0.12029298 0.067818776
000290 c9 4d 63 bd 0d 3a 79 3c 07 16 ff bc bb 72 3c 3d
       -0.055494104 0.015211594 -0.031138433 0.046007853
0002a0 7a 9b ff 3d 5b 7b f6 3c 77 68 0e bd 1f df ff bc
       0.12480827 0.030088117 -0.034767594 -0.031234322
0002b0 13 be 12 3c 16 dd 84 bd e6 f1 de bc a3 2a 5d 3d
       0.00895645 -0.06487481 -0.027214956 0.05399574
0002c0 f4 96 95 3c 0f 06 04 be 0f bc c4 bd 34 04 27 bd
       0.018260457 -0.12892936 -0.09606182 -0.040775493
0002d0 3f 2f 72 bd a2 24 a0 bd 6f f4 b4 3d 11 4c cf 3c
       -0.05912709 -0.07819487 0.088356845 0.025304826
0002e0 69 ef f4 bd ed f2 54 bd d4 a0 1a 3e 49 74 b4 3d
       -0.11959726 -0.051989485 0.15100414 0.08811242
0002f0 65 13 59 3d e2 07 49 bd f1 f0 c1 b9 57 ac 3d 3c
       0.05299701 -0.049079783 -0.00036991344 0.011576734
000300 a3 d1 f0 3d 86 0a 25 bb d4 c8 b3 b7 b8 7f 9d 3d
       0.11758735 -0.0025183274 -2.143198e-05 0.07690376
000310 a4 f1 29 3d fd da 95 bc d6 6b 85 3c 0a 11 48 3b
       0.041490212 -0.018292898 0.016286772 0.0030527734
000320 88 b4 5c bd 34 13 39 3d 4b a8 78 3d 4c 0e 95 ba
       -0.053883106 0.04518433 0.06070737 -0.0011372059
000330 39 5c b3 3d 7e 92 8c 3d d2 93 cb 3c bf df ed 3b
       0.087578245 0.06863879 0.02485076 0.0072593386
000340 24 d2 0e be 6b 43 c5 3d 78 be 93 bb 0c 7c 06 3d
       -0.1394735 0.096319996 -0.0045087896 0.032833144
000350 2d e6 f0 bd b1 1e 94 bd 9b ab cf 3d f2 ec 70 3c
       -0.117626525 -0.072324164 0.10140153 0.01470493
000360 81 8a 39 bd a0 08 ad bd 19 14 11 be b8 8a e8 bc
       -0.045298103 -0.08448911 -0.14167823 -0.028386459
000370 ca f9 d0 bc c6 5a 2c 3c ef 81 53 3c 48 25 53 3d
       -0.025509734 0.010519689 0.012909397 0.051549226
000380 6e ca 1e 3d 7e c2 ce bc 08 d6 60 3d 24 b3 a3 3d
       0.03876727 -0.025239225 0.054891616 0.07993153
000390 1e e4 08 3d c0 34 05 3d a7 7c 60 bd 4e af 9f 3d
       0.033420675 0.03252101 -0.054806378 0.077971086
0003a0 b6 9d 88 3d b9 51 19 bd b3 8f 3c 3d f9 25 d5 3b
       0.06670706 -0.037431452 0.04603548 0.006504771
0003b0 5f 7a 12 3d 63 60 a8 bd 6a 87 b3 bc 4f 71 f0 bc
       0.035761233 -0.08221509 -0.021915156 -0.029350905
0003c0 b8 f1 1a 3b 66 55 8d 3d 80 3b 5a bd 0e 47 15 bb
       0.002364261 0.06901054 -0.0532794 -0.0022777948
0003d0 d5 a8 e4 bc 83 fd 8c bd 4d b2 35 bd 1e e0 94 3c
       -0.027912537 -0.06884291 -0.044359494 0.018173274
0003e0 a3 29 17 bd 8a d7 8a bc 5c 48 d7 bc 40 5d 58 bc
       -0.036904942 -0.01694848 -0.02627962 -0.013205826
0003f0 f8 69 b9 bc 80 41 dd 3c d1 18 7f 3d 89 ab e2 3c
       -0.022633538 0.027008772 0.062279526 0.027669685

dnets.2.means f4 [63]
000000 4d 17 b8 3e 62 0d 16 3f 48 98 15 bf 34 2b 9e bf
       0.35955277 0.5861417 -0.5843549 -1.2356935
000010 81 bc 8c 3f c0 74 6c bf 86 07 a5 3f cf f4 e9 3e
       1.0995027 -0.92365646 1.2892921 0.45694587
000020 12 9e 06 c0 5e 97 17 bf bc e2 da 3f 59 64 26 bf
       -2.1033978 -0.59215343 1.7100444 -0.6499687
000030 04 a4 90 bf 09 0c a2 3f dc 37 08 c0 0b 9f 87 bf
       -1.1300054 1.2659923 -2.1284094 -1.0595411
000040 97 2f 5e bf ab 28 b5 3f 1d 1e 91 3f 08 29 29 c0
       -0.86791366 1.4153036 1.1337315 -2.6431293
000050 3f 2d 3a 3f 2e 41 d0 3e fa 6b ad 3e 38 e1 9b bf
       0.7272529 0.40674728 0.33871442 -1.2178106
000060 69 27 07 40 83 5c 80 bf 3c 58 08 40 d8 63 8f bf
       2.1117804 -1.0028232 2.1303854 -1.1202345
000070 e6 e0 f6 be 9c 5d 8e 3d 05 fb 23 3e 61 f1 35 3d
       -0.4821846 0.06951448 0.16013725 0.04441965
000080 12 c7 9a 3f 5e 70 9d 3f 62 0d ed bf 27 d1 96 3f
       1.2092001 1.2299917 -1.8519709 1.1782578
000090 ad 2a ac 3f 1e 7f 36 3f 43 83 d8 bf a4 b1 77 3f
       1.3450524 0.71287715 -1.6915058 0.96755433
0000a0 ae 9d d1 3f 0f 45 51 be 3a 45 8b bf fb bd ab 3f
       1.6376245 -0.204365 -1.0880501 1.3417352
0000b0 ae 76 55 3f 8e 6c 73 3c d5 46 87 3d 53 8d 85 3f
       0.83384216 0.014857424 0.06605307 1.0433754
0000c0 b7 2b cf 3f 90 2e 3d 3f 9f 5c 08 40 6b 35 1f 3f
       1.6185216 0.73899174 2.1306531 0.62190884
0000d0 7c b8 cd bf 8a 86 d4 3e aa ef e4 bf fb 5f 2f c0
       -1.6071925 0.41508895 -1.788564 -2.7402332
0000e0 6b ac b5 3e 58 67 c2 bf ff 4b 26 bf 54 a6 59 3f
       0.35483107 -1.5187788 -0.6495971 0.8501942
0000f0 c3 18 38 bf 5a 9b 4a 3f 91 dc 94 3f
       -0.71912783 0.791433 1.1629812

dnets.2.std f4 [63]
000000 c4 a9 52 3f c6 44 7f 3e df 17 e2 3f bd 22 68 3f
       0.8229029 0.24928579 1.7663535 0.90678006
000010 09 38 fc be 57 d3 93 3f 34 dd 1a 3f ef d0 3d 3e
       -0.492615 1.1548871 0.6049378 0.18536733
000020 c4 e6 a4 3f 49 a9 a1 3e d6 ea 90 3f fc a0 b4 3e
       1.2882924 0.31574467 1.1321666 0.3527907
000030 5c c3 00 3f 5f 70 ad bf f5 ef a9 3f de e2 0d 3f
       0.50298095 -1.3549918 1.3276354 0.55424297
000040 5f 8a 8e 3e 1b 3e d1 3d 30 39 9a 3d b1 eb 44 3e
       0.27839944 0.10216924 0.07530439 0.19230534
000050 45 38 72 bf 82 d1 a6 3f d4 bb da 3f ef 8f 74 3e
       -0.9461711 1.3032687 1.708857 0.23883031
000060 ea 90 bc 3e a3 66 93 3f c3 38 96 3f 77 47 b1 3e
       0.3682931 1.1515697 1.1736072 0.34624836
000070 dc 29 a5 3e 6d 05 b9 3e db a4 a8 bd e7 aa d8 3d
       0.322585 0.36136952 -0.08234569 0.10579472
000080 71 a6 d8 3e c9 bd 14 3f 7f e2 0c 3f 76 81 81 3f
       0.42314485 0.5810209 0.55033106 1.0117633
000090 9a e5 17 3f 1a 99 53 3f d9 e0 50 3f 6a 98 bb 3f
       0.5933472 0.8265549 0.8159309 1.4655888
0000a0 89 da 60 3f 8c af c0 3f 61 96 16 3f c7 f6 8f 3f
       0.8783346 1.5053573 0.5882321 1.1247185
0000b0 3b 5c 95 3e f4 df 91 bc 1a 54 9a 3d 87 a8 f2 3e
       0.2917193 -0.017806984 0.07535572 0.473942
0000c0 34 9f 08 3f b6 f8 8e be e3 54 d6 be 06 4c d2 3f
       0.53367925 -0.27924126 -0.41861638 1.642945
0000d0 d0 9e c0 3f bd 4a 7b 40 42 7a 78 3f da ce ac 3f
       1.5048466 3.9264367 0.9706155 1.3500626
0000e0 7b c9 2c 3e 87 a9 68 3f a6 58 8d 3f 67 d5 8a 3e
       0.16873734 0.9088368 1.1042678 0.27115938
0000f0 b7 df b1 3f ed e7 76 3f 6f 22 07 3f
       1.3896397 0.9644764 0.52786916

dnets.2.weights_rbf f4 [24, 63]
000000 09 5c bc bb 62 fe 9f bb 2f df 63 3b 39 b2 d5 3b
       -0.005748276 -0.0048826197 0.003477048 0.00652149
000010 da 3c ef bb 0a 87 9d 3b 6c a1 d3 bb 43 6b 87 3b
       -0.0073009552 0.0048073577 -0.006458452 0.0041326596
000020 cd 41 ec 3b d1 cb 16 3c a3 04 d0 bb 6f 20 d8 3b
       0.0072099925 0.009203867 -0.006348209 0.0065956633
000030 12 a9 38 3c e1 bf a0 bb ee 6d e7 3b 9a 56 1b 3c
       0.011270778 -0.0049056862 0.007062665 0.009481097
000040 e7 e9 b3 3d 21 08 82 3c 21 08 82 3c 21 08 82 3c
       0.08784848 0.015873017 0.015873017 0.015873017
000050 62 a8 bc bb 5c bf 57 bb b6 7d c6 ba c5 04 82 3c
       -0.0057573775 -0.0032920456 -0.0015143666 0.015871415
000060 21 08 82 3c df f1 a2 3b da ef ea bb c4 b0 be 3d
       0.015873017 0.004972681 -0.007169706 0.09311059
000070 41 fd 3f 3d d0 b6 03 bc ab 12 1b bc 96 4a 01 bd
       0.04687238 -0.008039191 -0.0094649 -0.03156527
000080 fb 88 d3 3b 31 16 18 bc 38 5b 04 3d 43 cf c3 bb
       0.0064555383 -0.009282635 0.032313555 -0.0059756353
000090 25 1a 07 bb 5f 24 d3 bb 41 6a 24 3c 47 5c 8a bb
       -0.0020614949 -0.0064435448 0.0100350985 -0.004222426
0000a0 13 c6 0b bc c4 31 1a 3b d3 42 0f 3c 5a b5 b7 bb
       -0.008531111 0.0023528198 0.0087439595 -0.0056063356
0000b0 ca 88 a5 3b 00 c6 d6 3c e1 c5 35 3d e3 18 27 bc
       0.005051707 0.02621746 0.044378165 -0.010198805
0000c0 38 b5 b9 3b 91 a9 93 3b 1f 08 82 3c 0e af 3d bb
       0.005667355 0.004506298 0.015873013 -0.0028943452
0000d0 fc aa ab 3b 75 1c 5a 3a 15 bf 14 3c 83 0e 0a 3c
       0.005238889 0.00083202805 0.009078761 0.008426311
0000e0 1b 0c 76 bc 30 46 00 3c d3 ea 8e 3b 83 0f 4b 3c
       -0.015017535 0.007829234 0.0043614893 0.012393835
0000f0 e8 4f 87 3b 5a be bc bb 9b 47 d7 bb 89 d3 ff bb
       0.0041293986 -0.0057599964 -0.0065698153 -0.0078071994
000100 f0 90 4d 3c fc 88 59 3b 81 fb 76 3c aa d7 e5 3a
       0.012546763 0.0033193221 0.015074612 0.0017535586
000110 1d 48 1b 3c 6f 41 0c 3a df 5e 32 3a 3f 75 6f 3c
       0.009477642 0.00053503265 0.0006804298 0.014615356
000120 05 88 0d 3d d5 b5 27 bc c3 8b 17 3d 82 53 ff 3b
       0.034553546 -0.010236223 0.03699852 0.0077919373
000130 df 36 0d bc f9 15 6a 3c f6 63 d0 3c 5d 69 79 3c
       -0.008619039 0.014287465 0.02543829 0.0152228745
000140 21 08 82 3c 21 08 82 3c 21 08 82 3c c5 1a 0b bc
       0.015873017 0.015873017 0.015873017 -0.008490269
000150 83 3a b0 bb 51 db 65 bb 6a 09 82 3c 21 08 82 3c
       -0.005378069 -0.003507335 0.01587363 0.015873017
000160 79 a6 23 3c 9e 55 2a bc 7b 1f 33 bd 62 3e 12 bd
       0.009988421 -0.010396389 -0.043731194 -0.035704024
000170 51 74 64 bc dc ff a2 bc 46 34 3b 3c e1 f7 53 3c
       -0.013943748 -0.019897394 0.011426037 0.012937517
000180 6f 8a 76 bb 60 14 7f bd de c8 18 bc 66 85 00 3c
       -0.0037619134 -0.06227529 -0.009325234 0.007844305
000190 03 c0 0c bc 1b e9 25 3c 7e 8e ee bb 45 f2 19 bc
       -0.008590701 0.010126377 -0.00728017 -0.00939614
0001a0 c7 94 ab 3a fb 90 cb 3c a5 3a 1b bc b4 cc 43 3c
       0.0013090604 0.024849406 -0.009474431 0.0119506605
0001b0 19 a0 df 3c 4e a4 a4 3c 35 57 a3 ba 25 cb 59 3c
       0.02729802 0.020097878 -0.0012461903 0.013293062
0001c0 09 a1 52 3c 21 08 82 3c b8 94 aa bb ed c5 20 3c
       0.012855777 0.015873017 -0.005205717 0.009812814
0001d0 12 fc cf ba f5 8a 85 3c 9e 6b 06 3c 18 c1 51 3c
       -0.001586797 0.016301611 0.008204369 0.012802385
0001e0 15 16 94 3c 19 77 05 3c e6 16 b0 3b 7b f2 cb 3b
       0.018076936 0.008146071 0.0053738235 0.0062239743
0001f0 d9 e3 0c bc a9 f3 04 3b 53 70 1a 3a a9 21 dd 3b
       -0.008599245 0.0020286834 0.00058913714 0.0067483974
000200 36 9f 4d 3b 1f 4f 9a 3a 33 2d ca 3b 29 78 94 3a
       0.0031375415 0.0011772848 0.006169939 0.0011327314
000210 e8 1d cd 3b 40 79 93 3c 30 9d 3c 3b 99 85 13 bc
       0.0062596686 0.018002152 0.0028780214 -0.00900402
000220 83 c7 28 3b b8 88 f9 39 8c 60 9a bc 28 96 10 3b
       0.0025753684 0.00047594844 -0.018844865 0.0022062156
000230 1d 5e 3d 3b 23 f7 0b 3b 76 50 db 3c 21 08 82 3c
       0.0028895207 0.0021357022 0.026771765 0.015873017
000240 cd 8f 79 3c 21 08 82 3c bc ed dc 3a ec c3 07 3b
       0.015232039 0.015873017 0.0016855518 0.0020716144
000250 27 85 40 3b 75 09 82 3c aa 93 81 3c 9a 79 99 3a
       0.002937624 0.01587365 0.015817482 0.0011709214
000260 32 59 4b 3b 09 80 3c bd c3 f4 c7 bd e4 07 9d bb
       0.0031028506 -0.04602054 -0.097634815 -0.0047922004
000270 ea 19 28 3c df f1 d0 bc 57 37 a3 3b 26 18 9e 3b
       0.010260085 -0.025505958 0.0049809623 0.004824656
000280 ef 93 ee bc 06 cb 17 3b 03 87 08 3c 58 0e d8 3a
       -0.029123275 0.0023161783 0.008332971 0.0016483767
000290 7f 76 dc bb 31 cd 0f 3b 7a 76 5e 3b a5 7c 48 3b
       -0.006727993 0.0021942372 0.003394513 0.0030591872
0002a0 5f cc 30 3b 19 6b 18 3b 18 87 25 3c 3d dd 14 3c
       0.0026977283 0.0023257195 0.01010301 0.00908595
0002b0 5b bd 41 3b 2b b8 b1 3b 30 1d 92 39 8d b3 2f 3c
       0.0029562328 0.005423566 0.00027869036 0.010723961
0002c0 a0 be 79 3c 23 4a 25 3b cf 59 14 3b 8b 4f 81 3b
       0.015243202 0.002522119 0.0022636538 0.00394625
0002d0 9a e3 d8 3a 0f b5 3a bb 3d c3 e4 3b ad 98 33 3b
       0.0016547323 -0.0028489267 0.006981282 0.0027404234
0002e0 47 91 75 3a f1 e7 43 3b 3c 96 04 3b e7 44 ed 3a
       0.00093676563 0.0029892887 0.0020231148 0.00181022
0002f0 2b b2 d3 3b 58 f2 a7 b9 8d 36 7d 3c 20 d7 5f bb
       0.0064604483 -0.00032033282 0.0154549 -0.0034155324
000300 8f 9b 15 3b 95 20 05 3c 38 61 be ba aa f8 09 3c
       0.0022828316 0.008125444 -0.0014524823 0.008421103
000310 d9 55 d6 3b 24 d3 49 3b 7a de a6 3c f7 73 87 b9
       0.0065409956 0.0030796016 0.020369757 -0.00025835607
000320 62 04 ab 3c 24 85 41 3b 80 a0 5f b9 79 6b 32 3b
       0.020876113 0.002952882 -0.00021326728 0.0027224703
000330 92 e8 5c 3c 9f c4 fd 3c 21 08 82 3c 21 08 82 3c
       0.013483183 0.030977545 0.015873017 0.015873017
000340 21 08 82 3c 7f 6d c9 39 a6 a3 d7 ba af 61 2b bb
       0.015873017 0.00038419288 -0.0016451969 -0.0026150753
000350 0b 1b 82 3c 21 08 82 3c 2c dd 9d ba a1 72 d5 ba
       0.015882036 0.015873017 -0.0012044064 -0.0016284772
000360 97 fe 26 3c cb 8c 85 bc 97 88 92 bb da b9 d6 ba
       0.010192535 -0.016302487 -0.004471849 -0.0016382292
000370 6c 3f 19 3b 28 ef c8 3c 30 76 29 3b d7 a2 bc bc
       0.002338375 0.024528101 0.0025857799 -0.023026867
000380 c5 cb c0 39 93 de 9d 3c 46 6e 66 3a 8e e5 13 3b
       0.00036772914 0.01927117 0.0008790236 0.0022567245
000390 76 f1 34 ba b5 be 77 ba 4b ef 56 bb 82 a7 47 3c
       -0.00069024356 -0.000945072 -0.0032796438 0.012185933
0003a0 bd c7 14 39 ab d7 8d 3c 45 38 ac 3c 44 ed 11 3d
       0.00014188788 0.017314753 0.021022925 0.035626665
0003b0 b2 f4 7e 3b dd b3 d7 3c df 84 98 3c 16 08 82 3c
       0.0038903174 0.026330883 0.018618045 0.015872996
0003c0 ea d2 e0 ba c6 bc b4 ba e5 8b 4c bb 1e 71 c8 3b
       -0.0017152701 -0.0013789169 -0.0031211313 0.0061170002
0003d0 3d d6 af b7 6c c7 88 3c 41 3b bf 3b 0c 1f 01 bb
       -2.0961388e-05 0.016696654 0.005835921 -0.0019702343
0003e0 d1 c3 71 ba 51 d9 40 bb 3a 7e d0 39 04 b7 16 3c
       -0.00092225993 -0.0029426406 0.00039766898 0.009198908
0003f0 12 3d 92 3b 3d 99 20 bc fd 96 e8 ba 21 ce a7 bb
       0.0044628466 -0.00980216 -0.0017745193 -0.005121008
