models/poisson_greedy5.pth (torch, 115607 bytes, 32 tensors)

dnets.0.means f4 [63]
000000 31 1c 88 3f 07 d2 7c bf c0 3c ef bf 35 e1 81 bf
       1.0633603 -0.98757976 -1.8690414 -1.0146853
000010 a6 59 53 3f 8c d7 21 3f 2f 21 14 c0 79 02 41 bf
       0.8255867 0.63219523 -2.3145254 -0.753944
000020 5b 89 7e bf 22 dd 42 3f 00 98 40 bf 06 6a d4 3e
       -0.9942834 0.7611867 -0.75231934 0.4148714
000030 3d 6b 13 c0 3c 85 31 3f 13 bd 84 bf f4 5b f1 3f
       -2.3034203 0.69343925 -1.0370201 1.8856187
000040 88 84 a9 bc 7c b2 91 bf 7a bb 0e 3f 2d 2a 35 bd
       -0.020693079 -1.1382594 0.55754817 -0.044229675
000050 b6 2c 94 3f f3 fc 46 3f 41 0c 11 c0 eb fe d1 bf
       1.1576145 0.7772972 -2.266373 -1.640592
000060 eb 2f 0a bf 50 27 7d bf 31 bd 68 bf 46 89 ef 3e
       -0.53979367 -0.9888811 -0.90913683 0.4678442
000070 53 f7 37 3f bc f3 d6 3f 83 3f b7 3f 85 af 49 3f
       0.7186176 1.6793132 1.4316257 0.78783447
000080 a3 69 79 be cf 16 bb 3f 44 f9 92 3f a5 71 40 be
       -0.24356703 1.4616336 1.148232 -0.18793352
000090 78 8d b8 3e 72 ab 62 be e1 95 fb 3e f8 06 9a bf
       0.36045432 -0.22135714 0.49137786 -1.2033377
0000a0 3c 74 1c be c2 08 c4 3f 48 f6 13 c0 89 9d 73 3e
       -0.15278715 1.5315173 -2.3119068 0.23790564
0000b0 28 6f b1 3e 44 f3 00 c0 50 01 2c 3f 5d 2c eb bf
       0.34655118 -2.0148478 0.671895 -1.8372914
0000c0 dd f6 0e 3f 8a 3e 35 bd b9 55 e4 bb 1a 57 6e 3d
       0.55845433 -0.044249095 -0.0069682267 0.058188535
0000d0 5a 21 a1 bf 71 e1 68 3e a0 40 87 3f e0 ba ec bf
       -1.2588303 0.22742249 1.0566597 -1.849453
0000e0 34 45 62 3d a7 5e c0 3c bc 4e a6 3e 98 e8 31 bf
       0.05524178 0.023482634 0.32481945 -0.69495535
0000f0 9b 74 8b 3f 87 1b cc be d2 56 71 3f
       1.089496 -0.39864752 0.942731

dnets.0.std f4 [63]
000000 b8 c8 f6 3f d2 ca 41 3e f5 6a a2 3f 58 c9 24 3f
       1.9280005 0.18925026 1.2688891 0.64369726
000010 50 a3 3f be 71 95 c8 be ae fa d9 3f 3a a8 cf 3f
       -0.18714643 -0.39176515 1.7029626 1.6223214
000020 8e 48 36 3f f2 f0 fc 3e 70 c4 68 3f 96 61 cf 3f
       0.7120446 0.49402577 0.9092474 1.6201656
000030 23 70 88 3f f6 e3 c9 be ef 7e 39 3f 12 9c 53 3e
       1.0659221 -0.39431733 0.7245931 0.20665005
000040 f1 7f 84 bd 1d ba 04 bf 53 e1 a3 3e 66 ba 0c 40
       -0.064697154 -0.51846486 0.32007846 2.1988769
000050 51 1e 31 3f 95 e9 cf 3f 11 f7 b4 3f d7 af 0b 40
       0.69186884 1.6243159 1.4137899 2.1826074
000060 17 bf 9f be 01 a8 14 40 65 d6 99 3e f4 6a 97 be
       -0.31200477 2.3227541 0.30046383 -0.29573786
000070 a1 4d d7 3e c5 ab 34 bf 3f 57 60 3f 72 fb 02 3f
       0.42051414 -0.705746 0.87633127 0.51164925
000080 21 15 26 3f f3 d8 03 3f 3d 90 16 3f f0 a8 15 3e
       0.6487599 0.51502913 0.5881384 0.14615226
000090 f3 f7 4d 3f ca 6c f7 3f 32 06 00 3f 9c 5a 13 bf
       0.80456465 1.9330075 0.50009453 -0.57560134
0000a0 d5 2b 14 40 74 f9 70 3f 7d 52 ff 3f 33 ad e8 3f
       2.3151753 0.94130635 1.9947048 1.8177856
0000b0 65 f8 ba 3f b7 ce d2 3f f3 ba dc 3f 4c ff f5 3f
       1.4607054 1.6469334 1.7244552 1.9218535
0000c0 21 6c e5 3e 64 16 bc 3f bc 7f 6d 3e 01 cf e0 3f
       0.44809058 1.4694333 0.23193258 1.7563173
0000d0 89 db 61 3f 8e b0 90 3e f4 43 71 3e 2c ab 37 3d
       0.8822561 0.282597 0.23561078 0.044840977
0000e0 81 67 ab 3f 2e 6b 43 3d 47 e2 1c 3f 51 24 8d 3f
       1.3390962 0.047709636 0.6128277 1.1026708
0000f0 71 fd 03 3f b9 94 98 3f 10 e5 e9 3f
       0.51558596 1.1920387 1.8273029

dnets.0.weights_rbf f4 [24, 63]
000000 36 90 49 3c 72 92 0f 3c be e5 10 3c c7 92 e6 3b
       0.012302449 0.008762943 0.008843837 0.00703654
000010 46 cf 81 3c 24 b5 ea 3b bd 3d 20 3c 59 a0 3a 3c
       0.015845906 0.007162707 0.009780345 0.011390769
000020 8c 48 0b 3c cd 27 13 3c bf a5 38 3c 7b 9e 48 3c
       0.008501183 0.008981657 0.011269986 0.012244816
000030 34 6f b1 3b e8 11 df 3b 80 fd 06 3c 21 08 82 3c
       0.005414868 0.0068075545 0.00823915 0.015873017
000040 35 21 97 3b da 72 19 3b 92 13 fc 3b a9 22 40 3c
       0.004612113 0.0023414404 0.0076927627 0.011727014
000050 ec f4 29 3c 48 88 4b 3c 12 83 0e 3c d3 e3 33 3c
       0.010373335 0.012422629 0.008698242 0.0109796105
000060 d1 3b 4d 3c 5d 44 39 3c 7c 41 9a bb 74 d9 fe 3b
       0.012526468 0.011307803 -0.0047075134 0.0077773873
000070 33 d6 eb 3b 67 98 05 3c 36 87 40 3c ff 6d 17 3c
       0.0071971654 0.008154011 0.011750987 0.009242534
000080 2b c0 62 3c 38 8c 1c 3c 6e 07 03 3c 35 c4 02 3c
       0.013839762 0.009554915 0.007997377 0.00798135
000090 7a f0 57 3c e2 0e 40 3c c4 b5 29 3c 7e 4a 58 3b
       0.013179893 0.011722298 0.010358278 0.0033003385
0000a0 d8 f7 3e 3c f7 eb 44 3c 20 a0 2a 3c 55 cf 44 3c
       0.01165577 0.012019149 0.010414153 0.012012322
0000b0 c1 73 4a 3c 22 c7 25 3c 57 53 49 3c 04 11 2f 3c
       0.012356699 0.010118278 0.012287936 0.010685209
0000c0 d2 1d 12 3c e4 2d 46 3c 87 47 b7 3b 5b e1 43 3c
       0.0089182425 0.012095902 0.0055932435 0.011955584
0000d0 35 46 0a 3c c1 0a e8 3b 2e ef 81 3c 21 08 82 3c
       0.00843959 0.00708136 0.01586112 0.015873017
0000e0 02 9d 49 3c fb 2c 0c bb 33 a4 51 3c 62 aa 3b 3c
       0.0123055 -0.0021389115 0.012795496 0.011454197
0000f0 cf c4 f6 3b 71 f7 43 3c aa fa 49 3c ac 40 50 3b
       0.0075307856 0.01196085 0.012327829 0.0031776829
000100 3d e0 c4 3d 56 84 84 bc 8a 71 cb bc b6 76 7b 3c
       0.096130826 -0.016176384 -0.024834413 0.015348127
000110 e4 cb 2e 3d b6 07 43 bc 5a 72 d0 bb f6 4a 9a bc
       0.042674914 -0.011903694 -0.006361288 -0.018834572
000120 d9 8c 08 3d 67 95 46 bc 6d c3 b6 3a d6 59 f8 bc
       0.033337448 -0.012120581 0.001394374 -0.030316275
000130 ab 3c 41 3d 24 9d 9e bc 21 08 82 3c ba 70 18 3c
       0.047176998 -0.01936204 0.015873017 0.00930422
000140 14 59 19 bd 17 38 54 3d 29 ab 03 bb d0 1d fa 3c
       -0.037438467 0.051811304 -0.0020091033 0.030531794
000150 41 b4 6c 3b 62 e9 95 bc ae a0 e3 bb ac 7b 19 bd
       0.0036118182 -0.018299762 -0.0069466447 -0.03747146
000160 9e 5e a6 bb 93 91 d2 bb ab cf 5a 3d 80 e6 32 3d
       -0.005077197 -0.006426045 0.053420704 0.043676853
000170 1f 08 32 3d 62 e9 c7 3c 2c 90 04 3d ed 6e ec bb
       0.043464776 0.024403278 0.032364056 -0.007215372
000180 c7 68 28 3d a6 27 2d 3d 68 10 1c bd 03 d4 1b 3c
       0.04111555 0.04227414 -0.038101584 0.009510997
000190 9d 8b 37 bb a5 20 d4 3c 3c f1 14 bd f0 b5 1d bb
       -0.00280068 0.025894472 -0.03636287 -0.0024064742
0001a0 3c bf bb 3c bb 67 18 bc 85 25 a9 b9 1c f2 d4 3a
       0.022918336 -0.009302075 -0.00032262146 0.0016246471
0001b0 63 0a 2f bc 98 b4 20 3b 38 ec 08 bc d5 8a 00 3d
       -0.010683629 0.0024521705 -0.0083571 0.0313824
0001c0 61 ef de ba fe 7e 90 3c e2 3d ab ba d8 e7 8f bc
       -0.0017008596 0.01763868 -0.0013064707 -0.017566606
0001d0 9a 9d 03 3d 7f ae 70 3c 21 08 82 3c 65 83 3a ba
       0.032132722 0.014690041 0.015873017 -0.0007114916
0001e0 bf ba 5d 3c 4e 88 72 3c c1 97 1a bc 9d 59 3f 3d
       0.013533293 0.014803005 -0.009435595 0.04671632
0001f0 00 b6 bc bb 65 e7 52 3b a8 78 1f 3c e5 ec 97 bc
       -0.005759001 0.003218138 0.009733357 -0.018545577
000200 54 ff 71 bb 28 a5 24 bc 6a f1 81 3c 02 8e ab 3c
       -0.003692587 -0.010049142 0.015862186 0.020941738
000210 21 ab fc b9 4d 2a 87 3b a0 19 75 bb 19 f4 b3 3c
       -0.00048192687 0.0041249157 -0.0037399307 0.02196698
000220 b7 33 1b 3b 75 e6 13 3c f2 36 97 bc 64 52 a5 3c
       0.0023681947 0.009027113 -0.018458817 0.020180888
000230 0c 9b 94 bb 21 08 82 3c 2f b1 79 3c ef 4f f1 bc
       -0.0045350846 0.015873017 0.015239998 -0.02945706
000240 5b 41 8d 3c db 21 d2 3b 51 c6 b2 3c 0b a6 28 3c
       0.017243078 0.0064127273 0.02182308 0.010293494
000250 bc e8 b8 bb cc 56 4f 3b 92 5c 9b bc bb 5c 8e 3b
       -0.0056429785 0.0031637428 -0.01896504 0.0043445504
000260 1c d4 3d bd 8a 09 88 3c 03 ac ac 3c 40 88 bf 3c
       -0.04634486 0.016606111 0.021078115 0.023380399
000270 aa 4b a5 3c 74 68 b3 3c e0 26 17 3c c3 1a a3 3c
       0.020177681 0.021900393 0.009225577 0.019910222
000280 9f 35 bd 3c 85 a3 ce 3c ac 9e 81 3c ea c2 c8 3b
       0.023096858 0.025224457 0.015822731 0.006126751
000290 2d ce b9 3c 73 6e d5 bc 24 20 c8 3b 80 f5 a0 3c
       0.02268132 -0.026053643 0.006107347 0.019648314
0002a0 b2 86 bf 3a b4 32 fe 3b 34 16 1a 3c c5 a3 2e 3a
       0.0014612286 0.007757509 0.009404708 0.0006661977
0002b0 ed e9 1b 3c 96 68 18 3b de 83 bb 3c bf f1 f1 3b
       0.0095162215 0.0023255697 0.022890028 0.0073835547
0002c0 7c dd ef 3c 2a 07 eb 3b c6 9e 79 bb d4 62 c5 3c
       0.029280417 0.007172485 -0.003808902 0.024094976
0002d0 90 24 82 3c 21 08 82 3c fd b8 05 3c 9d 0c 2c bc
       0.015886575 0.015873017 0.00816178 -0.010501054
0002e0 9b 77 9f 3c 41 12 5b 3b d3 f6 b5 3c 31 91 b7 3b
       0.019466212 0.0033427628 0.022212422 0.005602025
0002f0 22 4e 21 3c 0c f2 03 3c ea 9b ca 3d e0 bf f5 3b
       0.0098452885 0.008053314 0.098930195 0.00749968
000300 d8 e8 0e 3c c8 34 d2 bd 7a 83 5c 3c 34 c8 f1 3b
       0.008722506 -0.102639735 0.013459081 0.0073786024
000310 5d e6 ee 3b f3 66 e5 3b eb 60 50 3c c0 91 d6 3b
       0.007290645 0.007000798 0.01271842 0.0065481365
000320 28 86 fe 3b 25 ba 38 3c d5 63 3c 3c 19 e1 ea 3b
       0.0077674575 0.011274849 0.011498411 0.007167947
000330 21 08 82 3c bb 10 05 bc 52 0a cc 3c c6 e0 0c 3c
       0.015873017 -0.008121665 0.024907265 0.008598512
000340 b6 f8 f8 3b 96 d0 38 3c b9 6c 03 3c b0 63 01 3c
       0.007598008 0.0112801995 0.008021527 0.0078973025
000350 1b d1 f1 3b cb aa e6 3c db b0 f4 3b 7d 21 2f 3e
       0.0073796636 0.028157612 0.007467372 0.17102619
000360 6f 60 4c 3c ae da 49 3c 39 c6 c3 3b 93 e4 30 3c
       0.012474163 0.012320204 0.0059745577 0.010796684
000370 86 3a 4e 3c 0a e2 c2 3b 5e 41 66 bc 5e 15 17 3c
       0.012587195 0.005947356 -0.014053671 0.009221403
000380 16 bc e3 3b 41 2c 0a 3c 94 8a f6 3b e6 c9 40 3c
       0.006949912 0.0084334025 0.007523844 0.011766886
000390 cb de 9c 3c 3d 8f f8 3b 4c 15 2e 3c c4 ad f1 3b
       0.019149205 0.0075854347 0.010625195 0.007375451
0003a0 20 28 fb 3b 41 0d fe 3b 58 94 ee 3b 8d 67 01 3c
       0.0076646954 0.007753045 0.0072808675 0.007898224
0003b0 29 73 ef 3b cc 8c 54 3c 96 93 f5 3b 31 4a 84 3b
       0.0073074293 0.012973022 0.0074944003 0.0040371646
0003c0 3d e0 f8 3b 6c 1a eb 3b ee 98 7d 3c 25 17 65 bd
       0.0075950907 0.0071747806 0.015478356 -0.055930275
0003d0 21 08 82 3c 58 33 f7 3b 7a 5d df 3c 14 5d 17 3c
       0.015873017 0.0075439624 0.027266253 0.0092385
0003e0 dd 21 e1 3b 10 35 c7 3b 40 56 e9 3b eb 8a 03 3c
       0.006870492 0.0060793236 0.0071208775 0.008028726
0003f0 5f bb e4 3b 65 e9 29 3d 3d 85 37 bb 20 4c 06 bc
       0.006980344 0.041482348 -0.0028003 -0.008196861

dnets.0.conv.weight f4 [24, 3, 5, 5]
000000 9e 13 c3 3c f1 52 80 3c fd bc 70 3d 1d 71 9a 3d
       0.023813065 0.01566455 0.058773983 0.07541106
000010 13 04 e4 bd 78 f0 a9 bd f5 85 9a bd 00 e0 3e 3b
       -0.111335896 -0.08297819 -0.075450815 0.0029125214
000020 6b 60 8f 3c 23 ed b6 bd 98 17 b0 3d c4 f6 ab bd
       0.01750203 -0.08931949 0.0859825 -0.08396676
000030 a1 33 cd 3d 68 b0 87 3d 58 46 c1 3a 44 8a d9 3d
       0.10019613 0.06625444 0.0014745696 0.10622075
000040 75 87 91 3d ae 98 de bd f6 cc d1 bd f7 76 ea 3d
       0.071059145 -0.10868965 -0.10244171 0.11448472
000050 8c 5b cb bd 7b 0c c3 bd bb de 2a 3d 57 3f 32 bd
       -0.099295706 -0.09523865 0.04171632 -0.043517437
000060 b2 17 db bd 2e 55 25 bd 83 0f 96 3d 64 4d f9 3c
       -0.10697879 -0.040364437 0.073271774 0.03043241
000070 53 90 50 3b d7 7b b1 bd 06 f5 8f bd f8 87 b2 bc
       0.0031824305 -0.08666199 -0.070291564 -0.02179335
000080 11 49 7b bd 66 0a 82 bd 06 18 9a 3d 51 5a da bd
       -0.06134898 -0.063496396 0.07524113 -0.10661758
000090 91 1e c9 bd ce 7e ee 3d 92 4c b5 3c e8 6b 2c 3b
       -0.09820283 0.1164528 0.022131238 0.0026309434
0000a0 5e aa 3b bc ea b3 82 bd e4 13 22 bd 6d 6f 10 bd
       -0.011454193 -0.06381972 -0.03956975 -0.035262514
0000b0 71 2c e4 bc 9b 75 8b 3b 5e 83 26 bd c6 34 7d bd
       -0.027853223 0.004255963 -0.040652625 -0.061817907
0000c0 f8 e7 21 3d a1 25 2d bd 9b 81 93 bd be 2a ea bd
       0.039527863 -0.042272214 -0.07202455 -0.11433934
0000d0 07 84 e4 3d c8 37 5a bd 4c f5 93 3c 46 12 3f 3b
       0.11157995 -0.053275853 0.018061303 0.002915518
0000e0 0a 31 c9 bd 2f 14 dd 3d 91 82 42 3c c8 15 c9 3d
       -0.098238066 0.10794865 0.01187195 0.098186076
0000f0 be 68 d6 3d 13 d9 98 3c a9 9e 1d 3c 40 41 ce 3d
       0.10469197 0.018658197 0.009620347 0.10071039
000100 5a 9b b7 bd 13 b2 90 bd 7a c7 ff bb c1 9c b9 bd
       -0.08965178 -0.07065215 -0.007805762 -0.090631016
000110 0f 5f ee bc 21 f7 a6 bc fe 0f 1a 3d d3 96 23 bd
       -0.029098062 -0.020381512 0.037612908 -0.03993876
000120 72 bf 67 3d 8b b0 97 bd ec ce c2 3d b8 98 0b 3d
       0.05657906 -0.0740672 0.095121235 0.03408119
000130 d3 5a 8a 3d 8d 8e ef bc 30 3f 27 bd 7c fb 0d 3d
       0.067556046 -0.029242778 -0.040831745 0.034663662
000140 06 99 2d 3d 20 ba d0 3d d0 47 2e 3d ad 42 cf 3c
       0.042382263 0.101917505 0.042548954 0.025300348
000150 44 e9 b3 bd 4a b1 95 bd 61 c2 d8 bd c2 05 83 3d
       -0.08784726 -0.07309206 -0.1058395 0.063975826
000160 b4 97 83 bd fc e8 46 3d 1d 69 7a bd 89 c1 f9 bd
       -0.064254194 0.048562035 -0.0611354 -0.12195117
000170 4c 35 cd 3d c7 22 c8 bd 95 c1 0c 3e 39 ae 79 3d
       0.10019931 -0.09772258 0.1374572 0.060957167
000180 3e b1 95 bc 48 9c 34 bd 3e 77 7a 3c 7f ad 0f bd
       -0.018272992 -0.044094354 0.015287219 -0.03507757
000190 8f d3 83 bc 9a 07 89 bd 70 6a 94 3d bb c9 91 bd
       -0.01609209 -0.06690903 0.07246864 -0.07118555
0001a0 3b a1 20 3c 48 23 d7 bc d5 ec da 3c e4 ae f5 3d
       0.009804065 -0.02626194 0.026724258 0.11996248
0001b0 17 ab ba 3d 27 0c bb bd ae 4e 85 bd eb 14 8c 3c
       0.09114664 -0.09133177 -0.065091476 0.017099818
0001c0 78 15 60 bd bc a8 ec 3d 1b 5a a6 bd c3 61 17 3d
       -0.054707974 0.11555621 -0.08122655 0.036958467
0001d0 73 f9 3e 3d c3 d3 9c bc 56 8c 6d bd 8b 9c 11 be
       0.046624612 -0.019143945 -0.057995163 -0.14219873
0001e0 46 96 6d 3c f5 30 05 3d 82 7e e9 3c 37 b0 3f 3c
       0.01450116 0.032517392 0.028502706 0.011699728
0001f0 07 24 7e 3d 6a 6c fb bc 11 a4 06 bc f4 56 a9 bd
       0.062046077 -0.030691344 -0.008217827 -0.08268538
000200 54 5f b9 3d c0 14 bf bd b0 48 ed 3c 7b b1 ca bd
       0.090513855 -0.093301296 0.028965324 -0.09897133
000210 54 e6 05 be 5a 66 bf bd 6b 84 22 3e 5e 99 d4 3d
       -0.13076144 -0.09345694 0.15870826 0.10380815
000220 23 ce 55 3d 1e e2 0d bd 74 78 9e bd 9e a9 c4 3c
       0.05219854 -0.03463947 -0.07737818 0.024006661
000230 9f 58 10 3d 94 fb 9b 3d a0 a7 c3 bc 9b 1c 04 3e
       0.035240766 0.07616344 -0.02388364 0.12901537
000240 bf 81 07 3d 2f 34 50 bd 7b e3 be bb e5 f3 7f bb
       0.03308272 -0.050831016 -0.0058254576 -0.0039055285
000250 33 91 5f ba 75 9d 83 bd 53 de 2e bd 6c b5 a5 3d
       -0.0008528411 -0.06426517 -0.042692494 0.08091244
000260 15 7c e3 3d f8 c9 0d 3d 23 72 8f bd 52 00 1d 3d
       0.11107651 0.03461644 -0.07004192 0.038330384
000270 9c 26 c9 3d 60 d1 0d 3d 2c 45 ce bd b4 84 b1 3c
       0.09821817 0.034623504 -0.10071787 0.021669723
000280 27 e6 96 3d 43 77 89 3c 8a 38 ea bd be e5 28 bd
       0.07368117 0.016780501 -0.11436565 -0.041234724
000290 f3 8e c5 bc 02 95 63 bd be de 5b 3d 02 a7 f8 bc
       -0.024116015 -0.055562027 0.05367922 -0.030353073
0002a0 10 55 c6 bd 15 53 24 3d 41 db 67 bd e7 3c a7 3d
       -0.09684193 0.040118296 -0.05660558 0.08165913
0002b0 f4 b5 51 bd 8b 0c c8 bd 9b ab 1b b9 8b b1 d1 bc
       -0.051198915 -0.097680174 -0.0001484588 -0.025597354
0002c0 37 fa d4 bd d4 5c d5 bd f3 7e cb 3d 20 15 91 bd
       -0.10399287 -0.10418096 0.09936323 -0.070841074
0002d0 e7 de 59 3d d0 47 59 bc 4a 0c 1a 3d e5 2e 8a bd
       0.053191092 -0.01326175 0.037609376 -0.06747226
0002e0 da 66 60 bd 05 93 fd bc 51 29 a6 3d eb 1e 0e 3d
       -0.054785587 -0.030953893 0.08113349 0.034697454
0002f0 97 2c f7 3d 2b 90 cf bd a4 cb f3 bc 1d a6 b1 3d
       0.12069052 -0.1013492 -0.02976019 0.08674262
000300 38 4d 70 bd 75 0a 65 3b 6f 56 a2 3c 90 41 22 bc
       -0.05866739 0.003494886 0.019816605 -0.009903327
000310 c2 a8 b2 bd 4b b9 1e bc 30 cc 5b 3d 15 70 72 3d
       -0.08723594 -0.009687732 0.053661525 0.05918892
000320 0a 31 3f 3d 05 13 d4 bd 13 60 75 bd 8b 86 0a bd
       0.046677627 -0.1035519 -0.059906077 -0.033819716
000330 f6 b5 98 bc cd 69 00 be a9 f4 3c 3b b4 ce d7 bc
       -0.018641453 -0.1254036 0.0028832352 -0.02634368
000340 47 f9 ad 3d a0 21 d5 3d 31 ef 7d bc 34 a3 e9 bd
       0.084948115 0.10406804 -0.015498922 -0.11408082
000350 dd c4 3a 3d 57 0e d8 3d f8 8a 88 3d d1 73 3c 3d
       0.0455979 0.1054961 0.06667131 0.04600889
000360 b5 f2 cc bd 35 02 f1 3d 97 04 bd bc 60 5b 5e bd
       -0.1000723 0.11767999 -0.023073478 -0.05428636
000370 35 99 a0 bd 44 20 72 bd bf f0 83 3d 90 31 ad bc
       -0.07841722 -0.059112802 0.06442403 -0.021141797
000380 d5 73 6d 3d d5 67 e2 bb c4 87 ab 3d 10 49 96 bd
       0.057971794 -0.0069093504 0.083755046 -0.07338154
000390 52 4c ac bd b1 3e 89 3d 24 c0 98 bd 18 fe 85 3d
       -0.084129944 0.067014106 -0.07458523 0.06542605
0003a0 86 f0 20 3d ce 90 95 3d 15 ba 1f 3d 9c 86 b6 bb
       0.03929188 0.0730301 0.03899582 -0.005570246
0003b0 50 76 95 3d 36 7a 94 3c 78 bc 79 bd 87 0a 69 bd
       0.07297957 0.018124681 -0.060970753 -0.056894805
0003c0 46 65 86 bc 9d df 53 bd c7 5b 67 bd 6f 12 d1 bd
       -0.016405713 -0.051726926 -0.05648401 -0.10208594
0003d0 38 92 d6 3d a0 3d 76 bd a1 f2 39 3d 0d 5a 95 3d
       0.10477108 -0.060117364 0.045397405 0.072925664
0003e0 73 90 b0 3d c2 a2 6a bc e3 09 72 3d 5b 45 bf 3d
       0.086213015 -0.014321031 0.05909146 0.093394004
0003f0 57 6d 96 bd 01 87 68 3d 67 1e 85 3d 4b 84 5e bc
       -0.07345074 0.056769375 0.064999394 -0.013581346

dnets.1.means f4 [63]
000000 31 1c 88 3f 07 d2 7c bf c0 3c ef bf 35 e1 81 bf
       1.0633603 -0.98757976 -1.8690414 -1.0146853
000010 a6 59 53 3f 8c d7 21 3f 2f 21 14 c0 79 02 41 bf
       0.8255867 0.63219523 -2.3145254 -0.753944
000020 5b 89 7e bf 22 dd 42 3f 00 98 40 bf 06 6a d4 3e
       -0.9942834 0.7611867 -0.75231934 0.4148714
000030 3d 6b 13 c0 3c 85 31 3f 13 bd 84 bf f4 5b f1 3f
       -2.3034203 0.69343925 -1.0370201 1.8856187
000040 88 84 a9 bc 7c b2 91 bf 7a bb 0e 3f 2d 2a 35 bd
       -0.020693079 -1.1382594 0.55754817 -0.044229675
000050 b6 2c 94 3f f3 fc 46 3f 41 0c 11 c0 eb fe d1 bf
       1.1576145 0.7772972 -2.266373 -1.640592
000060 eb 2f 0a bf 50 27 7d bf 31 bd 68 bf 46 89 ef 3e
       -0.53979367 -0.9888811 -0.90913683 0.4678442
000070 53 f7 37 3f bc f3 d6 3f 83 3f b7 3f 85 af 49 3f
       0.7186176 1.6793132 1.4316257 0.78783447
000080 a3 69 79 be cf 16 bb 3f 44 f9 92 3f a5 71 40 be
       -0.24356703 1.4616336 1.148232 -0.18793352
000090 78 8d b8 3e 72 ab 62 be e1 95 fb 3e f8 06 9a bf
       0.36045432 -0.22135714 0.49137786 -1.2033377
0000a0 3c 74 1c be c2 08 c4 3f 48 f6 13 c0 89 9d 73 3e
       -0.15278715 1.5315173 -2.3119068 0.23790564
0000b0 28 6f b1 3e 44 f3 00 c0 50 01 2c 3f 5d 2c eb bf
       0.34655118 -2.0148478 0.671895 -1.8372914
0000c0 dd f6 0e 3f 8a 3e 35 bd b9 55 e4 bb 1a 57 6e 3d
       0.55845433 -0.044249095 -0.0069682267 0.058188535
0000d0 5a 21 a1 bf 71 e1 68 3e a0 40 87 3f e0 ba ec bf
       -1.2588303 0.22742249 1.0566597 -1.849453
0000e0 34 45 62 3d a7 5e c0 3c bc 4e a6 3e 98 e8 31 bf
       0.05524178 0.023482634 0.32481945 -0.69495535
0000f0 9b 74 8b 3f 87 1b cc be d2 56 71 3f
       1.089496 -0.39864752 0.942731

dnets.1.std f4 [63]
000000 b8 c8 f6 3f d2 ca 41 3e f5 6a a2 3f 58 c9 24 3f
       1.9280005 0.18925026 1.2688891 0.64369726
000010 50 a3 3f be 71 95 c8 be ae fa d9 3f 3a a8 cf 3f
       -0.18714643 -0.39176515 1.7029626 1.6223214
000020 8e 48 36 3f f2 f0 fc 3e 70 c4 68 3f 96 61 cf 3f
       0.7120446 0.49402577 0.9092474 1.6201656
000030 23 70 88 3f f6 e3 c9 be ef 7e 39 3f 12 9c 53 3e
       1.0659221 -0.39431733 0.7245931 0.20665005
000040 f1 7f 84 bd 1d ba 04 bf 53 e1 a3 3e 66 ba 0c 40
       -0.064697154 -0.51846486 0.32007846 2.1988769
000050 51 1e 31 3f 95 e9 cf 3f 11 f7 b4 3f d7 af 0b 40
       0.69186884 1.6243159 1.4137899 2.1826074
000060 17 bf 9f be 01 a8 14 40 65 d6 99 3e f4 6a 97 be
       -0.31200477 2.3227541 0.30046383 -0.29573786
000070 a1 4d d7 3e c5 ab 34 bf 3f 57 60 3f 72 fb 02 3f
       0.42051414 -0.705746 0.87633127 0.51164925
000080 21 15 26 3f f3 d8 03 3f 3d 90 16 3f f0 a8 15 3e
       0.6487599 0.51502913 0.5881384 0.14615226
000090 f3 f7 4d 3f ca 6c f7 3f 32 06 00 3f 9c 5a 13 bf
       0.80456465 1.9330075 0.50009453 -0.57560134
0000a0 d5 2b 14 40 74 f9 70 3f 7d 52 ff 3f 33 ad e8 3f
       2.3151753 0.94130635 1.9947048 1.8177856
0000b0 65 f8 ba 3f b7 ce d2 3f f3 ba dc 3f 4c ff f5 3f
       1.4607054 1.6469334 1.7244552 1.9218535
0000c0 21 6c e5 3e 64 16 bc 3f bc 7f 6d 3e 01 cf e0 3f
       0.44809058 1.4694333 0.23193258 1.7563173
0000d0 89 db 61 3f 8e b0 90 3e f4 43 71 3e 2c ab 37 3d
       0.8822561 0.282597 0.23561078 0.044840977
0000e0 81 67 ab 3f 2e 6b 43 3d 47 e2 1c 3f 51 24 8d 3f
       1.3390962 0.047709636 0.6128277 1.1026708
0000f0 71 fd 03 3f b9 94 98 3f 10 e5 e9 3f
       0.51558596 1.1920387 1.8273029

dnets.1.weights_rbf f4 [24, 63]
000000 75 0a 0c 3c 98 99 d7 3b af e8 01 3c 31 37 e0 3b
       0.008547415 0.006579589 0.007929011 0.006842517
000010 bc e9 74 3b bd 26 7e 3b 25 8c 03 3c ab d3 0a 3c
       0.0037370762 0.0038780414 0.0080290185 0.008473317
000020 53 15 ca 3b 20 be be 3b 4d a6 02 3c ab 32 0a 3c
       0.006167093 0.0058210045 0.0079742195 0.008434932
000030 4c 11 4b 3c 0c 47 79 3b ca ea cb 3b 21 08 82 3c
       0.012394261 0.0038036732 0.0062230574 0.015873017
000040 a2 f2 ea 39 74 77 48 3c 3f 3b 92 3a ea 05 0b 3c
       0.00044812734 0.012235511 0.0011156573 0.008485297
000050 15 42 fb 3b c5 59 0b 3c 2e df 15 3c a4 e2 09 3c
       0.0076677897 0.008505289 0.009147448 0.008415852
000060 ba 50 3c 3c ee b9 0b 3c 27 5e e0 3b 5e 1d 69 3a
       0.011493856 0.008528216 0.0068471613 0.00088926207
000070 da 70 8f 3b fb f9 09 3c f9 17 0b 3c 95 31 c6 3b
       0.0043774666 0.008421416 0.008489602 0.006048391
000080 eb 73 0e 3c 50 9d f0 b9 b5 78 f4 3b 6f 6b 7b 3b
       0.008694629 -0.00045893574 0.0074606785 0.0038363596
000090 61 21 0a 3c ec c4 0a 3c e1 2e db 3b b1 58 43 3c
       0.00843081 0.008469801 0.006688938 0.011923001
0000a0 7f ff 0a 3c b6 e0 0d 3c e5 8f 06 3c 2e 72 0a 3c
       0.008483767 0.008659532 0.008213018 0.008450074
0000b0 3c 2e 0a 3c 03 af 02 3c 57 c2 0a 3c 15 8b 06 3c
       0.008433875 0.007976296 0.008469186 0.008211871
0000c0 6b 66 bc 3b 79 e4 0a 3c 0f 05 42 3b 11 55 0b 3c
       0.005749514 0.008477324 0.0029605066 0.008504168
0000d0 89 7c db 3b 45 96 88 3b 44 5b 5c 3c 21 08 82 3c
       0.0066981954 0.004168304 0.013449494 0.015873017
0000e0 fa 21 0c 3c 82 37 d9 3a be 44 04 3c be 13 08 3c
       0.0085530225 0.0016572329 0.00807303 0.008305488
0000f0 42 8a d3 3b 7f 49 0a 3c 41 b7 0b 3c 07 99 2e 3a
       0.0064556906 0.008440374 0.008527578 0.0006660376
000100 da 4f 83 3c 2c fb 3d ba f6 08 89 bb d0 cc f8 bc
       0.016029287 -0.00072472054 -0.0041819764 -0.0303711
000110 8d 04 7c bb 0e 53 46 39 42 f9 92 39 69 66 2e bb
       -0.003845486 0.00018913692 0.00028033002 -0.0026611334
000120 f5 2a 21 bb be 64 2d ba cf 21 25 3a 48 0f 69 bb
       -0.0024592255 -0.0006614438 0.00062992884 -0.0035562087
000130 91 8f 7a bb 32 21 32 bb 21 08 82 3c 97 d4 1f bc
       -0.0038232545 -0.002718043 0.015873017 -0.009755275
000140 fc 60 f6 bb 53 e1 9b bb d2 d4 ff 39 0a bc 39 ba
       -0.0075188857 -0.0047570853 0.00048795954 -0.000708521
000150 65 e2 30 3a 04 bf 7f ba dc 2d d2 39 d2 8c e4 bb
       0.00067476026 -0.00097559416 0.0004008849 -0.006974795
000160 ac 56 be 39 5f 70 35 3c eb c7 97 bb 8d f5 61 bb
       0.000363042 0.011074155 -0.0046319864 -0.0034478635
000170 e2 58 f2 39 f6 e1 81 b8 f0 2b 16 bb 81 c9 c6 b7
       0.0004622406 -6.193288e-05 -0.0022914372 -2.3697272e-05
000180 b7 03 8b bb 0c 44 18 ba 55 56 24 3b 7a b2 4d 3a
       -0.004242386 -0.00058084796 0.0025075872 0.00078467245
000190 de a6 e7 39 f2 21 f6 b9 b8 c0 d7 bb 17 13 f1 39
       0.0004418408 -0.00046946068 -0.006584253 0.00045981325
0001a0 89 70 d2 38 aa c0 f5 39 45 ba 14 3a 38 fb 28 3a
       0.000100345416 0.00046873587 0.0005673508 0.0006446126
0001b0 b1 98 a2 39 90 33 2c 3a 3a 1c e1 39 26 02 e7 ba
       0.00031012812 0.00065689627 0.00042936375 -0.0017624542
0001c0 ef e3 0d 3a 99 14 9e 3b 79 55 10 3a 4c fa db ba
       0.0005412688 0.004824233 0.00055059005 -0.0016782968
0001d0 a5 ae 55 3a d5 33 9a bc 21 08 82 3c 46 66 27 3a
       0.0008151329 -0.018823544 0.015873017 0.00063857844
0001e0 89 88 50 bc d5 51 4c 3a 68 0d 9d b8 c2 38 a5 ba
       -0.012727865 0.00077941763 -7.4888405e-05 -0.0012605416
0001f0 5c 91 93 39 f6 16 2f 3a d0 17 27 ba 77 c9 fd 3d
       0.00028146326 0.00066791417 -0.0006374093 0.12391942
000200 fe 56 82 3b f3 7f ce 3b 4d 8d 39 3c 48 2c 31 ba
       0.0039776554 0.006301874 0.011325193 -0.00067586126
000210 37 79 4b 3b 40 9d 6f 3a b2 56 9b 3b 48 02 94 b9
       0.0031047591 0.00091405585 0.0047405595 -0.0002823046
000220 d4 4e 08 3b 1e 80 fc b9 f1 36 04 3c 10 ec 15 bb
       0.0020798938 -0.0004816064 0.00806974 -0.00228763
000230 26 e4 a0 3b 21 08 82 3c 5c 49 50 3c aa c4 93 3c
       0.00491001 0.015873017 0.012712803 0.018038113
000240 29 1c 0b bc bf c4 fa 38 d7 cd 29 ba 13 1a 47 ba
       -0.008490601 0.00011957576 -0.0006477511 -0.0007595133
000250 30 52 86 3b 79 ae b6 3a 4e a5 7d 3c 22 5a 45 3a
       0.004099153 0.0013937495 0.015481306 0.00075283844
000260 ce 44 c1 3d c5 b3 dd bb 4e b7 a1 ba 0e a2 67 bb
       0.094369516 -0.006765815 -0.0012337954 -0.0035344395
000270 98 27 40 ba 03 78 a3 b9 37 ea bb 35 79 d3 9c bc
       -0.00073301187 -0.00031179198 1.4000751e-06 -0.019143807
000280 20 f0 ee ba 2b 1c 83 bc 96 81 d6 ba 3b 5f 6d 39
       -0.0018229522 -0.016004642 -0.0016365524 0.00022637557
000290 e4 f9 54 ba 92 22 69 3c 4a 1f 4d 39 93 9e 47 ba
       -0.0008124395 0.014229434 0.0001956198 -0.0007614877
0002a0 2a 83 1c 3b 05 06 4e b9 4a fc 10 ba 5a 73 38 3b
       0.002388189 -0.00019647933 -0.0005530758 0.0028144927
0002b0 ab 23 1d ba ed c5 00 3b e4 78 07 b9 0f 4e 38 b8
       -0.00059943896 0.0019649223 -0.00012919639 -4.3941716e-05
0002c0 30 6a 09 bb e4 e8 53 b8 88 ae 94 3b 48 bb bb 3a
       -0.0020967834 -5.0523216e-05 0.0045374073 0.0014322782
0002d0 29 3a 27 3c 21 08 82 3c b8 a8 81 b9 90 39 53 bb
       0.010206738 0.015873017 -0.00024730503 -0.0032230355
0002e0 92 93 ec ba 79 a8 ba 3a 5d ef 94 bb 8c 5f 13 3a
       -0.001804935 0.0014240883 -0.004545136 0.00056218426
0002f0 7d 7f 2e ba 3f 17 63 3b 18 fd 81 3c 07 e6 ea 3b
       -0.00066565705 0.0034651307 0.015867755 0.0071685347
000300 13 5e 07 3c cb 69 6e 3c 08 91 6e 3b 1a 98 cc 3b
       0.008262175 0.01455159 0.0036402363 0.006243718
000310 51 61 af 3b 32 5e fc 3b 35 a7 2a 3b 5a a4 eb 3b
       0.005352177 0.0077016586 0.0026039605 0.007191223
000320 3b 40 84 3b b0 5c 14 3c 67 85 02 3b 05 6a fc 3b
       0.004035977 0.009055302 0.001991594 0.007703068
000330 5b 45 86 3c f2 d8 49 3b 31 d3 fa 3b be 04 20 3b
       0.016390493 0.0030799475 0.0076545705 0.002441689
000340 1b 17 8b 3b 1a 73 91 39 30 67 6d 3b 5d df f6 3b
       0.0042446977 0.00027742313 0.0036224835 0.007533951
000350 f0 02 a8 3b 65 88 77 3b 32 97 9b 3b 40 8e 5b 3b
       0.0051273033 0.0037770506 0.0047482485 0.0033501536
000360 35 f9 8c 3b 2d e8 09 3b e7 cf a5 b9 9f dd fa 39
       0.0043021687 0.0021042929 -0.00031626152 0.00047848836
000370 29 98 1d 3b 23 a6 05 3c b5 a0 66 3a 61 3c 45 ba
       0.0024046993 0.008157286 0.0008797751 -0.0007523951
000380 3a 9e b4 b9 58 14 a2 3b ff 63 94 3b 2b ac b1 3b
       -0.00034450163 0.004946273 0.004528522 0.0054221353
000390 21 b0 07 3c 7c 21 8c 3b 22 4b 14 3a 42 83 b8 3b
       0.0082817385 0.0042764526 0.00056569476 0.0056308815
0003a0 54 76 88 3b 58 3d 89 3b 9f b4 c3 3b 4d 32 75 3b
       0.0041644964 0.004188221 0.0059724594 0.0037414015
0003b0 dd 51 b3 3b 63 da a6 3b b1 05 9b 3b 30 c0 34 3c
       0.0054724053 0.0050919517 0.004730903 0.011032149
0003c0 a0 bc 8e 3b b0 52 f1 3b 89 85 10 3c bd 87 1d 3b
       0.004355982 0.0073645934 0.0088209 0.0024037205
0003d0 21 08 82 3c b8 33 9a 3b c8 da b0 ba 6f be bf 3b
       0.015873017 0.0047058724 -0.0013492936 0.005851559
0003e0 8e 0c d5 3b 07 19 65 ba b9 9b c0 3b f0 cb 66 3b
       0.006501741 -0.0008739386 0.0058779386 0.003521677
0003f0 11 df 74 37 ac 51 d4 3c 6d ea 20 bc 1c 47 7e bc
       1.459547e-05 0.02591785 -0.009821516 -0.0155198835

dnets.1.conv.weight f4 [24, 3, 5, 5]
000000 e5 c5 33 bd 70 da c5 bc 33 04 6a bd 1d 27 6b 3d
       -0.0438899 -0.02415201 -0.05713291 0.05741035
000010 70 86 70 3d 15 30 d7 bd 50 53 ae bd e2 bb 1e bd
       0.05872196 -0.10507218 -0.08511984 -0.038753398
000020 ce 0b 80 3d 90 6f cd bd 6b 64 ac 3c 6a 20 9c 3d
       0.062522516 -0.100310445 0.021043977 0.0762337
000030 ec cf 85 3d 0d 6d 82 bd 49 74 68 3d 11 66 78 bd
       0.065337986 -0.06368456 0.056751523 -0.060644213
000040 ae b0 ce bd 14 a0 a4 3c 9a 51 7c bd 5a 83 d6 3d
       -0.10092293 0.020095862 -0.06160126 0.10474272
000050 7c 1e 4d 3d 7b 90 28 bd f7 af 97 3d a3 df e0 3d
       0.0500779 -0.041153412 0.074066095 0.10980155
000060 33 db b2 3d 6a 04 85 3d d3 75 df bd 03 8d 89 bc
       0.08733215 0.064949825 -0.10911145 -0.016790872
000070 3f 36 e4 3b a0 e6 2d bd fd f0 90 bd 21 2b 54 bc
       0.0069644745 -0.04245627 -0.07077215 -0.012949736
000080 59 17 ca bd f7 e8 66 bd ae 4c 81 bd 29 57 b2 bd
       -0.098677345 -0.056374516 -0.063134536 -0.08708031
000090 3a 1b 72 3d bc 7c 84 bb 1f 2b 31 bd db be 03 bd
       0.059107997 -0.00404319 -0.043254014 -0.032164436
0000a0 e4 b0 58 3d eb bb b9 bd c2 d1 ea 3d c0 24 06 3c
       0.05290307 -0.09069046 0.114657894 0.008187473
0000b0 a3 bd e3 3d 48 1d 84 bd b2 8a 83 3d dd e7 ac 3d
       0.11120155 -0.064508975 0.064229384 0.08442662
0000c0 91 3e 96 3d 8d 15 41 bd 28 03 51 bd 0b 85 1e bd
       0.07336152 -0.047139693 -0.0510284 -0.0387011
0000d0 f3 3f 4b 3b 16 e6 bd bd c7 30 b0 3c 0c d3 40 3d
       0.0031013459 -0.09272401 0.021507634 0.04707627
0000e0 a0 4b c6 bd 92 33 93 bd 49 35 95 bd 58 05 ac 3d
       -0.09682393 -0.07187571 -0.07285554 0.08399457
0000f0 f2 99 16 bd 97 fc 1a 3d 71 85 b0 bd 57 29 de bc
       -0.036767907 0.037838545 -0.08619202 -0.027119322
000100 b7 bf ce bd 0d 89 8b bd 95 66 9d bd 38 6e 16 bd
       -0.100951605 -0.0681325 -0.076855816 -0.036726207
000110 c1 02 60 3c 26 69 9e 3c 7b 2e c2 3d b4 b0 92 bd
       0.013672532 0.019337248 0.09481522 -0.0716261
000120 8a a8 19 bb ba 3f d9 3d 52 85 6c bd ad e8 89 bc
       -0.0023446404 0.10607858 -0.05774433 -0.016834581
000130 cc 66 78 3d 69 e6 90 bd e8 75 b8 3d 1e 07 ec bd
       0.06064491 -0.07075197 0.09006864 -0.11524795
000140 86 cb 91 bd 24 c3 96 bd 67 11 b5 3d 35 ea f8 bb
       -0.07118897 -0.07361439 0.0884121 -0.007596279
000150 85 b3 9c bd 97 cb bb 3c d6 02 24 3d 39 0a 6d 3d
       -0.07651428 0.022924228 0.040041767 0.057871077
000160 5b ad 06 3c 16 28 6f 3d ac 97 fe bd 8b 48 9a 3d
       0.008220042 0.05838784 -0.12431273 0.07533368
000170 14 dd a0 bc 04 6f d3 3c c9 62 a3 3d 8f c7 81 3c
       -0.019636668 0.025809772 0.07977826 0.015842227
000180 d6 04 d9 bd 86 78 dc bc 4d db 03 3c a2 43 bf 3d
       -0.105966255 -0.026912939 0.008047891 0.09339072
000190 03 e9 d8 3d 6e 35 ea 3c 7a b2 55 bd 67 80 81 3d
       0.105913185 0.02858993 -0.05217216 0.06323319
0001a0 d5 ef bf 3d e1 e1 44 bd 09 69 e4 bd e9 22 ab 3d
       0.09371916 -0.048066977 -0.11152846 0.08356268
0001b0 8f 2f e9 3b 77 42 7e bd d5 98 cd 3d 9f 89 f6 3c
       0.007116265 -0.062075105 0.10038916 0.03009492
0001c0 15 16 46 bd 4f 9b 73 bc 74 cf f8 bd ce 0f 92 3d
       -0.048360903 -0.014868571 -0.121489435 0.07131921
0001d0 40 b0 c3 bd ac 41 9a 3d 21 c0 a2 bd 57 1b 1a 3d
       -0.095551014 0.07532057 -0.07946802 0.03762373
0001e0 a3 fb 68 bb 83 74 d9 bd 2d 9b 60 bc ca ff d2 3c
       -0.0035550378 -0.10617926 -0.013708872 0.025756735
0001f0 07 2f 83 3d f5 6d f2 bd 73 ad 55 bd 27 16 d9 bb
       0.06405454 -0.11837379 -0.052167367 -0.006624955
000200 79 bc 16 bd ba 1c 33 bd 82 26 d8 3d f6 39 81 3c
       -0.036800835 -0.043728568 0.1055422 0.015774708
000210 98 74 93 3d 66 67 61 3d 6a 0d d8 bd 5c 28 c2 3c
       0.07199973 0.05503025 -0.105494335 0.023700885
000220 f1 79 19 bd 0f 65 a0 3d 92 4c 73 3c 97 d0 cc 3d
       -0.037469808 0.078317754 0.014849799 0.10000723
000230 e7 15 10 bc 3b 8a 04 bb 1c 95 93 3d 08 e1 eb bc
       -0.008794284 -0.0020223993 0.07206175 -0.028793827
000240 7a 31 ed bd 2b 97 da bd 32 a2 1a bd 76 ac af 3d
       -0.115817025 -0.10673364 -0.037752338 0.08577816
000250 e6 2c 8b 3d 0d a0 40 3d 4c 8a 87 3c 5b 7d fa bc
       0.06795673 0.047027636 0.016545437 -0.030577352
000260 d0 67 90 3c 04 e7 d4 3d e6 d5 3b 3d 1d 54 24 3d
       0.017627627 0.10395625 0.045858286 0.04011928
000270 38 e9 c8 bd 45 09 d3 bd 9b 6a f6 3c c3 60 9c bd
       -0.09810108 -0.103045024 0.03008013 -0.07635643
000280 10 da 68 bd e2 f7 90 bc 8d b9 7a bb 92 f3 8c 3d
       -0.056848586 -0.017696325 -0.003825757 0.06882395
000290 b3 11 4b 3d 2d d2 b3 bd dd 31 0e 3d 2a f4 03 bc
       0.049577426 -0.08780322 0.034715522 -0.008053819
0002a0 2a 4a e5 bc fc 21 ed 3c 9b 5e 09 bd 98 22 8c bd
       -0.027989466 0.02894687 -0.03353749 -0.06842536
0002b0 06 2b c0 3d 72 36 bb 3d 49 92 2b bd 8b 8f 59 bd
       0.09383206 0.09141244 -0.041887555 -0.05311541
0002c0 05 a9 d7 bd 73 03 c3 3d 41 1a e6 bd 28 a1 8e 3d
       -0.10530285 0.09522142 -0.11235476 0.06964332
0002d0 0f b1 da 3d c0 e0 2f 3c b1 5c bd 3d 30 30 c3 bc
       0.106783025 0.010734737 0.09246195 -0.023826689
0002e0 e6 86 c2 bd d4 4f a0 3c 56 23 9d 3d 84 36 01 bc
       -0.09498386 0.019569315 0.076727554 -0.007886533
0002f0 84 55 06 3d 3a 36 86 bd b5 68 87 bd c0 c1 4f 3d
       0.032796398 -0.06553312 -0.06611768 0.050721884
000300 16 69 d2 3d 25 27 3b 3d a0 ad 2d 3d df 8d 3f bd
       0.1027395 0.045691628 0.04240191 -0.04676616
000310 3c 31 b9 bd 25 23 df 3d 84 27 e2 bd 1c 1e e6 bd
       -0.09042594 0.10895375 -0.11042693 -0.11236212
000320 fb cb d0 3d 98 32 39 bd 26 f7 0f bd dd fd 8c bd
       0.10195156 -0.045214266 -0.03514781 -0.06884358
000330 d5 ae c0 3d 2d a9 4f 3c 7e c8 90 3c c4 51 d7 bd
       0.094083466 0.012674612 0.017673727 -0.105136424
000340 43 6a 30 3c 47 34 93 3d 04 47 89 bd 7c ea dc 3c
       0.010767522 0.071877055 -0.06702998 0.02696728
000350 9e 94 44 bd c5 e1 1c 3d ba 15 26 3c 81 aa 24 3d
       -0.047993295 0.038301248 0.010137016 0.040201668
000360 a0 ea ba bd 45 12 71 3d 40 af a4 3d 7d b4 54 bc
       -0.091267824 0.058855314 0.08041239 -0.012982485
000370 a2 ac 80 3d cd e0 ea bd 24 d0 1c bd 31 54 04 3d
       0.06282927 -0.114686586 -0.038284436 0.032306854
000380 9e 8f a3 bd 35 f2 cd 3d ed 0e 95 3d 4e e7 59 bd
       -0.07986377 0.10055963 0.072782375 -0.053199105
000390 41 6b 81 3d ea dc aa bc bb d7 e7 bd 92 56 23 3d
       0.06319285 -0.020857293 -0.11320444 0.03987748
0003a0 83 c5 b0 bd cf 69 29 bd e3 cd 45 3d 1a bd ba bd
       -0.08631422 -0.041360673 0.048292052 -0.091180995
0003b0 69 8d c9 3d 56 c4 aa 3d 1a 42 88 bc 4b f0 ad 3d
       0.09841425 0.08338229 -0.016633082 0.08493098
0003c0 18 d2 4e 3d 30 71 41 b8 33 25 68 bd 03 0d ae bd
       0.05049333 -4.61202e-05 -0.0566761 -0.084985755
0003d0 75 ae 60 bd d3 34 06 bd da 52 ae 3d 0a 28 8b 3d
       -0.054853875 -0.03276522 0.085118964 0.06794746
0003e0 b3 c1 84 3c b7 26 bb 3d e3 71 68 3d bc e9 c2 3d
       0.016205644 0.09138244 0.056749236 0.095172375
0003f0 95 f0 24 bd 98 5a 4f bd 0c 7a 69 bc 30 4d c4 3d
       -0.0402685 -0.050623506 -0.01425029 0.09585035

dnets.2.means f4 [63]
000000 31 1c 88 3f 07 d2 7c bf c0 3c ef bf 35 e1 81 bf
       1.0633603 -0.98757976 -1.8690414 -1.0146853
000010 a6 59 53 3f 8c d7 21 3f 2f 21 14 c0 79 02 41 bf
       0.8255867 0.63219523 -2.3145254 -0.753944
000020 5b 89 7e bf 22 dd 42 3f 00 98 40 bf 06 6a d4 3e
       -0.9942834 0.7611867 -0.75231934 0.4148714
000030 3d 6b 13 c0 3c 85 31 3f 13 bd 84 bf f4 5b f1 3f
       -2.3034203 0.69343925 -1.0370201 1.8856187
000040 88 84 a9 bc 7c b2 91 bf 7a bb 0e 3f 2d 2a 35 bd
       -0.020693079 -1.1382594 0.55754817 -0.044229675
000050 b6 2c 94 3f f3 fc 46 3f 41 0c 11 c0 eb fe d1 bf
       1.1576145 0.7772972 -2.266373 -1.640592
000060 eb 2f 0a bf 50 27 7d bf 31 bd 68 bf 46 89 ef 3e
       -0.53979367 -0.9888811 -0.90913683 0.4678442
000070 53 f7 37 3f bc f3 d6 3f 83 3f b7 3f 85 af 49 3f
       0.7186176 1.6793132 1.4316257 0.78783447
000080 a3 69 79 be cf 16 bb 3f 44 f9 92 3f a5 71 40 be
       -0.24356703 1.4616336 1.148232 -0.18793352
000090 78 8d b8 3e 72 ab 62 be e1 95 fb 3e f8 06 9a bf
       0.36045432 -0.22135714 0.49137786 -1.2033377
0000a0 3c 74 1c be c2 08 c4 3f 48 f6 13 c0 89 9d 73 3e
       -0.15278715 1.5315173 -2.3119068 0.23790564
0000b0 28 6f b1 3e 44 f3 00 c0 50 01 2c 3f 5d 2c eb bf
       0.34655118 -2.0148478 0.671895 -1.8372914
0000c0 dd f6 0e 3f 8a 3e 35 bd b9 55 e4 bb 1a 57 6e 3d
       0.55845433 -0.044249095 -0.0069682267 0.058188535
0000d0 5a 21 a1 bf 71 e1 68 3e a0 40 87 3f e0 ba ec bf
       -1.2588303 0.22742249 1.0566597 -1.849453
0000e0 34 45 62 3d a7 5e c0 3c bc 4e a6 3e 98 e8 31 bf
       0.05524178 0.023482634 0.32481945 -0.69495535
0000f0 9b 74 8b 3f 87 1b cc be d2 56 71 3f
       1.089496 -0.39864752 0.942731

dnets.2.std f4 [63]
000000 b8 c8 f6 3f d2 ca 41 3e f5 6a a2 3f 58 c9 24 3f
       1.9280005 0.18925026 1.2688891 0.64369726
000010 50 a3 3f be 71 95 c8 be ae fa d9 3f 3a a8 cf 3f
       -0.18714643 -0.39176515 1.7029626 1.6223214
000020 8e 48 36 3f f2 f0 fc 3e 70 c4 68 3f 96 61 cf 3f
       0.7120446 0.49402577 0.9092474 1.6201656
000030 23 70 88 3f f6 e3 c9 be ef 7e 39 3f 12 9c 53 3e
       1.0659221 -0.39431733 0.7245931 0.20665005
000040 f1 7f 84 bd 1d ba 04 bf 53 e1 a3 3e 66 ba 0c 40
       -0.064697154 -0.51846486 0.32007846 2.1988769
000050 51 1e 31 3f 95 e9 cf 3f 11 f7 b4 3f d7 af 0b 40
       0.69186884 1.6243159 1.4137899 2.1826074
000060 17 bf 9f be 01 a8 14 40 65 d6 99 3e f4 6a 97 be
       -0.31200477 2.3227541 0.30046383 -0.29573786
000070 a1 4d d7 3e c5 ab 34 bf 3f 57 60 3f 72 fb 02 3f
       0.42051414 -0.705746 0.87633127 0.51164925
000080 21 15 26 3f f3 d8 03 3f 3d 90 16 3f f0 a8 15 3e
       0.6487599 0.51502913 0.5881384 0.14615226
000090 f3 f7 4d 3f ca 6c f7 3f 32 06 00 3f 9c 5a 13 bf
       0.80456465 1.9330075 0.50009453 -0.57560134
0000a0 d5 2b 14 40 74 f9 70 3f 7d 52 ff 3f 33 ad e8 3f
       2.3151753 0.94130635 1.9947048 1.8177856
0000b0 65 f8 ba 3f b7 ce d2 3f f3 ba dc 3f 4c ff f5 3f
       1.4607054 1.6469334 1.7244552 1.9218535
0000c0 21 6c e5 3e 64 16 bc 3f bc 7f 6d 3e 01 cf e0 3f
       0.44809058 1.4694333 0.23193258 1.7563173
0000d0 89 db 61 3f 8e b0 90 3e f4 43 71 3e 2c ab 37 3d
       0.8822561 0.282597 0.23561078 0.044840977
0000e0 81 67 ab 3f 2e 6b 43 3d 47 e2 1c 3f 51 24 8d 3f
       1.3390962 0.047709636 0.6128277 1.1026708
0000f0 71 fd 03 3f b9 94 98 3f 10 e5 e9 3f
       0.51558596 1.1920387 1.8273029

dnets.2.weights_rbf f4 [24, 63]
000000 9b f5 16 3c 8f 89 05 3e 9e e4 2c 3c 11 d3 2f 3c
       0.00921383 0.13040756 0.010552553 0.0107314745
000010 e0 0e 81 3c 96 cb 0b 3c ae b3 28 3c b5 14 1e 3c
       0.015754163 0.008532425 0.010296745 0.009648492
000020 38 bf 25 3c 37 ab 24 3c df 95 20 3c fd 9c 16 3c
       0.010116391 0.010050586 0.009801357 0.009192702
000030 44 d0 51 3c 5e e4 d6 3b 45 4b 27 3c 21 08 82 3c
       0.012806002 0.006557985 0.010210817 0.015873017
000040 f4 ad d5 3b 4e c2 7c 3c a6 8b 9f 3a e3 b8 19 3c
       0.006520981 0.015427185 0.0012172356 0.009382459
000050 39 45 1e 3c 25 08 16 3c fe e7 32 3c 66 85 20 3c
       0.009660059 0.009157215 0.010919569 0.00979743
000060 fb 3a 12 3c 23 79 1d 3c a7 a4 d7 3c 41 08 d9 3a
       0.008925195 0.009611401 0.02632363 0.0016558246
000070 dc a3 02 3c 5f 39 c8 3b 31 c5 21 3c be fe 25 3c
       0.007973637 0.006110355 0.009873674 0.010131536
000080 78 14 1a 3c d2 eb d5 ba 8d 4e f0 3b e5 80 72 3c
       0.009404294 -0.001632089 0.0073335827 0.014801239
000090 1d d7 14 3c 76 65 1a 3c 70 ad 1f 3c 27 36 6b 3c
       0.00908449 0.009423604 0.009745941 0.014356173
0000a0 cf 29 1a 3c f1 84 21 3c 80 73 25 3c fe 01 18 3c
       0.009409382 0.009858356 0.010098338 0.009277819
0000b0 40 60 16 3c 11 95 26 3c a9 4f 16 3c 25 d2 22 3c
       0.009178221 0.010167376 0.009174266 0.009937798
0000c0 fb 9c 22 3c c3 08 19 3c 8a da 46 3c a3 f6 18 3c
       0.009925122 0.009340468 0.012137065 0.0093361465
0000d0 f0 37 29 3c f3 b4 36 3c f8 04 86 3c 21 08 82 3c
       0.010328278 0.01115154 0.016359791 0.015873017
0000e0 1d 5a 18 3c 25 da 2c 3a b2 8e 18 3c 17 70 1f 3c
       0.009298828 0.00065937854 0.009311365 0.009731314
0000f0 9b 78 af 3b 71 35 1c 3c 7a 9e 16 3c 01 8c 17 3b
       0.0053549535 0.009534226 0.009193057 0.002312422
000100 df 29 0e 3d 68 5a 39 3b 4a 97 77 3b d5 8e cb b9
       0.0347079 0.0028282646 0.0037779384 -0.00038825595
000110 10 b5 1b ba 5a ae 2f 3b 08 54 06 3b 4d 3c 28 3b
       -0.0005939761 0.0026806802 0.0020496864 0.0025670708
000120 5e 5f 6b 3a 2f 92 e7 3a 17 11 0a 3b 8d 26 c2 3b
       0.00089787494 0.0017667467 0.0021067315 0.005925006
000130 36 90 cc ba d4 93 2f 3b c9 e9 81 3c 3a 10 60 bb
       -0.0015606943 0.0026790993 0.015858548 -0.003418936
000140 90 1b 9a 3c 60 22 93 bb eb 48 10 3b 13 75 f8 3a
       0.018811971 -0.004490182 0.0022016119 0.0018955789
000150 eb 29 10 3b 57 50 42 3b 49 11 17 3b e1 6a a0 3c
       0.0021997641 0.0029649937 0.0023051074 0.019582214
000160 55 64 11 3b f9 48 05 3e 21 eb 5e bb 27 92 2b ba
       0.0022185047 0.13016118 -0.003401466 -0.0006544911
000170 bb bb 72 3a 97 38 1d 3b a2 a8 87 3a 5a 67 63 3a
       0.00092595414 0.002399003 0.0010349939 0.00086747634
000180 cd 78 db bb c9 65 6c 3a 5c 5d 75 3c 31 e8 c4 3a
       -0.00669775 0.0009017853 0.014975872 0.0015022812
000190 f5 11 0b 3b 54 c3 a1 3a 6a 06 5a 3c 05 b2 10 3b
       0.002122042 0.0012341538 0.013307193 0.0022078764
0001a0 55 f6 23 3b 4f 23 27 3b 6e 4d 0c 3b e2 39 05 3b
       0.0025018652 0.0025503223 0.0021408456 0.002032869
0001b0 d3 f7 28 3b 29 9f 0f 3b fd b8 1c 3b cd 7f 86 3a
       0.002578248 0.0021914935 0.0023913973 0.0010261476
0001c0 82 1d 02 3b 6c eb bc ba 56 61 0b 3b 07 6d 31 3b
       0.0019854014 -0.0014413423 0.0021267734 0.0027073042
0001d0 0b 13 cc 3a 64 89 38 3c 21 08 82 3c c3 07 01 3b
       0.001556964 0.011263225 0.015873017 0.0019688464
0001e0 72 4f 0c ba 42 e5 9a 3a f4 c6 ec 3a e4 97 7b ba
       -0.00053524144 0.0011817592 0.0018064664 -0.00095975236
0001f0 05 a4 e5 3a d5 10 15 3b 92 ac b9 3b f4 19 15 3d
       0.0017520195 0.0022745628 0.005666324 0.036401704
000200 60 db f8 3b e9 4e 15 3c 12 81 79 3c 07 86 c4 3b
       0.007594511 0.009113052 0.015228527 0.0059974226
000210 e7 fe e2 3b db eb c8 3b 2d 4d f6 3b 1b 9a dd 3b
       0.0069273594 0.006131632 0.0075165243 0.0067627556
000220 86 9d dc 3b 17 14 b9 3b 46 b1 5b 3c 53 7b c1 3b
       0.0067326454 0.005648147 0.0134089645 0.005904594
000230 c4 cf fa 3b 21 08 82 3c 41 ff 33 ba bb 1b 8e 3c
       0.007654162 0.015873017 -0.0006866344 0.017347207
000240 7c 64 4b 3b 34 72 bd 3b e9 e8 ef 3b df e1 b8 3b
       0.0031035235 0.0057814363 0.007321466 0.0056421603
000250 34 b0 0a 3c aa 6e cc 3b 39 b5 63 3c 91 43 c5 3b
       0.008464862 0.006238778 0.013898187 0.0060200174
000260 00 a0 8c 3c 60 69 39 3b c6 bb d0 3b a4 2d 06 3c
       0.017166138 0.0028291568 0.0063700406 0.0081895925
000270 b7 e0 e6 3b 96 0e df 3b 11 ac c4 3b ea 7a af 3b
       0.007045831 0.0068071587 0.006001957 0.0053552287
000280 bf 07 01 3c 78 a8 af 3b c7 64 b7 3b 09 0d bf 3b
       0.007875382 0.005360659 0.0055967304 0.0058304113
000290 0f 0a cb 3b ac ec 84 3c 8f 2f be 3b dd 3b e4 3b
       0.0061962674 0.016226135 0.0058040093 0.006965144
0002a0 0e b8 d7 3b 4f ca ba 3b 37 c9 b8 3b 42 ac dc 3b
       0.0065832203 0.0057003866 0.005639221 0.006734402
0002b0 9a e7 b8 3b 12 59 d2 3b 9c 91 d1 3b f7 06 bd 3b
       0.0056428434 0.0064193094 0.006395532 0.0057686525
0002c0 ca 6e 85 3b 7f 57 bc 3b 80 27 f6 3b 01 da be 3b
       0.004072045 0.005747735 0.007512033 0.005824328
0002d0 07 e6 79 3c 21 08 82 3c 8f 9a bb 3b 49 ca f8 ba
       0.015252597 0.015873017 0.005725212 -0.0018981184
0002e0 80 11 ba 3b 68 ce d2 3b 8d ca ea 3b 26 55 c6 3b
       0.0056783557 0.006433297 0.007165259 0.006052631
0002f0 df 5c b9 3b b7 b7 16 3c dc 44 99 3c 89 9a e8 3b
       0.005656823 0.0091990745 0.018709593 0.0070985
000300 72 5c b2 3b a9 29 7a 3c b1 c1 60 3c 83 3b fd 3b
       0.0054431492 0.015268722 0.013718055 0.0077280416
000310 cf 3d 07 3c d3 b3 de 3b e0 65 5a 3c 12 ca 00 3c
       0.008254482 0.006796339 0.013329953 0.007860677
000320 cf b5 13 3c b9 9c 89 3b 71 23 5e 3c 22 30 db 3b
       0.0090155145 0.004199591 0.013558255 0.0066890875
000330 21 08 82 3c ff f4 4e 3c 0a 39 49 3a 58 8c 43 3c
       0.015873017 0.012631654 0.0007676041 0.011935316
000340 22 14 0d 3c b7 68 51 3c df c0 17 3c 86 da dd 3b
       0.008610757 0.012781314 0.009262293 0.006770435
000350 6f 2b 06 3c 63 30 c4 39 1b 41 08 3c 52 bd 03 bc
       0.008189066 0.00037420084 0.008316304 -0.008040743
000360 2a 1d 44 3c a9 b4 5f 3c 32 44 5a 3c 38 af 46 3c
       0.011969844 0.013653913 0.013321923 0.012126736
000370 37 0b 59 3c bc 1a 10 3c fc 0b 25 3c 26 fd 5c 3c
       0.013247303 0.0087954365 0.010073658 0.01348809
000380 9c 4a e9 3b 25 c8 26 3c e1 3d 0c 3c 54 0c 4b 3c
       0.00711949 0.010179554 0.008559675 0.012393076
000390 80 89 f1 3a 0d 57 0c 3c 2e ac 43 3c 8d 7c 03 3c
       0.0018427819 0.008565676 0.011942906 0.008025301
0003a0 10 65 10 3c 79 8d 14 3c 90 33 01 3c 9e 62 15 3c
       0.008813158 0.009066933 0.007885829 0.00911775
0003b0 ff c7 04 3c 57 f0 56 3c eb 1a 0f 3c ea fb 61 3c
       0.008104323 0.013118825 0.008734445 0.013792971
0003c0 c1 d8 0e 3c 4d 21 e4 3b ae f1 5f 3c bb 56 78 3c
       0.00871867 0.0069619776 0.013668461 0.015157397
0003d0 21 08 82 3c 7f 10 11 3c 3e ba 0a bb 34 e1 33 3c
       0.015873017 0.008854031 -0.0021168138 0.010978986
0003e0 27 34 04 3c 10 68 5a 3c 09 11 0a 3c 30 cf 16 3c
       0.008069075 0.0133304745 0.008426913 0.009204671
0003f0 4e b5 e3 b9 7f d1 83 3c ad da 1a 3b 01 2e b7 3a
       -0.00043431896 0.016091106 0.0023628876 0.0013975502
