models/poisson_greedy7.pth (torch, 332311 bytes, 32 tensors)

dnets.0.means f4 [63]
0	0xbfac802b	-1.3476614
1	0x40092c59	2.1433318
2	0x402ed3e3	2.7316825
3	0x3fb8d0d6	1.4438732
4	0xbf151b48	-0.5824475
5	0x3f250ed0	0.6447573
6	0x404110b3	3.0166442
7	0x3f29c0f5	0.66310054
8	0xc020bf87	-2.51169
9	0x3f200479	0.62506825
10	0xbf5247d9	-0.8214088
11	0xbfdf4cfc	-1.7445369
12	0xbe8f1162	-0.2794295
13	0x3f670ba3	0.9025213
14	0xbf8bcfd2	-1.0922797
15	0xbe3fde9b	-0.18737261
16	0x401bbc39	2.4333632
17	0x3d2fc8ce	0.04291611
18	0x40131b18	2.2985287
19	0xbfe1cdfa	-1.7640984
20	0x3f737423	0.95099086
21	0x3e880403	0.2656556
22	0xbfb7d336	-1.4361331
23	0xbf9a9980	-1.2078094
24	0x3faac118	1.3340178
25	0xbfa0e0b3	-1.2568573
26	0xc0238134	-2.554761
27	0xc00c7cf0	-2.1951256
28	0x3e4a7b30	0.19773555
29	0x3dc1882c	0.09449801
30	0x3e82063f	0.2539539
31	0x4021a46d	2.5256608
32	0x3fceb57b	1.6149133
33	0x3e609fed	0.21936007
34	0x3f30892a	0.68959296
35	0x3f53a91e	0.8267993
36	0x3f2c2cb4	0.6725571
37	0xbf824808	-1.0178232
38	0xbfec6fde	-1.8471639
39	0xbe2707c6	-0.16311559
40	0xbf9a819b	-1.2070802
41	0xbe34917b	-0.17633621
42	0x3f8b29c4	1.0872121
43	0x3f1dada7	0.615931
44	0xbfd52a9a	-1.6653626
45	0x40109e5a	2.259665
46	0xbf90ac70	-1.1302624
47	0xbffe1f03	-1.9853214
48	0xbf80c9d5	-1.0061594
49	0x3f966238	1.1748724
50	0x3ec2d200	0.38050842
51	0xc049cd33	-3.1531494
52	0x3ebafe4b	0.36522135
53	0x3f0ae6eb	0.542586
54	0x3f8bce94	1.0922418
55	0xbf7c5cc8	-0.9857907
56	0x3f7b369e	0.98130214
57	0xbfbfb75b	-1.4977831
58	0x3e5f6ec2	0.21819595
59	0xbfa6fa02	-1.3045046
60	0xc010e353	-2.2638748
61	0xbf885b78	-1.0652914
62	0x3fb55c08	1.4168711

dnets.0.std f4 [63]
0	0x3f54001a	0.82812655
1	0x3f9d0eb2	1.227011
2	0x3fa81d80	1.3134003
3	0x3f3fac26	0.7487205
4	0xbe96a2d1	-0.29421094
5	0x3fa665a5	1.299977
6	0x3fd5332f	1.6656245
7	0x3f498b9e	0.78728664
8	0x3fb62af0	1.4231853
9	0x3e90c5c9	0.28275898
10	0x3f9b8506	1.214997
11	0x3f76ea93	0.9645168
12	0x3fbbb33f	1.4664077
13	0x3e7c58d4	0.2464326
14	0x3eddadd9	0.43296698
15	0xbddcac2b	-0.10775026
16	0xbf9cfdc9	-1.2264949
17	0x3f451196	0.7697996
18	0x3f876460	1.0577507
19	0x3f769c3f	0.9633216
20	0x3f88e930	1.0696163
21	0x3f92efc5	1.1479422
22	0x3f42c049	0.76074654
23	0x3ee9fe91	0.4570203
24	0xbec0f94b	-0.37690195
25	0xbe9d7ce9	-0.3075936
26	0x3fe52f96	1.7905147
27	0x4031c3cb	2.7775753
28	0x3fcf3684	1.6188512
29	0x3ea57461	0.32315353
30	0x3f1bad5e	0.6081141
31	0x3ee4e8e8	0.44708943
32	0x3f470743	0.77745456
33	0x3e7ae9fc	0.2450332
34	0x3f2b9fd5	0.6704076
35	0x3f8467e7	1.0344208
36	0x3e9e8817	0.30963203
37	0x3ece0276	0.40236253
38	0x3e508e09	0.20366682
39	0x3e209bc5	0.15684421
40	0x3e934624	0.2876445
41	0x3f2bb7c2	0.6707727
42	0x3f95652f	1.1671504
43	0x3e03e439	0.12880029
44	0x3ea3ea1e	0.32014555
45	0x3fa05696	1.2526424
46	0xbef86118	-0.48511577
47	0x3f7f73da	0.9978615
48	0x3f7bda7a	0.98380244
49	0x3ec6f6e4	0.38860238
50	0xbf50aac9	-0.815106
51	0x403cf30b	2.9523342
52	0x3e739994	0.23789054
53	0x3ff87bc1	1.9412767
54	0x3ffcfdd8	1.9764967
55	0xbb3fc48c	-0.0029261438
56	0xbeed03ce	-0.46291965
57	0x3f3c5373	0.73564833
58	0x3f9bb88a	1.2165692
59	0x3cced251	0.025246771
60	0x3f9fd17a	1.2485802
61	0x3fde20cd	1.735376
62	0x3f1fe711	0.62461954

dnets.0.weights_rbf f4 [48, 63]
0	0xbb0207b3	-0.0019841015
1	0x3c151b09	0.009100684
2	0x3c2efcf1	0.010680423
3	0x3c62b0f3	0.013836133
4	0x3b95fcee	0.0045772707
5	0x3b58af2e	0.00330634
6	0x3c08bc82	0.008345725
7	0x3bca0c1d	0.006165995
8	0xbb232646	-0.002489464
9	0x3d0bebfe	0.034160607
10	0xbb3fa181	-0.002924055
11	0xbad09193	-0.0015912525
12	0xb9b4a97a	-0.00034458545
13	0x3ce71c1d	0.028211648
14	0xba426fb7	-0.00074171595
15	0xbc223a67	-0.0099016195
16	0x3c2e9ff5	0.010658254
17	0x3a01b2ea	0.000494762
18	0x3c4f00fb	0.012634511
19	0xbac650a8	-0.0015130239
20	0x3bbe440a	0.0058064507
21	0x3adc3412	0.0016800186
22	0xba2c2e50	-0.00065681804
23	0xbabcc2a8	-0.0014401274
24	0x3b8720ad	0.0041237683
25	0x3c3e4f8e	0.011615647
26	0xbb3e6f32	-0.0029057977
27	0xbadbd9d2	-0.001677329
28	0x3a86e95d	0.0010292936
29	0xb8d87f6d	-0.000103234175
30	0x3b570f01	0.003281534
31	0x3c820821	0.015873017
32	0x3c75c859	0.01500138
33	0x3c79d9fe	0.015249727
34	0x3bf88217	0.0075838673
35	0x3bb1da8b	0.0054276637
36	0x3d089690	0.033346713
37	0xba5b670b	-0.00083695416
38	0x3c820821	0.015873017
39	0xbc808305	-0.015687475
40	0x3c5558b7	0.01302164
41	0xbb100f40	-0.0021981746
42	0x3bbe2aba	0.0058034332
43	0xbc5638aa	-0.013075033
44	0x3c999abd	0.018750543
45	0x3c1a044b	0.009400438
46	0x39fa1b49	0.00047704045
47	0xbaed0909	-0.0018084358
48	0xbb6ea211	-0.0036412517
49	0x3d3ea5a7	0.046544697
50	0x3b716415	0.0036833335
51	0xbb027c83	-0.001991064
52	0xbd93632c	-0.0719665
53	0x3ae46394	0.0017424696
54	0x3b40e5ab	0.0029433768
55	0x3c820821	0.015873017
56	0x3cbedfc2	0.023300055
57	0xb930dbd1	-0.00016866556
58	0x3ab05f4b	0.0013456134
59	0x3c820821	0.015873017
60	0xbb10bb1d	-0.0022084184
61	0xbb05f32d	-0.0020439134
62	0x3c9da7fb	0.019245138
63	0xbbc8ea12	-0.006131419
64	0x3b98deda	0.004665238
65	0x3b8d5222	0.0043127695
66	0x3af2ff02	0.0018539133
67	0xbc267e03	-0.0101618795
68	0x3ad325eb	0.0016109323
69	0x3ba7cedb	0.0051210946
70	0x3baa9c50	0.005206622
71	0xbbc0b1c6	-0.0058805672
72	0xbc0b1f30	-0.008491322
73	0xbbd59b0e	-0.006518728
74	0xbbc5338a	-0.006018107
75	0xbb9112c8	-0.0044272877
76	0x3ca1782f	0.019710628
77	0xbc322f80	-0.010875583
78	0x3ca72259	0.02040212
79	0x3b8bd94e	0.004267848
80	0xbae5cdb3	-0.0017532617
81	0x3b52624a	0.0032102042
82	0xbbc6f0fe	-0.006071209
83	0x3b939d15	0.0045048096
84	0xba2c56d4	-0.00065742177
85	0xbbd7aa2c	-0.0065815654
86	0xbc3d267c	-0.01154482
87	0x3c8ae7ff	0.016956327
88	0x3bf0e623	0.007351653
89	0xbbc98330	-0.006149672
90	0xbbc93aff	-0.006141066
91	0xbb122aea	-0.002230341
92	0x3c250712	0.0100724865
93	0x3b9c153d	0.004763274
94	0x3c8225e1	0.015887203
95	0x3ad19615	0.0015990163
96	0x3c0a7192	0.008449929
97	0x3bad9f64	0.005298542
98	0x3b8d702c	0.0043163504
99	0xbbfdc85c	-0.007744832
100	0xbc3c119b	-0.011478807
101	0x3c820821	0.015873017
102	0xbc28a0b7	-0.010292224
103	0x3c044dc6	0.008075183
104	0xbb98edae	-0.0046670055
105	0x3b8fcd0f	0.0043884586
106	0x3d1e209a	0.03860531
107	0x3c820853	0.01587311
108	0x3b99a1a2	0.0046884576
109	0xbc19ad97	-0.009379766
110	0xbbd96982	-0.006634892
111	0xbbcffa21	-0.0063469564
112	0xbb7311ec	-0.003708954
113	0x3b5db8a1	0.0033831971
114	0xbbcee901	-0.0063143973
115	0xbba9781a	-0.005171788
116	0xbaa09ade	-0.0012253185
117	0x3a2f8c81	0.0006696657
118	0x3c820821	0.015873017
119	0xbb4d029b	-0.003128207
120	0xbbec8a11	-0.0072186072
121	0xbaac13af	-0.0013128425
122	0x3c820821	0.015873017
123	0xbbc2852a	-0.0059362845
124	0xbbce9b3c	-0.0063051265
125	0xba2dc50d	-0.0006628789
126	0xbb08a132	-0.0020848033
127	0x3b226df3	0.0024784773
128	0x3ae3aaac	0.001736959
129	0xb908dcbd	-0.00013052202
130	0x3bd07b72	0.006362372
131	0x3a3cf06e	0.00072074577
132	0x3b38b762	0.0028185477
133	0x3b61ee27	0.0034474225
134	0xbb3d444f	-0.0028879826
135	0xbc6e65ce	-0.014550639
136	0xbb9c02e5	-0.0047610872
137	0xbadbfce5	-0.0016783742
138	0xbb49ef3c	-0.003081276
139	0x3cc083e2	0.023500387
140	0x3c65e7e0	0.014032334
141	0x3d2daeac	0.04240291
142	0x3aebee8b	0.0018000168
143	0xbb05fbe8	-0.0020444337
144	0x39f35ff8	0.00046420074
145	0xbad3ade0	-0.0016149841
146	0x3b3040de	0.0026894133
147	0xba6cec59	-0.0009037904
148	0xba1d714b	-0.00060059567
149	0x3c76d81a	0.015066171
150	0x3c204066	0.009780979
151	0x3d182cc4	0.037152067
152	0xbb7e80b4	-0.0038834037
153	0xbb8457eb	-0.004038801
154	0xbae81a71	-0.0017708075
155	0x3c399151	0.01132615
156	0x3b5af7e1	0.0033411907
157	0x3c81f541	0.015864016
158	0xba829075	-0.0009961264
159	0x3c6e3675	0.014539351
160	0x3b772bef	0.0037715395
161	0x3b298e12	0.0025872034
162	0xbc58dee2	-0.013236733
163	0x3c8d365a	0.01723783
164	0x3c820821	0.015873017
165	0xbc87cf81	-0.016578438
166	0x3d137456	0.03599962
167	0xbb89f46d	-0.004210046
168	0x3b28b897	0.002574479
169	0x3d50a6c3	0.050940286
170	0x3c82160f	0.015879659
171	0x3b20a385	0.0024511528
172	0x3be79a13	0.0070679276
173	0xbadafba2	-0.0016707073
174	0xbb961970	-0.004580669
175	0xbc42dcdd	-0.011893478
176	0x3b0293a8	0.0019924436
177	0xbb865692	-0.0040996755
178	0xbcb0e30a	-0.021592636
179	0xba87c2ca	-0.0010357734
180	0x39519d64	0.00019990426
181	0x3c820821	0.015873017
182	0xbbda25f0	-0.0066573545
183	0x39183d29	0.00014518634
184	0xbaac563e	-0.0013148261
185	0x3c820821	0.015873017
186	0xbb2264e0	-0.0024779364
187	0xbb8d3c2f	-0.004310153
188	0xbb8bd36c	-0.004267147
189	0xba3802a6	-0.00070194376
190	0x3abd6ea7	0.0014452533
191	0x3a01f283	0.00049570965
192	0x3a6127a0	0.00085889734
193	0x3b7c0be7	0.0038459243
194	0x3a491519	0.00076706853
195	0x3acc5ad5	0.0015591035
196	0x3a866700	0.0010254085
197	0xba5c0f7c	-0.00083946413
198	0x3bb893f1	0.0056328704
199	0xbae7ab6e	-0.0017674991
200	0xba175ed7	-0.0005774325
201	0xba84bc6b	-0.0010126954
202	0x3cc4bee5	0.024016807
203	0xba23e2d1	-0.0006251755
204	0x3c7b25a3	0.0153287975
205	0x3a3b391f	0.00071419956
206	0x397f3da6	0.00024341661
207	0x38997db8	7.3190255e-05
208	0xba10757f	-0.00055106723
209	0x3a8a9c8c	0.0010575219
210	0x39ea4dfa	0.00044690055
211	0xb9a1c864	-0.00030857616
212	0xbac3569a	-0.0014903129
213	0x3c2f633e	0.0107048135
214	0xbd153341	-0.036425833
215	0xbaa8bad5	-0.0012873063
216	0xbab0ddca	-0.0013493833
217	0x37be0069	2.2649956e-05
218	0x3b7c5b3d	0.003850653
219	0x3a9ba188	0.0011873702
220	0x3c820823	0.01587302
221	0x3951cee5	0.00020008867
222	0x3b0bc930	0.0021329634
223	0x3a78abee	0.0009486069
224	0x3a86a01d	0.0010271106
225	0x3b99a9a4	0.004689412
226	0xbab06454	-0.0013457634
227	0x3c820821	0.015873017
228	0xbc3c9eb5	-0.011512448
229	0xbd14e8c3	-0.03635479
230	0xbab146e3	-0.0013525154
231	0x3a8dc70e	0.0010816769
232	0xbbec7e1a	-0.007217181
233	0x3cf12b68	0.029439643
234	0x3abcd1ca	0.0014405784
235	0x39b96825	0.00035363543
236	0xb8f7650e	-0.00011796701
237	0xbade77d8	-0.0016972972
238	0x3c8f0543	0.017458564
239	0x3a7d3a8b	0.00096599077
240	0xbaaf8c99	-0.0013393342
241	0xbc51296b	-0.0127662225
242	0x398bee28	0.00026689586
243	0x3a2b8c2b	0.0006544019
244	0x3ca9c397	0.020723147
245	0x3ae2b818	0.0017297296
246	0xb9523f3b	-0.00020050716
247	0x39a54d35	0.00031528776
248	0x3c820821	0.015873017
249	0xba3ba564	-0.0007158129
250	0xbac9c199	-0.001539278
251	0x39453263	0.00018806155
252	0x3af8cf94	0.0018982762
253	0x3a7320f0	0.00092746224
254	0xbadfc41b	-0.0017071994
255	0xba8ffed2	-0.0010985977

dnets.0.conv.weight f4 [48, 3, 7, 7]
0	0xbca2244b	-0.019792696
1	0x3dac88f6	0.08424561
2	0xbd60f9ce	-0.054925732
3	0xbd278f8e	-0.04090839
4	0xbb1dcbf7	-0.0024077871
5	0x3d8f6052	0.070007935
6	0x3cf30ace	0.029668238
7	0xba3562fb	-0.0006919351
8	0x3c762641	0.015023769
9	0x3c5ff230	0.013668582
10	0xbd8284c6	-0.06372981
11	0xbd4a5d07	-0.049405124
12	0xbd5aa7a5	-0.053382535
13	0x3dacbe94	0.084347874
14	0xbd7fb93a	-0.062432505
15	0x3d1b11ef	0.0378589
16	0x3dbe305f	0.0928657
17	0xbd945ef6	-0.07244675
18	0x3da6b8b9	0.08140702
19	0x3c9cdbf1	0.019147845
20	0x3bbd0cd8	0.0057693534
21	0x3c803d94	0.015654363
22	0x3d87bd5f	0.066279165
23	0xbd304794	-0.043037012
24	0x3d977660	0.07395625
25	0xbd783054	-0.060592964
26	0xbdb9c6c0	-0.09071112
27	0x3ce34fcd	0.027748013
28	0x3baed568	0.0053354986
29	0xbd4eed2b	-0.05051915
30	0xbd68d364	-0.056842223
31	0x3d13f019	0.036117647
32	0xbd64684a	-0.05576352
33	0xbca26877	-0.019825203
34	0x3d5852c5	0.05281331
35	0xbd7d348b	-0.061817687
36	0x3cd68799	0.026187705
37	0x3db26b93	0.087119244
38	0xbc93b0d8	-0.018028662
39	0x3d507b85	0.050899047
40	0x3c4b225b	0.012398328
41	0x3d804022	0.06262232
42	0x3ceb3368	0.028711036
43	0xbda52d05	-0.080652274
44	0x3d4d5bc6	0.05013635
45	0xbdd178cb	-0.102281176
46	0xbc8bbef8	-0.017058834
47	0xbce2fcb0	-0.027708381
48	0xbd4d107c	-0.05006455
49	0x3da9ec85	0.08297066
50	0xbd4a808a	-0.04943899
51	0x3ca8f0aa	0.02062257
52	0xbd2b4ba6	-0.04182019
53	0x3c22e3ea	0.009942034
54	0x3d0375ac	0.032094643
55	0x3cabad1d	0.02095657
56	0x3caea99e	0.021321114
57	0x3ca82f5b	0.020530393
58	0xbd613e40	-0.054991007
59	0x3d1b23c8	0.03787592
60	0xbd483958	-0.048882812
61	0xbda4c231	-0.080448516
62	0xbd129562	-0.035786994
63	0xb7f0fd9b	-2.8728324e-05
64	0x3b9ac9d9	0.004723769
65	0x3db863bc	0.09003398
66	0x3ca8c9df	0.020604072
67	0xbd95cdbf	-0.073146336
68	0xbc7254cc	-0.014790725
69	0xbda04028	-0.07824737
70	0x3da80f69	0.08206064
71	0xbdbada4a	-0.091236666
72	0x3bad0ed1	0.0052813073
73	0x3cd2f088	0.02574946
74	0xbc26eaaf	-0.010187789
75	0xba14bf6e	-0.0005674277
76	0xbd5de945	-0.05417754
77	0xbcd3d1dc	-0.025856905
78	0x3c30e694	0.010797162
79	0xbc9ce4b6	-0.019152027
80	0x3cea191b	0.028576424
81	0x3c83d76f	0.016093938
82	0x3bb92a37	0.0056507844
83	0x3d6af94c	0.057366654
84	0xbd5682f3	-0.052370977
85	0xbda86015	-0.08221451
86	0x3d2e3823	0.042534005
87	0x3da73593	0.08164515
88	0xbdadabd6	-0.08480041
89	0x3c8a3324	0.016870089
90	0xbc350878	-0.011049382
91	0x3d3d0b81	0.04615355
92	0x3d7ab036	0.061203204
93	0x3c74685c	0.014917459
94	0xbc47bad6	-0.012190541
95	0x3d3ef7dd	0.0466231
96	0x3d7cafa8	0.061690956
97	0xbd89c132	-0.06726302
98	0xbccc6386	-0.0249498
99	0xbd1cc3d4	-0.038272694
100	0xbd10895e	-0.035287254
101	0xbd48b5e4	-0.04900159
102	0x3d57b5db	0.052663665
103	0x3d318974	0.043343976
104	0xbd88f804	-0.0668793
105	0xbd7426e6	-0.05960741
106	0xbd1596c3	-0.03652073
107	0x3ba18c9c	0.004930092
108	0x3d2e082b	0.04248826
109	0x3d902ae1	0.070394285
110	0x3d30f744	0.04320456
111	0xbcdc6f79	-0.026908623
112	0x3cdc963d	0.026927108
113	0x3ce8a9f8	0.02840136
114	0x3c9a060b	0.01880171
115	0xbd993b6e	-0.074820384
116	0xbc9fae83	-0.019492393
117	0x3db3d673	0.08781137
118	0x3ca995e3	0.020701354
119	0x3d2207fe	0.039558403
120	0xbc63b6a9	-0.01389853
121	0xbd14ff84	-0.03637649
122	0x3df98c57	0.12184971
123	0xbd28058b	-0.04102091
124	0xbd2456bc	-0.04012178
125	0xbd5fbb0c	-0.05462174
126	0xbd4111d6	-0.04713615
127	0xbca8c1b5	-0.02060018
128	0x3bb8eb47	0.0056432816
129	0xbd25665f	-0.04038083
130	0xbda56ed3	-0.08077779
131	0x3d1d9966	0.03847637
132	0x3d4a252c	0.049351856
133	0xbd30bab9	-0.043146823
134	0x3cf57025	0.029960701
135	0xbd7287a6	-0.059211396
136	0x3dbce31b	0.092230044
137	0xbd5d163e	-0.05397629
138	0x3ce4674f	0.027881293
139	0xbd50ed4c	-0.051007554
140	0x3d4f56cc	0.050619885
141	0x3d4bdfaa	0.04977385
142	0xbc909fe8	-0.017654374
143	0xbd9766d9	-0.073926635
144	0x3d479dea	0.048734583
145	0xbcf35cb9	-0.0297073
146	0x3d9cc568	0.0765484
147	0xbb7f5047	-0.003895776
148	0xbd88a58e	-0.06672202
149	0x3caf37a2	0.021388832
150	0x3bb344d3	0.005470851
151	0xbd0110bc	-0.0315101
152	0x3d849031	0.06472815
153	0x3d18f7ca	0.037345685
154	0x3d3a9653	0.045553517
155	0xbdaa86ca	-0.0832649
156	0xbdbde679	-0.09272475
157	0xbdd31f72	-0.10308732
158	0x3d688d31	0.056775276
159	0x3d1da532	0.03848762
160	0x3cdf98da	0.027294565
161	0x3d7df0f0	0.061997354
162	0x3d7b9503	0.061421406
163	0xbd96ec55	-0.073692955
164	0x3d21881c	0.039436445
165	0x3d1183fd	0.035526264
166	0xbd8b4989	-0.06801135
167	0xbc5dfcfb	-0.013549085
168	0x3d950a1e	0.0727732
169	0x3d5433f9	0.051807377
170	0xbd91743c	-0.07102248
171	0xbdb1a2a1	-0.08673597
172	0x3c647627	0.013944185
173	0x3c94ee10	0.018179923
174	0x3d7463f9	0.059665654
175	0xbd881a4b	-0.0664564
176	0x3cf91076	0.030403357
177	0xbd9d1d6c	-0.076716274
178	0x3c9e7b00	0.01934576
179	0x3d3e8069	0.04650918
180	0x3c3221ab	0.010872285
181	0x3d19bc15	0.037532885
182	0x3d6196d5	0.055075485
183	0xbc06fcbd	-0.008238968
184	0xbcbf1b60	-0.023328483
185	0xbddd4443	-0.108040355
186	0x3c19ed61	0.009394974
187	0xbd9747d2	-0.073867455
188	0x3cfc200e	0.030777004
189	0xbcca996a	-0.024731357
190	0x3d37ffb0	0.044921577
191	0xbd39af10	-0.04533297
192	0x3d7633de	0.06010806
193	0xbcc37f01	-0.023864271
194	0x3d9916e4	0.07475069
195	0x3bfc857a	0.0077063413
196	0x3d5cdc76	0.053921185
197	0xbd3dba2e	-0.046320133
198	0xbd60edf0	-0.054914415
199	0x3d574ae8	0.05256167
200	0xbcad5a45	-0.021161208
201	0x3d54f202	0.05198861
202	0xbd972f73	-0.07382097
203	0xbcc6a0c6	-0.024246585
204	0x3cca1610	0.024668723
205	0x3aeada22	0.0017917792
206	0x3cd467a6	0.02592833
207	0xbd47163d	-0.048605192
208	0x3d95b3f5	0.07309715
209	0xbd5a8a47	-0.053354528
210	0x3cfcb321	0.030847134
211	0x3d1acc43	0.037792455
212	0x3dae8126	0.08520727
213	0xbd2fc17d	-0.042909134
214	0xbc8e7bc5	-0.017393002
215	0x3c8a4a64	0.016881175
216	0x3c9e69bd	0.01933753
217	0x3c03b118	0.008037828
218	0xbc24904e	-0.010044171
219	0xbd21e503	-0.039525043
220	0xbcc023fc	-0.023454659
221	0x3c6b8883	0.014375809
222	0x3bbd2267	0.0057719233
223	0xbd8af1d5	-0.06784407
224	0x3d5b2b7d	0.05350827
225	0x3d08c187	0.033387687
226	0x3cf824e9	0.030291038
227	0xbd0309c6	-0.031991743
228	0xb9ae00f0	-0.00033188565
229	0x3d81dbb9	0.06340737
230	0xbce36925	-0.027760098
231	0xbc63cf29	-0.013904371
232	0xbdb47893	-0.0881206
233	0x3d073940	0.033013582
234	0x3c9ce017	0.019149823
235	0xbd19260d	-0.037389804
236	0x3d4f0e49	0.050550733
237	0xbcdef661	-0.027217092
238	0x3d1c0f86	0.03810074
239	0x3be8f287	0.0071089896
240	0xbd77de00	-0.06051445
241	0x3d821075	0.06350795
242	0xbcba099a	-0.022709657
243	0x3c67bfed	0.01414488
244	0xbd48e066	-0.049042128
245	0x3d788e35	0.060682494
246	0xbd14b583	-0.036305916
247	0x3d834c86	0.0641108
248	0x3d615e6b	0.055021685
249	0x3d211e4b	0.03933553
250	0xbd010ee4	-0.03150834
251	0xbc0f9037	-0.008762411
252	0x3d666f89	0.056258712
253	0x3d0c2476	0.03421446
254	0xbc0a3a41	-0.00843674
255	0xbd542885	-0.051796455

dnets.1.means f4 [63]
0	0xbfac802b	-1.3476614
1	0x40092c59	2.1433318
2	0x402ed3e3	2.7316825
3	0x3fb8d0d6	1.4438732
4	0xbf151b48	-0.5824475
5	0x3f250ed0	0.6447573
6	0x404110b3	3.0166442
7	0x3f29c0f5	0.66310054
8	0xc020bf87	-2.51169
9	0x3f200479	0.62506825
10	0xbf5247d9	-0.8214088
11	0xbfdf4cfc	-1.7445369
12	0xbe8f1162	-0.2794295
13	0x3f670ba3	0.9025213
14	0xbf8bcfd2	-1.0922797
15	0xbe3fde9b	-0.18737261
16	0x401bbc39	2.4333632
17	0x3d2fc8ce	0.04291611
18	0x40131b18	2.2985287
19	0xbfe1cdfa	-1.7640984
20	0x3f737423	0.95099086
21	0x3e880403	0.2656556
22	0xbfb7d336	-1.4361331
23	0xbf9a9980	-1.2078094
24	0x3faac118	1.3340178
25	0xbfa0e0b3	-1.2568573
26	0xc0238134	-2.554761
27	0xc00c7cf0	-2.1951256
28	0x3e4a7b30	0.19773555
29	0x3dc1882c	0.09449801
30	0x3e82063f	0.2539539
31	0x4021a46d	2.5256608
32	0x3fceb57b	1.6149133
33	0x3e609fed	0.21936007
34	0x3f30892a	0.68959296
35	0x3f53a91e	0.8267993
36	0x3f2c2cb4	0.6725571
37	0xbf824808	-1.0178232
38	0xbfec6fde	-1.8471639
39	0xbe2707c6	-0.16311559
40	0xbf9a819b	-1.2070802
41	0xbe34917b	-0.17633621
42	0x3f8b29c4	1.0872121
43	0x3f1dada7	0.615931
44	0xbfd52a9a	-1.6653626
45	0x40109e5a	2.259665
46	0xbf90ac70	-1.1302624
47	0xbffe1f03	-1.9853214
48	0xbf80c9d5	-1.0061594
49	0x3f966238	1.1748724
50	0x3ec2d200	0.38050842
51	0xc049cd33	-3.1531494
52	0x3ebafe4b	0.36522135
53	0x3f0ae6eb	0.542586
54	0x3f8bce94	1.0922418
55	0xbf7c5cc8	-0.9857907
56	0x3f7b369e	0.98130214
57	0xbfbfb75b	-1.4977831
58	0x3e5f6ec2	0.21819595
59	0xbfa6fa02	-1.3045046
60	0xc010e353	-2.2638748
61	0xbf885b78	-1.0652914
62	0x3fb55c08	1.4168711

dnets.1.std f4 [63]
0	0x3f54001a	0.82812655
1	0x3f9d0eb2	1.227011
2	0x3fa81d80	1.3134003
3	0x3f3fac26	0.7487205
4	0xbe96a2d1	-0.29421094
5	0x3fa665a5	1.299977
6	0x3fd5332f	1.6656245
7	0x3f498b9e	0.78728664
8	0x3fb62af0	1.4231853
9	0x3e90c5c9	0.28275898
10	0x3f9b8506	1.214997
11	0x3f76ea93	0.9645168
12	0x3fbbb33f	1.4664077
13	0x3e7c58d4	0.2464326
14	0x3eddadd9	0.43296698
15	0xbddcac2b	-0.10775026
16	0xbf9cfdc9	-1.2264949
17	0x3f451196	0.7697996
18	0x3f876460	1.0577507
19	0x3f769c3f	0.9633216
20	0x3f88e930	1.0696163
21	0x3f92efc5	1.1479422
22	0x3f42c049	0.76074654
23	0x3ee9fe91	0.4570203
24	0xbec0f94b	-0.37690195
25	0xbe9d7ce9	-0.3075936
26	0x3fe52f96	1.7905147
27	0x4031c3cb	2.7775753
28	0x3fcf3684	1.6188512
29	0x3ea57461	0.32315353
30	0x3f1bad5e	0.6081141
31	0x3ee4e8e8	0.44708943
32	0x3f470743	0.77745456
33	0x3e7ae9fc	0.2450332
34	0x3f2b9fd5	0.6704076
35	0x3f8467e7	1.0344208
36	0x3e9e8817	0.30963203
37	0x3ece0276	0.40236253
38	0x3e508e09	0.20366682
39	0x3e209bc5	0.15684421
40	0x3e934624	0.2876445
41	0x3f2bb7c2	0.6707727
42	0x3f95652f	1.1671504
43	0x3e03e439	0.12880029
44	0x3ea3ea1e	0.32014555
45	0x3fa05696	1.2526424
46	0xbef86118	-0.48511577
47	0x3f7f73da	0.9978615
48	0x3f7bda7a	0.98380244
49	0x3ec6f6e4	0.38860238
50	0xbf50aac9	-0.815106
51	0x403cf30b	2.9523342
52	0x3e739994	0.23789054
53	0x3ff87bc1	1.9412767
54	0x3ffcfdd8	1.9764967
55	0xbb3fc48c	-0.0029261438
56	0xbeed03ce	-0.46291965
57	0x3f3c5373	0.73564833
58	0x3f9bb88a	1.2165692
59	0x3cced251	0.025246771
60	0x3f9fd17a	1.2485802
61	0x3fde20cd	1.735376
62	0x3f1fe711	0.62461954

dnets.1.weights_rbf f4 [48, 63]
0	0xbc5791fb	-0.013157363
1	0x3c2ea65f	0.010659783
2	0x3caa6598	0.020800397
3	0x3ca3be1f	0.019988118
4	0xbc585adc	-0.013205256
5	0x3b13f2e2	0.002257519
6	0x3c2bb348	0.010479756
7	0x3c1b5642	0.009481015
8	0xbc527fc7	-0.012847847
9	0x3d528683	0.05139781
10	0xbc0c0839	-0.008546882
11	0xbc5c6041	-0.013450683
12	0xbb83e1dd	-0.0040247277
13	0xbc2c66cb	-0.010522555
14	0xbcb24aa3	-0.021764105
15	0x3c7b820b	0.015350829
16	0x3c9f8e85	0.019477138
17	0xbb109a42	-0.00220646
18	0x3cdf10fc	0.027229778
19	0xbc607d67	-0.013701773
20	0x3bef6254	0.007305423
21	0xba30b7ed	-0.0006741274
22	0xbc649792	-0.013952153
23	0xbcbe0874	-0.02319739
24	0x3c679112	0.014133709
25	0xbcb83cad	-0.02248987
26	0xbc23cbc5	-0.009997313
27	0xbbda858f	-0.0066687535
28	0xbb06bab2	-0.0020558056
29	0x3b9153a7	0.004435021
30	0x3b996c77	0.0046821195
31	0x3c820821	0.015873017
32	0x3cf9fd7c	0.030516379
33	0x3d5ee706	0.05441954
34	0x3c59250d	0.0132534625
35	0x3bdc9e5e	0.006732746
36	0x3d407cb6	0.046993934
37	0xbcaa3839	-0.020778762
38	0x3c820821	0.015873017
39	0xbd1d93a4	-0.03847088
40	0xbcb3533f	-0.02189028
41	0xbbc3c142	-0.005973966
42	0x3be3dbcd	0.0069536925
43	0x3c0f4721	0.008744986
44	0x3c822a9b	0.015889456
45	0x3c3d607d	0.011558649
46	0xbca3a172	-0.019974444
47	0xbc94633f	-0.01811373
48	0xbc3c301b	-0.011486079
49	0x3d4008b5	0.046883304
50	0x3b83c46e	0.004021219
51	0xbbf19e91	-0.007373639
52	0xbd37ea34	-0.044901088
53	0xba5897af	-0.0008262349
54	0x3aa15379	0.0012308202
55	0x3c820821	0.015873017
56	0x3d1b39c1	0.037896875
57	0xbc87a41c	-0.016557746
58	0xbab30917	-0.0013659325
59	0x3c820821	0.015873017
60	0xbc60b4d9	-0.013714992
61	0xbbe6377a	-0.0070256563
62	0x3d26a8dc	0.04068838
63	0xbbddb245	-0.006765636
64	0x3bf4a13c	0.0074655097
65	0x3c449d58	0.012000404
66	0x3c22d3a9	0.009938159
67	0xbc78868f	-0.0151688
68	0x3b0f1591	0.0021832923
69	0x3bf596e8	0.007494796
70	0x3bc79913	0.006091246
71	0xbbc54beb	-0.006021013
72	0x3c52e777	0.012872568
73	0xbb9832d4	-0.004644731
74	0xbbd30b0e	-0.006440527
75	0xbb08020d	-0.0020753175
76	0xbadfa915	-0.001706394
77	0xbc872149	-0.016495364
78	0x3d03e704	0.032202736
79	0x3c395786	0.011312371
80	0xba2c228f	-0.0006566429
81	0x3c693b91	0.014235393
82	0xbbd65d4b	-0.006541883
83	0x3baad20a	0.005213027
84	0x39a2b98c	0.0003103729
85	0xbbe033b9	-0.0068421033
86	0xbc8ab748	-0.016933098
87	0x3bb946eb	0.005654206
88	0x3c1f3eaa	0.00971953
89	0xbb9d31a1	-0.004797176
90	0xbb59359a	-0.0033143521
91	0xb9fecc57	-0.000485989
92	0x3b5c6bd5	0.003363361
93	0x3b4d6459	0.003134033
94	0x3c820825	0.015873024
95	0x3c6b6628	0.014367618
96	0x3c9b8350	0.018983513
97	0x3c000848	0.007814474
98	0x3b9df6e4	0.0048206914
99	0x3c32a623	0.010903868
100	0xbc8c034b	-0.017091414
101	0x3c820821	0.015873017
102	0xbd211006	-0.03932192
103	0x3c55660a	0.013024816
104	0xbb7722b3	-0.0037709891
105	0x3ba71166	0.0050985096
106	0xbb8e565e	-0.004343792
107	0x3c80b3ec	0.015710793
108	0x3c020d1e	0.007937698
109	0xbc5bf99c	-0.013426211
110	0xbc17c44a	-0.009263108
111	0xbbced3ae	-0.0063118553
112	0x3c4dabd1	0.012553171
113	0x3b408c04	0.002938033
114	0xbb68e1fc	-0.0035535088
115	0xbd41099a	-0.047128297
116	0x39a1394f	0.0003075101
117	0x3adeb37f	0.001699075
118	0x3c820821	0.015873017
119	0x3c4aff8a	0.012390027
120	0xbc073be7	-0.008254028
121	0xb8a3f2e2	-7.817686e-05
122	0x3c820821	0.015873017
123	0xbbd37692	-0.0064533437
124	0xbb6f02d0	-0.0036470182
125	0x3c8995b0	0.01679501
126	0xbbe81d26	-0.007083553
127	0x3b475081	0.0030412974
128	0x3b21a78f	0.0024666523
129	0x3aad0ce8	0.0013202699
130	0xbc717a24	-0.014738593
131	0x3a533b31	0.00080578314
132	0x3b4bdb4e	0.0031106058
133	0x3b42fa6d	0.0029751316
134	0xbbb7e2a9	-0.005611737
135	0xbb914716	-0.004433523
136	0xbb6bdb51	-0.0035988877
137	0xbbe2d4e4	-0.006922351
138	0xbad283cf	-0.001606101
139	0x3d0e7bb2	0.034785934
140	0xbc74c906	-0.014940506
141	0x3c8c9b7e	0.017163988
142	0x3b2858f7	0.0025687793
143	0xb660b93c	-3.3486422e-06
144	0x3acd6433	0.001567012
145	0xbbe591d2	-0.0070059085
146	0x3b1b695d	0.0023713924
147	0xb78efa7f	-1.7044365e-05
148	0xbc05641c	-0.008141544
149	0xbc77f91e	-0.015135078
150	0xbb3a5ba9	-0.0028435981
151	0x3c6f7ff6	0.014617911
152	0xbb901a72	-0.004397684
153	0xbb331acd	-0.0027329207
154	0xba4b06c7	-0.00077448454
155	0x3be6a41e	0.0070386073
156	0x3b37e161	0.002805792
157	0x3c81fdc7	0.01586808
158	0x3a002546	0.00048883667
159	0x39b36e0b	0.0003422353
160	0x3b5e931c	0.0033962196
161	0x3b12addf	0.0022381467
162	0xbba817a2	-0.0051297704
163	0xbc7ed9cd	-0.015554857
164	0x3c820821	0.015873017
165	0xb9e9859b	-0.00044540767
166	0x3c746973	0.014917719
167	0xbabeadbc	-0.0014547626
168	0x3b15a5c6	0.0022834404
169	0x3d157894	0.036491945
170	0x3c81fd09	0.015867727
171	0x3b4a3734	0.0030855658
172	0xbc5a2b9e	-0.013316063
173	0xbbfcae01	-0.0077111726
174	0xbbab8ffe	-0.005235671
175	0x3abdc714	0.0014478886
176	0x3af0a6b4	0.0018360228
177	0xbb4187dd	-0.0029530444
178	0xbc9eb462	-0.019373123
179	0xb9e4b06a	-0.00043618988
180	0x39abbeb2	0.0003275774
181	0x3c820821	0.015873017
182	0xbb4ea71e	-0.0031532715
183	0xbc13fc46	-0.009032315
184	0xb999f149	-0.00029362206
185	0x3c820821	0.015873017
186	0xbbc94e1f	-0.006143346
187	0xbb3fe8f7	-0.0029283145
188	0xbae63691	-0.001756387
189	0xba63d3b6	-0.000869091
190	0x3c397644	0.011319701
191	0x3c66fefd	0.01409888
192	0x3c8f30fa	0.017479409
193	0xbba33572	-0.0049807364
194	0x3b946ea9	0.0045297933
195	0x3c303fa2	0.010757359
196	0x3bcacf24	0.006189244
197	0xbab24bf4	-0.0013602958
198	0x3d34ba0a	0.044122733
199	0xbb56d700	-0.0032781959
200	0x3926a0d6	0.0001589091
201	0x39f83a1d	0.00047345544
202	0x3d0ab420	0.033863187
203	0x3c063f08	0.008193739
204	0x3d1df981	0.038568024
205	0x3c62ce40	0.013843119
206	0xba44e4f1	-0.00075109216
207	0x3c8c9a80	0.017163515
208	0x39a8a18f	0.00032163828
209	0x3be18867	0.0068827155
210	0x3b15916e	0.0022822279
211	0x3ada8c19	0.0016673832
212	0x3c29af41	0.010356725
213	0xbcbaaa35	-0.02278624
214	0x3e1f1ff3	0.15539531
215	0xbb19eb77	-0.0023486295
216	0xba227d0a	-0.0006198442
217	0x3b28a20d	0.0025731355
218	0xbb590ae0	-0.0033118054
219	0x3aa1cd96	0.0012344595
220	0x3c820821	0.015873017
221	0x3ca49f12	0.020095382
222	0xbc6ff767	-0.014646388
223	0x3bf31fec	0.007419577
224	0x3bcf345b	0.00632338
225	0x3d2990b5	0.04139777
226	0x3c1b3367	0.0094727045
227	0x3c820821	0.015873017
228	0xbd3176c0	-0.04332614
229	0x3e282464	0.16420132
230	0xbba7cd73	-0.005120927
231	0x3be96dd3	0.007123688
232	0xbda29cfc	-0.07940099
233	0x3bbf7a27	0.005843419
234	0x3c3fb355	0.011700471
235	0x3bb8e447	0.005642447
236	0x39d69533	0.00040928423
237	0xbb87f075	-0.0041485378
238	0x3da07954	0.078356415
239	0x3b531ed9	0.0032214432
240	0xba8f16d3	-0.0010916836
241	0xbddad5ae	-0.106852874
242	0x3b6e8602	0.0036395793
243	0x3ba2d0db	0.004968745
244	0x3c5d7a08	0.013517864
245	0x3cf44068	0.029815868
246	0x3b4f77c7	0.0031657086
247	0x3b0b9ac5	0.0021301967
248	0x3c820821	0.015873017
249	0xba47b22d	-0.0007617798
250	0xbac75dc4	-0.001521044
251	0x3ce23b4c	0.027616166
252	0xbbbc9e00	-0.0057561398
253	0x3bb462cc	0.0055049416
254	0x3c3fa31e	0.011696605
255	0x3c13893f	0.00900489

dnets.1.conv.weight f4 [48, 3, 7, 7]
0	0x3d88abae	0.0667337
1	0xbd1b4705	-0.037909526
2	0x3cebcf28	0.028785303
3	0xbd9baaa8	-0.076009095
4	0xbd272002	-0.04080201
5	0x3d4a1739	0.049338553
6	0x3d31cec0	0.043410063
7	0xbcd4fb92	-0.025998864
8	0xbde977e4	-0.113998204
9	0xbcd96cbc	-0.026541106
10	0x3d42c440	0.04755044
11	0xbd4552e1	-0.048174743
12	0x3d35f868	0.04442635
13	0xbc92e720	-0.017932475
14	0x3c65e765	0.01403222
15	0x3d68f29f	0.056872007
16	0x3cfe9769	0.031078057
17	0x3d917ab3	0.07103481
18	0x3c6298f3	0.013830411
19	0x3c2099ea	0.009802321
20	0xbcc0733d	-0.02349245
21	0xbd54d12f	-0.051957306
22	0xbd1d27b2	-0.038367935
23	0x3d21d360	0.039508224
24	0xbc46c55a	-0.012132013
25	0xbd93fa33	-0.07225456
26	0x3d769fcb	0.060210984
27	0x3d8383ce	0.06421624
28	0xbcfdd4d0	-0.030985266
29	0x3d776f47	0.060408857
30	0x3d671ecd	0.05642586
31	0x3c26818a	0.01016272
32	0xbc53ae52	-0.012919979
33	0xbd312a3d	-0.043253172
34	0xbda8c623	-0.082409166
35	0x3da0baad	0.078481056
36	0xbd98f359	-0.0746829
37	0x3c971a78	0.018445238
38	0xbc117784	-0.008878592
39	0xbdbf97c1	-0.09355117
40	0xbb322db4	-0.0027187886
41	0x3d1e1b22	0.038600095
42	0x3c9764f9	0.018480765
43	0xbd5abb71	-0.053401414
44	0xbd734e1b	-0.05940066
45	0x3d670b29	0.056407128
46	0x3dc519f0	0.09624088
47	0xbc0f6ad6	-0.008753499
48	0xbc7396af	-0.014867469
49	0xbc89b085	-0.016807804
50	0xbc87c58d	-0.016573692
51	0x3918f1ed	0.00014585974
52	0x3d57517c	0.052567944
53	0x3d47d0f9	0.048783276
54	0xbd1f3bc4	-0.038875356
55	0xbc7ecda4	-0.015551958
56	0xbd0f1426	-0.034931324
57	0x3d989b5c	0.074515074
58	0x3dc6d6e2	0.097089544
59	0xbd44bbf5	-0.048030812
60	0x3d751c0f	0.059841212
61	0xbbafdbdd	-0.005366786
62	0xbdb8b883	-0.09019568
63	0xbc144779	-0.0090502435
64	0xbcb8a792	-0.022540841
65	0x3d6e020d	0.058107425
66	0xbdb47a04	-0.08812335
67	0xbdbd9838	-0.09257549
68	0x3c3865c2	0.01125473
69	0xbc9779c3	-0.018490678
70	0x3d33e24a	0.043916978
71	0x3d0a4cb7	0.033764567
72	0xbcb1b431	-0.021692367
73	0xbc2d369b	-0.010572101
74	0x3dc56148	0.096376956
75	0xbcc317ee	-0.023815122
76	0x3c34881f	0.011018782
77	0xbd885261	-0.066563375
78	0xbd9242d5	-0.071416534
79	0xbcd4874c	-0.02594342
80	0x3d6a511f	0.05720627
81	0x3c663498	0.014050625
82	0x3dbccc1e	0.0921862
83	0x3d80fbed	0.06298051
84	0xbc9155d1	-0.017741116
85	0x3d0f8037	0.035034385
86	0x3d94cbc2	0.07265426
87	0xbd591d97	-0.053006735
88	0x3cb497ac	0.022044979
89	0xbdd845a9	-0.105601616
90	0xbb4befab	-0.0031118195
91	0xbcc7fb74	-0.024411894
92	0x3cceb950	0.025234848
93	0x3c487c9a	0.012236739
94	0xbcbf60b6	-0.023361545
95	0xbd7cb492	-0.061695643
96	0x3bcab575	0.006186182
97	0x3c573754	0.01313575
98	0xbd1ac700	-0.037787437
99	0x3cec091b	0.028812936
100	0xbced021c	-0.02893167
101	0x3d5eb4d3	0.054371666
102	0x3b5557af	0.0032553484
103	0xbcb23ffb	-0.021759024
104	0xbcee3bdf	-0.029081283
105	0x3cd07a74	0.025449015
106	0x3d4b7efe	0.049681656
107	0xbd9a8963	-0.07545736
108	0x3c92432c	0.017854296
109	0x3ad98fd6	0.0016598653
110	0xbd6a16b9	-0.057150576
111	0x3ddcef57	0.10787838
112	0x3ba7cf50	0.005121149
113	0x3d308830	0.04309863
114	0xbdc976b5	-0.09837095
115	0x3d0158b2	0.031578727
116	0x3cff5d54	0.031172432
117	0x3d0aa2d2	0.033846684
118	0xbd24cb63	-0.040233027
119	0xb999018f	-0.00029183595
120	0xbc08ae20	-0.008342296
121	0xbcdb0511	-0.026735814
122	0x3b756ba7	0.00374482
123	0xbca50e14	-0.020148315
124	0xbd0c5475	-0.034260232
125	0xbc473ac4	-0.012160007
126	0x3cf7b046	0.03023542
127	0x3da42c75	0.08016292
128	0xbd92dbe7	-0.07170849
129	0xbc5cbee3	-0.013473245
130	0xbbf1c8c9	-0.007378672
131	0xbd6f158c	-0.058370158
132	0xbd003082	-0.03129626
133	0xbc0855f1	-0.008321271
134	0xbd0fbf42	-0.035094507
135	0xbd9b14fc	-0.07572362
136	0x3daa8752	0.083265916
137	0x3d0a52fa	0.03377054
138	0x3d2dad07	0.04240134
139	0x3c791144	0.01520187
140	0x3c65a2fa	0.014015907
141	0x3c6b75ad	0.014371318
142	0x3db4768a	0.08811672
143	0xbdb469c8	-0.08809239
144	0x3cb4eedc	0.022086553
145	0x3cf7658a	0.030199785
146	0xbbf74f6d	-0.00754731
147	0x3bd70a38	0.0065624975
148	0xbd4f34fd	-0.050587643
149	0xbca6916d	-0.020333016
150	0x3d9a93f6	0.075477526
151	0xbd8ea684	-0.06965354
152	0x3d0588bf	0.032601114
153	0xbd4d558d	-0.050130416
154	0x3d144266	0.036196135
155	0xbb02bee5	-0.0019950208
156	0x3d7601a0	0.060060143
157	0x3c3f1118	0.01166179
158	0x3d17e7e6	0.03708639
159	0x3ca5c12c	0.020233713
160	0xbd6e0d12	-0.058117934
161	0xbdad5fba	-0.08465524
162	0x3d67e713	0.056616854
163	0xbda8df8c	-0.08245763
164	0x3d5c5fd1	0.053802315
165	0xbdb95091	-0.0904857
166	0x3d72930d	0.05922227
167	0x3d04de26	0.03243842
168	0xbc34b0c0	-0.011028469
169	0xbd0b0429	-0.033939514
170	0x3cfe66aa	0.031054813
171	0x3c019d21	0.007910998
172	0xbaec1a57	-0.0018013221
173	0xbc3c7bd3	-0.011504131
174	0xbd09567c	-0.033529744
175	0xbd106420	-0.035251737
176	0xbd0c7631	-0.034292404
177	0x3d77486f	0.060371812
178	0x3d3847d7	0.044990387
179	0x3d572119	0.0525218
180	0xb9345886	-0.00017199115
181	0xbd40f7cc	-0.047111318
182	0x3d22dddd	0.039762367
183	0xbcd5cbd9	-0.026098179
184	0x3c83bfda	0.016082693
185	0xbd270ed6	-0.040785633
186	0x3c1f9efe	0.009742497
187	0x3d1daa26	0.038492344
188	0x3da96f25	0.08273152
189	0x3cefba7e	0.029263731
190	0x3d585ac2	0.05282093
191	0xbd88ef5b	-0.066862784
192	0xbd2913c0	-0.0412786
193	0xbd86a13a	-0.0657372
194	0x3d688c09	0.056774173
195	0xbd376a4f	-0.04477912
196	0xbd55c003	-0.05218507
197	0xbd1ec193	-0.038758826
198	0x399dcc42	0.00030097557
199	0xbc8629d6	-0.01637737
200	0xbd20db3a	-0.03927157
201	0xbca421cd	-0.020035649
202	0x3dae781e	0.08519004
203	0xba195214	-0.00058487174
204	0x3d549575	0.051900346
205	0x3bf08ab2	0.0073407525
206	0xbcc29b70	-0.023755759
207	0xbd94c74b	-0.072645746
208	0x3da41462	0.080117
209	0xbd8d6146	-0.06903319
210	0x3d9d6ae2	0.07686402
211	0x3b400969	0.0029302484
212	0x3c8a8370	0.016908377
213	0x3d02c9de	0.031930797
214	0x3c3402c3	0.010986987
215	0xbd68ba33	-0.0568182
216	0xbd86ebd0	-0.065879464
217	0x3cf02c15	0.029317895
218	0xbdb734a1	-0.08945585
219	0x3d892ce9	0.06698019
220	0xb8a1175f	-7.6814315e-05
221	0xbdb1a3f4	-0.0867385
222	0x3d7315cc	0.05934696
223	0x3d4d7963	0.05016459
224	0x3d842233	0.064518355
225	0x3d8f969e	0.0701115
226	0xbd804b49	-0.062643595
227	0x3d6253e1	0.055255774
228	0xbdc5db34	-0.0966095
229	0x3c41d86f	0.011831387
230	0xbd13f74f	-0.036124524
231	0x3b8f9e4c	0.004382884
232	0x3c7cf274	0.015438665
233	0x3d9399f9	0.07207102
234	0x3d87b599	0.06626434
235	0xbdc7a727	-0.09748679
236	0x3cd457e3	0.025920814
237	0xbd88c25b	-0.06677695
238	0xbd8bd68c	-0.06828031
239	0xbd83dbb4	-0.064383894
240	0x3d857328	0.06516105
241	0x3b321ea3	0.0027178905
242	0x3c96bdba	0.018401016
243	0x3d751718	0.059836477
244	0x3c87795f	0.016537366
245	0x3d9178f0	0.07103145
246	0x3d856a6d	0.0651444
247	0x3ceb863c	0.028750531
248	0xbda620a9	-0.08111698
249	0x3ca32949	0.019917147
250	0xbd37ffb5	-0.044921596
251	0x3cfd1885	0.03089548
252	0xbd2d5595	-0.042317946
253	0xbd97716f	-0.073946826
254	0xbd0fe842	-0.035133608
255	0x3d7aa49d	0.061192144

dnets.2.means f4 [63]
0	0xbfac802b	-1.3476614
1	0x40092c59	2.1433318
2	0x402ed3e3	2.7316825
3	0x3fb8d0d6	1.4438732
4	0xbf151b48	-0.5824475
5	0x3f250ed0	0.6447573
6	0x404110b3	3.0166442
7	0x3f29c0f5	0.66310054
8	0xc020bf87	-2.51169
9	0x3f200479	0.62506825
10	0xbf5247d9	-0.8214088
11	0xbfdf4cfc	-1.7445369
12	0xbe8f1162	-0.2794295
13	0x3f670ba3	0.9025213
14	0xbf8bcfd2	-1.0922797
15	0xbe3fde9b	-0.18737261
16	0x401bbc39	2.4333632
17	0x3d2fc8ce	0.04291611
18	0x40131b18	2.2985287
19	0xbfe1cdfa	-1.7640984
20	0x3f737423	0.95099086
21	0x3e880403	0.2656556
22	0xbfb7d336	-1.4361331
23	0xbf9a9980	-1.2078094
24	0x3faac118	1.3340178
25	0xbfa0e0b3	-1.2568573
26	0xc0238134	-2.554761
27	0xc00c7cf0	-2.1951256
28	0x3e4a7b30	0.19773555
29	0x3dc1882c	0.09449801
30	0x3e82063f	0.2539539
31	0x4021a46d	2.5256608
32	0x3fceb57b	1.6149133
33	0x3e609fed	0.21936007
34	0x3f30892a	0.68959296
35	0x3f53a91e	0.8267993
36	0x3f2c2cb4	0.6725571
37	0xbf824808	-1.0178232
38	0xbfec6fde	-1.8471639
39	0xbe2707c6	-0.16311559
40	0xbf9a819b	-1.2070802
41	0xbe34917b	-0.17633621
42	0x3f8b29c4	1.0872121
43	0x3f1dada7	0.615931
44	0xbfd52a9a	-1.6653626
45	0x40109e5a	2.259665
46	0xbf90ac70	-1.1302624
47	0xbffe1f03	-1.9853214
48	0xbf80c9d5	-1.0061594
49	0x3f966238	1.1748724
50	0x3ec2d200	0.38050842
51	0xc049cd33	-3.1531494
52	0x3ebafe4b	0.36522135
53	0x3f0ae6eb	0.542586
54	0x3f8bce94	1.0922418
55	0xbf7c5cc8	-0.9857907
56	0x3f7b369e	0.98130214
57	0xbfbfb75b	-1.4977831
58	0x3e5f6ec2	0.21819595
59	0xbfa6fa02	-1.3045046
60	0xc010e353	-2.2638748
61	0xbf885b78	-1.0652914
62	0x3fb55c08	1.4168711

dnets.2.std f4 [63]
0	0x3f54001a	0.82812655
1	0x3f9d0eb2	1.227011
2	0x3fa81d80	1.3134003
3	0x3f3fac26	0.7487205
4	0xbe96a2d1	-0.29421094
5	0x3fa665a5	1.299977
6	0x3fd5332f	1.6656245
7	0x3f498b9e	0.78728664
8	0x3fb62af0	1.4231853
9	0x3e90c5c9	0.28275898
10	0x3f9b8506	1.214997
11	0x3f76ea93	0.9645168
12	0x3fbbb33f	1.4664077
13	0x3e7c58d4	0.2464326
14	0x3eddadd9	0.43296698
15	0xbddcac2b	-0.10775026
16	0xbf9cfdc9	-1.2264949
17	0x3f451196	0.7697996
18	0x3f876460	1.0577507
19	0x3f769c3f	0.9633216
20	0x3f88e930	1.0696163
21	0x3f92efc5	1.1479422
22	0x3f42c049	0.76074654
23	0x3ee9fe91	0.4570203
24	0xbec0f94b	-0.37690195
25	0xbe9d7ce9	-0.3075936
26	0x3fe52f96	1.7905147
27	0x4031c3cb	2.7775753
28	0x3fcf3684	1.6188512
29	0x3ea57461	0.32315353
30	0x3f1bad5e	0.6081141
31	0x3ee4e8e8	0.44708943
32	0x3f470743	0.77745456
33	0x3e7ae9fc	0.2450332
34	0x3f2b9fd5	0.6704076
35	0x3f8467e7	1.0344208
36	0x3e9e8817	0.30963203
37	0x3ece0276	0.40236253
38	0x3e508e09	0.20366682
39	0x3e209bc5	0.15684421
40	0x3e934624	0.2876445
41	0x3f2bb7c2	0.6707727
42	0x3f95652f	1.1671504
43	0x3e03e439	0.12880029
44	0x3ea3ea1e	0.32014555
45	0x3fa05696	1.2526424
46	0xbef86118	-0.48511577
47	0x3f7f73da	0.9978615
48	0x3f7bda7a	0.98380244
49	0x3ec6f6e4	0.38860238
50	0xbf50aac9	-0.815106
51	0x403cf30b	2.9523342
52	0x3e739994	0.23789054
53	0x3ff87bc1	1.9412767
54	0x3ffcfdd8	1.9764967
55	0xbb3fc48c	-0.0029261438
56	0xbeed03ce	-0.46291965
57	0x3f3c5373	0.73564833
58	0x3f9bb88a	1.2165692
59	0x3cced251	0.025246771
60	0x3f9fd17a	1.2485802
61	0x3fde20cd	1.735376
62	0x3f1fe711	0.62461954

dnets.2.weights_rbf f4 [48, 63]
0	0xbb99beeb	-0.0046919486
1	0x3c803838	0.015651807
2	0x3c9b5eb4	0.018966056
3	0x3cc1fff4	0.023681618
4	0x3b2f019b	0.0026703838
5	0x3b964a8c	0.0045865234
6	0x3c69304a	0.014232704
7	0x3c1c2f94	0.009532828
8	0xbb9f06d3	-0.0048531084
9	0x3d63ceff	0.05561733
10	0xbb916749	-0.0044373614
11	0xbb8d10d3	-0.004304984
12	0xbaadccfe	-0.0013259945
13	0xbbed0e24	-0.0072343517
14	0x3c135fa3	0.00899497
15	0x3d46653f	0.0484364
16	0x3c9ae011	0.018905671
17	0xbabc67e1	-0.001437422
18	0x3cb91b53	0.022596037
19	0xbb8b2788	-0.004246656
20	0x3c1474f7	0.00906109
21	0x3adf845a	0.0017052994
22	0xbb580e6f	-0.0032967587
23	0x3c2b7841	0.0104656825
24	0xbd42256c	-0.04739897
25	0x3df18f3f	0.117949
26	0xbb92db45	-0.0044817054
27	0xbb1877ee	-0.0023264843
28	0x3a6ba09f	0.0008988473
29	0xbb62d172	-0.0034609702
30	0x3b455fe8	0.003011698
31	0x3c820730	0.015872568
32	0x3cd5db13	0.02610544
33	0x390c4c4a	0.0001337986
34	0x3c4ba77c	0.012430068
35	0x3c071d69	0.008246758
36	0x3d54ea58	0.0519813
37	0x3c47c83e	0.012193738
38	0x3c8204ff	0.015871523
39	0xbd23a42b	-0.039951485
40	0x3e01bd00	0.12669754
41	0xbbb7d0bd	-0.0056096003
42	0x3c155648	0.009114809
43	0xbdc26704	-0.09492305
44	0xbbab0383	-0.0052189245
45	0x3c854d92	0.01627234
46	0x3b473727	0.0030397864
47	0xbb98c5c3	-0.004662247
48	0xbbc1caaa	-0.005914052
49	0x3d8644ec	0.065561146
50	0x3b913421	0.004431263
51	0xbb359923	-0.0027709685
52	0xbdd87440	-0.10569048
53	0x3b17635b	0.0023099992
54	0x3b8e7512	0.004347452
55	0x3bba96eb	0.0056942604
56	0x3d19b779	0.03752849
57	0xbb36ef3f	-0.0027913598
58	0x3a9faeb7	0.0012182806
59	0x3c820804	0.015872963
60	0xbb9dc31d	-0.004814519
61	0xbb411f13	-0.0029467985
62	0x3d05f04b	0.032699864
63	0xbb58487d	-0.003300219
64	0x3b778895	0.0037770618
65	0x3b87411d	0.004127635
66	0x3b3e9277	0.0029079
67	0x3be352a0	0.00693734
68	0x39d22ea5	0.00040089074
69	0x3b6c8c03	0.0036094196
70	0x3b0dc71e	0.0021633576
71	0xbb258992	-0.0025259
72	0xbc5339a3	-0.01289216
73	0xbb090700	-0.0020908713
74	0xbb473faa	-0.0030402937
75	0xba536e9b	-0.0008065493
76	0x3bee590d	0.0072737993
77	0x3bff5b95	0.0077929
78	0x3c4f1c91	0.012641088
79	0x3b8270b8	0.0039807223
80	0xba058194	-0.0005092856
81	0x3b841bca	0.004031633
82	0xbb4602d0	-0.0030214079
83	0x3af5a123	0.0018740039
84	0xb9a8bf4f	-0.00032185993
85	0xbb4e53d7	-0.0031483078
86	0x3c084aa0	0.008318573
87	0x3c0d901d	0.008640316
88	0x3cb5ed7d	0.02220797
89	0xbb0c3a56	-0.0021397076
90	0xbaa48af6	-0.0012553621
91	0xb9f82b36	-0.0004733444
92	0x3b96b543	0.004599245
93	0x3aaf2a63	0.0013364073
94	0x3c8656d5	0.016398827
95	0x3b348c4a	0.002754944
96	0x3bf2b40e	0.007406718
97	0x3b3dd256	0.0028964481
98	0x3ad4fd22	0.0016249756
99	0xbc289b3f	-0.01029092
100	0x3c19a279	0.009377115
101	0x3c820821	0.015873017
102	0xbc0f5a4a	-0.008749554
103	0x3cb02edb	0.021506717
104	0xbabeaaf6	-0.00145468
105	0x3af93167	0.0019011915
106	0xbb91a2fb	-0.0044444776
107	0x3c820a10	0.015873939
108	0x3b7d1d89	0.003862234
109	0x3b49da29	0.00308002
110	0xbb22d21d	-0.0024844476
111	0xbb40a714	-0.0029396461
112	0xbc0e1592	-0.008672135
113	0x3a4875af	0.0007646931
114	0xbab0e6ce	-0.001349652
115	0xbcc0971c	-0.023509555
116	0xb965ec1c	-0.000219271
117	0x39bded11	0.00036225517
118	0x3c820821	0.015873017
119	0xbb2adee8	-0.0026072804
120	0xbb2f674a	-0.0026764446
121	0xb9d66643	-0.00040893452
122	0x3c820821	0.015873017
123	0xbb30a47a	-0.0026953504
124	0xbac790bf	-0.0015225633
125	0x3a27e446	0.000640456
126	0xb9a1f69c	-0.0003089205
127	0x3bf317eb	0.0074186227
128	0x3bdd92fe	0.0067619076
129	0x3c1b35fe	0.009473322
130	0x3ca97a13	0.020688092
131	0x3b506b73	0.0031802326
132	0x3be62346	0.007023248
133	0x3b9c17ff	0.0047636027
134	0xba783ffc	-0.00094699836
135	0x3c747704	0.014920954
136	0xbb44762c	-0.0029977662
137	0x39d9e585	0.0004156047
138	0xbaa21a70	-0.0012367498
139	0xbd80c1b4	-0.06286946
140	0x3cb365ca	0.021899123
141	0x3d55ad56	0.05216726
142	0x3bea5cc6	0.0071521727
143	0xba3b8b11	-0.00071542064
144	0x3bdd9079	0.0067616072
145	0x3a1a26bb	0.0005880405
146	0x3b9e30be	0.004827588
147	0x3acd6f98	0.0015673516
148	0x3b0a794a	0.0021129423
149	0x3cba1604	0.022715576
150	0xbd8e39e7	-0.06944638
151	0x3da52d5f	0.080652945
152	0xbb087e2d	-0.002082716
153	0xbafa4fc7	-0.0019097262
154	0x3a7543f3	0.00093561335
155	0x3b2409c3	0.0025030233
156	0x3aeefbc5	0.0018232992
157	0x3c81e692	0.015857015
158	0x3c017e8f	0.007903709
159	0xbb418edf	-0.002953462
160	0x3bbd082a	0.0057687955
161	0x3b933899	0.004492831
162	0x3c8f8dd6	0.017523687
163	0x3cd4e71c	0.025989108
164	0x3c8207fa	0.015872944
165	0xbd06edb7	-0.032941546
166	0x3daa48ae	0.08314644
167	0xbb82fc90	-0.003997393
168	0x3ba14763	0.00492184
169	0xbd760d51	-0.060071293
170	0x3c35d6ca	0.011098573
171	0x3bf9641c	0.007610811
172	0x3c690bfe	0.014224051
173	0x3ad93b8f	0.0016573536
174	0xbb4ad9e2	-0.0030952622
175	0xbbf2304b	-0.007391011
176	0x3b316c33	0.0027072548
177	0xbb01eec8	-0.0019826163
178	0xbd91c226	-0.07117109
179	0x3b00dcb1	0.0019662792
180	0x3b529df8	0.0032137614
181	0x3c647109	0.013942965
182	0x3c4d1a44	0.012518469
183	0x3b810920	0.0039378554
184	0x3aa08392	0.0012246242
185	0x3c820821	0.015873017
186	0xb9d94553	-0.00041441116
187	0xbb18ccf4	-0.002331552
188	0x3be16c7b	0.006879387
189	0xbba38c48	-0.004991088
190	0x39c386db	0.00037293773
191	0xb9a07b46	-0.00030609424
192	0xbb4d9a24	-0.0031372393
193	0xbc2c4f99	-0.010517024
194	0x384b877f	4.8525162e-05
195	0x3a7dd3df	0.00096827553
196	0x3aae20a1	0.0013284871
197	0xbb839f64	-0.0040168036
198	0xbce9f84e	-0.028560784
199	0xbb34b317	-0.0027572566
200	0xbb9cf9b9	-0.0047905114
201	0xbab318e5	-0.0013664035
202	0xbd2ab9b2	-0.041681
203	0xbbedcc99	-0.007257056
204	0x3d862ee9	0.06551916
205	0xb9955175	-0.00028480185
206	0xb9b7e2a8	-0.00035073352
207	0xbb007216	-0.001959925
208	0xbb9ec543	-0.004845293
209	0x3a64926e	0.00087193295
210	0xb9f2b503	-0.000462927
211	0xbbb4a692	-0.005513021
212	0xbbde294d	-0.006779826
213	0x3b4528dc	0.0030084169
214	0x3ce3a36d	0.027787888
215	0xbb52a5c2	-0.0032142256
216	0xbb0f90ab	-0.0021906297
217	0xba7258f4	-0.00092448224
218	0x3bfc778b	0.0077046803
219	0x3afe4234	0.0019398392
220	0x3c81ca8e	0.015843656
221	0xbb86b99a	-0.004111481
222	0x3c3ad276	0.011402717
223	0x3aa32f6c	0.0012450046
224	0x3a6265a2	0.000863636
225	0xbcc7d07e	-0.024391409
226	0xbbdea157	-0.0067941356
227	0x3c820821	0.015873017
228	0xbcb048b2	-0.021519039
229	0x3ceae085	0.028671512
230	0xbabae346	-0.0014258407
231	0x3a511dab	0.0007977138
232	0x3c1a75bc	0.009427484
233	0x3c824b28	0.015904978
234	0x39b75cbb	0.0003497357
235	0xbc03b1d7	-0.008038006
236	0xbbb746a5	-0.0055931383
237	0xbb802a77	-0.003911312
238	0xbd28cb66	-0.0412096
239	0x3a6a5f17	0.0008940561
240	0xbb17de7a	-0.0023173378
241	0xbd2edc18	-0.042690367
242	0xba3f321b	-0.0007293538
243	0xb98abf7f	-0.00026464087
244	0x3c820821	0.015873017
245	0xbc4b506e	-0.012409313
246	0xbbcba093	-0.0062142103
247	0xba260815	-0.0006333602
248	0x3c820821	0.015873017
249	0xbb8f16fc	-0.0043667536
250	0xbb17144e	-0.0023052874
251	0xbc1410c5	-0.009037201
252	0xbd37e9f2	-0.044900842
253	0x3cfbd2f6	0.030740242
254	0x3d1fd6b9	0.039023135
255	0x3d43d4fc	0.04781054
