models/poisson_joint5.pth (torch, 115607 bytes, 32 tensors)

dnets.0.means f4 [63]
00000000: 765e 8a3f cba2 7bbf de30 f0bf df6c 82bf
00000010: 2441 573f 2063 213f 39cd 14c0 52ae 44bf
00000020: 13eb 7fbf 0d02 433f 8c8d 47bf ef0e d73e
00000030: 5fb2 13c0 befd 303f b26c 85bf 33bc f13f
00000040: 3337 d1bb 7476 92bf 635a 0d3f 1b9d 34bd
00000050: 5481 943f f1e5 493f 157b 11c0 9b12 dbbf
00000060: 5887 07bf 88cc 80bf 5da7 6bbf e4c8 eb3e
00000070: dca5 373f 283a d73f 05b4 b73f 23f5 493f
00000080: a882 7ebe ec45 bb3f 8143 933f 234d 47be
00000090: ad8d bb3e 0196 64be 9bbb fe3e 09b9 9abf
000000a0: e582 1dbe 6b86 c43f 0ff6 14c0 bdbe 763e
000000b0: e8b3 b33e 9abd 01c0 3542 2e3f 8538 eebf
000000c0: b91f 0f3f 57b0 34bd 1e49 35bc 7c3d 733d
000000d0: abf2 a1bf db41 653e 4478 863f 28c7 ecbf
000000e0: c629 673d 8368 e03c ee79 a93e 37c2 37bf
000000f0: 15c1 8b3f acf1 cebe 6711 753f
1.0810077 -0.9829528 -1.8764913 -1.0189475 0.8408377 0.6304188 -2.3250258 -0.7682849
-0.9996807 0.76175004 -0.7795036 0.4200358 -2.307762 0.6913718 -1.0423796 1.8885559
-0.006384754 -1.1442399 0.55216044 -0.04409514 1.1601968 0.7886649 -2.2731373 -1.7115053
-0.52940893 -1.0062418 -0.9205225 0.46051705 0.71737456 1.6814623 1.4351813 0.78889674
-0.24854529 1.4630713 1.1504976 -0.19463019 0.36631528 -0.22322847 0.49752507 -1.2087718
-0.15381964 1.5353521 -2.3275182 0.24096198 0.35098195 -2.0271974 0.68069774 -1.8610998
0.5590778 -0.044113483 -0.011064796 0.059384808 -1.2652181 0.22388403 1.0505452 -1.8498278
0.056436323 0.027393585 0.33100837 -0.71780723 1.0918299 -0.40418756 0.9572968

dnets.0.std f4 [63]
00000000: f4ac f53f 65d5 413e ff0f a13f d9cc 233f
00000010: da5a 38be 07cf c9be cbd8 d73f 8ad0 ce3f
00000020: cc59 343f 0293 fc3e 0961 643f f2b5 ce3f
00000030: 4bd7 873f bc55 cbbe 2dac 373f 9ac2 533e
00000040: 16dc 6abd 3c75 03bf f88a a63e 0b2c 0c40
00000050: e36b 303f ef04 cf3f c8d9 b33f e636 0a40
00000060: d60c 9fbe 8a32 1440 78e2 933e 0ce3 99be
00000070: c84f d83e 9321 34bf c51d 5f3f b1b2 023f
00000080: e14b 233f 2e9d 033f c053 163f 09cc 1a3e
00000090: 521a 4c3f 4ff6 f63f f171 f43e 9c2d 12bf
000000a0: e9e7 1340 029c 6f3f bccb fa3f 78f9 e73f
000000b0: 6f48 ba3f 7db2 cf3f 5cf2 db3f d0d0 ec3f
000000c0: 37f8 e33e 74c5 ba3f a735 5d3e 0d1d df3f
000000d0: 6182 5f3f 867c 843e 4cc6 703e f92d 3c3d
000000e0: 2cae a93f adac 823d dc73 1a3f 56ee 8b3f
000000f0: f1ef 033f aeee 973f 94e4 e83f
1.9193406 0.1892906 1.2583007 0.6398445 -0.18003407 -0.39415762 1.6863035 1.6157391
0.7044952 0.49330908 0.89210564 1.6149275 1.0612577 -0.39713848 0.71747094 0.20679703
-0.057338797 -0.5135076 0.325279 2.1901882 0.6891462 1.6173381 1.4050837 2.1596007
-0.3106448 2.3155847 0.2888372 -0.30056036 0.42248368 -0.7036373 0.871548 0.5105391
0.6378766 0.5141171 0.5872154 0.15116896 0.7972766 1.9293917 0.4774318 -0.57100844
2.3110297 0.93597424 1.9593425 1.8123007 1.4553355 1.6226345 1.7183337 1.8501225
0.4452531 1.4591508 0.21602498 1.743074 0.8730832 0.25876254 0.23513144 0.04594228
1.3256278 0.063805915 0.6033304 1.0932109 0.51537997 1.1869714 1.8194757

dnets.0.weights_rbf f4 [24, 63]
00000000: fbfb 6b3c 5bbe cc3c 62cd 2d3b 9d55 b0ba
00000010: 4dcf 813c 38f8 e4ba 3f6d 9a3b c851 2d3c
00000020: 7683 793a bc46 3b3b 0af4 073c 9c36 693c
00000030: 1be7 9aba 583b 03bb 0f10 1d3a 2108 823c
00000040: 3c46 fabc b99b d9bb a641 8fbb 70f7 493c
00000050: 2f6a f23b 7220 723c a1ed 263b e4b4 103c
00000060: 5668 903c eb30 2c3c b074 8cbc 234d b6bb
00000070: fb4a 61ba 5957 e13b 13f3 313c b222 653b
00000080: 7c86 983c 69c1 143c 5681 7d3b efdf be3b
00000090: e701 863c 3749 483c c4e3 e03b 15b9 acbb
000000a0: 0066 453c 5019 3f3c f4fa d33b 83b6 5b3c
000000b0: 02fa 6e3c 7404 b13b c99b 6b3c a984 f23b
000000c0: d027 353b cc34 5e3c 679a e83a b98c 573c
000000d0: fe52 b13a 5317 08bb 2eef 813c 2108 823c
000000e0: 59a8 6a3c 660d 3fbd 2998 6d3c c0b9 243c
000000f0: 9a54 4c3b fdb2 4f3c 3b5b 6d3c 351a 2e3c
00000100: 19df c43d 8b34 dbbc 9d2c 31bd 5c78 7b3c
00000110: 0bbe 823d d558 9ebc dce8 febb 6432 0fbd
00000120: 57d4 5c3d fc0d a7bc 0729 e83b 9734 26bd
00000130: 1047 8a3d 08a9 11bd 2108 823c 1ea3 bdbb
00000140: e8eb 69bd d705 963d 8488 683a 77dd 473d
00000150: 3ef7 383c 839a e7bc 2f21 19bc d280 84bd
00000160: 5570 abbb 309b 78bc beee 9a3d 4f39 833d
00000170: a62f 4c3d bc0e 2a3d cd3f 583d c50e 2abc
00000180: e411 2e3d 2442 6e3d 66d1 34bd 693b af3c
00000190: 8e1c 56ba 221f 3d3d dbfb 63bd 5629 2339
000001a0: 2f34 223d 1d80 6ebc 57e1 813b 49a7 f43b
000001b0: 8caf 90bc 813a 153c 7329 50bc b98b 573d
000001c0: 24b8 a83a 8637 f63c dccc 0d3b 8696 01bd
000001d0: ddf2 573d 36af 703c 2108 823c 303c 513b
000001e0: 26bb 103c dbfe f63c f718 68bc 2955 773d
000001f0: 7846 ddbb 326c 2e3c f373 103c cc7d 99bc
00000200: e83d 6dbc e503 b0bc 6ff1 813c 07a2 a33c
00000210: 6585 15bc 1874 db38 3d48 80bc 3b66 ab3c
00000220: f07d bdbb 1c2b fd3b 8165 f6bc f594 a43c
00000230: beba 86bc 2108 823c f917 933c 9f3c 23bd
00000240: 66b3 8e3c 9ca8 843b 4a8b b23c 5c9c 1b3c
00000250: 963e 86bc 2f5c e1ba d0dd e4bc 2ea7 4a3a
00000260: 3299 68bd e093 813c 8005 a93c 92d9 d43c
00000270: 9569 a73c 1e63 ab3c 342b d73b e347 a83c
00000280: 344a c73c 42d5 ef3c 93fa 833c 7f88 683b
00000290: bf1f b13c 85dc 15bd 73a8 6b3b 60c1 a33c
000002a0: 20eb b2bb 7d8b c33b 399c 063c 259b f5bb
000002b0: 4847 0a3c 0b06 80bb ac8b ad3c 1e5b ae3b
000002c0: d79a df3c d055 a83b 4b30 81bc 1e95 af3c
000002d0: 9024 823c 2108 823c 5cf6 d43b becf 6abb
000002e0: 6037 a23c 87cf 18bb 74d3 c83c 4ffd 113b
000002f0: ec7c 123c cb8d bf3b baa5 d93d 821b a53b
00000300: 838d c33b 7d43 d2bd 1c32 a6ba e1eb 9a3b
00000310: aaca a73b a3c3 9c3b 21de b23a 1f9f a83b
00000320: e17f c73b f1c4 fe3b bab7 87bb 8a5d 9f3b
00000330: 2108 823c 9800 62bc dd9b a23c 58fd 2abc
00000340: 230d b83b b80d 1f3b 375c c33b 89a5 ad3b
00000350: ce20 973b 2585 c53c e17b a53b e4fa 283e
00000360: 3da3 d3bb 41c5 06bb 914d acba 9139 663b
00000370: 582b d23a dd44 103c fc9d 8dbc 20cb efba
00000380: bab0 f63c 6553 d03b 1abd b83b 86d7 803b
00000390: 1080 703c 9916 b53b 1702 753b d880 953b
000003a0: e77b c23b b139 cc3b 6e10 993b 5bca c33b
000003b0: 16a2 943b faec 2b3b e3fd c93b a7e4 c43b
000003c0: c867 c23b 54fb 9f3b 769d 873b a21a 65bd
000003d0: 2108 823c 37ca d23b 3bbd 083c 34c2 c43b
000003e0: 5c58 a83b 8a27 d3bb 75e0 c13b 88bb c03b
000003f0: 0d5b 553b 4cb7 2a3d 0e2e cebb 6159 3ebc
0.014403339 0.024993112 0.0026520123 -0.0013453249 0.015845919 -0.0017468994 0.00471273 0.01057858
0.00095181854 0.0028576097 0.00829793 0.014234211 -0.0011818142 -0.0020024385 0.00059914676 0.015873017
-0.030551068 -0.006640878 -0.0043718396 0.01232706 0.007397912 0.014778243 0.0025471228 0.00883219
0.017627876 0.01050971 -0.017145485 -0.0055633946 -0.0008594242 0.0068768677 0.010861176 0.0034963307
0.018618815 0.009079316 0.0038681827 0.005825035 0.016358329 0.012224487 0.0068630893 -0.005271087
0.0120482445 0.01166375 0.006469125 0.013410213 0.014585974 0.005402142 0.014380404 0.007401068
0.0027642138 0.013562392 0.0017746211 0.0131561095 0.0013528762 -0.0020765855 0.01586112 0.015873017
0.014322364 -0.046643637 0.01450161 0.010054052 0.0031178356 0.0126769515 0.014487083 0.010626365
0.09612865 -0.026758453 -0.043255437 0.01534852 0.06383904 -0.019329468 -0.007779224 -0.034960166
0.05391344 -0.02039241 0.007084969 -0.040577497 0.06751835 -0.03556159 0.015873017 -0.0057872673
-0.057109743 0.073253326 0.000887044 0.04879519 0.011289416 -0.02827192 -0.0093462905 -0.06469883
-0.005231897 -0.015173718 0.07565068 0.06407415 0.04985013 0.041517958 0.05279522 -0.010379498
0.04249753 0.058168545 -0.04414501 0.021390634 -0.0008167707 0.04617227 -0.05566011 0.0001556029
0.039600547 -0.014556912 0.00396363 0.007466231 -0.017661832 0.009108187 -0.012705195 0.052623484
0.0012872261 0.030055773 0.0021636998 -0.03163769 0.052721847 0.014690211 0.015873017 0.0031926744
0.008833682 0.030150821 -0.014166108 0.06038395 -0.0067527853 0.010645913 0.008816707 -0.018736742
-0.014480092 -0.021486232 0.015862195 0.019974722 -0.009126042 0.00010464358 -0.015659446 0.02092277
-0.005782835 0.0077260863 -0.030077698 0.02009056 -0.016446467 0.015873017 0.017955767 -0.039852735
0.017419528 0.00404842 0.021794934 0.009497728 -0.016387265 -0.001719361 -0.0279378 0.00077306
-0.056786723 0.015817583 0.020632505 0.025982652 0.020436088 0.020921286 0.0065664295 0.02054209
0.024327375 0.029276494 0.016110694 0.0035481749 0.021621583 -0.036587257 0.0035958558 0.01998967
-0.005460158 0.005967556 0.008215957 -0.0074953013 0.008439846 -0.0039069704 0.021184765 0.0053209206
0.027295513 0.005137183 -0.015770098 0.02143341 0.015886575 0.015873017 0.006499095 -0.003582939
0.019801795 -0.0023317055 0.024514891 0.0022276228 0.0089409165 0.0058457605 0.10627313 0.0050386796
0.0059677972 -0.102667786 -0.0012679729 0.004727826 0.005120595 0.004784064 0.0013646522 0.005145922
0.0060882424 0.007774942 -0.004141775 0.0048634456 0.015873017 -0.013794087 0.019849712 -0.010436378
0.0056168004 0.0024269652 0.0059619206 0.0052992743 0.004612065 0.02411134 0.005050168 0.16501957
-0.0064586685 -0.002056435 -0.0013145675 0.0035129527 0.0016034646 0.008805481 -0.017287247 -0.0018294789
0.030113567 0.0063575977 0.005637777 0.0039319424 0.01467897 0.0055263755 0.003738528 0.0045624785
0.0059351805 0.0062324633 0.004671148 0.0059750504 0.0045359237 0.0026233778 0.006164299 0.006008703
0.005932782 0.0048822556 0.004138644 -0.055933602 0.015873017 0.0064327973 0.008345897 0.006004596
0.0051374864 -0.0064439224 0.00591665 0.0058817305 0.0032555491 0.04167871 -0.0062921112 -0.011617989

dnets.0.conv.weight f4 [24, 3, 5, 5]
00000000: 82db d03c 43d5 8e3c 45c9 7e3d 3d68 9c3d
00000010: 51a4 e4bd 4c4b abbd ba6b 9cbd f7a9 d93b
00000020: d684 a73c 6d14 b5bd b9e8 b43d fa48 aabd
00000030: dc99 d33d a4da 8e3d 06b4 843b de88 dd3d
00000040: c70a 953d 04c6 dcbd 5bc3 d0bd f71e ee3d
00000050: 96a6 c9bd 48fb bebd b23a 303d 67ec 2dbd
00000060: 566e d3bd 4ebf 39bd f8fd 8a3d 14bb d23c
00000070: 92a5 d6ba 2573 bebd 5fc8 9cbd 563a e7bc
00000080: 1d80 85bd 5dd3 8bbd 07ee 8d3d baa8 e3bd
00000090: 059f d4bd ebc2 e63d 93ff 943c 7bc3 e7ba
000000a0: f018 85bc ba77 8cbd 50db 39bd 77ed 29bd
000000b0: 97fd 06bd d73b f5ba fb84 3dbd 1aa3 89bd
000000c0: fafb 0b3d 30a7 3cbd ff26 97bd 79c3 edbd
000000d0: 5191 e13d 0a12 61bd 3712 7e3c a356 6d3a
000000e0: 4bc6 cdbd bd70 da3d 563f 2d3c fcae c43d
000000f0: 3cbf d23d 3670 8d3c 17a0 0b3c 67b1 cb3d
00000100: 7915 bbbd f9d6 92bd a63b 16bc 927a bdbd
00000110: 7785 febc d27a b6bc 7e3c 123d 276e 28bd
00000120: 5ee4 603d 1773 9abd 178e c03d b589 8d3d
00000130: 0c9b d73d a0be 24bb 068c 71bd 1fdf 8a3d
00000140: e155 f33c 45c5 513d b085 653d 06c9 a63c
00000150: 7da1 b3bd fd10 88bd 2bd8 debd 7a71 a63d
00000160: 1a63 a4bd 0adc a53c 1fdb 83bd 8efe 12be
00000170: e731 a93d f274 e2bd c5ef f83d ae49 c83c
00000180: de69 033d f724 0abd 6388 293d f6ce ffbc
00000190: e409 56bb 911a 7abd 0955 af3d 7566 53bd
000001a0: abbf abbb 7acc c4bc ff75 473c 690d 083e
000001b0: 696c a53d c40e 08be da55 9cbd 1390 153b
000001c0: f8a9 47bd a209 0a3e 998b c0bd d9a8 d83a
000001d0: fb0d 193d 7dbe 21bd 55e7 7bbd ee92 2ebe
000001e0: 6d43 b8bc 0afb 993d 30a3 f33c 1b50 1b3c
000001f0: 3d1c 143d 750c 36bd ee90 cd3c f332 cbbd
00000200: 097a ad3d ba5d 88bd c3de 113d fdfe cabd
00000210: 3147 fdbd a558 c0bd 47fa 113e 2735 d13d
00000220: 8e15 233d e07c f2bc 6ceb 89bd 82cf 5d3d
00000230: c762 8e3d 4be0 533d be52 13bd 15f9 e43d
00000240: 9514 653d 6be2 61bc 1f64 0cbd c6de ce3c
00000250: 15e8 fcba 4221 79bd 8d12 0ebd 3709 a93d
00000260: cb9d 003e 427e 2c3d 2f0b 88bd a007 0e3d
00000270: 0655 ca3d d1a5 2d3d 4e82 d7bd 9910 a13c
00000280: 28f5 9a3d 755b 933c 6463 dbbd 7d01 14bd
00000290: 68a3 94bc 96d2 83bd 929e 653d 4cc8 f4bc
000002a0: bff9 cebd db01 433d 594e 5cbd 3c9e bf3d
000002b0: e3e9 4dbd 58a5 cfbd 4e28 533b 6546 99bc
000002c0: bf9f debd 0c4d d3bd 859b c93d 7771 a1bd
000002d0: b248 2c3d 3a0f bbbc cd95 103d fcc4 99bd
000002e0: 3667 73bd 3116 2dbd f6f6 9e3d c880 123d
000002f0: 8314 da3d 0f77 dfbd ed47 27bd 072a b63d
00000300: 36fe 82bd 6e57 bc39 fc96 913c f150 8bbc
00000310: f9da b4bd 43cc a1bc 9ad5 473d 0a9e 6e3d
00000320: 76fe 493d 0db3 d1bd 728a 6cbd 218a 02bd
00000330: 0f53 8fbc 04d6 01be 2d9d 013b b240 d9bc
00000340: 77e1 ac3d 38a1 d63d 0645 83bc c7a8 e8bd
00000350: 285d 4c3d 4095 d83d 4a4a 833d 1846 313d
00000360: f804 ccbd 8b30 f23d 7b40 cdbc 012c 65bd
00000370: a0a2 9abd bd75 67bd 110a 843d 9653 b6bc
00000380: 2979 6a3d e2ed 21bc 85ce a23d e26b 9bbd
00000390: 8b0b a7bd 630c 813d cc98 9ebd 7dea 823d
000003a0: debb 0d3d 3a7b 903d edc3 1c3d 0260 0fbc
000003b0: 71c7 8f3d f06b 553c 3ed7 83bd df21 67bd
000003c0: 08ff 94bc 1e8f 58bd c265 6cbd 895e d2bd
000003d0: 43e8 d13d 032a 7fbd 3f05 293d ba64 893d
000003e0: 30ba aa3d 9a99 83bc b27c 553d 2d48 af3d
000003f0: ffd2 a2bd 6b4e 4d3d 077d 733d 5f2a a8bc
0.025495294 0.017435675 0.062203664 0.076370694 -0.11164153 -0.08363971 -0.07637735 0.006642576
0.020449083 -0.088417865 0.08833451 -0.083147004 0.10332081 0.06975296 0.004049781 0.10817121
0.07277446 -0.10779956 -0.10193511 0.11627 -0.09846227 -0.09325272 0.043024726 -0.04246178
-0.10323779 -0.045348458 0.06786722 0.025723971 -0.0016376248 -0.09299306 -0.07655405 -0.028226059
-0.06518576 -0.06827424 0.06930166 -0.111161664 -0.10381893 0.112676464 0.018188274 -0.0017682159
-0.016247243 -0.068587735 -0.04537517 -0.04148623 -0.032956686 -0.001870985 -0.0462694 -0.06720562
0.03417585 -0.04605788 -0.07380485 -0.11609549 0.11014045 -0.054948844 0.015507272 0.00090537424
-0.10047587 0.10666034 0.0105741825 0.09603688 0.10290381 0.01726542 0.008522055 0.09945946
-0.09134955 -0.07169909 -0.009169495 -0.09251894 -0.0310695 -0.022275362 0.03570222 -0.041120674
0.054905288 -0.07541483 0.094021015 0.06911031 0.1052762 -0.0025138035 -0.058971427 0.06780838
0.029704036 0.05121352 0.056035697 0.020359527 -0.08771036 -0.06643865 -0.108810745 0.08127113
-0.080267146 0.020246524 -0.064382784 -0.14354917 0.08261471 -0.11057462 0.121551074 0.024449196
0.032083385 -0.03372666 0.041389834 -0.031226616 -0.0032659704 -0.061060492 0.08561141 -0.051611383
-0.0052413545 -0.024023283 0.012174129 0.13286366 0.08077318 -0.13286883 -0.076335624 0.002282147
-0.04874608 0.13480237 -0.09401626 0.0016529813 0.03736685 -0.039488304 -0.061499912 -0.17048237
-0.022493089 0.07518585 0.0297409 0.009479548 0.036159743 -0.044445474 0.025093522 -0.09921827
0.08470542 -0.06658502 0.035612833 -0.099119164 -0.12367094 -0.093919076 0.1425563 0.10215216
0.039815478 -0.02960056 -0.06734356 0.054152973 0.06952434 0.051727574 -0.03596758 0.11180321
0.05592783 -0.013786892 -0.03427517 0.025252711 -0.001929524 -0.060822733 -0.03468566 0.08253711
0.12560193 0.042112596 -0.06642758 0.03467524 0.09879498 0.042394463 -0.105229005 0.019661235
0.07566291 0.017987946 -0.10712317 -0.03613423 -0.018144324 -0.064366505 0.056059428 -0.029880665
-0.10106229 0.04760919 -0.053785656 0.09356353 -0.05027188 -0.10138959 0.0032220068 -0.018710325
-0.10870313 -0.1031743 0.09844116 -0.0788297 0.042061515 -0.022834409 0.03529911 -0.07508275
-0.0594246 -0.04225749 0.07761948 0.035767347 0.106484435 -0.109113805 -0.04084008 0.08894735
-0.06396143 0.00035923294 0.01777219 -0.01700637 -0.08830828 -0.01975072 0.04878769 0.058256187
0.04931494 -0.10239229 -0.05774922 -0.03187001 -0.01749566 -0.12679297 0.0019777522 -0.026520107
0.084414415 0.10479969 -0.016024124 -0.11360317 0.04989353 0.10575342 0.06410654 0.043279737
-0.09961885 0.11825665 -0.02505516 -0.05595017 -0.075505495 -0.05650877 0.064472325 -0.022256654
0.057244454 -0.009883376 0.07949547 -0.075889364 -0.081564985 0.06301191 -0.077439874 0.06392381
0.034602992 0.070547536 0.038272787 -0.008750917 0.07020462 0.013026223 -0.064375386 -0.056428786
-0.018188015 -0.052870862 -0.05771423 -0.102719374 0.102493785 -0.062295925 0.04126477 0.06708665
0.08336294 -0.016064454 0.05212087 0.08558688 -0.079504006 0.050123613 0.059445407 -0.020528017

dnets.1.means f4 [63]
00000000: 765e 8a3f cba2 7bbf de30 f0bf df6c 82bf
00000010: 2441 573f 2063 213f 39cd 14c0 52ae 44bf
00000020: 13eb 7fbf 0d02 433f 8c8d 47bf ef0e d73e
00000030: 5fb2 13c0 befd 303f b26c 85bf 33bc f13f
00000040: 3337 d1bb 7476 92bf 635a 0d3f 1b9d 34bd
00000050: 5481 943f f1e5 493f 157b 11c0 9b12 dbbf
00000060: 5887 07bf 88cc 80bf 5da7 6bbf e4c8 eb3e
00000070: dca5 373f 283a d73f 05b4 b73f 23f5 493f
00000080: a882 7ebe ec45 bb3f 8143 933f 234d 47be
00000090: ad8d bb3e 0196 64be 9bbb fe3e 09b9 9abf
000000a0: e582 1dbe 6b86 c43f 0ff6 14c0 bdbe 763e
000000b0: e8b3 b33e 9abd 01c0 3542 2e3f 8538 eebf
000000c0: b91f 0f3f 57b0 34bd 1e49 35bc 7c3d 733d
000000d0: abf2 a1bf db41 653e 4478 863f 28c7 ecbf
000000e0: c629 673d 8368 e03c ee79 a93e 37c2 37bf
000000f0: 15c1 8b3f acf1 cebe 6711 753f
1.0810077 -0.9829528 -1.8764913 -1.0189475 0.8408377 0.6304188 -2.3250258 -0.7682849
-0.9996807 0.76175004 -0.7795036 0.4200358 -2.307762 0.6913718 -1.0423796 1.8885559
-0.006384754 -1.1442399 0.55216044 -0.04409514 1.1601968 0.7886649 -2.2731373 -1.7115053
-0.52940893 -1.0062418 -0.9205225 0.46051705 0.71737456 1.6814623 1.4351813 0.78889674
-0.24854529 1.4630713 1.1504976 -0.19463019 0.36631528 -0.22322847 0.49752507 -1.2087718
-0.15381964 1.5353521 -2.3275182 0.24096198 0.35098195 -2.0271974 0.68069774 -1.8610998
0.5590778 -0.044113483 -0.011064796 0.059384808 -1.2652181 0.22388403 1.0505452 -1.8498278
0.056436323 0.027393585 0.33100837 -0.71780723 1.0918299 -0.40418756 0.9572968

dnets.1.std f4 [63]
00000000: f4ac f53f 65d5 413e ff0f a13f d9cc 233f
00000010: da5a 38be 07cf c9be cbd8 d73f 8ad0 ce3f
00000020: cc59 343f 0293 fc3e 0961 643f f2b5 ce3f
00000030: 4bd7 873f bc55 cbbe 2dac 373f 9ac2 533e
00000040: 16dc 6abd 3c75 03bf f88a a63e 0b2c 0c40
00000050: e36b 303f ef04 cf3f c8d9 b33f e636 0a40
00000060: d60c 9fbe 8a32 1440 78e2 933e 0ce3 99be
00000070: c84f d83e 9321 34bf c51d 5f3f b1b2 023f
00000080: e14b 233f 2e9d 033f c053 163f 09cc 1a3e
00000090: 521a 4c3f 4ff6 f63f f171 f43e 9c2d 12bf
000000a0: e9e7 1340 029c 6f3f bccb fa3f 78f9 e73f
000000b0: 6f48 ba3f 7db2 cf3f 5cf2 db3f d0d0 ec3f
000000c0: 37f8 e33e 74c5 ba3f a735 5d3e 0d1d df3f
000000d0: 6182 5f3f 867c 843e 4cc6 703e f92d 3c3d
000000e0: 2cae a93f adac 823d dc73 1a3f 56ee 8b3f
000000f0: f1ef 033f aeee 973f 94e4 e83f
1.9193406 0.1892906 1.2583007 0.6398445 -0.18003407 -0.39415762 1.6863035 1.6157391
0.7044952 0.49330908 0.89210564 1.6149275 1.0612577 -0.39713848 0.71747094 0.20679703
-0.057338797 -0.5135076 0.325279 2.1901882 0.6891462 1.6173381 1.4050837 2.1596007
-0.3106448 2.3155847 0.2888372 -0.30056036 0.42248368 -0.7036373 0.871548 0.5105391
0.6378766 0.5141171 0.5872154 0.15116896 0.7972766 1.9293917 0.4774318 -0.57100844
2.3110297 0.93597424 1.9593425 1.8123007 1.4553355 1.6226345 1.7183337 1.8501225
0.4452531 1.4591508 0.21602498 1.743074 0.8730832 0.25876254 0.23513144 0.04594228
1.3256278 0.063805915 0.6033304 1.0932109 0.51537997 1.1869714 1.8194757

dnets.1.weights_rbf f4 [24, 63]
00000000: 02b8 e33b 9a6a ac3c 060b 333c c713 283c
00000010: 7fe2 09bc 9f20 5f3b 366e 2c3c b5fd 173c
00000020: 4aec 183c 793e aa3a 9fff 1f3c 1b6e ed3b
00000030: 10e1 853c 606f 733b 1ee9 1a3c 2108 823c
00000040: 9103 013c 91f0 853c 66e0 bf3b 6395 093c
00000050: 4472 b23a b260 da3b b1e1 473c dc3e 1f3c
00000060: 71bb 863c e347 173c f92e 323c 5a1b dd3b
00000070: fb21 423b d68d 193b c584 fb3a 7bb8 963a
00000080: cc70 f23b b998 e4bb 44ba 113b 67ab 9cbc
00000090: 6c3f 6a3b e23d 0b3c 3874 0cba e81c 833c
000000a0: 7393 0b3c a58a 0e3b 27b6 273c 2302 003c
000000b0: 3966 e73b 28e6 283c 2898 e63b e246 233c
000000c0: 4190 0b3a f6c0 023c 2e2e f9bb 294b 043c
000000d0: 843d 223c 9955 983a 7bb6 213c 2108 823c
000000e0: 595d fa3b 21ec 37b8 ab97 a63a 30d7 1b3c
000000f0: 6d18 873a e72b 0e3c 67d3 e13b 24e0 d1bb
00000100: b5e6 6e3c cb1f f03b 6147 cd3b 77c5 f7bc
00000110: cf8c 92bc e119 e03b 40a0 253b 520d fa3b
00000120: e4e9 87bc df0b f73b 8da9 98bb b866 3c3a
00000130: 3b93 88bc e3ec f53b 2108 823c 41e2 1dbc
00000140: b144 a9b9 47dd 8dbc b789 09bb d39d 60bc
00000150: b283 d5bb 8a42 d03b 841f 583b 06fe af3b
00000160: 8d31 513a b92f 143c e295 9dbc a262 89bc
00000170: e064 a7bb 210a 50bc 7d09 86bc eebc ec3b
00000180: f86f a1bb cd9d 42bc 0739 cf3c 2d12 1bbc
00000190: 60b2 a0ba e5de 7ebc 6cc1 b53a 9508 ecba
000001a0: d3b1 4abc 8194 bc3b 6465 5cbb a6e4 99bb
000001b0: 4313 e23b 3f71 b8bb bc8a a83b 8f83 8bbc
000001c0: ff14 dfba 2795 bbba b143 21bb 90d1 003c
000001d0: 1f18 91bc 9c4d 9abc 2108 823c b661 22bb
000001e0: 9bd4 1fbd 42f1 41bc e3d9 bd3b ec9d 2dbc
000001f0: 1289 313b d86e d0bb aa43 0d3a cfca fd3d
00000200: 3dcc 723c 1efa 9a3c 56d1 eb3c e801 1bbc
00000210: e69c 503c 387a f23b 588f 8e3c a37d 0abc
00000220: 8920 4f3c b329 043b ac1f 843c c5d8 24bc
00000230: 655e 8f3c 2108 823c dfc4 ef3c fa4a d53c
00000240: 437a 8ebc f746 923b e620 edbb 4ba1 5139
00000250: f052 6d3c cca1 0a3c 982f da3c d46c d73b
00000260: 12d3 b73d 088c 8fbc 0566 15bc f8f5 4abb
00000270: 94b0 dcbb 55d5 08bc c021 093c 009d 49bc
00000280: 1c61 e4bb 5060 d33b 7c88 9bbb b4aa a03b
00000290: 85b6 25bc 4d04 c33c 8c3f 9b3b 3727 d6bb
000002a0: 2474 343c 5062 563b 0cfd e83a fde2 493c
000002b0: 78f6 9d3a e482 253c 8b87 1fbc 530f 833b
000002c0: 42ba 3e3b c524 7d3b 7fe0 873c 4d6d 8ebc
000002d0: 75c7 6c3c 2108 823c 8629 513b 66fa 1abc
000002e0: 3247 0abc dcc3 233c beec 02bc 264f dc3b
000002f0: 5bea 083a 95c4 0d3b f2b0 833c 9890 313c
00000300: d251 733c 1682 bc3c 263b 8fb9 78b6 083c
00000310: 1a3e b73b 2337 613c 0bb4 603a 8852 313c
00000320: dc4e 483b 9225 573c 2c4d 79ba 9d32 613c
00000330: 3b17 863c 5400 c6bb 62c0 843c a454 a0bb
00000340: 461a 623b 6222 b8ba b020 1d3b 162d 333c
00000350: 0479 ae3b 7a13 6e3c 89d8 8f3b 8db4 363c
00000360: d0ae bbba 3e18 69b9 bbca 54bb 6fea c0ba
00000370: 48d9 4e3a 28e7 453c ef3b 36bb f96b 18bb
00000380: 1b91 af3b 1fb7 883b 2db4 803b dbf5 563b
00000390: 6ee6 803c 36c0 653b 42ee bbba b4d0 dd3b
000003a0: 5683 573b e436 573b 25a3 013c 1901 2a3b
000003b0: 913e cf3b ea94 063b 7f7e 8b3b 9a32 5a3c
000003c0: 7a8c 6d3b 6242 4f3c f0cf 973c ee67 a9ba
000003d0: 2108 823c a1e4 893b 2064 04bc 10a1 b13b
000003e0: 43d1 0a3c 771f 0dbb d66e d73b 027f 133b
000003f0: e54e 19bb ac51 d43c 4302 68bc d25b b1bc
0.0069494257 0.021046925 0.010927921 0.010258622 -0.008415817 0.0034046543 0.010524323 0.009276797
0.009333679 0.0012988589 0.009765535 0.0072457916 0.01634267 0.0037145242 0.0094549935 0.015873017
0.007874385 0.016350063 0.005855608 0.008397433 0.0013614376 0.006664359 0.012199805 0.009719577
0.0164468 0.009233448 0.010875457 0.0067476453 0.0029622305 0.0023430488 0.0019189349 0.0011499071
0.0073987003 -0.006976214 0.0022236267 -0.0191247 0.0035743369 0.008498641 -0.0005357894 0.016004995
0.008519041 0.002175012 0.0102363 0.007813009 0.0070617464 0.01030878 0.0070371814 0.00996563
0.00053239247 0.007980576 -0.007604382 0.00807456 0.009902362 0.001162219 0.009870167 0.015873017
0.0076405224 -4.3850512e-05 0.0012709995 0.009511754 0.0010306962 0.008677459 0.006891656 -0.0064048935
0.014581372 0.007328009 0.0062646125 -0.030245526 -0.017889408 0.0068390225 0.0025272518 0.0076309824
-0.01659102 0.007539257 -0.004658884 0.0007186937 -0.016671767 0.0075050457 0.015873017 -0.009636463
-0.0003228537 -0.017317427 -0.0020986625 -0.013709503 -0.0065159434 0.0063555883 0.003297777 0.005370858
0.0007980101 0.009044581 -0.019236509 -0.016770665 -0.005108461 -0.012697727 -0.016361946 0.0072246706
-0.004926678 -0.011878443 0.025295747 -0.009464783 -0.0012260191 -0.015556072 0.0013866848 -0.0018007929
-0.012371498 0.0057550077 -0.003362977 -0.0046964465 0.006899269 -0.0056287344 0.0051434916 -0.017030505
-0.0017019807 -0.0014311419 -0.0024606998 0.007862464 -0.017711697 -0.018835835 0.015873017 -0.0024777479
-0.039021116 -0.0118373055 0.0057937964 -0.010596734 0.0027089757 -0.00636087 0.0005388806 0.12392198
0.014819202 0.018918093 0.028786343 -0.009460904 0.01273272 0.0073998235 0.017402336 -0.008452806
0.012642034 0.0020166456 0.016128384 -0.0100614475 0.017501066 0.015873017 0.02926868 0.026036728
-0.017392283 0.004464026 -0.007236588 0.0001999188 0.014485106 0.008461427 0.026634023 0.0065742526
0.08975805 -0.017522827 -0.009118562 -0.0030969363 -0.006734917 -0.008351644 0.008369863 -0.012305498
-0.006969584 0.0064506903 -0.004746495 0.004903162 -0.010114317 0.023805762 0.0047378 -0.0065354365
0.011014018 0.0032712407 0.0017775609 0.012322185 0.0012051603 0.010102008 -0.009736906 0.0039996295
0.0029102718 0.0038626653 0.01658654 -0.017386103 0.014451851 0.015873017 0.003191562 -0.009459114
-0.008439826 0.009995427 -0.007991014 0.0067233024 0.000522291 0.0021632065 0.016075585 0.0108376965
0.01485105 0.023011249 -0.00027319154 0.008344285 0.00559212 0.013746056 0.00085717504 0.0108229
0.0030564582 0.013131516 -0.00095100957 0.013744977 0.016368499 -0.0060425196 0.016205017 -0.0048929024
0.0034500523 -0.0014048333 0.0023975782 0.010936042 0.005324485 0.014531011 0.0043898267 0.011151445
-0.0014319066 -0.00022229642 -0.003246947 -0.0014718304 0.0007890654 0.012079038 -0.002780672 -0.0023257716
0.005357874 0.0041722204 0.0039277286 0.003280035 0.015734877 0.0035057194 -0.0014337974 0.006769264
0.0032884679 0.0032839114 0.007912432 0.0025940596 0.006324597 0.0020535537 0.004257023 0.013317728
0.003624706 0.012650104 0.01853177 -0.001292465 0.015873017 0.004208163 -0.008080512 0.0054208115
0.008472743 -0.0021533647 0.006574492 0.0022506122 -0.0023392972 0.02591785 -0.0141606955 -0.021650229

dnets.1.conv.weight f4 [24, 3, 5, 5]
00000000: 1b21 20bd af66 b1bc bb1b 61bd 6412 7b3d
00000010: bcb5 813d ae11 d2bd 9880 aabd c81a 13bd
00000020: 2ad1 833d c2dd c9bd 7c7e c53c 737a a23d
00000030: 8cc4 903d b1b8 70bd caaf 793d 6480 66bd
00000040: 0818 c5bd c121 d93c 278a 67bd 5a15 e03d
00000050: 7a95 613d 1be8 1abd 3a66 a33d c415 ec3d
00000060: 6ce2 bd3d ae44 863d 54fa ddbd 7ad2 8cbc
00000070: 2a75 0c3c c9a2 26bd 2960 90bd 017d 5bbc
00000080: 4c1d c9bd 863f 63bd 742a 7dbd dbc4 b0bd
00000090: 03d0 7a3d 787f 98b9 59cb 29bd 82dd efbc
000000a0: e23d 613d 556a b5bd 240e f23d 5710 3b3c
000000b0: 8efd e93d 4c00 7ebd 761b 863d c41d b33d
000000c0: 184a 9e3d 6785 33bd 36cb 4dbd 0401 21bd
000000d0: c681 4f3b d4f9 bbbd 7d00 bf3c e6fa 3d3d
000000e0: 5965 c8bd 3053 93bd 4f58 95bd 8ea5 ac3d
000000f0: 584a 16bd a9e7 1b3d 31d0 acbd 347e d9bc
00000100: c549 ccbd 195d 89bd cdd4 9bbd f02c 0ebd
00000110: 3ac7 7f3c b5f1 b13c fb3b c53d f2eb 90bd
00000120: 9058 be39 c8dd de3d 2faf 5fbd 24ef 7ebc
00000130: 04ee 5c3d eb62 8cbd 3552 b93d 0a25 e8bd
00000140: df06 95bd 2ccf b2bd 412e bb3d 3416 36bc
00000150: cb9d a7bd 4c12 d43c 117e 093d 9ce8 793d
00000160: f94d 183c b32e 543d 75f7 f5bd cf75 803d
00000170: 554d e5bc e579 a23c f955 9d3d 261d 9e3c
00000180: 41bf f0bd ca26 e9bc f1a9 bf3b 454e c03d
00000190: 4ab9 d03d bdfb 9b3c 40bc 5dbd 6483 7a3d
000001a0: 2a22 b83d 5ffa 55bd 39cd f2bd ec56 a33d
000001b0: 3d94 a13b de66 98bd 779f c23d d89d cb3c
000001c0: aa15 3bbd 5e8d 95bc 92f4 02be f8af 893d
000001d0: ac73 d4bd 31c6 943d 9067 b3bd dd7b 093d
000001e0: f8e1 e3bb 6420 efbd 23d8 98bc a163 903c
000001f0: 818b 7f3d e9d7 fdbd a60e 81bd 97f5 54bc
00000200: 73b3 30bd 61e6 45bd 98d2 c93d dae4 383b
00000210: b793 8c3d 8589 3e3d fc05 f0bd 57fe 943c
00000220: 3fc6 40bd 1685 993d 6e4d c93b 297d b73d
00000230: 6142 7cbc 390b 7abc 595e 7f3d 248c 20bd
00000240: 7261 fbbd 8f49 e5bd f1ba 5fbd aa8c a13d
00000250: 3d40 7f3d 7b21 213d f848 d43c 5810 fabc
00000260: ffce c43c 1416 e93d d923 823d 26fd 043d
00000270: 9e67 ddbd 44af cbbd 1d75 bb3c 1203 93bd
00000280: 75a9 33bd eb2d 67bc bf38 d73b 285d 8d3d
00000290: 9c7a 533d 811f c0bd 3376 d73c c542 023c
000002a0: f2d3 a5bc fa15 0c3d 5bc7 0bbd 764d 9bbd
000002b0: 0236 c93d 1c4c b53d 9eac 35bd 0831 1cbd
000002c0: 86d0 ccbd ed1d d43d 5b71 c8bd ff6e af3d
000002d0: 95e9 f03d e3ff 913c 4d0e c53d 08a1 96bc
000002e0: ed1d a6bd 8d92 f93c e216 ab3d 53c0 1dba
000002f0: f967 183d b07d 6cbd 2231 6bbd 97d6 553d
00000300: f4c1 ec3d ebea 813d 5837 613d 85fa 40bd
00000310: 2ef4 bbbd ea8f e63d a2f1 d2bd ea1b ddbd
00000320: e553 cd3d 09e0 47bd d7bb d8bc e82e 67bd
00000330: 6bba db3d 116f fa3b 7c53 8f3c a3e6 c1bd
00000340: 7278 6e3c d551 a23d 7423 65bd 139c f53c
00000350: 761c 13bd b84c 273d 6668 703c 5296 353d
00000360: 21d2 a7bd 6875 9e3d b0a8 ba3d 2308 87bb
00000370: eef9 733d 25d0 e8bd 9303 03bd 4de3 e93c
00000380: 2d01 a6bd b2b2 d03d 8a6b 963d c848 65bd
00000390: c1be 813d 9335 aebc 3e50 ecbd 3b05 2e3d
000003a0: 8580 b1bd a87b 2fbd c005 4e3d 4ee3 c3bd
000003b0: 19fa c83d f988 a63d bd5b c0bc ec17 aa3d
000003c0: 7b08 3c3d bbd7 6abb 70fb 69bd a360 b8bd
000003d0: 29b7 6abd dc8c 17bd f7c2 a23d d8a1 873d
000003e0: 67be 4e3c b90a b53d 3030 6d3d f34e c63d
000003f0: 0bcd 2fbd c7cf 54bd f94a 81bc dbe8 bf3d
-0.03909407 -0.021655409 -0.054958086 0.061296836 0.06333491 -0.102572784 -0.083253086 -0.035914212
0.06436379 -0.0985675 0.024108164 0.079335116 0.07068738 -0.058769885 0.06095866 -0.056274787
-0.09623724 0.026505353 -0.056528237 0.109415725 0.055074193 -0.03781901 0.079784825 0.11527589
0.09271702 0.06556068 -0.10838762 -0.017190207 0.008572856 -0.040682588 -0.07049591 -0.0133965025
-0.09820041 -0.055480503 -0.061808065 -0.08631297 0.06123353 -0.0002908667 -0.041453693 -0.029280428
0.054990657 -0.08858172 0.11819103 0.01141747 0.11425315 -0.062012002 0.065482065 0.08745912
0.07728976 -0.043828394 -0.050242625 -0.03930761 0.0031663044 -0.0917851 0.023315663 0.046381854
-0.097849555 -0.07193601 -0.07292234 0.084300146 -0.036691993 0.038062725 -0.08438147 -0.026549436
-0.09975008 -0.0670721 -0.07608948 -0.034710824 0.015611464 0.0217217 0.09630581 -0.07076253
0.00036305608 0.10882145 -0.054610427 -0.015559945 0.053937927 -0.068548046 0.09048883 -0.1133519
-0.07276701 -0.08730921 0.091396816 -0.011113692 -0.081843935 0.02588763 0.033567492 0.06101285
0.009295934 0.05180235 -0.12010089 0.0627247 -0.027990976 0.019833514 0.076824136 0.019301008
-0.11755229 -0.028460879 0.005849116 0.09389929 0.10191591 0.019040937 -0.054134607 0.06116046
0.08990891 -0.052240726 -0.11855549 0.079755634 0.0049310015 -0.07441495 0.09503072 0.02485554
-0.045674957 -0.018255886 -0.12788609 0.067230165 -0.10373625 0.072643645 -0.08759987 0.03356539
-0.006954428 -0.116761 -0.01865775 0.017625632 0.0623889 -0.12394697 -0.06301622 -0.012998006
-0.043139886 -0.04831541 0.09854621 0.0028212578 0.06864112 0.046517868 -0.117198914 0.018187685
-0.047064062 0.07496087 0.0061432635 0.08959419 -0.015396685 -0.015261465 0.062345836 -0.03919615
-0.122744456 -0.11195671 -0.05462164 0.07888158 0.06231712 0.03933857 0.0259137 -0.030525371
0.024024485 0.11381164 0.06354494 0.032467984 -0.10810779 -0.09945539 0.022882992 -0.0717832
-0.04386278 -0.014110069 0.006568044 0.06902534 0.0516306 -0.09381009 0.026301479 0.007950489
-0.020242665 0.034200646 -0.034125667 -0.07583134 0.09824754 0.08852407 -0.044354074 -0.038132697
-0.1000071 0.103572704 -0.09787246 0.08566093 0.11763302 0.017822212 0.09621868 -0.018387333
-0.08111177 0.030465389 0.08353974 -0.0006017733 0.03720853 -0.057737052 -0.057419904 0.052206602
0.11560431 0.06343635 0.05498442 -0.047113914 -0.09177433 0.11257918 -0.10299994 -0.1079634
0.10025767 -0.04879764 -0.026456757 -0.056441218 0.10728916 0.0076426347 0.017495863 -0.094678186
0.014555084 0.079257645 -0.055942014 0.029981649 -0.035915814 0.04084465 0.014673328 0.04433281
-0.08194376 0.07737237 0.09114206 -0.004120843 0.059564523 -0.113678254 -0.03198583 0.028550768
-0.08105693 0.101903334 0.0734473 -0.055977613 0.063352115 -0.02126578 -0.115387425 0.042485457
-0.08667091 -0.042842537 0.050298452 -0.09564839 0.09813327 0.08131594 -0.023481244 0.08305344
0.045906525 -0.0035834152 -0.057124555 -0.09002807 -0.05730358 -0.03699957 0.07947343 0.06622666
0.012618638 0.08839936 0.057907283 0.09683027 -0.042920154 -0.051955964 -0.01578282 0.093705855

dnets.2.means f4 [63]
00000000: 765e 8a3f cba2 7bbf de30 f0bf df6c 82bf
00000010: 2441 573f 2063 213f 39cd 14c0 52ae 44bf
00000020: 13eb 7fbf 0d02 433f 8c8d 47bf ef0e d73e
00000030: 5fb2 13c0 befd 303f b26c 85bf 33bc f13f
00000040: 3337 d1bb 7476 92bf 635a 0d3f 1b9d 34bd
00000050: 5481 943f f1e5 493f 157b 11c0 9b12 dbbf
00000060: 5887 07bf 88cc 80bf 5da7 6bbf e4c8 eb3e
00000070: dca5 373f 283a d73f 05b4 b73f 23f5 493f
00000080: a882 7ebe ec45 bb3f 8143 933f 234d 47be
00000090: ad8d bb3e 0196 64be 9bbb fe3e 09b9 9abf
000000a0: e582 1dbe 6b86 c43f 0ff6 14c0 bdbe 763e
000000b0: e8b3 b33e 9abd 01c0 3542 2e3f 8538 eebf
000000c0: b91f 0f3f 57b0 34bd 1e49 35bc 7c3d 733d
000000d0: abf2 a1bf db41 653e 4478 863f 28c7 ecbf
000000e0: c629 673d 8368 e03c ee79 a93e 37c2 37bf
000000f0: 15c1 8b3f acf1 cebe 6711 753f
1.0810077 -0.9829528 -1.8764913 -1.0189475 0.8408377 0.6304188 -2.3250258 -0.7682849
-0.9996807 0.76175004 -0.7795036 0.4200358 -2.307762 0.6913718 -1.0423796 1.8885559
-0.006384754 -1.1442399 0.55216044 -0.04409514 1.1601968 0.7886649 -2.2731373 -1.7115053
-0.52940893 -1.0062418 -0.9205225 0.46051705 0.71737456 1.6814623 1.4351813 0.78889674
-0.24854529 1.4630713 1.1504976 -0.19463019 0.36631528 -0.22322847 0.49752507 -1.2087718
-0.15381964 1.5353521 -2.3275182 0.24096198 0.35098195 -2.0271974 0.68069774 -1.8610998
0.5590778 -0.044113483 -0.011064796 0.059384808 -1.2652181 0.22388403 1.0505452 -1.8498278
0.056436323 0.027393585 0.33100837 -0.71780723 1.0918299 -0.40418756 0.9572968

dnets.2.std f4 [63]
00000000: f4ac f53f 65d5 413e ff0f a13f d9cc 233f
00000010: da5a 38be 07cf c9be cbd8 d73f 8ad0 ce3f
00000020: cc59 343f 0293 fc3e 0961 643f f2b5 ce3f
00000030: 4bd7 873f bc55 cbbe 2dac 373f 9ac2 533e
00000040: 16dc 6abd 3c75 03bf f88a a63e 0b2c 0c40
00000050: e36b 303f ef04 cf3f c8d9 b33f e636 0a40
00000060: d60c 9fbe 8a32 1440 78e2 933e 0ce3 99be
00000070: c84f d83e 9321 34bf c51d 5f3f b1b2 023f
00000080: e14b 233f 2e9d 033f c053 163f 09cc 1a3e
00000090: 521a 4c3f 4ff6 f63f f171 f43e 9c2d 12bf
000000a0: e9e7 1340 029c 6f3f bccb fa3f 78f9 e73f
000000b0: 6f48 ba3f 7db2 cf3f 5cf2 db3f d0d0 ec3f
000000c0: 37f8 e33e 74c5 ba3f a735 5d3e 0d1d df3f
000000d0: 6182 5f3f 867c 843e 4cc6 703e f92d 3c3d
000000e0: 2cae a93f adac 823d dc73 1a3f 56ee 8b3f
000000f0: f1ef 033f aeee 973f 94e4 e83f
1.9193406 0.1892906 1.2583007 0.6398445 -0.18003407 -0.39415762 1.6863035 1.6157391
0.7044952 0.49330908 0.89210564 1.6149275 1.0612577 -0.39713848 0.71747094 0.20679703
-0.057338797 -0.5135076 0.325279 2.1901882 0.6891462 1.6173381 1.4050837 2.1596007
-0.3106448 2.3155847 0.2888372 -0.30056036 0.42248368 -0.7036373 0.871548 0.5105391
0.6378766 0.5141171 0.5872154 0.15116896 0.7972766 1.9293917 0.4774318 -0.57100844
2.3110297 0.93597424 1.9593425 1.8123007 1.4553355 1.6226345 1.7183337 1.8501225
0.4452531 1.4591508 0.21602498 1.743074 0.8730832 0.25876254 0.23513144 0.04594228
1.3256278 0.063805915 0.6033304 1.0932109 0.51537997 1.1869714 1.8194757

dnets.2.weights_rbf f4 [24, 63]
00000000: 524d a23b 45eb db3d a1d1 503c 02d4 693c
00000010: ec06 163c 07e1 51bc 77fd 3e3c 3e9b 103c
00000020: 4131 5c3c ef43 16bc 010f 3c3c 02c3 b93b
00000030: 2148 7d3c 44f3 60bc ac6b 5d3c 2108 823c
00000040: e20f edbb a72a 973c f49a 9bbc 7256 e53b
00000050: 9126 cebb 53e8 9c3b 668a 553c 9d0d 1a3c
00000060: 8861 5a3c 1cfb 073c 2887 e73c 2029 b0bc
00000070: a0d1 4cbc 1457 cbbb 5f91 5fbb f671 0ebc
00000080: 83bf 163c 41f2 c0bb c926 28bc eb0d c23c
00000090: 24ab 2b3b a7b2 ef3b 8ff2 babb 8f31 8f3c
000000a0: 8984 ea3b 78ca 30bb 811a 303c 888b cf3b
000000b0: 8ee2 b63b ff4b 3a3c 1d15 ac3b e18a 283c
000000c0: d9a5 15bc 7599 e13b 4363 9a3a 2dea db3b
000000d0: 81cb 583c 4193 41bc 1cca 4e3c 2108 823c
000000e0: 4e06 d43b 7e49 c1bc 3ea5 0a3a 4ee2 263c
000000f0: d01d 37bc 2d53 0b3c efdd a13b e427 8b3a
00000100: 99c3 283d 92b4 1a3c be93 8d3c 7d28 91bb
00000110: 46f8 40ba 87ea ea3b f917 563b 4f07 5b3c
00000120: d71d abb9 957f cc3b b3bc 983a 9cf3 8c3c
00000130: db7e 37ba fcfe 5e3c bce9 813c 8c54 80bc
00000140: 80bd 1e3d ce38 4ebb 9c86 0d3b e6a5 8e39
00000150: 0d15 523a 0869 1b3c f6d3 853b 8d36 3d3d
00000160: 38c7 493b 44c0 053e a6e9 61bb 51ae c7b9
00000170: 0d2d d03a 5a94 5239 a534 95b9 11ba f03a
00000180: 7183 7fbb e2b1 753a 20b8 1b3d adf9 e4ba
00000190: a048 133b 7f07 2cbb f53b 023d 0a6b 153b
000001a0: 991b 5639 1359 bc3b 00b0 d53a aea2 7f3a
000001b0: 4089 db3b 4ede 8a3a 2c9d a63b be30 d7ba
000001c0: d6a9 de3a bf20 43bc 9879 ee3a 8817 413c
000001d0: d642 bfbb d79e 763a 2108 823c 2132 af3a
000001e0: 3fee 24bc f9ce 5fbb 9f29 8e3b 1c6d 293a
000001f0: 4400 283b 184a 833a 9833 bb3b f5d5 1a3d
00000200: 7034 b83b 6e7a d33b 2f9b 6c3c 38e8 07bc
00000210: d5e9 af3b 2e73 b93b ee61 b03b ce06 52bb
00000220: 7e43 c63b 18ce bc3b 8179 263c a762 1fbc
00000230: 8091 b13b 2108 823c 2677 85bc 86b4 563c
00000240: ef1a 82bc fce1 b43b 137d 713a 541e be3b
00000250: 6114 d23b 4ea5 b13b 2824 5a3c e320 b33b
00000260: f25d 493c 90c3 7cbc 0c26 fbbb 0e4f 983a
00000270: 212a 533b b564 2dbb 4379 003c a4f4 f73a
00000280: d207 14bb a173 343b b102 cb3b 0bd9 b63b
00000290: 46d5 413a 10e1 483c a0e6 b33b 42a2 743b
000002a0: a447 af3b 4133 b93b 28d7 bf3b 7139 ae3b
000002b0: 6322 bc3b 5c08 b03b 43a3 1bbb 28e1 be3b
000002c0: 6df1 afb9 8ade b93b 682d af3b ab02 9fbb
000002d0: becf 773c 2108 823c 6326 c33b 8aec f0bc
000002e0: 7eb6 ae3b c370 c43b 1412 b7bb 2dfe c53b
000002f0: 05e4 bb3b 2867 c23b fed0 a83a 44ea 1f3c
00000300: e84a 283c 7005 663c 2ee2 bdbb 6214 193c
00000310: c689 003c 703e 333c da99 06bb 0e61 1f3c
00000320: ee4c d23b a57b 073c 6f2a f1bb a71a 323c
00000330: 2108 823c 0937 f83b ed0c f33b 84e0 56bc
00000340: c78e e13b 4326 4d39 e0dc c23b 7966 193c
00000350: 3b53 043c 2ed5 d33b d817 f43b 7847 823a
00000360: 4073 4ebc 3313 b8bb cf03 ec3a 799e d13a
00000370: e716 dfba 0577 1a3c 7479 963b b8b8 0cbb
00000380: e788 6f3c 1def b33b 4aed e73b e4b6 cd3a
00000390: dc7e 023c 7f50 e33b 8212 013b f278 113c
000003a0: 6369 da3b df1a d33b 9ea1 183c 5b0d ca3b
000003b0: 02bc 0d3c 2ec4 3eba a8eb e63b e4c0 453c
000003c0: bc2c e03b c576 2d3c eccd ee38 13eb 733c
000003d0: 2108 823c c32b e23b 54b2 c6bc 00a6 9e3b
000003e0: f659 103c 9291 92bb 514a 023c 4331 c33b
000003f0: 7bf6 36bb ce4a b33c 4c16 983c 84fd c83c
0.004953065 0.107382335 0.012745292 0.014271738 0.009156924 -0.012809998 0.01165711 0.008826075
0.013439477 -0.00917147 0.011478187 0.0056689987 0.015459091 -0.013729874 0.0135144405 0.015873017
-0.0072345594 0.018452955 -0.018994786 0.0069988305 -0.0062912186 0.0047884374 0.013033485 0.00940266
0.013328917 0.008299615 0.02826269 -0.021503985 -0.01250115 -0.006205449 -0.0034113748 -0.008694163
0.009200933 -0.005888254 -0.010263153 0.023688277 0.0026194537 0.007314998 -0.005705185 0.017479686
0.0071569127 -0.002697615 0.0107485065 0.006333772 0.0055812066 0.011370658 0.0052515403 0.010287018
-0.009133779 0.0068847486 0.001177885 0.0067112655 0.013232113 -0.011814893 0.012621429 0.015873017
0.006470478 -0.023594614 0.0005288905 0.010185791 -0.011176541 0.008503717 0.0049397866 0.0010616747
0.04120216 0.009442465 0.017282363 -0.0044298754 -0.00073612144 0.007169071 0.0032668097 0.013368442
-0.00032637894 0.006240795 0.0011652916 0.017206006 -0.0006999799 0.013610598 0.015858524 -0.015665315
0.03875494 -0.0031466964 0.0021595126 0.00027207955 0.0008014001 0.009485491 0.0040841056 0.0461946
0.003078891 0.13061625 -0.003447154 -0.00038086114 0.0015882567 0.00020082426 -0.00028458718 0.0018365999
-0.0038988257 0.0009372515 0.038017392 -0.0017469429 0.0022473708 -0.0026249585 0.03179546 0.0022799396
0.00020418911 0.005747923 0.0016303062 0.0009751719 0.006699711 0.0010594816 0.0050846543 -0.0016417725
0.0016987871 -0.011909663 0.0018194197 0.011785395 -0.005836825 0.0009407824 0.015873017 0.001336638
-0.010066568 -0.0034150465 0.0043384577 0.0006463097 0.0025634924 0.0010016588 0.0057129376 0.0378017
0.0056214854 0.0064538037 0.0144412955 -0.008295111 0.005368451 0.0056594824 0.005382768 -0.0032047513
0.006050526 0.005761873 0.010160805 -0.00972811 0.0054189563 0.015873017 -0.016292166 0.013104564
-0.015881984 0.0055201035 0.0009212058 0.0058019552 0.0064111208 0.005421317 0.013314284 0.005466567
0.012290465 -0.015427485 -0.0076644477 0.001162024 0.0032221156 -0.002645773 0.007841411 0.0018917513
-0.002258767 0.002753474 0.006195389 0.0055800728 0.0007394146 0.01226069 0.005490139 0.0037328159
0.0053491164 0.005651862 0.005854506 0.005316906 0.005741404 0.0053720903 -0.0023748435 0.0058251806
-0.00033558477 0.0056722807 0.005345989 -0.004852613 0.015125213 0.015873017 0.005955504 -0.029409666
0.0053318134 0.0059948876 -0.005586872 0.006042263 0.005733969 0.0059327073 0.0012879667 0.009760443
0.010271765 0.014039382 -0.005794785 0.009343239 0.007845348 0.010940179 -0.002053848 0.0097277295
0.006417862 0.008269225 -0.007359795 0.010870612 0.015873017 0.00757492 0.0074173124 -0.013115052
0.0068834755 0.00019564577 0.0059467405 0.00936281 0.008076484 0.006464622 0.0074491315 0.0009939512
-0.01260072 -0.005617523 0.0018006506 0.0015992663 -0.0017020375 0.0094277905 0.004592115 -0.0021472406
0.014620042 0.005491151 0.0070778476 0.0015694764 0.007964816 0.006937086 0.001969487 0.008878933
0.006665395 0.0064424123 0.009315876 0.006166143 0.008650782 -0.0007277158 0.0070471354 0.0120699145
0.0068412703 0.010587399 0.0001138708 0.014887589 0.015873017 0.0069021895 -0.024254955 0.004841566
0.008810511 -0.0044729197 0.007952289 0.0059568 -0.002791791 0.021886256 0.01856532 0.024534948

dnets.2.conv.weight f4 [24, 3, 5, 5]
00000000: 1d19 9bbd e224 443d 131f b13d e88a 303a
00000010: 7f68 99bd 2d57 bebd a9b1 983d bbd7 893d
00000020: 494b 9c3c 68db e73b 51dc d73c 3a2f d83d
00000030: 5e5e c8bd 955e 1dbc 151c 763c fa4c bf3d
00000040: 4acd f33c 392f 80bd 2619 933c d8d4 a4bc
00000050: 7c73 89bb 6b4d cabd 0ace 5f3c c339 30bd
00000060: 72b0 abbd 1855 013d be60 d63d bc6a fc3c
00000070: 35c5 c5bd 4214 b9bb 9564 09bc 3b8e a23b
00000080: 2697 83bd c40c f73d 9a96 81bc de3d c2bd
00000090: 2c94 79bd 146e e2bd d1f6 bb3d d3cc fb3b
000000a0: 3b1c 21bd e4fd bebd 789d d03d eff0 403d
000000b0: a65e f03d dc58 c6bb 8c67 713d b046 99bd
000000c0: a9cd ddbd 2c2b 09bd c602 0fbc 978a 0e3d
000000d0: 7d60 963d 9385 993d 2a7a 48bd 2eb1 84bd
000000e0: 01aa 9bbb 5543 28bd d672 cabd 2a9a b1bd
000000f0: 7e9b cd3d 1128 e63d 4ca2 e0bd 7ea2 c9bd
00000100: b54d cbbd 6136 bc3c eb09 a6bc 5533 30bd
00000110: cf84 babd 626c 73bd 2110 af3d d07b d73d
00000120: 6e56 783d c315 a03d 7d80 b0bc 669e 783d
00000130: da69 0f3e 2c99 fa3d 1f10 4cbd cec3 743c
00000140: 0c23 063e 6de5 77bd 94fa bf3d b1de cebd
00000150: d2a7 b9bd bb2e 81bd 00d0 25bd 4f9f bf3b
00000160: 9cc2 033c b650 67bd 3b06 803c 610a 863d
00000170: 892b 313d 8776 11bd 644d 6abd 12d6 65bd
00000180: 8f2f 4abd 9c4a df3c bafb f03d 9c31 8bbd
00000190: 52ac c43c 5c4b d83d 8416 3f3d 13f3 74bd
000001a0: b59a 363d a694 45bd 83e8 853d f61a 5abd
000001b0: f8aa debd b02d 56b9 b907 a4bd 28f8 bfbd
000001c0: 00b0 b4bd 7072 223c e734 4f3d 9518 b23c
000001d0: 04b8 a63b 5d14 afbc 4d09 2f3d 3b86 4dbd
000001e0: 7018 b43d fafa 4b3d 5aac 84bd 780a df3d
000001f0: 071e aebd 69c8 bdbd 2ed4 ecbc 6474 98bd
00000200: 99f2 dbbb 551b 14bd 8129 21bc 2850 d23d
00000210: 2531 5fbd 37e0 cf3b 42bc df3c eaf6 633d
00000220: 74ea 7fbd e690 3d3d e4ba be3c bd17 263d
00000230: 547a 813d caae b73d 5b68 a33d 4bff 8abd
00000240: 6bb2 25bd 7a97 0d3c d5f4 913d 5b35 0bbc
00000250: 7f2f fc3c 8462 e53c e226 8f3d ec2c cb3d
00000260: 0941 90bd 7b0c 96bd ca7e 893c 5eba b23d
00000270: 238b 5f3c 0d45 c2bc 626d 803d 7eeb 17bd
00000280: c32b a3bc f7b0 7bbd 9894 c1bc 8e59 ef3a
00000290: 4a1c 92bc 140d 84bd 7db6 23bd 7c16 e93d
000002a0: 06e1 ee3d e5d0 a9bd 7796 273d 41f5 acbd
000002b0: 136e debd b191 a0bd 64dd 513d c579 fa3c
000002c0: 089a b13d 430c e8bd ffe7 e23d 7bea dbbd
000002d0: fb95 acbc 7c9d 84bd c5cf 003c ae6e 20bc
000002e0: 7f84 9bbd af72 b0bd 2ab9 d43a 623a f3bc
000002f0: ada2 d0bc b67e bd3c fd05 d23d dcb2 963d
00000300: c4a3 bdbb 724b 98bd f426 fdbc cf49 debd
00000310: 1047 54bd 6e3b 5bbd 0fac 47bc 2726 bc3d
00000320: cbfb 83bc affa bb3b 17df 1a3d 0b96 ff3c
00000330: b5e9 d8bd cb9c 443d 35ea 123d 325a 79bd
00000340: b401 c1bd 4a20 953d 701c ba3d a3d8 e3bd
00000350: f1ef e43c a96a e43c 9518 e43d 308d d6bd
00000360: 8019 d13d 9c4a 8bbd aa9d 913c 1f2b 22bd
00000370: 391d c43b dc82 8ebd 7e1e 92bb 4718 01bc
00000380: d4c0 c83d c8bf b0bd 1673 ea3d 1a8f acbd
00000390: db20 773d 6d5d 52bd 948d c23d b9a3 4abd
000003a0: 7f64 25bd 27a5 c6bd 1643 02bc 05b0 2d3d
000003b0: 70fb 473c 66df 99ba f5db 41bd c34f f7bc
000003c0: b1a7 c5bd 94fc 3a3d 10d1 b73d 3efc d83d
000003d0: b673 cb3d 9a34 c03c 6673 1f3d 0f56 c43d
000003e0: 9324 d7bd b527 65bd 7837 00bb 2bdb 63bd
000003f0: d06a 92bd 1f80 4d3d 2250 08bd 4622 d9bc
-0.07573149 0.047886737 0.08648505 0.0006734566 -0.07490634 -0.09293971 0.07455761 0.067306004
0.019078868 0.007075716 0.026350172 0.10555883 -0.09783624 -0.00960507 0.015021344 0.09340854
0.029760975 -0.06259007 0.017956328 -0.020121023 -0.004194675 -0.098780476 0.013659963 -0.043023836
-0.08383264 0.031575292 0.10467671 0.030812614 -0.09656755 -0.005648167 -0.008385797 0.004960803
-0.06425314 0.12062982 -0.015818883 -0.094844565 -0.060932323 -0.11056152 0.09177936 0.007684329
-0.039333563 -0.093257695 0.10186285 0.047104772 0.11736803 -0.0060530733 0.05893664 -0.07484186
-0.10830242 -0.033488438 -0.008728689 0.03480014 0.073426224 0.074961804 -0.04894463 -0.06479107
-0.0047504907 -0.041079838 -0.098851845 -0.086719826 0.100394234 0.11238111 -0.10968456 -0.09845446
-0.09926931 0.022975149 -0.020268401 -0.043017704 -0.091073625 -0.059429534 0.08547998 0.10521662
0.0606293 0.07816651 -0.021545643 0.060697936 0.14005223 0.122362465 -0.04982006 0.014939262
0.13099307 -0.06052153 0.09373966 -0.10101069 -0.09065212 -0.06307741 -0.040481567 0.0058478485
0.008042004 -0.056473456 0.01562797 0.06544948 0.04325441 -0.035513427 -0.05720271 -0.056112356
-0.04936176 0.027257256 0.11766763 -0.067965716 0.02400795 0.10561249 0.046652332 -0.059802126
0.044581134 -0.048237465 0.06538489 -0.05324837 -0.108724535 -0.0002042565 -0.080092855 -0.09373504
-0.08822632 0.009914979 0.05058756 0.021740237 0.0050878543 -0.021372015 0.04273348 -0.05017684
0.087937236 0.049799897 -0.06478186 0.10890669 -0.08501821 -0.09266741 -0.028909769 -0.07444075
-0.0067122695 -0.03615888 -0.009836555 0.10269195 -0.054490227 0.006343867 0.027311448 0.055655397
-0.06247945 0.046280764 0.023282476 0.040549982 0.0632216 0.08968885 0.079788886 -0.067869745
-0.040453356 0.008642072 0.07126776 -0.008496608 0.030784367 0.028001077 0.06989838 0.099206775
-0.070436545 -0.07326599 0.01678409 0.08726953 0.013644013 -0.023714567 0.06270863 -0.037089817
-0.019918328 -0.061448064 -0.023630425 0.0018260942 -0.017835755 -0.06447807 -0.039968956 0.11381242
0.116640136 -0.082917966 0.04091498 -0.08445216 -0.10860839 -0.078402884 0.051236525 0.030575642
0.08671957 -0.11330464 0.11079406 -0.10738083 -0.02106761 -0.0647535 0.007862036 -0.009792013
-0.07593631 -0.08615624 0.00162295 -0.029690925 -0.025468195 0.02313171 0.102550484 0.073583335
-0.0057873446 -0.07436265 -0.030902363 -0.108539216 -0.051825583 -0.053523473 -0.012187018 0.091869645
-0.016111275 0.005736671 0.03781041 0.031199476 -0.10591451 0.048001092 0.03586789 -0.060877033
-0.09424153 0.07281549 0.09087455 -0.111253045 0.027946444 0.02788289 0.11137501 -0.10476148
0.10209942 -0.0680134 0.017775375 -0.039591905 0.005984929 -0.06958553 -0.0044592014 -0.007879323
0.09802404 -0.08630329 0.11447732 -0.08425732 0.060334068 -0.05135863 0.0949966 -0.049472544
-0.040379044 -0.09699469 -0.007950565 0.042404193 0.012205943 -0.0011739552 -0.047328908 -0.0301894
-0.09651125 0.045651034 0.089754224 0.105949864 0.099341795 0.023462582 0.038928412 0.09586727
-0.10505023 -0.05594607 -0.0019564312 -0.055628937 -0.07149279 0.050171014 -0.033279546 -0.0265056

dnets.3.means f4 [63]
00000000: 765e 8a3f cba2 7bbf de30 f0bf df6c 82bf
00000010: 2441 573f 2063 213f 39cd 14c0 52ae 44bf
00000020: 13eb 7fbf 0d02 433f 8c8d 47bf ef0e d73e
00000030: 5fb2 13c0 befd 303f b26c 85bf 33bc f13f
00000040: 3337 d1bb 7476 92bf 635a 0d3f 1b9d 34bd
00000050: 5481 943f f1e5 493f 157b 11c0 9b12 dbbf
00000060: 5887 07bf 88cc 80bf 5da7 6bbf e4c8 eb3e
00000070: dca5 373f 283a d73f 05b4 b73f 23f5 493f
00000080: a882 7ebe ec45 bb3f 8143 933f 234d 47be
00000090: ad8d bb3e 0196 64be 9bbb fe3e 09b9 9abf
000000a0: e582 1dbe 6b86 c43f 0ff6 14c0 bdbe 763e
000000b0: e8b3 b33e 9abd 01c0 3542 2e3f 8538 eebf
000000c0: b91f 0f3f 57b0 34bd 1e49 35bc 7c3d 733d
000000d0: abf2 a1bf db41 653e 4478 863f 28c7 ecbf
000000e0: c629 673d 8368 e03c ee79 a93e 37c2 37bf
000000f0: 15c1 8b3f acf1 cebe 6711 753f
1.0810077 -0.9829528 -1.8764913 -1.0189475 0.8408377 0.6304188 -2.3250258 -0.7682849
-0.9996807 0.76175004 -0.7795036 0.4200358 -2.307762 0.6913718 -1.0423796 1.8885559
-0.006384754 -1.1442399 0.55216044 -0.04409514 1.1601968 0.7886649 -2.2731373 -1.7115053
-0.52940893 -1.0062418 -0.9205225 0.46051705 0.71737456 1.6814623 1.4351813 0.78889674
-0.24854529 1.4630713 1.1504976 -0.19463019 0.36631528 -0.22322847 0.49752507 -1.2087718
-0.15381964 1.5353521 -2.3275182 0.24096198 0.35098195 -2.0271974 0.68069774 -1.8610998
0.5590778 -0.044113483 -0.011064796 0.059384808 -1.2652181 0.22388403 1.0505452 -1.8498278
0.056436323 0.027393585 0.33100837 -0.71780723 1.0918299 -0.40418756 0.9572968

dnets.3.std f4 [63]
00000000: f4ac f53f 65d5 413e ff0f a13f d9cc 233f
00000010: da5a 38be 07cf c9be cbd8 d73f 8ad0 ce3f
00000020: cc59 343f 0293 fc3e 0961 643f f2b5 ce3f
00000030: 4bd7 873f bc55 cbbe 2dac 373f 9ac2 533e
00000040: 16dc 6abd 3c75 03bf f88a a63e 0b2c 0c40
00000050: e36b 303f ef04 cf3f c8d9 b33f e636 0a40
00000060: d60c 9fbe 8a32 1440 78e2 933e 0ce3 99be
00000070: c84f d83e 9321 34bf c51d 5f3f b1b2 023f
00000080: e14b 233f 2e9d 033f c053 163f 09cc 1a3e
00000090: 521a 4c3f 4ff6 f63f f171 f43e 9c2d 12bf
000000a0: e9e7 1340 029c 6f3f bccb fa3f 78f9 e73f
000000b0: 6f48 ba3f 7db2 cf3f 5cf2 db3f d0d0 ec3f
000000c0: 37f8 e33e 74c5 ba3f a735 5d3e 0d1d df3f
000000d0: 6182 5f3f 867c 843e 4cc6 703e f92d 3c3d
000000e0: 2cae a93f adac 823d dc73 1a3f 56ee 8b3f
000000f0: f1ef 033f aeee 973f 94e4 e83f
1.9193406 0.1892906 1.2583007 0.6398445 -0.18003407 -0.39415762 1.6863035 1.6157391
0.7044952 0.49330908 0.89210564 1.6149275 1.0612577 -0.39713848 0.71747094 0.20679703
-0.057338797 -0.5135076 0.325279 2.1901882 0.6891462 1.6173381 1.4050837 2.1596007
-0.3106448 2.3155847 0.2888372 -0.30056036 0.42248368 -0.7036373 0.871548 0.5105391
0.6378766 0.5141171 0.5872154 0.15116896 0.7972766 1.9293917 0.4774318 -0.57100844
2.3110297 0.93597424 1.9593425 1.8123007 1.4553355 1.6226345 1.7183337 1.8501225
0.4452531 1.4591508 0.21602498 1.743074 0.8730832 0.25876254 0.23513144 0.04594228
1.3256278 0.063805915 0.6033304 1.0932109 0.51537997 1.1869714 1.8194757
