models/poisson_joint7.pth (torch, 332311 bytes, 32 tensors)

dnets.0.means f4 [63]
-1.35901 2.148528 2.7374358 1.4481319 -0.58382785 0.65068334 3.022441 0.6756139
-2.5245986 0.62199825 -0.8350169 -1.7577412 -0.2751866 0.89799255 -1.1004397 -0.18622087
2.4388633 0.03995911 2.3042722 -1.7775478 0.96431655 0.26224124 -1.4509068 -1.215085
1.3268508 -1.2601953 -2.5678763 -2.2360492 0.1895831 0.09235612 0.25114712 2.527643
1.6201584 0.23384969 0.69617385 0.8465396 0.6710751 -1.0244063 -1.8314848 -0.16105494
-1.2101152 -0.17084077 1.0997932 0.61345357 -1.6734284 2.2647824 -1.143571 -2.000488
-1.0157244 1.2003666 0.37960702 -3.1785014 0.3650216 0.5538514 1.1131394 -0.97368854
0.98458594 -1.5145593 0.21159062 -1.2919494 -2.2769468 -1.0792528 1.4229546
00000000: 0af4 adbf 7c81 0940 2632 2f40 635c b93f
00000010: be75 15bf 2f93 263f ac6f 4140 08f5 2c3f
00000020: 0693 21c0 473b 1f3f abc3 55bf aafd e0bf
00000030: 42e5 8cbe d7e2 653f 35db 8cbf afb0 3ebe
00000040: 5616 1c40 2aac 233d 3279 1340 b086 e3bf
00000050: 73dd 763f 7c44 863e 50b7 b9bf e887 9bbf
00000060: 3fd6 a93f 144e a1bf 1658 24c0 6e1b 0fc0
00000070: 1222 423e 3525 bd3d 5b96 803e e7c4 2140
00000080: 5a61 cf3f 4b76 6f3e 7338 323f d2b6 583f
00000090: 94cb 2b3f bf1f 83bf 186e eabf 96eb 24be
000000a0: 0ee5 9abf e2f0 2ebe 06c6 8c3f 4b0b 1d3f
000000b0: e732 d6bf 32f2 1040 8960 92bf ff07 00c0
000000c0: 4203 82bf 9da5 993f da5b c23e 916c 4bc0
000000d0: 1ce4 ba3e 35c9 0d3f 5a7b 8e3f a743 79bf
000000e0: d30d 7c3f 14dd c1bf 36ab 583e 995e a5bf
000000f0: 7fb9 11c0 f524 8abf 6023 b63f

dnets.0.std f4 [63]
0.81777644 1.2216052 1.3076302 0.7446062 -0.28260913 1.3035167 1.659541 0.7862597
1.410538 0.28308058 1.2187035 0.95219487 1.4715812 0.24413955 0.42431846 -0.105666354
-1.2209605 0.7664222 1.05211 0.9507668 1.0638328 1.1625808 0.7473624 0.44904682
-0.38410142 -0.30462947 1.7764413 2.7656512 1.6257137 0.32505527 0.61379313 0.44296473
0.7724656 0.25324634 0.6512542 1.0335622 0.3095351 0.39639997 0.22331746 0.14758213
0.28485397 0.6738855 1.1552484 0.14073236 0.31443676 1.247363 -0.46826854 0.98366356
0.9732453 0.36739007 -0.82044554 2.9173903 0.23955627 1.9445617 1.9743601 0.002647864
-0.4600967 0.71978277 1.2360586 0.03411539 1.2359931 1.7374219 0.61931306
00000000: cc59 513f 8f5d 9c3f 6d60 a73f 839e 3e3f
00000010: 25b2 90be a3d9 a63f d76b d43f 5148 493f
00000020: 828c b43f f0ef 903e 7afe 9b3f 0bc3 733f
00000030: c65c bc3f b8ff 793e 4540 d93e 9a67 d8bd
00000040: 6f48 9cbf 3f34 443f 8aab 863f 7465 733f
00000050: ac2b 883f 73cf 943f 2453 3f3f 77e9 e53e
00000060: f1a8 c4be 65f8 9bbe 6e62 e33f 6e00 3140
00000070: 6317 d03f a56d a63e 8c21 1d3f 46cc e23e
00000080: 4ec0 453f 81a9 813e 98b8 263f c44b 843f
00000090: 627b 9e3e f0f4 ca3e 55ad 643e c51f 173e
000000a0: 61d8 913e c383 2c3f 2edf 933f 251c 103e
000000b0: dbfd a03e 97a9 9f3f e5c0 efbe 60d1 7b3f
000000c0: 9b26 793f 8d1a bc3e b808 52bf 86b6 3a40
000000d0: 3d4e 753e 66e7 f83f d5b7 fc3f c987 2d3b
000000e0: cb91 ebbe af43 383f 2b37 9e3f 94bc 0b3d
000000f0: 0635 9e3f d763 de3f 4d8b 1e3f

dnets.0.weights_rbf f4 [48, 63]
0.00037234946 0.010542861 0.01235384 0.016118445 0.0057745483 0.0039075054 0.009645321 0.006502667
-0.0006323391 0.04057014 -0.0015173185 0.00066374394 0.0010938097 0.029895838 0.0003343324 -0.009087183
0.012315706 -4.4651086e-05 0.014675199 0.0007518063 0.0064648567 0.00209094 0.0018800427 -0.00046577287
0.00658253 0.0115855 -0.0012888919 3.256665e-06 0.0019795746 -0.008295835 0.0016581453 0.015873017
0.01743637 0.01119897 0.008274723 0.005969011 0.039025128 -1.2855858e-05 0.015873017 -0.0052459356
0.013008294 -0.001394711 0.0065567815 -0.013154714 0.018750543 0.0108756805 0.0022612016 0.00046557715
-0.001956188 0.050498866 0.003335981 -0.0003459286 -0.0680183 0.0027729222 0.0039397054 0.015873017
0.02707236 0.0023729745 0.0018916597 0.015873017 -0.00022035833 -0.0005050748 0.022438705 -0.0032492862
-0.0029195126 -0.003143096 -0.005972192 -0.008925955 -0.004001938 -0.002055538 -0.0023128688 -0.0038306168
-0.010339483 -0.00655656 -0.0032108463 -0.0068327 0.020182213 -0.008025427 0.02088875 -0.0033121004
-0.0057931547 -0.0043044463 -0.003248792 -0.002472098 -0.0054630693 -0.0035226443 -0.008334739 0.017369136
0.016031848 -0.005204089 -0.0075334767 -0.006279135 0.000870502 -0.002277124 0.015887203 -0.0060123387
-0.0031382253 -0.002824471 -0.0025514653 -0.010574028 -0.008881176 0.015873017 -0.002540827 0.017359748
-0.005400511 -0.0024951452 0.036665555 0.015844606 -0.0028834473 -0.006487092 -0.003771986 -0.0047532385
-0.0032027885 -0.0030887043 -0.0072538657 -0.011211739 -0.0056511154 -0.0044241026 0.015934246 -0.008997514
-0.004133787 -0.005810006 0.015873017 -0.0035544294 -0.007330491 -0.007239634 -0.0021207172 -0.00795346
-0.008791614 -0.012184907 0.0064769 -0.0066370214 -0.006878857 -0.0062655793 -0.0036638097 -0.022080801
-0.006667378 -0.0019756665 -0.0074283504 0.024574235 0.011140547 0.041897528 -0.008877507 -0.0072212964
-0.010661808 -0.0019253016 -0.0063476567 -0.007230994 -0.00094315875 0.012014911 0.009949047 0.033286143
-0.0054861293 -0.007603953 -0.0074898833 0.001287026 -0.005128604 0.015864016 -0.012948938 -0.0017492045
-0.007144853 -0.0062539023 -0.022408921 0.014108432 0.015873017 -0.008560535 0.032141935 -0.005996907
-0.0063768867 0.051449195 0.015832976 -0.007995309 0.0050297678 -0.0020855998 -0.004896397 -0.012179897
-0.0060366318 -0.0073238746 -0.03627434 -0.00725232 -0.006780486 0.015965825 -0.018803155 -0.0004432277
-0.007346516 0.015873017 -0.0030310669 -0.007376062 -0.016179672 0.0013231563 -0.0051565226 -0.0059125135
-0.005318269 0.0029152217 -0.0049678744 -0.004937185 -0.0057323975 0.00024494107 0.009530425 -0.0034107685
0.0016149618 -0.0043890257 0.022387335 0.004824694 0.020322358 -0.005767885 -0.0046191206 -0.006111761
0.0016964705 -0.005434739 -0.004785507 0.0024841863 0.00496137 0.010765543 -0.012837134 -0.0016086521
-0.0038387123 -0.004568224 -0.0041755135 -0.0053773182 0.01587302 -0.005739229 -0.008664604 -0.0060431473
-0.0054202043 0.0067018224 0.0038533143 0.015873017 -0.0014877811 -0.01130915 -0.0042675897 -0.005358735
-0.011865951 0.030255351 -0.005141515 0.004856825 0.002418483 -0.0016962393 0.018800493 -0.005302464
-0.0034503462 -0.016157417 -0.0045841094 -0.0046887887 0.020543272 -0.001611788 0.0030378334 -0.0046899556
0.015873017 0.0008445229 -0.0038654304 -0.0043834304 0.0074004745 -0.0040703123 -0.006686127 -0.006497825
00000000: e637 c339 f7bb 2c3c c367 4a3c d40a 843c
00000010: 6c38 bd3b 880a 803b 6907 1e3c 5314 d53b
00000020: 8fc3 25ba e02c 263d c3e0 c6ba 1aff 2d3a
00000030: 2a5e 8f3a 1ee8 f43c 5649 af39 68e2 14bc
00000040: d1c7 493c bd47 3bb8 3f70 703c de14 453a
00000050: 26d7 d33b 2708 093b c46b f63a fa32 f4b9
00000060: 44b2 d73b 1cd1 3d3c 09f0 a8ba 148d 5a36
00000070: c0bb 013b 41eb 07bc 2056 d93a 2108 823c
00000080: b8d6 8e3c e27b 373c b492 073c b297 c33b
00000090: d0d8 1f3d 7daf 57b7 2108 823c 19e6 abbb
000000a0: bd20 553c bcce b6ba 45da d63b df86 57bc
000000b0: bd9a 993c e92f 323c ab30 143b b518 f439
000000c0: 6333 00bb e6d7 4e3d 79a0 5a3b c05d b5b9
000000d0: 2e4d 8bbd eab9 353b a518 813b 2108 823c
000000e0: dbc6 dd3c e883 1b3b 91f1 f73a 2108 823c
000000f0: fd0f 67b9 ff66 04ba 60d1 b73c faf1 54bb
00000100: 4b55 3fbb 67fc 4dbb 61b2 c3bb 2b3e 12bc
00000110: b022 83bb 34b6 06bb 8093 17bb 160b 7bbb
00000120: ef66 29bc 69d8 d6bb 106d 52bb d8e4 dfbb
00000130: 2b55 a53c 157d 03bc e21e ab3c d30f 59bb
00000140: 81d4 bdbb 500c 8dbb afe9 54bb ec02 22bb
00000150: 8c03 b3bb 2adc 66bb 6e8e 08bc b849 8e3c
00000160: 3955 833c 1087 aabb 62db f6bb 34c1 cdbb
00000170: 6632 643a cd3b 15bb e125 823c 2703 c5bb
00000180: afaa 4dbb c31a 39bb 7c36 27bb b03e 2dbc
00000190: 5a82 11bc 2108 823c 0184 26bb 0836 8e3c
000001a0: c5f6 b0bb 9785 23bb 9f2e 163d 8ccc 813c
000001b0: 38f8 3cbb ac91 d4bb 6d33 77bb 0ec1 9bbb
000001c0: e0e5 51bb dc6b 4abb d6b1 edbb 71b1 37bc
000001d0: fe2c b9bb 10f8 90bb 8988 823c 4f6a 13bc
000001e0: b874 87bb dd61 bebb 2108 823c 6ef1 68bb
000001f0: 9e34 f0bb 743a edbb bbfb 0abb 3b4f 02bc
00000200: b40a 10bc 34a3 47bc 2d3c d43b 5f7b d9bb
00000210: 0968 e1bb 7d4f cdbb 871c 70bb cce2 b4bc
00000220: 057a dabb 2f7a 01bb 8569 f3bb e84f c93c
00000230: d786 363c be9c 2b3d f772 11bc a0a0 ecbb
00000240: ddae 2ebc 675a fcba 0100 d0bb f9f1 ecbb
00000250: 503e 77ba 30da 443c 5401 233c 0d57 083d
00000260: fdc4 b3bb 952a f9bb b26d f5bb 6db1 a83a
00000270: d90d a8bb 41f5 813c c827 54bc 9045 e5ba
00000280: 5f1f eabb 89ed ccbb ea92 b7bc 0e27 673c
00000290: 2108 823c 7c41 0cbc 43a7 033d b481 c4bb
000002a0: 34f5 d0bb 64bc 523d 28b4 813c c2fe 02bc
000002b0: c0d0 a43b 8fae 08bb f471 a0bb 318e 47bc
000002c0: f0ce c5bb 1dfd efbb 6794 14bd dfa4 edbb
000002d0: d72e debb c3ca 823c 1309 9abc 0461 e8b9
000002e0: 0bbb f0bb 2108 823c dda4 46bb e5b2 f1bb
000002f0: 3b8b 84bc c26d ad3a 0cf8 a8bb c2bd c1bb
00000300: e044 aebb 4e0d 3f3b 8dc9 a2bb 1cc8 a1bb
00000310: d6d6 bbbb 6f6b 8039 8025 1c3c 3387 5fbb
00000320: 20ad d33a d1d1 8fbb a565 b73c 7718 9e3b
00000330: 137b a63c 8700 bdbb fe5b 97bb 2b45 c8bb
00000340: 1b5c de3a e515 b2bb becf 9cbb bbcd 223b
00000350: fd92 a23b f661 303c d852 52bc 68d9 d2ba
00000360: e892 7bbb 0ab1 95bb bfd2 88bb 3734 b0bb
00000370: 2308 823c 2410 bcbb fcf5 0dbc 9805 c6bb
00000380: f89b b1bb f69a db3b e387 7c3b 2108 823c
00000390: a601 c3ba 034a 39bc 23d7 8bbb 5498 afbb
000003a0: 6869 42bc 12da f73c 277a a8bb 0026 9f3b
000003b0: 697f 1e3b 5954 deba 7e03 9a3c 4bc0 adbb
000003c0: 341f 62bb 8f5c 84bc 4c36 96bb 69a4 99bb
000003d0: 5d4a a83c a142 d3ba 6316 473b 33ae 99bb
000003e0: 2108 823c f962 5d3a 2953 7dbb e1a2 8fbb
000003f0: ae7f f23b 4160 85bb 4c17 dbbb b5eb d4bb

dnets.0.conv.weight f4 [48, 3, 7, 7]
-0.017750865 0.08887892 -0.049457338 -0.034174964 -0.0008215629 0.07138384 0.03423282 0.003562256
0.019220585 0.017931119 -0.058735017 -0.045259558 -0.049433194 0.08717179 -0.060018145 0.038173877
0.09220823 -0.07106643 0.08439888 0.022872616 0.008847487 0.01757373 0.06806804 -0.03956442
0.07503592 -0.05695327 -0.08531114 0.03195747 0.011222256 -0.04495624 -0.05351298 0.037129596
-0.050889153 -0.017161334 0.052541535 -0.05684548 0.031009844 0.08714376 -0.017875079 0.05406586
0.013059224 0.0643684 0.028308261 -0.07823315 0.05093891 -0.09709003 -0.016313752 -0.024523424
-0.04557474 0.08706245 -0.044058498 0.027244719 -0.034520444 0.014813829 0.03424163 0.026344696
0.027905695 0.024875347 -0.050101247 0.04502955 -0.045536928 -0.07544601 -0.030893816 0.003862402
0.0063274507 0.09010526 0.025455222 -0.067318276 -0.011805747 -0.07217349 0.08345197 -0.08761249
0.009228911 0.027666423 -0.0053516245 0.0065747383 -0.048337888 -0.019925589 0.017065851 -0.013367551
0.03020428 0.02227185 0.009904577 0.058750477 -0.04470774 -0.07825679 0.045863677 0.08244531
-0.07932918 0.019401655 -0.006995698 0.049519364 0.063331194 0.018725531 -0.0060194223 0.04858826
0.0656923 -0.062229667 -0.025219526 -0.038250364 -0.031296957 -0.04835462 0.05109101 0.04035658
-0.069170356 -0.060038585 -0.03642382 0.004486053 0.04376298 0.07125989 0.04313661 -0.025868695
0.025719559 0.025439845 0.013957775 -0.07498689 -0.019643947 0.08764844 0.020581832 0.03723704
-0.014124635 -0.037683234 0.117242776 -0.040129896 -0.03906173 -0.05413262 -0.04586902 -0.019963432
0.008012978 -0.043272372 -0.07861618 0.038453974 0.044611253 -0.04033208 0.030821068 -0.062326673
0.09014534 -0.055109784 0.027508778 -0.051922563 0.047751624 0.047481745 -0.019681556 -0.07476236
0.048676353 -0.03323968 0.07709259 -0.008785175 -0.07065702 0.01749074 0.0037363814 -0.037349075
0.057506785 0.03343312 0.04173932 -0.08659134 -0.095028736 -0.104793675 0.052677907 0.0313989
0.02218988 0.056926228 0.05866762 -0.0751932 0.037381623 0.034405425 -0.07324233 -0.016078481
0.068202816 0.048311114 -0.07235445 -0.086672 0.012186633 0.017692687 0.057035685 -0.07049559
0.02648038 -0.078738526 0.01621065 0.043106437 0.0080215605 0.034562167 0.050300602 -0.0121330395
-0.029077789 -0.11077939 0.006360205 -0.07491426 0.02657712 -0.030138036 0.04120492 -0.051291056
0.055677947 -0.027447613 0.07236964 0.0042975782 0.049028777 -0.05075721 -0.057046793 0.046649847
-0.02734917 0.044783406 -0.08103675 -0.029832778 0.019176481 -0.0021294614 0.019715179 -0.05529497
0.065669775 -0.05976935 0.023604825 0.03381421 0.08386603 -0.04539456 -0.022672491 0.010522447
0.013471408 0.0018015119 -0.0132884905 -0.041340236 -0.024938265 0.010403338 0.0045713577 -0.07119003
0.046797585 0.026901195 0.025432091 -0.036117975 -0.005111512 0.058474936 -0.03145308 -0.01861556
-0.09432542 0.028447457 0.012325502 -0.043290433 0.046190348 -0.033874597 0.032070536 0.00037971357
-0.06610223 0.059193693 -0.027321115 0.010069415 -0.0555066 0.058207154 -0.03961895 0.06097138
0.050553277 0.033228252 -0.038995072 -0.015179744 0.051262848 0.031633694 -0.0101387715 -0.054684505
00000000: 436a 91bc 2706 b63d c793 4abd 0cfb 0bbd
00000010: 275e 57ba b131 923d b737 0c3d bd74 693b
00000020: 7d74 9d3c 48e4 923c 2194 70bd 1662 39bd
00000030: 767a 4abd 2087 b23d 96d5 75bd 365c 1c3d
00000040: abd7 bc3d 478b 91bd 52d9 ac3d 5a5f bb3c
00000050: 0df5 103c c8f6 8f3c 4267 8b3d 4d0e 22bd
00000060: 6fac 993d d547 69bd 9bb7 aebd d6e5 023d
00000070: 8edd 373c 0924 38bd 6d30 5bbd 3415 183d
00000080: 2571 50bd ed95 8cbc cb35 573d ced6 68bd
00000090: 5b08 fe3c 6d78 b23d c26e 92bc 2a74 5d3d
000000a0: 5bf6 553c 94d3 833d bae6 e73c b438 a0bd
000000b0: 52a5 503d 23d7 c6bd 6ba4 85bc 59e5 c8bc
000000c0: 94ac 3abd cc4d b23d af76 34bd 5130 df3c
000000d0: 4f65 0dbd b4b5 723c f440 0c3d d5d0 d73c
000000e0: 7c9a e43c 62c7 cb3c f736 4dbd e870 383d
000000f0: ee84 3abd 7083 9abd 0715 fdbc 5a20 7d3b
00000100: 8156 cf3b 1b89 b83d 7887 d03c 2ade 89bd
00000110: e46c 41bc b2cf 93bd dee8 aa3d 2d6e b3bd
00000120: dc34 173c b2a4 e23c ae5c afbb e770 d73b
00000130: f3fd 45bd fd3a a3bc afcd 8b3c 9303 5bbc
00000140: f76e f73c 7473 b63c cf46 223c 57a4 703d
00000150: 771f 37bd 1945 a0bd 8ddb 3b3d 16d9 a83d
00000160: 5677 a2bd 38f0 9e3c 2b3c e5bb d1d4 4a3d
00000170: c9b3 813d 4966 993c 933e c5bb 7c04 473d
00000180: af89 863d 89e4 7ebd 2e99 cebc 6aac 1cbd
00000190: 3d31 00bd 7e0f 46bd cf44 513d f14c 253d
000001a0: 30a9 8dbd 05eb 75bd 2531 15bd bdff 923b
000001b0: cf40 333d b5f0 913d 04b0 303d 96ea d3bc
000001c0: d3b1 d23c 3967 d03c 27af 643c ba92 99bd
000001d0: 58ec a0bc 0681 b33d 3b9b a83c de85 183d
000001e0: 036b 67bc bc59 1abd fb1c f03d 3f5f 24bd
000001f0: 31ff 1fbd 2bba 5dbd 27e1 3bbd 5a8a a3bc
00000200: de48 033c 5f3e 31bd 8501 a1bd ea81 1d3d
00000210: 4aba 363d 4033 25bd 777c fc3c 414a 7fbd
00000220: 1f9e b83d ccba 61bd 175a e13c c1ac 54bd
00000230: 3597 433d 387c 423d 373b a1bc 021d 99bd
00000240: db60 473d 5526 08bd b8e2 9d3d b2ef 0fbc
00000250: a1b4 90bd be48 8f3c 14de 743b 58fb 18bd
00000260: 3c8c 6b3d 2bf1 083d d9f6 2a3d cd56 b1bd
00000270: 6d9e c2bd 119e d6bd cac4 573d 229c 003d
00000280: 8dc7 b53c 7a2b 693d 754d 703d e4fe 99bd
00000290: 791d 193d b4ec 0c3d 1300 96bd 05b7 83bc
000002a0: ebad 8b3d e0e1 453d 922e 94bd 1781 b1bd
000002b0: 72aa 473c 41f0 903c 409e 693d fe5f 90bd
000002c0: 62ed d83c aa41 a1bd 32cc 843c 6090 303d
000002d0: dd6c 033c 0f91 0d3d 0108 4e3d a8c9 46bc
000002e0: 8b34 eebc 4ee0 e2bd 4469 d03b a66c 99bd
000002f0: 43b8 d93c 0be4 f6bc 7dc6 283d 9216 52bd
00000300: 8f0e 643d d1d9 e0bc 8936 943d b3d2 8c3b
00000310: 66d2 483d cbe6 4fbd e6a9 69bd e913 3f3d
00000320: 5e0b e0bc ce6e 373d 98f6 a5bd df63 f4bc
00000330: ff17 9d3c 6f8e 0bbb ba81 a13c fa7c 62bd
00000340: e07d 863d b5d0 74bd e85e c13c c580 0a3d
00000350: f4c1 ab3d a5ef 39bd a9bb b9bc 5766 2c3c
00000360: 2eb7 5c3c b520 ec3a f8b7 59bc 6154 29bd
00000370: 554b ccbc c372 2a3c 54cb 953b 14cc 91bd
00000380: d3ae 3f3d e55f dc3c f656 d03c 71f0 13bd
00000390: 787e a7bb 6a83 6f3d f2d4 00bd a97f 98bc
000003a0: b02d c1bd a40a e93c e7f0 493c 4f51 31bd
000003b0: 1732 3d3d 17c0 0abd 655c 033d 4b14 c739
000003c0: 9b60 87bd 1675 723d 88d0 dfbc 30fa 243c
000003d0: e35a 63bd a06a 6e3d 7b47 22bd 20bd 793d
000003e0: f410 4f3d 591a 083d 4cb9 1fbd 76b4 78bc
000003f0: fef8 513d 5592 013d 171d 26bc dcfc 5fbd

dnets.1.means f4 [63]
-1.35901 2.148528 2.7374358 1.4481319 -0.58382785 0.65068334 3.022441 0.6756139
-2.5245986 0.62199825 -0.8350169 -1.7577412 -0.2751866 0.89799255 -1.1004397 -0.18622087
2.4388633 0.03995911 2.3042722 -1.7775478 0.96431655 0.26224124 -1.4509068 -1.215085
1.3268508 -1.2601953 -2.5678763 -2.2360492 0.1895831 0.09235612 0.25114712 2.527643
1.6201584 0.23384969 0.69617385 0.8465396 0.6710751 -1.0244063 -1.8314848 -0.16105494
-1.2101152 -0.17084077 1.0997932 0.61345357 -1.6734284 2.2647824 -1.143571 -2.000488
-1.0157244 1.2003666 0.37960702 -3.1785014 0.3650216 0.5538514 1.1131394 -0.97368854
0.98458594 -1.5145593 0.21159062 -1.2919494 -2.2769468 -1.0792528 1.4229546
00000000: 0af4 adbf 7c81 0940 2632 2f40 635c b93f
00000010: be75 15bf 2f93 263f ac6f 4140 08f5 2c3f
00000020: 0693 21c0 473b 1f3f abc3 55bf aafd e0bf
00000030: 42e5 8cbe d7e2 653f 35db 8cbf afb0 3ebe
00000040: 5616 1c40 2aac 233d 3279 1340 b086 e3bf
00000050: 73dd 763f 7c44 863e 50b7 b9bf e887 9bbf
00000060: 3fd6 a93f 144e a1bf 1658 24c0 6e1b 0fc0
00000070: 1222 423e 3525 bd3d 5b96 803e e7c4 2140
00000080: 5a61 cf3f 4b76 6f3e 7338 323f d2b6 583f
00000090: 94cb 2b3f bf1f 83bf 186e eabf 96eb 24be
000000a0: 0ee5 9abf e2f0 2ebe 06c6 8c3f 4b0b 1d3f
000000b0: e732 d6bf 32f2 1040 8960 92bf ff07 00c0
000000c0: 4203 82bf 9da5 993f da5b c23e 916c 4bc0
000000d0: 1ce4 ba3e 35c9 0d3f 5a7b 8e3f a743 79bf
000000e0: d30d 7c3f 14dd c1bf 36ab 583e 995e a5bf
000000f0: 7fb9 11c0 f524 8abf 6023 b63f

dnets.1.std f4 [63]
0.81777644 1.2216052 1.3076302 0.7446062 -0.28260913 1.3035167 1.659541 0.7862597
1.410538 0.28308058 1.2187035 0.95219487 1.4715812 0.24413955 0.42431846 -0.105666354
-1.2209605 0.7664222 1.05211 0.9507668 1.0638328 1.1625808 0.7473624 0.44904682
-0.38410142 -0.30462947 1.7764413 2.7656512 1.6257137 0.32505527 0.61379313 0.44296473
0.7724656 0.25324634 0.6512542 1.0335622 0.3095351 0.39639997 0.22331746 0.14758213
0.28485397 0.6738855 1.1552484 0.14073236 0.31443676 1.247363 -0.46826854 0.98366356
0.9732453 0.36739007 -0.82044554 2.9173903 0.23955627 1.9445617 1.9743601 0.002647864
-0.4600967 0.71978277 1.2360586 0.03411539 1.2359931 1.7374219 0.61931306
00000000: cc59 513f 8f5d 9c3f 6d60 a73f 839e 3e3f
00000010: 25b2 90be a3d9 a63f d76b d43f 5148 493f
00000020: 828c b43f f0ef 903e 7afe 9b3f 0bc3 733f
00000030: c65c bc3f b8ff 793e 4540 d93e 9a67 d8bd
00000040: 6f48 9cbf 3f34 443f 8aab 863f 7465 733f
00000050: ac2b 883f 73cf 943f 2453 3f3f 77e9 e53e
00000060: f1a8 c4be 65f8 9bbe 6e62 e33f 6e00 3140
00000070: 6317 d03f a56d a63e 8c21 1d3f 46cc e23e
00000080: 4ec0 453f 81a9 813e 98b8 263f c44b 843f
00000090: 627b 9e3e f0f4 ca3e 55ad 643e c51f 173e
000000a0: 61d8 913e c383 2c3f 2edf 933f 251c 103e
000000b0: dbfd a03e 97a9 9f3f e5c0 efbe 60d1 7b3f
000000c0: 9b26 793f 8d1a bc3e b808 52bf 86b6 3a40
000000d0: 3d4e 753e 66e7 f83f d5b7 fc3f c987 2d3b
000000e0: cb91 ebbe af43 383f 2b37 9e3f 94bc 0b3d
000000f0: 0635 9e3f d763 de3f 4d8b 1e3f

dnets.1.weights_rbf f4 [48, 63]
-0.017069375 0.015106944 0.02507127 0.025063107 -0.016389022 0.0041606952 0.014497838 0.01355044
-0.016838778 0.059361126 -0.012320546 -0.017348368 -0.0062825577 -0.010350648 -0.024884066 0.011612581
0.023914328 -0.0031345894 0.031712104 -0.01758783 0.011028195 -0.0001902375 -0.017666519 -0.026055075
0.014357998 -0.022491917 -0.013941627 -0.009666229 -0.002806101 0.0069233174 0.0076456806 0.015873017
0.035536703 0.058848515 0.017789872 0.010300002 0.05445888 -0.023962278 0.015873017 -0.04101334
-0.021891229 -0.00947388 0.0106239775 0.008751432 0.015889456 0.015991472 -0.023140624 -0.021925397
-0.015617886 0.048153546 0.0067646927 -0.010625154 -0.037945554 -0.0007532749 0.002472487 0.015873017
0.04393732 -0.02015262 -0.001340709 0.015873017 -0.017684378 -0.010292522 0.04597022 -0.01045966
0.010758701 0.01523642 0.013873672 -0.01935365 0.0034999375 0.010449109 0.0089497985 -0.009809424
0.019717861 -0.008403394 -0.010116678 -0.004604331 -0.0011322028 -0.020063309 0.02426435 0.014654351
-0.0013979996 0.017699162 -0.01020645 0.007838232 0.00057043094 -0.01041213 -0.020105254 0.0060799327
0.00972146 -0.008650162 -0.00650773 -0.0010707524 0.0045582494 0.005099268 0.015873024 0.018294455
0.02151795 0.011053867 0.0073230406 0.01726287 -0.020786077 0.015873017 -0.041071653 0.013028259
-0.0073067485 0.007687929 -0.0045471685 0.015710793 0.011229303 -0.017023288 -0.012832707 -0.010234376
0.0149684 0.004817145 -0.0069498746 -0.041763827 0.00024579413 0.0025377301 0.015873017 0.017349334
-0.01175212 -0.00016851875 0.015873017 -0.01019605 -0.007057199 0.021096926 -0.003622693 0.00042920603
-1.3336628e-06 -0.0010201083 -0.01604935 -0.00060131116 0.00060988165 5.4451863e-05 -0.0021936947 -0.0032862439
-0.0003233966 -0.0035222676 0.00056549173 0.020812465 -0.014518617 0.021946298 4.459767e-05 0.00056769577
-0.0007852367 -0.003617706 -0.00019419397 -0.0002157279 -0.0048991647 -0.014421631 -0.0067198523 0.017964888
-0.0010257124 1.8226647e-05 -7.019868e-05 0.0004361636 -0.0003662916 0.015868079 -0.0017534598 -0.004964649
0.00039816764 -0.00029149733 -0.0046615684 -0.01567389 0.015873017 0.0091424575 0.018627211 0.0017662283
-0.0002025472 0.015213324 0.015901597 0.00048995716 -0.011984664 -0.004405227 -0.0016944343 -0.002306706
-0.0006097366 -1.8862496e-05 -0.020196697 -0.00026015003 -0.00031934807 0.015873017 -0.004478632 -0.0059750034
-0.00025113157 0.015873017 -0.0027264392 1.1478903e-05 -0.0035511937 -0.0053501073 0.0025821547 0.0047796746
0.0045993165 -0.0073458613 0.0005470286 0.0033687574 -0.0006776118 -0.00520768 0.023171894 -0.0032304313
-0.0050736526 -9.8344535e-06 0.01694491 -0.0059529534 0.04236865 0.0043516336 -0.0008529167 0.006144857
-0.005036146 0.000906749 -0.00044951434 -0.0047248797 -0.004949443 -0.031104054 0.12950021 -0.0046522776
-0.0019515281 0.00032057904 -0.009195909 -0.0032670172 0.015873 0.006945863 -0.029877229 -0.0016901046
0.0006693629 0.020672617 -0.0050358847 0.015841505 -0.031080166 0.13756852 -0.00060950906 0.0012103071
-0.09867309 -0.0061458643 0.002893559 -0.005853503 -0.0056334357 -0.0049737394 0.06471567 -0.0010005101
-0.0025815645 -0.12726024 0.00049832894 0.0008419946 0.00796083 0.011903778 -0.0043025264 -0.00025488046
0.011894932 -0.005200839 -0.0021957345 0.011915385 -0.012731965 0.01113571 0.017104255 0.015326389
00000000: 13d5 8bbc 1e83 773c 4462 cd3c 2551 cd3c
00000010: 4542 86bc 7156 883b 5788 6d3c aa02 5e3c
00000020: 7af1 89bc a724 733d 1edc 49bc 2a1e 8ebc
00000030: eadd cdbb c495 29bc abd9 cbbc b242 3e3c
00000040: fbe7 c33c af6d 4dbb 8de4 013d 5a14 90bc
00000050: 9aaf 343c 7d7a 47b9 60b9 90bc 7471 d5bc
00000060: cf3d 6b3c f840 b8bc 6c6b 64bc 1a5f 1ebc
00000070: 90e6 37bb ffdc e23b 9e88 fa3b 2108 823c
00000080: ef8e 113d 240b 713d 11bc 913c 57c1 283c
00000090: 4610 5f3d 8a4c c4bc 2108 823c 9bfd 27bd
000000a0: 3c55 b3bc 5538 1bbc 3110 2e3c 2b62 0f3c
000000b0: 9b2a 823c 8c00 833c 6891 bdbc e49c b3bc
000000c0: 29e2 7fbc a73c 453d 5baa dd3b 2015 2ebc
000000d0: cc6c 1bbd 6c77 45ba 7309 223b 2108 823c
000000e0: 9ff7 333d 1b17 a5bc bbba afba 2108 823c
000000f0: d4de 90bc f7a1 28bc 454b 3c3d fe5e 2bbc
00000100: 4345 303c 2da2 793c 664e 633c 8c8b 9ebc
00000110: 355f 653b bd32 2b3c 2da2 123c b5b7 20bc
00000120: 5a87 a13c 64ae 09bc 6cc0 25bc eedf 96bb
00000130: 6c66 94ba cf5b a4bc 08c6 c63c ce18 703c
00000140: 153d b7ba d5fd 903c f438 27bc ee6b 003c
00000150: f988 153a a397 2abc c6b3 a4bc 2c3a c73b
00000160: c246 1f3c 69b9 0dbc cc3e d5bb 7d58 8cba
00000170: 5e5d 953b c317 a73b 2508 823c 41de 953c
00000180: 6946 b03c 471b 353c 1ef6 ef3b dd6a 8d3c
00000190: 9047 aabc 2108 823c c03a 28bd 7b74 553c
000001a0: 736d efbb 06eb fb3b 6a00 95bb ecb3 803c
000001b0: 1cfb 373c 6c74 8bbc 4640 52bc 16ae 27bc
000001c0: 053e 753c 24d9 9d3b c6bb e3bb 8c10 2bbd
000001d0: eedd 8039 0c50 263b 2108 823c 3120 8e3c
000001e0: f78b 40bc 68b4 30b9 2108 823c 550d 27bc
000001f0: 1340 e7bb 76d3 ac3c b46a 6dbb 0f07 e139
00000200: 4e00 b3b5 28b5 85ba ed79 83bc 4fa1 1dba
00000210: 77e0 1f3a 3e63 6438 17c4 0fbb 065e 57bb
00000220: 8f8d a9b9 d8d5 66bb 823d 143a e77e aa3c
00000230: 7edf 6dbc b9c8 b33c 620e 3b38 6bd1 143a
00000240: 58d8 4dba 0917 6dbb 8ca0 4bb9 0435 62b9
00000250: 2c89 a0bb b448 6cbc 3532 dcbb 1a2b 933c
00000260: 3271 86ba 6de5 9837 a137 93b8 e3ac e439
00000270: d40a c0b9 c6fd 813c 59d4 e5ba 7fae a2bb
00000280: 28c1 d039 1cd4 98b9 12c0 98bb 8866 80bc
00000290: 2108 823c 3fca 153c 1898 983c ca80 e73a
000002a0: da62 54b9 4e41 793c 1144 823c 7870 003a
000002b0: 535b 44bc b959 90bb c817 deba 1b2c 17bb
000002c0: bbd6 1fba e73a 9eb7 8b73 a5bc bf64 88b9
000002d0: 2c6e a7b9 2108 823c 7dc1 92bb f6c9 c3bb
000002e0: 4faa 83b9 2108 823c 0fae 32bb 8395 4037
000002f0: 25bb 68bb f44f afbb 5e39 293b d19e 9c3b
00000300: ddb5 963b 8db5 f0bb 7866 0f3a 5fc6 5c3b
00000310: c2a1 31ba 30a5 aabb fcd2 bd3c a5b5 53bb
00000320: e240 a6bb a8fe 24b7 0dd0 8a3c fe10 c3bb
00000330: c08a 2d3d 2698 8e3b 4596 5fba cc5a c93b
00000340: 4106 a5bb e5b2 6d3a cbac ebb9 2ad3 9abb
00000350: f02e a2bb eecd febc b49b 043e 2272 98bb
00000360: 6bca ffba 6413 a839 70aa 16bc 741b 56bb
00000370: 1808 823c 1f9a e33b 17c1 f4bc 8086 ddba
00000380: 2f78 2f3a 9f59 a93c 1004 a5bb 0bc6 813c
00000390: d59b febc c3de 0c3e 76c7 1fba 2ba3 9e3a
000003a0: 1e15 cabd 3f63 c9bb dda1 3d3b bece bfbb
000003b0: af98 b8bb c0fa a2bb a689 843d 8c23 83ba
000003c0: 772f 29bb 8250 02be 4aa2 023a 4db9 5c3a
000003d0: 246e 023c 1008 433c 35fc 8cbb 7aa1 85b9
000003e0: f6e2 423c cd6b aabb 50e6 0fbb bf38 433c
000003f0: bb99 50bc 8e72 363c 391e 8c3c 891b 7b3c

dnets.1.conv.weight f4 [48, 3, 7, 7]
0.07033524 -0.04044149 0.03499048 -0.075520456 -0.04628531 0.06513153 0.053468738 -0.032686744
-0.12121517 -0.026305389 0.042068888 -0.05827714 0.036892507 -0.018482428 0.011559101 0.054845642
0.03579327 0.07377848 0.01404332 0.026048945 -0.016179722 -0.0557616 -0.04306361 0.04759306
-0.004146459 -0.08117419 0.06399071 0.06454007 -0.033882942 0.054550204 0.055489127 0.014772013
-0.012615148 -0.039816678 -0.075576544 0.07510605 -0.06976165 0.020784527 -0.020085854 -0.10472536
-0.0032748797 0.04648692 0.011203045 -0.0624245 -0.0734061 0.053306464 0.0974364 -0.008275187
-0.014249607 -0.01400807 -0.018234735 0.0052627185 0.05220997 0.04961412 -0.030649867 -0.013709835
-0.03790528 0.070630506 0.09351329 -0.05653445 0.056444712 -0.006761844 -0.086594 -0.01706139
-0.023238935 0.067456536 -0.080685236 -0.093132965 0.015144944 -0.018661745 0.042907745 0.030167429
-0.023206761 -0.01445735 0.09470096 -0.022058563 0.021761315 -0.072705254 -0.06942436 -0.020616807
0.06247095 0.028432736 0.09320537 0.068785116 -0.020113591 0.043436192 0.07347265 -0.0625925
0.0155695565 -0.10749477 -0.0019376253 -0.02706372 0.026232507 0.0032814173 -0.029027682 -0.059957117
0.0024991012 0.019068893 -0.03281016 0.028937925 -0.01835844 0.053361963 -0.007533564 -0.014807693
-0.023778426 0.01647592 0.049419776 -0.07887691 0.0066635427 -0.0025263235 -0.055154588 0.10636935
-0.0025030752 0.042316478 -0.09355839 0.038857527 0.02968173 0.03424972 -0.038250074 -0.006030129
-0.008903266 -0.02660548 0.0025370133 -0.023141883 -0.033033643 -0.0047037853 0.032659497 0.08399276
-0.067121804 -0.005324109 -0.005324418 -0.05731682 -0.032693736 -0.015795814 -0.029005026 -0.08245008
0.07669293 0.026576987 0.043150086 0.01703973 0.008827742 0.01910518 0.079082236 -0.08520648
0.015563298 0.0221136 -0.0071609532 -0.0006760601 -0.049127117 -0.026004763 0.07381083 -0.06602416
0.0331413 -0.055562448 0.03996433 0.005630884 0.07229789 0.0049832044 0.028527886 0.008757469
-0.059454195 -0.08878839 0.0673265 -0.082359605 0.04778332 -0.097047314 0.054438427 0.04240747
-0.0013062522 -0.03954459 0.021717897 0.00061975187 -0.0055191456 -0.009655529 -0.033760097 -0.033238195
-0.03551104 0.057053532 0.041075606 0.049146865 -0.006456435 -0.056062944 0.035418343 -0.017944377
0.0113649415 -0.053861696 0.014046577 0.028394816 0.08605828 0.02582468 0.053558815 -0.06132181
-0.049171396 -0.06681741 0.055004057 -0.04759922 -0.05201386 -0.040922858 3.0932537e-05 -0.012972808
-0.03774708 -0.013688046 0.08368254 0.0050671403 0.05372426 0.016059093 -0.0232555 -0.07759727
0.07730958 -0.067883894 0.07984612 0.01171211 0.026344694 0.024521776 0.0050071836 -0.058430426
-0.057649758 0.032602094 -0.093845576 0.059144206 -0.00989937 -0.090971135 0.062440373 0.05335885
0.065610394 0.07892541 -0.07075925 0.050977293 -0.09733484 0.007160802 -0.03644458 -0.0016729798
0.018856535 0.069194354 0.059682295 -0.09557271 0.024439791 -0.06348972 -0.08088047 -0.06265135
0.067785524 0.001035015 0.01575695 0.06328068 0.015994137 0.07006551 0.06339283 0.028174762
-0.08444313 0.029109498 -0.049097326 0.022956926 -0.039158117 -0.07075199 -0.023464046 0.05604071
00000000: ec0b 903d faa5 25bd 2d52 0f3d 78aa 9abd
00000010: aa95 3dbd ae63 853d 0902 5b3d 89e2 05bd
00000020: a93f f8bd 667e d7bc 6d50 2c3d 03b4 6ebd
00000030: 991c 173d 7668 97bc 6262 3d3c d3a5 603d
00000040: f79b 123d 2c19 973d f415 663c 9964 d53c
00000050: 568b 84bc 4766 64bd 7863 30bd f1f0 423d
00000060: 05df 87bb a73e a6bd 900d 833d 962d 843d
00000070: d7c8 0abd 0970 5f3d 9148 633d 5006 723c
00000080: c4af 4ebc d016 23bd e0c7 9abd 33d1 993d
00000090: 32df 8ebd 5044 aa3c 178b a4bc 407a d6bd
000000a0: 5d9f 56bb 1269 3e3d fa8c 373c d5b0 7fbd
000000b0: f055 96bd e157 5a3d bc8c c73d a694 07bc
000000c0: 2f77 69bc 1b82 65bc 0361 95bc e272 ac3b
000000d0: 1fda 553d 2d38 4b3d 6e15 fbbc 379f 60bc
000000e0: 9142 1bbd baa6 903d e583 bf3d ab90 67bd
000000f0: 9232 673d 7592 ddbb 3258 b1bd 54c4 8bbc
00000100: 945f bebc a726 8a3d 4d3e a5bd 7fbc bebd
00000110: 8022 783c 84e0 98bc 08c0 2f3d af21 f73c
00000120: 1b1c bebc 85de 6cbc 94f2 c13d 29b4 b4bc
00000130: c944 b23c 7ee6 94bd 5c2e 8ebd 94e4 a8bc
00000140: 8ae1 7f3d c5eb e83c 75e2 be3d 36df 8c3d
00000150: 42c5 a4bc 26ea 313d d478 963d 7f30 80bd
00000160: 7417 7f3c 3826 dcbd ebf7 fdba bcb4 ddbc
00000170: 8ee5 d63c 0c0d 573b 76cb edbc 9895 75bd
00000180: f6c7 233b 5e36 9c3c f263 06bd 3a0f ed3c
00000190: 7064 96bc 1392 5a3d 1edc f6bb f79b 72bc
000001a0: f9ca c2bc 82f8 863c 646c 4a3d 388a a1bd
000001b0: d959 da3b ad90 25bb c7e9 61bd 2cd8 d93d
000001c0: a20a 24bb 0b54 2d3d 8b9b bfbd 1229 1f3d
000001d0: 1927 f33c 6f49 0c3d 1cac 1cbd 6398 c5bb
000001e0: 01df 11bc bcf3 d9bc 0544 263b 0c94 bdbc
000001f0: 494e 07bd 3622 9abb f7c5 053d 6504 ac3d
00000200: 2877 89bd dd75 aebb 7578 aebb 0bc5 6abd
00000210: dee9 05bd 3966 81bc f39b edbc 96db a8bd
00000220: 2f11 9d3d fbb7 d93c 25be 303d e796 8b3c
00000230: 3ca2 103c 7782 9c3c def5 a13d bc80 aebd
00000240: 34fd 7e3c 9527 b53c 6ea6 eabb a039 31ba
00000250: 8439 49bd f107 d5bc 222a 973d ad37 87bd
00000260: 2cbf 073d 7395 63bd a3b1 233d 4783 b83b
00000270: eb10 943d 264a a33b 50b3 e93c 7d7b 0f3c
00000280: 3e86 73bd b0d6 b5bd 7ae2 893d 27ac a8bd
00000290: 71b8 433d bec0 c6bd d4fa 5e3d 75b3 2d3d
000002a0: 8d36 abba 82f9 21bd bbe9 b13c d876 223a
000002b0: f3d9 b4bb 3932 1ebc 0748 0abd c624 08bd
000002c0: 0674 11bd f7b0 693d e53e 283d 394e 493d
000002d0: 8190 d3bb 42a2 65bd d312 113d 1600 93bc
000002e0: 0534 3a3c 159e 5cbd 9d23 663c 3f9c e83c
000002f0: 533f b03d 488e d33c 7d60 5b3d 942c 7bbd
00000300: f267 49bd 91d7 88bd ef4b 613d 66f7 42bd
00000310: 7c0c 55bd ba9e 27bd 8fbd 0138 e78b 54bc
00000320: af9c 1abd d343 60bc c061 ab3d 410a a63b
00000330: f80d 5c3d 5c8e 833c 5182 bebc 51eb 9ebd
00000340: 7c54 9e3d b606 8bbd 5d86 a33d 26e4 3f3c
00000350: d4d0 d73c e4e1 c83c 4d13 a43b be54 6fbd
00000360: 2722 6cbd c689 053d 1c32 c0bd 3241 723d
00000370: f830 22bc 134f babd 7ac1 7f3d cf8e 5a3d
00000380: be5e 863d a5a3 a13d 3aea 90bd 91cd 503d
00000390: 7d57 c7bd 29a5 ea3b e946 15bd e347 dbba
000003a0: 0579 9a3c c5b5 8d3d 6c75 743d a0bb c3bd
000003b0: f535 c83c e606 82bd a9a4 a5bd 5a4f 80bd
000003c0: 23d3 8a3d 57a9 873a b814 813c 4d99 813d
000003d0: 2306 833c 827e 8f3d 1ad4 813d c2ce e63c
000003e0: 85f0 acbd 0b77 ee3c 471a 49bd 2a10 bc3c
000003f0: 4364 20bd 6be6 90bd ac37 c0bc f28a 653d

dnets.2.means f4 [63]
-1.35901 2.148528 2.7374358 1.4481319 -0.58382785 0.65068334 3.022441 0.6756139
-2.5245986 0.62199825 -0.8350169 -1.7577412 -0.2751866 0.89799255 -1.1004397 -0.18622087
2.4388633 0.03995911 2.3042722 -1.7775478 0.96431655 0.26224124 -1.4509068 -1.215085
1.3268508 -1.2601953 -2.5678763 -2.2360492 0.1895831 0.09235612 0.25114712 2.527643
1.6201584 0.23384969 0.69617385 0.8465396 0.6710751 -1.0244063 -1.8314848 -0.16105494
-1.2101152 -0.17084077 1.0997932 0.61345357 -1.6734284 2.2647824 -1.143571 -2.000488
-1.0157244 1.2003666 0.37960702 -3.1785014 0.3650216 0.5538514 1.1131394 -0.97368854
0.98458594 -1.5145593 0.21159062 -1.2919494 -2.2769468 -1.0792528 1.4229546
00000000: 0af4 adbf 7c81 0940 2632 2f40 635c b93f
00000010: be75 15bf 2f93 263f ac6f 4140 08f5 2c3f
00000020: 0693 21c0 473b 1f3f abc3 55bf aafd e0bf
00000030: 42e5 8cbe d7e2 653f 35db 8cbf afb0 3ebe
00000040: 5616 1c40 2aac 233d 3279 1340 b086 e3bf
00000050: 73dd 763f 7c44 863e 50b7 b9bf e887 9bbf
00000060: 3fd6 a93f 144e a1bf 1658 24c0 6e1b 0fc0
00000070: 1222 423e 3525 bd3d 5b96 803e e7c4 2140
00000080: 5a61 cf3f 4b76 6f3e 7338 323f d2b6 583f
00000090: 94cb 2b3f bf1f 83bf 186e eabf 96eb 24be
000000a0: 0ee5 9abf e2f0 2ebe 06c6 8c3f 4b0b 1d3f
000000b0: e732 d6bf 32f2 1040 8960 92bf ff07 00c0
000000c0: 4203 82bf 9da5 993f da5b c23e 916c 4bc0
000000d0: 1ce4 ba3e 35c9 0d3f 5a7b 8e3f a743 79bf
000000e0: d30d 7c3f 14dd c1bf 36ab 583e 995e a5bf
000000f0: 7fb9 11c0 f524 8abf 6023 b63f

dnets.2.std f4 [63]
0.81777644 1.2216052 1.3076302 0.7446062 -0.28260913 1.3035167 1.659541 0.7862597
1.410538 0.28308058 1.2187035 0.95219487 1.4715812 0.24413955 0.42431846 -0.105666354
-1.2209605 0.7664222 1.05211 0.9507668 1.0638328 1.1625808 0.7473624 0.44904682
-0.38410142 -0.30462947 1.7764413 2.7656512 1.6257137 0.32505527 0.61379313 0.44296473
0.7724656 0.25324634 0.6512542 1.0335622 0.3095351 0.39639997 0.22331746 0.14758213
0.28485397 0.6738855 1.1552484 0.14073236 0.31443676 1.247363 -0.46826854 0.98366356
0.9732453 0.36739007 -0.82044554 2.9173903 0.23955627 1.9445617 1.9743601 0.002647864
-0.4600967 0.71978277 1.2360586 0.03411539 1.2359931 1.7374219 0.61931306
00000000: cc59 513f 8f5d 9c3f 6d60 a73f 839e 3e3f
00000010: 25b2 90be a3d9 a63f d76b d43f 5148 493f
00000020: 828c b43f f0ef 903e 7afe 9b3f 0bc3 733f
00000030: c65c bc3f b8ff 793e 4540 d93e 9a67 d8bd
00000040: 6f48 9cbf 3f34 443f 8aab 863f 7465 733f
00000050: ac2b 883f 73cf 943f 2453 3f3f 77e9 e53e
00000060: f1a8 c4be 65f8 9bbe 6e62 e33f 6e00 3140
00000070: 6317 d03f a56d a63e 8c21 1d3f 46cc e23e
00000080: 4ec0 453f 81a9 813e 98b8 263f c44b 843f
00000090: 627b 9e3e f0f4 ca3e 55ad 643e c51f 173e
000000a0: 61d8 913e c383 2c3f 2edf 933f 251c 103e
000000b0: dbfd a03e 97a9 9f3f e5c0 efbe 60d1 7b3f
000000c0: 9b26 793f 8d1a bc3e b808 52bf 86b6 3a40
000000d0: 3d4e 753e 66e7 f83f d5b7 fc3f c987 2d3b
000000e0: cb91 ebbe af43 383f 2b37 9e3f 94bc 0b3d
000000f0: 0635 9e3f d763 de3f 4d8b 1e3f

dnets.2.weights_rbf f4 [48, 63]
-0.0022499836 0.011597738 0.014439239 0.018040631 0.0052066958 0.0024839449 0.010508082 0.0070434143
-0.0023856089 0.05081229 -0.0018284322 -0.0018353355 0.00094391406 -0.0298027 0.011542522 0.05778798
0.014394171 0.0005227876 0.017169166 -0.0017738508 0.0063380823 0.0006704332 -0.0007643844 0.013244012
-0.07511185 0.12633516 -0.001960089 3.567795e-05 0.0004707245 -0.0030269653 0.0016841281 0.015867528
0.019820645 -0.00085299247 0.0097067235 0.005670345 0.04638894 0.01454272 0.01587141 -0.040099397
0.13615832 -0.002509893 0.0063133016 -0.09964986 -0.0053971764 0.012146878 0.005686432 -0.0021719786
-0.0034528584 0.044667218 0.0026550773 -0.00034993782 -0.109381236 0.0009609264 0.0021735223 0.0022033334
0.029685378 -0.00019669149 0.0005472353 0.015872963 -0.002354194 -0.00042855713 0.023983454 -0.0017105797
0.0026985756 0.0031121855 0.0019601106 0.0046313917 0.00031587514 0.002720264 0.00095227757 -0.0008886328
-0.009033236 -0.0004379382 -0.0015118707 0.00036206984 0.007934076 0.005347765 0.016716657 0.002924566
0.00018138904 0.0030700509 -0.0015092595 0.0010340599 3.787375e-05 -0.0018628325 0.0058801747 0.010016565
0.022441214 -0.0004901792 0.00012195683 0.00036085385 0.0015584476 0.0002010272 0.016398827 0.0019312402
0.0036817705 0.0014070824 0.0008307338 -0.007408858 0.0063621434 0.015873017 -0.0026751086 0.021813186
0.00026238317 0.0011278933 -0.009615956 0.015874159 0.0027924934 0.0020057135 -0.0010680974 -0.0011372707
-0.004997828 9.812044e-05 0.0001229991 -0.023812927 0.00040560332 0.0005964803 0.015873017 -0.002148351
-0.0016351161 0.00014492906 0.015873017 -0.0010888148 -1.97017e-05 0.00051100994 -0.00046058692 0.0058711437
0.0048061875 0.0076776645 0.019301385 0.0030059519 0.005595186 0.0038053514 -0.00073802937 0.020037953
-0.0014321016 -0.00017082613 0.0008515998 -0.06991381 0.0052673263 0.07084289 0.0052729477 0.0002407691
0.0042830394 -8.4044616e-05 0.003956391 0.0022948221 0.0004291974 0.0049708835 -0.08950996 0.068812765
-0.0012726052 -0.0004510918 0.0025194166 -0.004596864 0.00013347044 0.015623943 0.005484331 -0.0044822386
0.0049276208 0.0036676957 0.021822974 0.008239414 0.017336877 -0.027665565 0.07110072 -0.0018375103
0.0040522837 -0.041783348 0.016590081 0.0060027223 0.002812122 0.0004877679 -0.0018154444 -0.01800759
0.0018773068 -0.0006913842 -0.07124576 0.0029741349 0.0033614512 0.00904913 0.01223296 0.0010063276
0.0023579698 0.017242428 -0.00049216463 -0.0007681974 0.0034764046 -0.0022960692 0.0019683908 0.0014213384
-0.0009775766 -0.003891466 0.0011004622 0.0025463535 0.0021972952 -0.0022010596 -0.022044128 -0.00231784
-0.002122419 -0.0010495433 -0.039963 0.0002890175 0.07332569 0.0014305218 -0.001011161 4.997028e-06
-0.0021367995 0.0020461788 0.00013020604 -0.0020721243 0.00085823564 0.0063326317 0.031043632 -0.0020935307
-0.0016140928 -0.00016732587 0.0022169154 0.001493354 0.015843656 -0.0018055004 0.0101686735 0.0022589029
0.0019621407 -0.018598521 0.0012359378 0.015873017 -0.015949786 0.0322002 -0.0023721408 0.0020552312
0.009047577 0.015921265 0.0019658045 -0.0018033567 -0.0027161408 -0.002714174 -0.035407458 0.001315175
-0.0016913137 -0.039651286 0.0002970557 0.0010051781 0.015873017 -0.008628575 -0.0023710867 -4.599186e-05
0.015873017 -0.002249071 -0.0018761256 -0.005899258 -0.037063565 0.024776727 0.03323354 0.040911816
00000000: 7674 13bb 7004 3e3c 8f92 6c3c f2c9 933c
00000010: ee9c aa3b aec9 223b 172a 2c3c 71cc e63b
00000020: e057 1cbb 8c20 503d 01a8 efba a48f f0ba
00000030: 0071 773a cb24 f4bc d91c 3d3c 17b3 6c3d
00000040: 87d5 6b3c af0b 093a 5aa6 8c3c 8e80 e8ba
00000050: b0af cf3b 03c0 2f3a f860 48ba 6afd 583c
00000060: 3ed4 99bd 015e 013e d674 00bb e8a4 1538
00000070: 93cb f639 0d60 46bb f6bd dc3a 9efc 813c
00000080: e85e a23c 5b9b 5fba f308 1f3c 4dce b93b
00000090: 5402 3e3d 9744 6e3c c204 823c 443f 24bd
000000a0: 166d 0b3e 047d 24bb d0df ce3b 3a15 ccbd
000000b0: ccda b0bb b303 473c 4055 ba3b c157 0ebb
000000c0: 5a49 62bb f9f4 363d ce00 2e3b dc77 b7b9
000000d0: 4503 e0bd aee6 7b3a a771 0e3b cd65 103b
000000e0: c02e f33c f83e 4eb9 5774 0f3a 0408 823c
000000f0: d248 1abb f7af e0b9 f378 c43c 8835 e0ba
00000100: 96da 303b cff5 4b3b 3375 003b eec2 973b
00000110: 0b9c a539 7546 323b 44a2 793a 23f3 68ba
00000120: 2300 14bc 129b e5b9 f629 c6ba 31d4 bd39
00000130: edfd 013c 4e3c af3b 5ff1 883c 13aa 3f3b
00000140: 4033 3e39 e832 493b 58d2 c5ba 4b89 873a
00000150: a1da 1e38 492a f4ba 7bae c03b 851c 243c
00000160: a3d6 b73c 5f7f 00ba 13c3 ff38 fc30 bd39
00000170: d344 cc3a d4ca 5239 d556 863c ab21 fd3a
00000180: dc49 713b da6d b83a 9ac5 593a 01c6 f2bb
00000190: 8779 d03b 2108 823c e050 2fbb 91b1 b23c
000001a0: 7990 8939 d2d5 933a 3e8c 1dbc 860a 823c
000001b0: 4402 373b 4a72 033b 67ff 8bba 7910 95ba
000001c0: d2c4 a3bb 03c6 cd38 52f9 0039 5413 c3bc
000001d0: 28a7 d439 1e5d 1c3a 2108 823c 59cb 0cbb
000001e0: 6451 d6ba 19f8 1739 2108 823c 90b6 8eba
000001f0: 1445 a5b7 4cf5 053a ee7a f1b9 b962 c03b
00000200: 397d 9d3b eb94 fb3b f01d 9e3c 81ff 443b
00000210: d257 b73b 3463 793b 5078 41ba a226 a43c
00000220: 5bb5 bbba ca1f 33b9 e53d 5f3a f92e 8fbd
00000230: 8999 ac3b 1416 913d b1c8 ac3b f776 7c39
00000240: bd58 8c3b 1c41 b0b8 9da4 813b ba64 163b
00000250: e605 e139 cbe2 a23b ff50 b7bd b5ed 8c3d
00000260: 8bcd a6ba 8480 ecb9 cc1c 253b 4aa1 96bb
00000270: 33f4 0b39 91fb 7f3c e7b5 b33b bedf 92bb
00000280: e177 a13b b95d 703b 18c6 b23c 9bfe 063c
00000290: 1106 8e3c e5a2 e2bc 419d 913d 9dd8 f0ba
000002a0: 05c9 843b 0425 2bbd ece7 873c 7cb2 c43b
000002b0: 944b 383b 19bb ff39 35f4 edba a784 93bc
000002c0: f70f f63a 023e 35ba 4ce9 91bd b4e9 423b
000002d0: cb4b 5c3b cd42 143c c16c 483c c0e6 833a
000002e0: 2b88 1a3b fe3f 8d3c 9c04 01ba db60 49ba
000002f0: 64d4 633b a679 16bb 1e00 013b 344c ba3a
00000300: 0722 80ba f707 7fbb 623d 903a b9e0 263b
00000310: 7f00 103b a73f 10bb e395 b4bc e7e6 17bb
00000320: 4818 0bbb d490 89ba 3eb0 23bd 4687 9739
00000330: c82b 963d 5980 bb3a ef88 84ba 25ac a736
00000340: 8c09 0cbb 2f19 063b eb87 0839 7acc 07bb
00000350: 38fb 603a f781 cf3b 374f fe3c 9e33 09bb
00000360: f88f d3ba 3274 2fb9 ab49 113b a5bc c33a
00000370: 8eca 813c 8aa6 ecba 829a 263c 1a0a 143b
00000380: 4297 003b ed5b 98bc 31ff a13a 2108 823c
00000390: 20a9 82bc 5be4 033d eb75 1bbb 0fb1 063b
000003a0: 4a3c 143c 506d 823c bad4 003b 9c5e ecba
000003b0: 4801 32bb 49e0 31bb 6907 11bd f361 ac3a
000003c0: 12af ddba 6369 22bd 24be 9b39 2ec0 833a
000003d0: 2108 823c de5e 0dbc 3c64 1bbb 62e7 40b8
000003e0: 2108 823c 2665 13bb 54e8 f5ba 904e c1bb
000003f0: f7cf 17bd 90f8 ca3c e41f 083d 2693 273d

dnets.2.conv.weight f4 [48, 3, 7, 7]
-0.07146236 -0.109520696 -0.0775938 -0.0068731825 -0.008749902 -0.080109835 -0.0005248562 0.05664783
-0.025609463 0.11221111 0.042986367 0.0042909835 0.06402038 0.00020035842 0.044711094 0.02298562
0.081740454 -0.0460603 -0.028782075 0.0047061234 -0.062593 0.0446687 0.03279281 0.019112613
-0.033228286 0.010110772 0.0053481814 0.02253627 -0.0555268 -0.04501309 0.064395405 -0.07720674
-0.01199482 0.01905532 0.03462608 0.06779241 -0.0018721557 -0.07085782 0.07730378 -0.039269358
0.003397337 0.02494514 -0.056306697 0.05933926 0.052697435 0.006222745 0.0056878827 -0.03423331
-0.02367593 -0.035729133 -0.08946543 -0.10536912 0.05849099 -0.055152886 -0.07626876 -0.011455772
-0.061534777 -0.0412835 0.109914124 -0.008688082 0.081645526 0.07692826 0.064947836 -0.04480108
0.07079482 0.10136176 0.014556852 -0.027829139 -0.051937133 0.04460344 0.049517997 -0.0048743594
-0.0072058304 0.039478343 -0.03931735 0.017604334 -0.013172061 0.07436886 -0.0070824586 -0.0803898
0.050405752 -0.042757727 0.009066078 0.036603358 -0.033908688 -0.012415244 -0.037039112 0.03256445
0.031103944 -0.02413634 -0.007195524 0.0027125294 -0.012858972 0.047647737 -0.04255808 0.025761036
-0.053943586 0.010798244 -0.058502126 -0.10788517 -0.029250892 0.08242525 0.044657666 -0.024892952
-0.05137534 0.0075256 0.0037683777 0.08921086 -0.013598379 -0.049207445 0.030115156 0.040625677
-0.018921401 0.023807408 0.08353791 -0.01704946 0.016940493 -0.052871536 -0.0222255 0.04433568
0.057681017 -0.063516624 -0.07616657 0.07011285 -0.04578498 -0.07448009 0.070024565 0.066677965
-0.02918746 -0.057955284 0.06341234 0.049112838 0.05027938 -0.035342716 0.07532194 -0.055837184
-0.045093976 0.059588112 -0.041588776 -0.0697012 -0.03277711 -0.05834883 0.015690347 -0.01103385
-0.027734851 0.050887104 0.06630281 0.029195528 0.00021602957 0.00026805556 0.059519507 -0.008601007
-0.020022202 0.013886565 0.007281341 -0.06305964 0.0401895 0.0009078044 0.04763033 -0.028362056
0.009931857 -0.017471615 0.02912404 0.06349956 0.03799979 0.030798554 0.015741453 0.02684312
0.053682573 0.021710686 -0.056270897 0.0631615 -0.03877267 -0.08095604 0.033971444 0.02956526
0.0036767563 -0.036930438 0.0443138 0.02342338 -0.03889269 0.018612599 -0.056462873 0.0125612095
0.0014458761 0.037835244 -0.04860296 0.042632714 0.041629717 -0.08275174 -0.037933346 -0.05947899
-0.07916447 -0.08515097 0.04936825 -0.04859586 0.07225745 -0.005491527 0.059313074 -0.06305698
-0.05027281 0.08497056 -0.06987841 -0.0021862497 0.024046537 0.02910705 -0.03548351 0.041715022
-0.053386208 0.06163692 0.008816524 -0.008692156 -0.0058653736 0.003264571 -0.05195065 0.040149655
0.06019555 -0.036704734 -0.06021205 -0.08517615 0.010953952 0.00730945 -0.02651414 -0.028463408
0.033627033 0.00728331 0.015297454 0.054925483 0.05355589 -0.06314169 -0.03710983 0.08071761
-0.010566103 0.06822034 -0.02246465 -0.016086847 -0.06168406 -0.027672378 -0.037950363 -0.04283306
0.04573163 -0.020635609 -0.024130985 0.013689658 0.07683209 0.02725668 -0.040731046 -0.037424583
-0.001068139 -0.05947092 -0.027905695 0.025354149 -0.04885389 0.059916597 -0.050845087 0.03158409
00000000: dc5a 92bd 634c e0bd 80e9 9ebd 6f38 e1bb
00000010: c05b 0fbc a010 a4bd 8196 09ba 8e07 683d
00000020: f0ca d1bc f0ce e53d 7912 303d 619b 8c3b
00000030: 1e1d 833d 4e17 5239 fb22 373d 574c bc3c
00000040: 8a67 a73d baa9 3cbd 63c8 ebbc d335 9a3b
00000050: c230 80bd 87f6 363d c151 063d 0e92 9c3c
00000060: 621a 08bd a7a7 253c cc3f af3b fc9d b83c
00000070: 1270 63bd a55f 38bd bde1 833d 911e 9ebd
00000080: ec85 44bc e719 9c3c 14d4 0d3d bfd6 8a3d
00000090: 1f63 f5ba e81d 91bd 7251 9e3d e8d8 20bd
000000a0: dba5 5e3b c059 cc3c daa1 66bd b90d 733d
000000b0: 44d9 573d 2be8 cb3b 6b61 ba3b 3a38 0cbd
000000c0: 06f4 c1bc b658 12bd a739 b7bd c4cb d7bd
000000d0: 4094 6f3d fee7 61bd cc32 9cbd feb0 3bbc
000000e0: e40b 7cbd e318 29bd a81a e13d 7558 0ebc
000000f0: c535 a73d 908c 9d3d 5f03 853d 5681 37bd
00000100: e0fc 903d c196 cf3d dd7f 6e3c eff9 e3bc
00000110: 08bc 54bd 19b2 363d 62d3 4a3d 17b9 9fbb
00000120: e31e ecbb 0bb4 213d 3b0b 21bd f736 903c
00000130: a1cf 57bc b34e 983d f813 e8bb 68a3 a4bd
00000140: 4376 4e3d ba22 2fbd e389 143c 67ed 153d
00000150: d6e3 0abd 4f69 4bbc 53b6 17bd 4d62 053d
00000160: b3cd fe3c 93b9 c5bc 6ec8 ebbb b1c4 313b
00000170: 70ae 52bc 462a 433d 6251 2ebd cf08 d33c
00000180: f3f3 5cbd 1eeb 303c ed9f 6fbd e6f2 dcbd
00000190: 919f efbc 92ce a83d f5ea 363d 4eec cbbc
000001a0: f36e 52bd 4f99 f63b e3f6 763b 2fb4 b63d
000001b0: bccb 5ebc bf8d 49bd 0fb4 f63c 1c67 263d
000001c0: 0e01 9bbc c107 c33c ec15 ab3d 4fab 8bbc
000001d0: cac6 8a3c d38f 58bd 4012 b6bc 5499 353d
000001e0: ee42 6c3d 0115 82bd 38fd 9bbd 5397 8f3d
000001f0: 0889 3bbd 0489 98bd 0a69 8f3d 758e 883d
00000200: 8a1a efbc 8562 6dbd 54de 813d 8b2a 493d
00000210: c0f1 4d3d 86c3 10bd 6442 9a3d 88b5 64bd
00000220: 76b4 38bd aa12 743d fe58 2abd 81bf 8ebd
00000230: 4a41 06bd 2fff 6ebd 0b89 803c 52c7 34bc
00000240: 3334 e3bc ff6e 503d c5c9 873d 762b ef3c
00000250: ff85 6239 cf89 8c39 baca 733d 3deb 0cbc
00000260: 9a05 a4bc 7a84 633c 5198 ee3b 6a25 81bd
00000270: bf9d 243d b9f9 6d3a 0518 433d 8b57 e8bc
00000280: 3ab9 223c a220 8fbc 8a95 ee3c 0f0c 823d
00000290: aba5 1b3d 404d fc3c 38f4 803c 1ae6 db3c
000002a0: 42e2 5b3d 9cda b13c 507c 66bd d15a 813d
000002b0: 17d0 1ebd 48cc a5bd a425 0b3d d832 f23c
000002c0: bcf5 703b 5f44 17bd 6382 353d 63e2 bf3c
000002d0: f14d 1fbd 7379 983c 9d45 67bd 88cd 4d3c
000002e0: 8d83 bd3a 21f9 1a3d e613 47bd a49f 2e3d
000002f0: ec83 2a3d bf79 a9bd ff5f 1bbd 3ea0 73bd
00000300: fb20 a2bd a263 aebd 5d36 4a3d 740c 47bd
00000310: b7fb 933d 44f2 b3bb 44f2 723d 0524 81bd
00000320: ddea 4dbd 0c05 ae3d 691c 8fbd 2f47 0fbb
00000330: 3efd c43c e871 ee3c 2857 11bd 5fdd 2a3d
00000340: 7fab 5abd ff76 7c3d 2f73 103c 8b69 0ebc
00000350: 5232 c0bb 6af2 553b 34ca 54bd f773 243d
00000360: 9c8f 763d b457 16bd e9a0 76bd d570 aebd
00000370: 3478 333c 1c84 ef3b 2f34 d9bc 182c e9bc
00000380: 80bc 093d d5a8 ee3b 2ca2 7a3c 8bf9 603d
00000390: 6c5d 5b3d 6e50 81bd 7a00 18bd 464f a53d
000003a0: 731d 2dbc 1bb7 8b3d c907 b8bc 90c8 83bc
000003b0: 6da8 7cbd 2fb1 e2bc d771 1bbd b871 2fbd
000003c0: 1751 3b3d 020c a9bc 58ae c5bc 964a 603c
000003d0: 255a 9d3d 6749 df3c 99d5 26bd 854a 19bd
000003e0: cc00 8cba c897 73bd 7c9a e4bc 81b3 cf3c
000003f0: 041b 48bd 1b6b 753d f042 50bd 525e 013d

dnets.3.means f4 [63]
-1.35901 2.148528 2.7374358 1.4481319 -0.58382785 0.65068334 3.022441 0.6756139
-2.5245986 0.62199825 -0.8350169 -1.7577412 -0.2751866 0.89799255 -1.1004397 -0.18622087
2.4388633 0.03995911 2.3042722 -1.7775478 0.96431655 0.26224124 -1.4509068 -1.215085
1.3268508 -1.2601953 -2.5678763 -2.2360492 0.1895831 0.09235612 0.25114712 2.527643
1.6201584 0.23384969 0.69617385 0.8465396 0.6710751 -1.0244063 -1.8314848 -0.16105494
-1.2101152 -0.17084077 1.0997932 0.61345357 -1.6734284 2.2647824 -1.143571 -2.000488
-1.0157244 1.2003666 0.37960702 -3.1785014 0.3650216 0.5538514 1.1131394 -0.97368854
0.98458594 -1.5145593 0.21159062 -1.2919494 -2.2769468 -1.0792528 1.4229546
00000000: 0af4 adbf 7c81 0940 2632 2f40 635c b93f
00000010: be75 15bf 2f93 263f ac6f 4140 08f5 2c3f
00000020: 0693 21c0 473b 1f3f abc3 55bf aafd e0bf
00000030: 42e5 8cbe d7e2 653f 35db 8cbf afb0 3ebe
00000040: 5616 1c40 2aac 233d 3279 1340 b086 e3bf
00000050: 73dd 763f 7c44 863e 50b7 b9bf e887 9bbf
00000060: 3fd6 a93f 144e a1bf 1658 24c0 6e1b 0fc0
00000070: 1222 423e 3525 bd3d 5b96 803e e7c4 2140
00000080: 5a61 cf3f 4b76 6f3e 7338 323f d2b6 583f
00000090: 94cb 2b3f bf1f 83bf 186e eabf 96eb 24be
000000a0: 0ee5 9abf e2f0 2ebe 06c6 8c3f 4b0b 1d3f
000000b0: e732 d6bf 32f2 1040 8960 92bf ff07 00c0
000000c0: 4203 82bf 9da5 993f da5b c23e 916c 4bc0
000000d0: 1ce4 ba3e 35c9 0d3f 5a7b 8e3f a743 79bf
000000e0: d30d 7c3f 14dd c1bf 36ab 583e 995e a5bf
000000f0: 7fb9 11c0 f524 8abf 6023 b63f
