models/s_p_joint5.pth (torch, 115607 bytes, 32 tensors)

dnets.0.means f4 [63]
0	0x3d07de53	0.03317101
1	0x3f895ea9	1.0732013
2	0xbfecb282	-1.8491976
3	0x3fdca13b	1.7236704
4	0xc0184c7d	-2.3796685
5	0xbf8cb3a6	-1.0992324
6	0xbf241654	-0.6409657
7	0xbf9b1dd5	-1.2118479
8	0x400efbb4	2.2341127
9	0x3f9cac1c	1.2240024
10	0x3f86ed64	1.0541196
11	0xc01eba48	-2.4801197
12	0x3ffc65ac	1.9718528
13	0x3dbf8dae	0.09353195
14	0xbfacd7c5	-1.3503348
15	0xc01d062f	-2.4535024
16	0xbf8c0ab4	-1.0940766
17	0xbeeb98bc	-0.46014965
18	0xbf83f73d	-1.0309826
19	0xbffbd485	-1.9674231
20	0xbf6764a2	-0.9038793
21	0xbff09e85	-1.8798376
22	0x3f91d602	1.1393435
23	0xbfa03783	-1.2516941
24	0x3fc53ef3	1.5409836
25	0xbeec7a00	-0.4618683
26	0xbe46d741	-0.1941805
27	0x3e376ec5	0.17913349
28	0xbe2f5682	-0.17122844
29	0xbfbc542d	-1.4713188
30	0xbf26e1f2	-0.65188515
31	0xbf7356e4	-0.9505446
32	0x3fbf1801	1.49292
33	0x3f690391	0.91021067
34	0x3fa662e3	1.2998928
35	0xbee46be4	-0.44613564
36	0xc0091765	-2.142053
37	0xbf41c336	-0.75688493
38	0xbf349e78	-0.70554304
39	0xbfe0de9b	-1.7567934
40	0x3f2df147	0.67946285
41	0xbf64eb81	-0.8942185
42	0x3f92758f	1.1442126
43	0xbfc2cf1f	-1.5219458
44	0x3edf52df	0.43617913
45	0x3e84fd34	0.2597443
46	0xbe4f4d5a	-0.20244351
47	0x4039dba6	2.9040313
48	0x3df1f237	0.11813777
49	0xbdd35f06	-0.10320859
50	0x3f81c575	1.0138384
51	0x3f294b3f	0.6613044
52	0x3ebf4254	0.37355292
53	0xbfc2b996	-1.5212886
54	0x403a18ce	2.907764
55	0xbf24ebf0	-0.6442251
56	0x40112061	2.2676013
57	0x3fe4b250	1.7866917
58	0xbf6511bd	-0.8948019
59	0xbf0392fe	-0.5139617
60	0xc0321006	-2.782228
61	0xbf193cbe	-0.5985831
62	0x3f614ae6	0.8800491

dnets.0.std f4 [63]
0	0x3d1737c9	0.036918435
1	0xbe8522a3	-0.26002988
2	0x3fa00d9b	1.2504152
3	0x3f8332ff	1.0249938
4	0x4010cc2f	2.2624624
5	0xbedf6c7e	-0.4363746
6	0x3fa214d1	1.2662603
7	0x3f4c5f40	0.7983284
8	0x3fa0a443	1.2550129
9	0x40202f90	2.502903
10	0x3f0b60be	0.5444449
11	0x3e672330	0.22572017
12	0x3fe079ce	1.7537172
13	0xbe6a4eff	-0.22881697
14	0x3f57238c	0.84038615
15	0x3fbac0fe	1.4590147
16	0x3f1e7075	0.61890346
17	0x3fae038f	1.3594836
18	0x3f2830c4	0.6569941
19	0x3f97ace8	1.1849642
20	0xbefe71be	-0.49696153
21	0xbf8c2b6a	-1.0950749
22	0x3faf550e	1.3697832
23	0x3f492dc6	0.7858547
24	0x3fad9bac	1.3563132
25	0x3ea931bb	0.33045754
26	0x3e543c22	0.20726064
27	0x3f917a50	1.1365452
28	0x3eaec81f	0.34137055
29	0x3f666bb6	0.90008104
30	0x3ee647fb	0.44976792
31	0x3f1bc6e8	0.6085038
32	0x3fb94594	1.4474359
33	0xbfb5ee34	-1.4213319
34	0x3f8a5e66	1.0810058
35	0x3f76e344	0.9644053
36	0x3e4c416a	0.19946828
37	0x3efc5483	0.49283227
38	0xbe88a991	-0.2669187
39	0x3f8c074b	1.0939726
40	0x3f165047	0.58716244
41	0x3f13f1fe	0.57791126
42	0x4006e239	2.1075575
43	0x3faf49c2	1.3694384
44	0x3e3ef8b2	0.18649557
45	0x3dd86a99	0.10567207
46	0x3fc659a0	1.5496101
47	0x404212bf	3.0323942
48	0x3db6610f	0.08905231
49	0x3fe24ca7	1.7679642
50	0xbef9f423	-0.48819074
51	0x3ea40402	0.32034308
52	0x3f3dcd0b	0.74140996
53	0x3fed3b96	1.8533809
54	0x401b5c07	2.427492
55	0x3f60d7b9	0.87829167
56	0x3f819c6c	1.0125861
57	0x4029e266	2.6544433
58	0xbf03267d	-0.51230603
59	0xbe99c94e	-0.30036396
60	0x403ed5c5	2.9817975
61	0x3f95c565	1.1700865
62	0x3fdcd251	1.7251683

dnets.0.weights_rbf f4 [24, 63]
0	0xbc90b24d	-0.017663145
1	0x3ee8fd5c	0.45505798
2	0xbcd37151	-0.02581087
3	0x3d7e666e	0.062109403
4	0xbc924a43	-0.017857676
5	0xbe030a19	-0.1279682
6	0xbca2974b	-0.019847533
7	0xbce03973	-0.027371144
8	0x3d81b2bb	0.06332918
9	0x3c7afeed	0.015319568
10	0x3df14341	0.11780406
11	0x3c820821	0.015873017
12	0x3d049669	0.032370005
13	0xbc0ed102	-0.0087168235
14	0xbcf0cadd	-0.029393608
15	0xbce22b5e	-0.02760857
16	0xbd353745	-0.044242162
17	0xbc7bbce8	-0.015364863
18	0xbd0c176c	-0.034202024
19	0xbceb5caf	-0.028730718
20	0xbd596781	-0.053077225
21	0xbd04c189	-0.032411132
22	0x3cd25aca	0.025678057
23	0xbcecfcfd	-0.028929228
24	0x3d0e7096	0.03477534
25	0xbca52f0e	-0.020164039
26	0x3bcead9e	0.006307318
27	0x3b75c457	0.003750106
28	0xbc59a940	-0.013284981
29	0xbd039fd8	-0.03213486
30	0xbcf71cf5	-0.030165175
31	0xbcf14437	-0.029451473
32	0x3cff80e4	0.03118939
33	0x3ca518fa	0.020153511
34	0x3d1d62a2	0.03842414
35	0xbcc08517	-0.023500962
36	0x3c820821	0.015873017
37	0xbd13cd4e	-0.036084466
38	0xbe3978fc	-0.18112558
39	0xbce2a137	-0.027664764
40	0x3d04f2f5	0.032458264
41	0xbd0eb749	-0.034842763
42	0x3c8b8930	0.01703319
43	0xbcc0dc66	-0.023542594
44	0x3d9ae4c0	0.07563162
45	0x3a94065a	0.0011293397
46	0xbbc23457	-0.0059266496
47	0x3cc15bd2	0.023603354
48	0xbcc75eb7	-0.024337156
49	0xba307a8a	-0.0006732127
50	0x3e565e0a	0.2093431
51	0x3e145c54	0.14488345
52	0x3c406c81	0.011744619
53	0xbc90c9a7	-0.01767428
54	0x3cfd3491	0.030908855
55	0xbccd8424	-0.025087424
56	0x3e0d045e	0.13771197
57	0x3c9a1c12	0.018812213
58	0xbd43693d	-0.047707785
59	0xbd89b6f5	-0.067243494
60	0xbc57bed4	-0.013168056
61	0xbcadaa3f	-0.021199344
62	0x3c87fca0	0.016599953
63	0xbb2ab55a	-0.0026048035
64	0xbc1768ef	-0.009241327
65	0x3c4499b6	0.011999538
66	0xbc5cc3bf	-0.013474404
67	0x3c686d55	0.014186223
68	0x3d37c0c5	0.044861574
69	0x3c65f86e	0.014036281
70	0x3c0ecca7	0.008715785
71	0xbc4ce482	-0.012505652
72	0xbc8b2271	-0.016984196
73	0xbcbff03d	-0.023429984
74	0x3c820832	0.015873048
75	0xbc6f2ea9	-0.014598527
76	0x3d0a84c9	0.03381804
77	0x3bf8a939	0.0075885323
78	0x3c2cf67d	0.010556814
79	0xbbbf40c8	-0.00583658
80	0x3c709cf8	0.014685862
81	0xbb531ab0	-0.0032211952
82	0x3c198f8f	0.009372606
83	0xbbfe432a	-0.0077594714
84	0x3b8cb74a	0.0042943107
85	0xbc4758e1	-0.0121671865
86	0x3bfdc71d	0.0077446834
87	0xbc4caf07	-0.012492902
88	0xbc99b737	-0.018764121
89	0xbcbc73d2	-0.023004446
90	0xbba3fdb1	-0.0050046076
91	0xbb8a3272	-0.0042174393
92	0x3b75b12d	0.0037489638
93	0xbc506f13	-0.012721795
94	0x3b66bc8e	0.0035207602
95	0xbc55ea74	-0.013056386
96	0xbc47a44a	-0.012185166
97	0xbc28043d	-0.010254917
98	0x3c58bdd5	0.013228853
99	0x3c823e8a	0.015898962
100	0xbc529f19	-0.012855315
101	0x3ded10eb	0.115754925
102	0x3c2c111f	0.010502129
103	0x3ac46b41	0.0014985577
104	0xbbe73595	-0.007055948
105	0xbc837bc8	-0.016050234
106	0x3c51afff	0.012798308
107	0x3d257c96	0.040402018
108	0x3d179e6b	0.037016314
109	0x3c2252c9	0.009907433
110	0xbc925fc6	-0.017867934
111	0x3c0024de	0.00782129
112	0x39a31313	0.00031103994
113	0xbb64b547	-0.0034898089
114	0xbc5423a4	-0.0129479505
115	0x3b35fe25	0.002776989
116	0x3c67a7ad	0.014139098
117	0xbc83dce8	-0.016096547
118	0x3c25c613	0.010118025
119	0xbb39011d	-0.0028229423
120	0xbc90c3b1	-0.017671438
121	0xbc1d208a	-0.009590277
122	0xbcff9a26	-0.031201433
123	0x3c62ce65	0.013843154
124	0x3c614905	0.013750319
125	0xbc67b0af	-0.014141246
126	0xbbfd3cde	-0.007728203
127	0xbc51aeda	-0.0127980355
128	0x3c5dfc15	0.013548871
129	0xbc4f48f5	-0.012651672
130	0x3c1a6cf8	0.009425394
131	0x3d3d65a7	0.04623952
132	0x3b9c0772	0.0047616297
133	0x3c45336b	0.012036185
134	0xbc4a2594	-0.012338061
135	0xbab128f4	-0.0013516233
136	0xbc91019f	-0.017700968
137	0x3c82084c	0.015873097
138	0xbbefbe92	-0.007316419
139	0xbc3a8654	-0.011384565
140	0x3c715ac7	0.014731116
141	0x3c8a1161	0.01685399
142	0x3ca6576f	0.020305363
143	0x3b5312fb	0.0032207358
144	0x3c6addde	0.014335124
145	0x3c8be20c	0.017075561
146	0x3c7c1362	0.015385481
147	0x3caaca7c	0.020848505
148	0xbbf45cd8	-0.007457357
149	0x3c5d9deb	0.01352642
150	0xbc137fdc	-0.009002652
151	0x3af09fc9	0.0018358167
152	0x3c0f8a70	0.008761033
153	0xbb5f04c1	-0.0034029933
154	0x3b6dc0ad	0.0036278174
155	0x3c94ddbb	0.018172136
156	0x3b9c04ff	0.004761338
157	0x3c2fb075	0.010723223
158	0xbc04910e	-0.008091224
159	0xbbc6312f	-0.0060483436
160	0xbc2c24db	-0.010506834
161	0x3b4e21a3	0.0031453155
162	0x3c84ad89	0.01619603
163	0x3bfe7285	0.0077651166
164	0xbb088c43	-0.0020835556
165	0x3c7a310b	0.015270482
166	0xbc43af25	-0.011943613
167	0x3c3f52af	0.011677428
168	0xbb2e217d	-0.0026570254
169	0x3c2a34d5	0.010388573
170	0xbcf1587c	-0.029461138
171	0xbc83dec0	-0.016097426
172	0x3ac2591d	0.0014827583
173	0xbb462072	-0.0030231741
174	0xbc81a6ad	-0.015826548
175	0x3aacccdf	0.0013183615
176	0xbccefb73	-0.025266385
177	0xbcd57017	-0.026054425
178	0xbc1cce03	-0.009570601
179	0x3c036491	0.008019582
180	0xbbb98abd	-0.005662291
181	0x3bae6a44	0.0053227264
182	0xbc8e4019	-0.017364549
183	0xbb0b2d1f	-0.002123661
184	0x3c678081	0.014129759
185	0xbb78f3c2	-0.0037987088
186	0x3c03a63b	0.008035238
187	0x3b94a09b	0.004535747
188	0xbb749b21	-0.003732391
189	0xbcf07e7d	-0.02935719
190	0x3e99831e	0.29982847
191	0xbc77ed41	-0.015132249
192	0x3d52594b	0.051354688
193	0xbc06a7e1	-0.008218736
194	0xbdc17951	-0.094469674
195	0xbc332bdf	-0.010935753
196	0xbc8c6fdc	-0.017143182
197	0x3d539cff	0.051663395
198	0x3c3738dc	0.01118299
199	0x3dcd70ce	0.100312814
200	0x3c820821	0.015873017
201	0x3cd00083	0.025390869
202	0xbc8841f2	-0.016633008
203	0xbc9aa3ba	-0.018876899
204	0xbc894ad0	-0.016759306
205	0xbd0e459e	-0.03473436
206	0xbc0248cf	-0.007951929
207	0xbcd95e2a	-0.026534159
208	0xbc93f0ba	-0.018059123
209	0xbd337988	-0.043817073
210	0xbcb774e7	-0.02239461
211	0x3ca438d8	0.020046636
212	0xbc962e59	-0.018332647
213	0x3ce5375c	0.027980499
214	0xbcd2e489	-0.02574374
215	0xbc937499	-0.017999934
216	0x3ad0a0e3	0.0015917089
217	0xbcafb728	-0.02144964
218	0xbcb7bb90	-0.022428304
219	0xbcebfd7e	-0.028807398
220	0xbca3a0a4	-0.01997406
221	0x3ccaaabf	0.024739621
222	0x3c788f11	0.015170828
223	0x3d027a57	0.031854954
224	0xbc72c145	-0.014816587
225	0x3c820821	0.015873017
226	0xbd04d883	-0.032433044
227	0xbe1a3582	-0.15059474
228	0xbc8a6aff	-0.016896723
229	0x3cfd5844	0.030925877
230	0xbceaf738	-0.028682336
231	0x3c4c6471	0.012475119
232	0xbc5af740	-0.013364613
233	0x3de5719e	0.112033114
234	0x3d34114c	0.043961808
235	0xbb24fe12	-0.0025175852
236	0x3c909dce	0.017653372
237	0xbcc288f0	-0.023746938
238	0x3a2030ce	0.0006110788
239	0x3e26a18b	0.16272561
240	0x3e0e1613	0.13875608
241	0x3c11cf3b	0.008899505
242	0xbc0a350c	-0.008435499
243	0x3cc30fd2	0.023811255
244	0xbc8beaae	-0.017079677
245	0x3dd7ffe8	0.10546857
246	0x3c6341c0	0.0138706565
247	0xbd22f4f9	-0.039784405
248	0xbda41c81	-0.08013249
249	0xbba2c446	-0.0049672453
250	0xbc478344	-0.012177292
251	0x3c466052	0.0121079255
252	0xbcc3e5dc	-0.023913316
253	0x3e837299	0.2567337
254	0xbc244e44	-0.010028426
255	0x3d471eef	0.048613485

dnets.0.conv.weight f4 [24, 3, 5, 5]
0	0x3ca00f19	0.01953845
1	0xbc918dc2	-0.01776779
2	0x3cc30b5c	0.023809128
3	0x3c1ef360	0.00970158
4	0x3c9c09b3	0.019047594
5	0xbcd5f5a4	-0.026118107
6	0xbccbaf19	-0.024863767
7	0xbd0b66ac	-0.034033462
8	0xbc5da591	-0.013528244
9	0x3c39a45f	0.011330693
10	0xbdc77030	-0.09738195
11	0x3e4081d6	0.18799528
12	0x3ec332a9	0.38124588
13	0x3b84ce26	0.004052895
14	0xbd6a9fa3	-0.057281148
15	0xbd03d6f7	-0.03218743
16	0xbcac1a6b	-0.02100869
17	0xbddffc69	-0.10936815
18	0xbd051607	-0.03249171
19	0x3c8a6eb5	0.016898492
20	0xbd41b5e0	-0.04729259
21	0xbd3bdcb0	-0.04586476
22	0x3ca0d45b	0.019632509
23	0xbd041be6	-0.03225317
24	0xbcd86f38	-0.02642022
25	0xbc037c7a	-0.008025283
26	0xbcb9fc24	-0.022703238
27	0xbda74d69	-0.08169062
28	0xbba8fc8d	-0.0051570595
29	0xbc98f6ec	-0.018672429
30	0x3c70f553	0.014706927
31	0xbbc6d039	-0.0060673025
32	0xbd62bb29	-0.05535427
33	0x3c89b7bd	0.016811246
34	0x3c17df21	0.009269507
35	0xbd2cf2c9	-0.042223725
36	0xbd945b3e	-0.072439656
37	0xbdeac324	-0.11463001
38	0x3e2557ba	0.16146746
39	0xbd5f0d59	-0.05445609
40	0x3c3922dc	0.011299815
41	0x3b8fc33f	0.004387289
42	0x3dbafca7	0.09130221
43	0x3cb68086	0.022278082
44	0x3ca10013	0.019653356
45	0x3bf022b9	0.007328358
46	0xbc8bdf3b	-0.017074218
47	0x3d9c8c63	0.07643964
48	0xbb7d5522	-0.003865548
49	0x3cc17f72	0.023620341
50	0xbcac83dd	-0.021058971
51	0x3b884979	0.0041591492
52	0xbc9aa11e	-0.018875655
53	0x3ca2d762	0.019878093
54	0xbd067238	-0.03282377
55	0x3b18bcbb	0.0023305852
56	0x39b61725	0.0003473099
57	0x3da4716f	0.08029448
58	0xbd107c29	-0.03527466
59	0x3ba77684	0.0051105637
60	0xbc88c2f4	-0.016694523
61	0x3dbc1171	0.09183014
62	0xbe3c2218	-0.1837238
63	0x3ce402b6	0.027833324
64	0xbda3d629	-0.07999832
65	0x3c170145	0.009216611
66	0x3ce9fffd	0.028564448
67	0x3d9ab43c	0.07553908
68	0xbbf0b483	-0.0073457374
69	0xbc476b7e	-0.012171624
70	0xbc0fc8dc	-0.008775916
71	0xba8059b1	-0.0009792355
72	0x3c6a0c2d	0.0142851295
73	0xbd16f7bc	-0.03685735
74	0x3bb108a7	0.005402643
75	0xbd07a5a7	-0.033116963
76	0xbb581e87	-0.003297718
77	0xbc99303c	-0.018699758
78	0x3c8f774d	0.017512942
79	0xbd0478ab	-0.03234164
80	0xbca9c987	-0.020725979
81	0xbd4c0ea1	-0.04981864
82	0xbdb7ac0d	-0.08968363
83	0xbda90a5a	-0.082539275
84	0xbd001c71	-0.031277124
85	0x3c6dacc2	0.014506521
86	0xbd7d4db1	-0.06184167
87	0xbe018ee1	-0.1265216
88	0xbdb741a1	-0.089480646
89	0xbd33fb2b	-0.043940704
90	0x3cba1836	0.022716623
91	0x3d977544	0.073954135
92	0x3d409a87	0.04702237
93	0x3dbc4873	0.09193506
94	0x3d33996b	0.043847483
95	0x3d2fc640	0.042913675
96	0x3d96767f	0.0734682
97	0x3db8cd97	0.09023588
98	0x3dc2e0eb	0.09515556
99	0x3d5d5f8f	0.05404621
100	0xbd0a14ce	-0.033711247
101	0xbb3ff366	-0.0029289364
102	0xbc03e411	-0.008049981
103	0x3be8d37d	0.0071052895
104	0xbca08b64	-0.019597717
105	0xbcfb5d20	-0.030684054
106	0xbd0b4997	-0.034005728
107	0xbdd8a342	-0.10578014
108	0xbd72b1cc	-0.05925159
109	0xbd3e7b6b	-0.04650442
110	0x3c7b50fa	0.015339131
111	0xbd608588	-0.054814845
112	0xbe1196b6	-0.14217648
113	0xbd8ef206	-0.06979756
114	0xbd729635	-0.05922528
115	0x3d0e4a37	0.034738746
116	0x3d6ccd6c	0.057813093
117	0x3d757337	0.05992433
118	0x3da2a6c0	0.07941961
119	0x3d561a41	0.05227113
120	0x3d2144c2	0.039372213
121	0x3d91ffa7	0.0712884
122	0x3dd41d2e	0.10357128
123	0x3daa5ccb	0.0831848
124	0x3d4e43cf	0.050357636
125	0xbd1d326b	-0.03837816
126	0x3b336aba	0.0027376846
127	0x3c993e03	0.018706327
128	0xbc3b9e8a	-0.011451373
129	0xbc77dc7c	-0.015128251
130	0xbb9c8591	-0.0047766645
131	0xbd523c61	-0.051327113
132	0xbdcbe32d	-0.0995544
133	0xbd4b0b41	-0.04957128
134	0xbd248da0	-0.040174127
135	0x3c25a0fa	0.010109181
136	0xbd5d2299	-0.053988073
137	0xbe0679a7	-0.13132344
138	0xbd9c405d	-0.07629464
139	0xbd3d4851	-0.046211544
140	0x3cb78f52	0.022407208
141	0x3d9115e3	0.07084253
142	0x3d3f52d5	0.046709854
143	0x3db20dcf	0.0869404
144	0x3d2cf494	0.042225435
145	0x3d1177f4	0.035514787
146	0x3d8236d1	0.06358112
147	0x3dbfd0ed	0.09366021
148	0x3d96179f	0.07328724
149	0x3d49d31f	0.049273606
150	0x3c94cb8c	0.018163465
151	0xbc0304a8	-0.007996716
152	0x3d5fba73	0.05462117
153	0x39627a44	0.00021598587
154	0x3d00865f	0.031378146
155	0x3d93650e	0.07197009
156	0xbc839d3c	-0.016066186
157	0x3c38d7c2	0.011281909
158	0x3dc9bb60	0.09850192
159	0x3d9b7e55	0.07592455
160	0xba8adff1	-0.0010595304
161	0x3dabb09b	0.08383294
162	0x3cc4faa9	0.024045305
163	0x3d0533ae	0.03251999
164	0x3d363b82	0.044490345
165	0x3c4ef4e5	0.01263163
166	0xbde8fe9e	-0.113766894
167	0xbdc2b069	-0.09506304
168	0xbd4480e1	-0.04797447
169	0xbd502741	-0.050818685
170	0x3d992929	0.07478554
171	0xbd8f34c4	-0.06992486
172	0xbda19526	-0.07889776
173	0xbd965a1c	-0.07341406
174	0xbddeabfa	-0.10872646
175	0x3d3b972b	0.045798462
176	0x3dbb27e4	0.09138468
177	0xbd154107	-0.036438968
178	0x3d789ec9	0.060698304
179	0xbd230e26	-0.039808415
180	0xbceb698b	-0.02873685
181	0xbd89f64b	-0.0673643
182	0xbba5e554	-0.0050627384
183	0x3c4cc9bb	0.012499268
184	0x3af0c9f2	0.0018370731
185	0xbcfb06b6	-0.030642848
186	0xbd49fbec	-0.049312517
187	0xbd09c54f	-0.033635434
188	0x3d8506e9	0.06495459
189	0x3d974ca3	0.07387664
190	0x3d68fb1c	0.0568801
191	0xbdb6d3e7	-0.08927136
192	0xbd6ea0c2	-0.05825878
193	0xbd843350	-0.064550996
194	0x3d675a7e	0.056482784
195	0xbdcc1def	-0.09966647
196	0x3a1b24ef	0.00059182843
197	0x3b18ccb6	0.0023315377
198	0x3dbe4be9	0.092918225
199	0x3dfbe47e	0.12299441
200	0xbdb0a959	-0.086260505
201	0xbd547c81	-0.05187655
202	0xbd2412d3	-0.040057015
203	0x3c8f16c0	0.017466903
204	0xbccd5ee8	-0.025069669
205	0xbcbc1db0	-0.022963375
206	0xbdb1b42b	-0.086769424
207	0xbdbc48f4	-0.09193602
208	0x3e00f0f5	0.12591918
209	0x3d55ee49	0.0522292
210	0x3d033ee0	0.032042384
211	0x3dd2747c	0.10276124
212	0xbd3de168	-0.046357542
213	0x3d681dcf	0.056669053
214	0x3cb7e36c	0.02244731
215	0x39c1108b	0.00036824154
216	0xbd8960cd	-0.067079164
217	0x3da6746f	0.08127677
218	0xbdaa3838	-0.08311504
219	0x3db402ee	0.08789621
220	0xbc3a9451	-0.0113879
221	0xbd5f1350	-0.054461777
222	0x3d5a987d	0.05336808
223	0xbd1b1999	-0.03786621
224	0x3c656300	0.014000654
225	0xbc3d2a10	-0.011545673
226	0xbcc23dcf	-0.023711113
227	0xbc0e9260	-0.008701891
228	0xbbd1a17b	-0.006397424
229	0x3ba5099b	0.0050365455
230	0x3ce86273	0.028367257
231	0x3c8e5dd7	0.01737873
232	0x3ca36e43	0.019950038
233	0x3d1960af	0.03744572
234	0x3c801aa4	0.015637703
235	0x3c2d09a8	0.010561384
236	0x3d07bb55	0.033137638
237	0xbe8ce4b3	-0.27518234
238	0x3d110441	0.035404447
239	0xbd1450b3	-0.036209773
240	0xbc3d21bf	-0.01154369
241	0x3d5beb7d	0.053691376
242	0xbc701bd5	-0.014655073
243	0xbc9bd8c7	-0.019024266
244	0x3d1003a0	0.035159707
245	0x3bafaac7	0.0053609344
246	0xbd5073b0	-0.05089158
247	0x3d34b5dd	0.04411875
248	0x3d0157c1	0.03157783
249	0xbd12453b	-0.035710555
250	0xbc6b5abb	-0.014364894
251	0x3bde5d4a	0.0067860233
252	0xbdc4a7f2	-0.096023455
253	0xbbf1d55b	-0.0073801703
254	0xbcf84457	-0.030306024
255	0xbbca7ec4	-0.0061796624

dnets.1.means f4 [63]
0	0x3d07de53	0.03317101
1	0x3f895ea9	1.0732013
2	0xbfecb282	-1.8491976
3	0x3fdca13b	1.7236704
4	0xc0184c7d	-2.3796685
5	0xbf8cb3a6	-1.0992324
6	0xbf241654	-0.6409657
7	0xbf9b1dd5	-1.2118479
8	0x400efbb4	2.2341127
9	0x3f9cac1c	1.2240024
10	0x3f86ed64	1.0541196
11	0xc01eba48	-2.4801197
12	0x3ffc65ac	1.9718528
13	0x3dbf8dae	0.09353195
14	0xbfacd7c5	-1.3503348
15	0xc01d062f	-2.4535024
16	0xbf8c0ab4	-1.0940766
17	0xbeeb98bc	-0.46014965
18	0xbf83f73d	-1.0309826
19	0xbffbd485	-1.9674231
20	0xbf6764a2	-0.9038793
21	0xbff09e85	-1.8798376
22	0x3f91d602	1.1393435
23	0xbfa03783	-1.2516941
24	0x3fc53ef3	1.5409836
25	0xbeec7a00	-0.4618683
26	0xbe46d741	-0.1941805
27	0x3e376ec5	0.17913349
28	0xbe2f5682	-0.17122844
29	0xbfbc542d	-1.4713188
30	0xbf26e1f2	-0.65188515
31	0xbf7356e4	-0.9505446
32	0x3fbf1801	1.49292
33	0x3f690391	0.91021067
34	0x3fa662e3	1.2998928
35	0xbee46be4	-0.44613564
36	0xc0091765	-2.142053
37	0xbf41c336	-0.75688493
38	0xbf349e78	-0.70554304
39	0xbfe0de9b	-1.7567934
40	0x3f2df147	0.67946285
41	0xbf64eb81	-0.8942185
42	0x3f92758f	1.1442126
43	0xbfc2cf1f	-1.5219458
44	0x3edf52df	0.43617913
45	0x3e84fd34	0.2597443
46	0xbe4f4d5a	-0.20244351
47	0x4039dba6	2.9040313
48	0x3df1f237	0.11813777
49	0xbdd35f06	-0.10320859
50	0x3f81c575	1.0138384
51	0x3f294b3f	0.6613044
52	0x3ebf4254	0.37355292
53	0xbfc2b996	-1.5212886
54	0x403a18ce	2.907764
55	0xbf24ebf0	-0.6442251
56	0x40112061	2.2676013
57	0x3fe4b250	1.7866917
58	0xbf6511bd	-0.8948019
59	0xbf0392fe	-0.5139617
60	0xc0321006	-2.782228
61	0xbf193cbe	-0.5985831
62	0x3f614ae6	0.8800491

dnets.1.std f4 [63]
0	0x3d1737c9	0.036918435
1	0xbe8522a3	-0.26002988
2	0x3fa00d9b	1.2504152
3	0x3f8332ff	1.0249938
4	0x4010cc2f	2.2624624
5	0xbedf6c7e	-0.4363746
6	0x3fa214d1	1.2662603
7	0x3f4c5f40	0.7983284
8	0x3fa0a443	1.2550129
9	0x40202f90	2.502903
10	0x3f0b60be	0.5444449
11	0x3e672330	0.22572017
12	0x3fe079ce	1.7537172
13	0xbe6a4eff	-0.22881697
14	0x3f57238c	0.84038615
15	0x3fbac0fe	1.4590147
16	0x3f1e7075	0.61890346
17	0x3fae038f	1.3594836
18	0x3f2830c4	0.6569941
19	0x3f97ace8	1.1849642
20	0xbefe71be	-0.49696153
21	0xbf8c2b6a	-1.0950749
22	0x3faf550e	1.3697832
23	0x3f492dc6	0.7858547
24	0x3fad9bac	1.3563132
25	0x3ea931bb	0.33045754
26	0x3e543c22	0.20726064
27	0x3f917a50	1.1365452
28	0x3eaec81f	0.34137055
29	0x3f666bb6	0.90008104
30	0x3ee647fb	0.44976792
31	0x3f1bc6e8	0.6085038
32	0x3fb94594	1.4474359
33	0xbfb5ee34	-1.4213319
34	0x3f8a5e66	1.0810058
35	0x3f76e344	0.9644053
36	0x3e4c416a	0.19946828
37	0x3efc5483	0.49283227
38	0xbe88a991	-0.2669187
39	0x3f8c074b	1.0939726
40	0x3f165047	0.58716244
41	0x3f13f1fe	0.57791126
42	0x4006e239	2.1075575
43	0x3faf49c2	1.3694384
44	0x3e3ef8b2	0.18649557
45	0x3dd86a99	0.10567207
46	0x3fc659a0	1.5496101
47	0x404212bf	3.0323942
48	0x3db6610f	0.08905231
49	0x3fe24ca7	1.7679642
50	0xbef9f423	-0.48819074
51	0x3ea40402	0.32034308
52	0x3f3dcd0b	0.74140996
53	0x3fed3b96	1.8533809
54	0x401b5c07	2.427492
55	0x3f60d7b9	0.87829167
56	0x3f819c6c	1.0125861
57	0x4029e266	2.6544433
58	0xbf03267d	-0.51230603
59	0xbe99c94e	-0.30036396
60	0x403ed5c5	2.9817975
61	0x3f95c565	1.1700865
62	0x3fdcd251	1.7251683

dnets.1.weights_rbf f4 [24, 63]
0	0xbcfb25f2	-0.030657742
1	0x3c6fd261	0.014637561
2	0xbc5ad5c3	-0.013356629
3	0x3d01b92b	0.03167073
4	0xba387882	-0.0007037
5	0xbdce4d53	-0.10073342
6	0xbacd83ba	-0.0015679516
7	0xbcbf82a3	-0.023377722
8	0x3cfb0e60	0.030646503
9	0x3c4145ba	0.011796409
10	0x3d2ef5e7	0.04271498
11	0x3c820821	0.015873017
12	0x3c9efe2d	0.01940831
13	0x3c80d61e	0.015727099
14	0xbcdb78ec	-0.026791058
15	0xbc82636f	-0.015916554
16	0xbd85a59b	-0.06525727
17	0x3ad33d08	0.0016116211
18	0xbd450550	-0.04810077
19	0xbca69ab0	-0.020337433
20	0xbda72a13	-0.08162322
21	0xbcfc6e33	-0.030814266
22	0x3c92d168	0.017922118
23	0xbcdbb10e	-0.026817825
24	0x3cb19dc3	0.021681672
25	0xbd8915de	-0.06693624
26	0xbda9b54e	-0.08286534
27	0x3c1e6007	0.009666449
28	0xbd0c8f60	-0.03431642
29	0xbd08e471	-0.033420984
30	0xbd7ddd8b	-0.061978858
31	0xbd117336	-0.035510264
32	0x3ca2b924	0.019863673
33	0x3c7c5e7c	0.015403386
34	0x3cca1f78	0.024673209
35	0xbba44f9b	-0.0050143725
36	0x3c820821	0.015873017
37	0xbd886688	-0.06660181
38	0xbd712d71	-0.058881227
39	0xbc99f711	-0.018794568
40	0x3cefbef6	0.029265862
41	0xbd629e86	-0.05532696
42	0x3c51046c	0.012757402
43	0xbbf0d57f	-0.0073496695
44	0x3d8c0bb6	0.06838171
45	0x3dc02212	0.093814984
46	0x3bb4e8a6	0.005520898
47	0x3c6e6db7	0.014552525
48	0x3ca6af7a	0.020347346
49	0x3be56b5f	0.007001325
50	0x3d43975d	0.047751773
51	0x3d557ed4	0.052122906
52	0x3c8c7a3c	0.01714813
53	0xba08d0a9	-0.0005219081
54	0x3c91e9a0	0.017811596
55	0xbc3f6c1c	-0.01168349
56	0x3d16192a	0.036645092
57	0x3c548865	0.012971972
58	0xbd9cc0ae	-0.07653938
59	0xbdd4cae2	-0.10390259
60	0x3b096f63	0.0020970933
61	0xbb33a1fa	-0.0027409778
62	0x3c5744b4	0.013138939
63	0xbccdbbe9	-0.025114017
64	0x3c9b7425	0.01897628
65	0xbc89dc4a	-0.016828675
66	0x3d073b3a	0.033015467
67	0xbad7348d	-0.001641886
68	0xbd99626c	-0.074894756
69	0xbbabd473	-0.005243832
70	0xbcde2ca6	-0.0271209
71	0x3d011142	0.0315106
72	0x3c537fba	0.01290887
73	0x3d43973d	0.047751654
74	0x3c820821	0.015873017
75	0x3ca94532	0.020662878
76	0x3c7b52ea	0.0153395925
77	0xbcfdb0ca	-0.030968089
78	0xbcadf5a8	-0.021235302
79	0xbd665157	-0.056229915
80	0xba77249d	-0.0009427758
81	0xbd3a4a77	-0.04548117
82	0xbcd76eda	-0.026297975
83	0xbd86733c	-0.06564948
84	0xbd0dc9f1	-0.034616414
85	0x3c9ca932	0.019123647
86	0xbcfafd48	-0.030638352
87	0x3cbb72ae	0.022881832
88	0xbd6f8915	-0.05848034
89	0xbd7f311c	-0.062302694
90	0x3c18bb9c	0.009322073
91	0xbcf1b3d1	-0.029504688
92	0xbd140430	-0.036136806
93	0xbd5ebd8c	-0.054379985
94	0xbd174a2d	-0.036935974
95	0x3cacbf60	0.021087348
96	0x3c8704fb	0.016481867
97	0x3cd46fb5	0.025932172
98	0xbc29ed41	-0.010371507
99	0x3c820821	0.015873017
100	0xbd6987c8	-0.057014257
101	0xbd5f6734	-0.05454178
102	0xbcc5fe07	-0.024168981
103	0x3cdeb7e2	0.027187292
104	0xbd4d195d	-0.050073016
105	0x3c63ce11	0.0139041105
106	0xbc27a911	-0.01023318
107	0x3d6453d9	0.055744026
108	0x3d9b775e	0.07591127
109	0x3b9c2ed4	0.0047663245
110	0x3c8313d8	0.016000673
111	0x3c965111	0.018349202
112	0x3be73e6b	0.0070570013
113	0x3d427d68	0.047482878
114	0x3d5bca6e	0.05365985
115	0x3c5b4ed3	0.013385492
116	0xbae96675	-0.0017807024
117	0x3c9dd7dd	0.01926797
118	0xbc83faae	-0.016110744
119	0x3d0de20d	0.034639407
120	0x3c68bef0	0.014205679
121	0xbd80f508	-0.06296736
122	0xbd8e6940	-0.069536686
123	0x3ad83e71	0.0016498101
124	0xbc010b92	-0.007876294
125	0x3c68c6c6	0.0142075475
126	0x3cb21e98	0.021743104
127	0x3ca28fca	0.019843955
128	0x3bb397ab	0.0054807267
129	0x3bbed491	0.0058236797
130	0x3b62799e	0.0034557353
131	0x3cedd824	0.029033728
132	0x3b1e1af6	0.0024124957
133	0x3bd422a9	0.0064738584
134	0x3beaa4b8	0.0071607493
135	0xbb78f047	-0.0037985013
136	0x3c9f708d	0.019462848
137	0x3c820821	0.015873017
138	0xbb422980	-0.0029626787
139	0x3c39bb70	0.0113361925
140	0x3b820bcf	0.003968693
141	0x3b406fca	0.0029363506
142	0xbbacb8a4	-0.0052710343
143	0x3aa040cc	0.0012226342
144	0xbb4120b5	-0.0029468958
145	0x3b3af78c	0.0028528897
146	0xbb962a7b	-0.004582701
147	0xba86ccca	-0.001028442
148	0xbb7cf76d	-0.0038599626
149	0x3ba71f43	0.0051001622
150	0xbb185060	-0.0023241267
151	0xbbcf8420	-0.006332889
152	0xbcd95f39	-0.026534664
153	0xbb7ec080	-0.0038872063
154	0xbb381474	-0.0028088363
155	0xb99e970f	-0.00030248656
156	0xbbbc417a	-0.00574511
157	0x3b92f2bf	0.004484504
158	0xbb4d7d41	-0.0031355175
159	0xbb8dbd61	-0.0043255542
160	0xba451c00	-0.0007519126
161	0x3b26a359	0.0025426953
162	0x3c820821	0.015873017
163	0xbbdd3065	-0.006750154
164	0x3e268003	0.1625977
165	0x3b98c1f9	0.004661795
166	0x3b783ec9	0.003787922
167	0xbb910ca2	-0.004426555
168	0xbb84fd2c	-0.0040585008
169	0x3b9fc596	0.004875849
170	0x3c23be7e	0.009994147
171	0xbc0ab106	-0.008465057
172	0xba29b162	-0.00064732705
173	0xbb603ddd	-0.003421656
174	0x3d0f5ba6	0.034999512
175	0xbab7a2b3	-0.001401028
176	0x3cf6eaa3	0.03014118
177	0x3cd41312	0.025888
178	0xbb7110c3	-0.0036783672
179	0x3b5458f7	0.003240166
180	0xbb2f50cf	-0.0026751047
181	0x3b7ab07b	0.0038252163
182	0x3cd8b0fd	0.026451582
183	0xbb7efb98	-0.0038907286
184	0xbbbbe9b2	-0.0057346458
185	0x3b4f2013	0.003160481
186	0x3b0d71c4	0.0021582702
187	0x3b284e65	0.0025681492
188	0xbb8a91d4	-0.00422881
189	0x3d1c3375	0.03813501
190	0x3c8fa90a	0.017536659
191	0x3c685787	0.014181024
192	0xbc839819	-0.016063737
193	0x3bc80279	0.0061038104
194	0x3d362f43	0.044478666
195	0x3b832627	0.004002351
196	0x3c92b766	0.017909717
197	0xbc7f8490	-0.01559557
198	0xbbb2e45e	-0.0054593524
199	0xbc9a9763	-0.018871015
200	0x3c820821	0.015873017
201	0xbc419800	-0.011816025
202	0xbc2ad9dd	-0.010427919
203	0x3c9eda16	0.0193911
204	0x3c7bc8c7	0.015367693
205	0x3cfb5305	0.030679235
206	0x3a9a7660	0.0011784546
207	0x3ccae632	0.024767969
208	0x3c8c6852	0.017139588
209	0x3d14a241	0.03628755
210	0x3ca49076	0.020088416
211	0xbc37c8ff	-0.011217355
212	0x3c9efcb1	0.019407602
213	0xbc55eb59	-0.0130566
214	0x3cdd46f1	0.027011367
215	0x3c5e7c77	0.013579479
216	0xbbd0c7dd	-0.006371482
217	0x3bd2f46f	0.00643783
218	0x3cabbfa3	0.020965403
219	0x3ce000b5	0.027344087
220	0x3cb28792	0.02179316
221	0xbc476953	-0.012171107
222	0xbc1e08c5	-0.0096456455
223	0xbc698034	-0.014251757
224	0x3b96c922	0.0046016136
225	0x3c8201c5	0.015869984
226	0x3cf355fe	0.02970409
227	0x3d4cb71d	0.049979318
228	0x3c88c237	0.016694171
229	0xbc7ecc10	-0.015551582
230	0x3cda0323	0.026612824
231	0xbbdbe02e	-0.006710074
232	0x3c283f84	0.01026905
233	0xbd220eb7	-0.039564814
234	0xbbad27ba	-0.005284277
235	0xbae23a61	-0.001725983
236	0xbc01c681	-0.007920862
237	0xbaa54bf9	-0.0012611143
238	0xbb12bada	-0.0022389204
239	0xbcd81c0b	-0.02638056
240	0xbccfdbbb	-0.02537333
241	0xbc593828	-0.013258018
242	0x3bac7c8d	0.005263871
243	0xbc2d50de	-0.010578362
244	0x3c18f3c1	0.009335459
245	0xbc88df93	-0.016708171
246	0xbbd7c722	-0.006585018
247	0x3d0c6d73	0.034284066
248	0x3d429374	0.047503904
249	0x3b6d6625	0.0036224213
250	0x3b9362f8	0.004497882
251	0xbbf4c178	-0.0074693523
252	0x3d2928a8	0.04129854
253	0x3d5eb0df	0.054367896
254	0x3ae74788	0.0017645219
255	0xbb973a44	-0.0046151

dnets.1.conv.weight f4 [24, 3, 5, 5]
0	0xbd8f6372	-0.070013896
1	0x3c97fdd6	0.018553656
2	0xbcd240bc	-0.025665633
3	0x3b0f8e0b	0.0021904733
4	0x3cf6ca31	0.03012571
5	0x3b22edfd	0.002486109
6	0x3dabc825	0.08387784
7	0xbdc7512d	-0.0973228
8	0x39c9002f	0.00038337844
9	0x3d343c29	0.044002686
10	0x3c55261e	0.013009576
11	0x3e054e0f	0.13018058
12	0xbe136784	-0.14394957
13	0x3e250884	0.1611653
14	0xbdcd633e	-0.100286946
15	0x3dc8579b	0.097823344
16	0xbd45b810	-0.04827124
17	0xbd0314c2	-0.032002218
18	0xbd94ff2f	-0.07275235
19	0x3d89c112	0.06726278
20	0xbd8a98e5	-0.067674436
21	0x3d3d3048	0.046188623
22	0x3d93221a	0.07184239
23	0xbd1314fd	-0.035908688
24	0xbd9f5ce8	-0.07781392
25	0x3bf65ee2	0.007518635
26	0x3d4e009d	0.050293554
27	0xbc0d468b	-0.008622776
28	0xbd9caf27	-0.07650595
29	0x3c44a316	0.012001773
30	0x3da8b5b8	0.08237785
31	0xbd52b13f	-0.051438566
32	0x3d8246e1	0.06361175
33	0xbdb8a7db	-0.09016391
34	0x3cdc8108	0.026916996
35	0xbc4edf9f	-0.012626558
36	0xbddf03e9	-0.10889418
37	0x3e27ed9d	0.16399236
38	0xbab9ebd6	-0.0014184664
39	0xbdb6c640	-0.08924532
40	0x3c6ac19b	0.014328386
41	0x3be30230	0.006927751
42	0x3b05dbcd	0.00204252
43	0xbcefcf04	-0.029273517
44	0x3c9038ae	0.017605152
45	0x3b7a5bfe	0.0038201804
46	0xbd5588f4	-0.05213256
47	0xbd97cf47	-0.07412582
48	0x3d5aa552	0.053380318
49	0x3dc0b3cd	0.09409294
50	0xbd26d7ef	-0.040733274
51	0x3d4315a7	0.04762807
52	0x3da4777f	0.080306046
53	0x3d65b17a	0.056077458
54	0xbca465ad	-0.020068014
55	0x3d694b2a	0.056956448
56	0xbd932d43	-0.07186367
57	0xbad78257	-0.0016442043
58	0xbb85f1aa	-0.0040876465
59	0x3cedfd83	0.029051548
60	0xbdd49eb0	-0.1038183
61	0x3dc35e38	0.09539455
62	0xbe655f89	-0.22399725
63	0xbdcb498e	-0.09926139
64	0xbc84a1fe	-0.016190525
65	0xbd0005a8	-0.031255394
66	0xbba31c11	-0.004977711
67	0x3db49c30	0.08818853
68	0x3cce6dd1	0.025198849
69	0x3d6cac58	0.057781547
70	0x3d255611	0.040365282
71	0x3ca99f78	0.020705923
72	0x3dec7682	0.11546041
73	0xbd64e778	-0.05588481
74	0xbd4a89c6	-0.049447797
75	0x3c9c46a6	0.019076657
76	0xbc4fb0d2	-0.012676435
77	0x3d22dc4b	0.03976087
78	0xbbe8c0f4	-0.00710308
79	0xbd62356f	-0.05522674
80	0xbae288c4	-0.0017283191
81	0x3ccfd7d1	0.025371464
82	0xbd86fcf2	-0.06591214
83	0xbdffce74	-0.1249055
84	0x3d853641	0.06504489
85	0xbb3e8e97	-0.002907669
86	0x3d9f24f9	0.07770724
87	0xbd285e71	-0.04110569
88	0x3cbe807d	0.023254627
89	0x3dffd92b	0.124925934
90	0x3c881c65	0.016615102
91	0xbc446277	-0.0119863665
92	0x3dd7ac28	0.10530883
93	0x3c5e62ed	0.01357339
94	0xbbfc63a8	-0.0077023096
95	0x3c1888b8	0.00930994
96	0xbd5bf897	-0.05370387
97	0xbd1e05aa	-0.03857962
98	0xbd533544	-0.05156447
99	0xbd18ff1b	-0.037352663
100	0x3ce5881b	0.028019002
101	0x3d2aed3c	0.04173015
102	0x3c9fc880	0.019504786
103	0xbd8d97ac	-0.06913695
104	0x3d5c9dc5	0.0538614
105	0xbd429836	-0.04750844
106	0x3d869378	0.06571096
107	0xbdca1873	-0.098679446
108	0x3db9416f	0.090456836
109	0xbcd6e93c	-0.026234262
110	0xbd342f36	-0.043990336
111	0xbdedfe4f	-0.11620771
112	0xbdd59d70	-0.104304194
113	0x3db0889c	0.08619806
114	0x3bf519c4	0.007479878
115	0xbdee7b9f	-0.116446726
116	0x3d2489f0	0.04017061
117	0x3da516ba	0.080609754
118	0x3db4318b	0.08798512
119	0x3cd4de0d	0.025984788
120	0x3de1c1da	0.110233024
121	0xbe0ac359	-0.13551082
122	0x3cbc12c1	0.022958161
123	0x3ca00eed	0.019538367
124	0xbceea5cb	-0.02913179
125	0xbce71dc3	-0.028212434
126	0xbd8d53c8	-0.06900746
127	0x3dafd96e	0.08586393
128	0xbcb2cb62	-0.021825496
129	0xbb404e40	-0.0029343516
130	0x3db37aad	0.08763633
131	0xbdad5be0	-0.084647894
132	0x3df3573e	0.118818745
133	0x3c8baf6c	0.017051421
134	0x3dc8eda9	0.09810955
135	0x3cc9aee8	0.024619535
136	0xbdfa687c	-0.1222696
137	0x3d3ec319	0.04657278
138	0xbe11b560	-0.14229345
139	0xbde9aad9	-0.1140954
140	0x3db90bff	0.09035491
141	0x3b89fb7e	0.0042108884
142	0xbe0e7ae5	-0.13914068
143	0xbdda5c3c	-0.106621236
144	0x3cad7a00	0.021176338
145	0xbd843c10	-0.064567685
146	0x3de2d74b	0.1107622
147	0x3c676151	0.014122323
148	0x3de57ae0	0.11205077
149	0x3d3f5730	0.046714008
150	0xbd114df9	-0.03547475
151	0xbd62aaf9	-0.055338833
152	0xbcefe0f2	-0.029282067
153	0x3b9c3530	0.0047670826
154	0xbc9d3ccd	-0.019194031
155	0x3c800294	0.01562623
156	0x3db1c15e	0.0867946
157	0xbb9efa9b	-0.004851652
158	0x3c6fe9c7	0.014643139
159	0x3dcb883a	0.099380925
160	0xbe12d408	-0.14338696
161	0x3d93e1d1	0.072208054
162	0xbe0922e5	-0.13392217
163	0x3cfe1c45	0.03101934
164	0x3dda1bf7	0.10649865
165	0xbd94207d	-0.07232759
166	0xbc78c541	-0.015183748
167	0x3e17a896	0.14810404
168	0x3c8f2f10	0.017478496
169	0x3d68d524	0.05684389
170	0xbd899a46	-0.067188784
171	0xbc877800	-0.016536713
172	0xbe122399	-0.14271392
173	0x3d0eb1f4	0.034837678
174	0x3d35b30a	0.044360198
175	0xbc863291	-0.016381534
176	0xbcc1201f	-0.023574887
177	0xbd43e2ef	-0.047823843
178	0xbd1f81bc	-0.038942084
179	0x3b60fcb2	0.0034330306
180	0xbd6c4380	-0.05768156
181	0x3cff42f5	0.031159857
182	0x3c96d65d	0.018412763
183	0xbd00f34b	-0.031482022
184	0xbe04a557	-0.12953697
185	0x3daf0879	0.08546538
186	0xbdadcbe6	-0.08486156
187	0xbdcbfbad	-0.09960113
188	0x3d666bb4	0.056255057
189	0xbdbc2135	-0.09186021
190	0x3d42825b	0.047487598
191	0x3dd2a1d9	0.10284776
192	0xbd8c1194	-0.0683929
193	0xbdb09176	-0.086214945
194	0x3d102aa9	0.035196934
195	0x3d9d59a0	0.0768311
196	0x3de25858	0.110520065
197	0x3ddabb06	0.10680203
198	0x3d6943a3	0.05694927
199	0x3d1c461c	0.0381528
200	0x3dcd5730	0.10026395
201	0x3d99d34b	0.07511004
202	0x3d2caed4	0.042158917
203	0x3d127cc2	0.03576351
204	0x3d66af54	0.05631955
205	0x3c691bff	0.014227866
206	0xbce27414	-0.027643241
207	0xbd80b928	-0.06285316
208	0x3da5081a	0.08058186
209	0xbd1dd845	-0.03853633
210	0x3e08c040	0.13354588
211	0x3d1c0e15	0.038099367
212	0xbc9a10da	-0.018806864
213	0x3d199d36	0.037503444
214	0xbd91c0ab	-0.071168266
215	0x3d29db24	0.041468754
216	0xbd027203	-0.03184701
217	0xbdb0750c	-0.08616075
218	0x3d099cc9	0.033596788
219	0xbdf20944	-0.118181735
220	0xbcc5ed77	-0.024161084
221	0xbd612b1c	-0.054972753
222	0x3d1cc328	0.038272053
223	0xbe0524ab	-0.13002269
224	0xbd8487f8	-0.064712465
225	0xbcfb2a07	-0.030659689
226	0xbd1d9cdc	-0.03847967
227	0xbda70fcc	-0.0815731
228	0x3cf3efca	0.029777426
229	0x3d99dd43	0.075129054
230	0xbd196751	-0.037452046
231	0x3c211dcc	0.009833764
232	0x3d8ab902	0.06773569
233	0x3d874f2e	0.06606899
234	0xbd11b025	-0.035568375
235	0x3d13f999	0.036126707
236	0x3c98db32	0.018659208
237	0xbd463d9c	-0.0483986
238	0x3dabddc6	0.08391909
239	0xbdd91f9b	-0.106017314
240	0x3ce11e3c	0.027480237
241	0xbca685e5	-0.020327518
242	0xbdc2850e	-0.094980344
243	0xbd8ded02	-0.06929971
244	0x3c1df450	0.009640768
245	0x3dbc21e5	0.09186152
246	0xbd18e4e5	-0.037327666
247	0xbd049a93	-0.032373976
248	0x3de77443	0.11301472
249	0x3bc89a93	0.0061219423
250	0x3c830a34	0.015996076
251	0xbda3a3a2	-0.07990195
252	0xbde117a8	-0.1099084
253	0xbdb9f0f4	-0.09079161
254	0x3d40f09a	0.047104456
255	0x3d6e6d7e	0.05820989

dnets.2.means f4 [63]
0	0x3d07de53	0.03317101
1	0x3f895ea9	1.0732013
2	0xbfecb282	-1.8491976
3	0x3fdca13b	1.7236704
4	0xc0184c7d	-2.3796685
5	0xbf8cb3a6	-1.0992324
6	0xbf241654	-0.6409657
7	0xbf9b1dd5	-1.2118479
8	0x400efbb4	2.2341127
9	0x3f9cac1c	1.2240024
10	0x3f86ed64	1.0541196
11	0xc01eba48	-2.4801197
12	0x3ffc65ac	1.9718528
13	0x3dbf8dae	0.09353195
14	0xbfacd7c5	-1.3503348
15	0xc01d062f	-2.4535024
16	0xbf8c0ab4	-1.0940766
17	0xbeeb98bc	-0.46014965
18	0xbf83f73d	-1.0309826
19	0xbffbd485	-1.9674231
20	0xbf6764a2	-0.9038793
21	0xbff09e85	-1.8798376
22	0x3f91d602	1.1393435
23	0xbfa03783	-1.2516941
24	0x3fc53ef3	1.5409836
25	0xbeec7a00	-0.4618683
26	0xbe46d741	-0.1941805
27	0x3e376ec5	0.17913349
28	0xbe2f5682	-0.17122844
29	0xbfbc542d	-1.4713188
30	0xbf26e1f2	-0.65188515
31	0xbf7356e4	-0.9505446
32	0x3fbf1801	1.49292
33	0x3f690391	0.91021067
34	0x3fa662e3	1.2998928
35	0xbee46be4	-0.44613564
36	0xc0091765	-2.142053
37	0xbf41c336	-0.75688493
38	0xbf349e78	-0.70554304
39	0xbfe0de9b	-1.7567934
40	0x3f2df147	0.67946285
41	0xbf64eb81	-0.8942185
42	0x3f92758f	1.1442126
43	0xbfc2cf1f	-1.5219458
44	0x3edf52df	0.43617913
45	0x3e84fd34	0.2597443
46	0xbe4f4d5a	-0.20244351
47	0x4039dba6	2.9040313
48	0x3df1f237	0.11813777
49	0xbdd35f06	-0.10320859
50	0x3f81c575	1.0138384
51	0x3f294b3f	0.6613044
52	0x3ebf4254	0.37355292
53	0xbfc2b996	-1.5212886
54	0x403a18ce	2.907764
55	0xbf24ebf0	-0.6442251
56	0x40112061	2.2676013
57	0x3fe4b250	1.7866917
58	0xbf6511bd	-0.8948019
59	0xbf0392fe	-0.5139617
60	0xc0321006	-2.782228
61	0xbf193cbe	-0.5985831
62	0x3f614ae6	0.8800491

dnets.2.std f4 [63]
0	0x3d1737c9	0.036918435
1	0xbe8522a3	-0.26002988
2	0x3fa00d9b	1.2504152
3	0x3f8332ff	1.0249938
4	0x4010cc2f	2.2624624
5	0xbedf6c7e	-0.4363746
6	0x3fa214d1	1.2662603
7	0x3f4c5f40	0.7983284
8	0x3fa0a443	1.2550129
9	0x40202f90	2.502903
10	0x3f0b60be	0.5444449
11	0x3e672330	0.22572017
12	0x3fe079ce	1.7537172
13	0xbe6a4eff	-0.22881697
14	0x3f57238c	0.84038615
15	0x3fbac0fe	1.4590147
16	0x3f1e7075	0.61890346
17	0x3fae038f	1.3594836
18	0x3f2830c4	0.6569941
19	0x3f97ace8	1.1849642
20	0xbefe71be	-0.49696153
21	0xbf8c2b6a	-1.0950749
22	0x3faf550e	1.3697832
23	0x3f492dc6	0.7858547
24	0x3fad9bac	1.3563132
25	0x3ea931bb	0.33045754
26	0x3e543c22	0.20726064
27	0x3f917a50	1.1365452
28	0x3eaec81f	0.34137055
29	0x3f666bb6	0.90008104
30	0x3ee647fb	0.44976792
31	0x3f1bc6e8	0.6085038
32	0x3fb94594	1.4474359
33	0xbfb5ee34	-1.4213319
34	0x3f8a5e66	1.0810058
35	0x3f76e344	0.9644053
36	0x3e4c416a	0.19946828
37	0x3efc5483	0.49283227
38	0xbe88a991	-0.2669187
39	0x3f8c074b	1.0939726
40	0x3f165047	0.58716244
41	0x3f13f1fe	0.57791126
42	0x4006e239	2.1075575
43	0x3faf49c2	1.3694384
44	0x3e3ef8b2	0.18649557
45	0x3dd86a99	0.10567207
46	0x3fc659a0	1.5496101
47	0x404212bf	3.0323942
48	0x3db6610f	0.08905231
49	0x3fe24ca7	1.7679642
50	0xbef9f423	-0.48819074
51	0x3ea40402	0.32034308
52	0x3f3dcd0b	0.74140996
53	0x3fed3b96	1.8533809
54	0x401b5c07	2.427492
55	0x3f60d7b9	0.87829167
56	0x3f819c6c	1.0125861
57	0x4029e266	2.6544433
58	0xbf03267d	-0.51230603
59	0xbe99c94e	-0.30036396
60	0x403ed5c5	2.9817975
61	0x3f95c565	1.1700865
62	0x3fdcd251	1.7251683

dnets.2.weights_rbf f4 [24, 63]
0	0x3c9f7077	0.019462807
1	0x3cb3e926	0.02196176
2	0xbc3be854	-0.011468966
3	0x3cfa412e	0.030548658
4	0xbb0d6329	-0.0021573997
5	0xbd59ec03	-0.053203594
6	0xbb82b3f9	-0.0039887396
7	0xbc8aff5a	-0.016967464
8	0x3d0707f5	0.032966573
9	0x3c2562f0	0.010094389
10	0x3d2a6cca	0.041607656
11	0x3c820821	0.015873017
12	0x3c938ad5	0.018010536
13	0xb8891e86	-6.5383545e-05
14	0xbcb06b69	-0.021535592
15	0xbc822bbe	-0.015889999
16	0xbd42921d	-0.047502626
17	0xbaa0a5e3	-0.0012256469
18	0xbd1c35b7	-0.038137164
19	0xbc9a84f5	-0.018862227
20	0xbd55cfb4	-0.052200034
21	0xbce7bd68	-0.028288558
22	0x3c7dd6e1	0.015493126
23	0xbca759ee	-0.020428624
24	0x3ca042bf	0.019563077
25	0xbd426c46	-0.04746654
26	0xbd81369a	-0.063092425
27	0x3bce5439	0.006296661
28	0xbcfcd98e	-0.030865457
29	0xbced6e18	-0.02898316
30	0xbd3a2b88	-0.04545167
31	0xbcd2c2af	-0.025727598
32	0x3c91f359	0.017816233
33	0x3c52ca15	0.012865563
34	0x3cb28902	0.021793846
35	0xbbeb0559	-0.0071722683
36	0x3c820821	0.015873017
37	0xbd43de8e	-0.047819667
38	0x3c471ce7	0.012152887
39	0xbc83f871	-0.016109677
40	0x3cbb1586	0.022837412
41	0xbd2dd122	-0.042435773
42	0x3c32cd67	0.01091323
43	0xbbf672e5	-0.0075210207
44	0x3cf36eb5	0.029715875
45	0xb9837b29	-0.0002507803
46	0x3b30a494	0.0026953565
47	0x3c607210	0.01369907
48	0x3c074ed4	0.00825854
49	0x3b923ce5	0.0044628256
50	0x3d739eab	0.05947749
51	0x3d3c4ef8	0.045973748
52	0x3c435e95	0.011924406
53	0xbb11acf4	-0.0022228332
54	0x3c8e30b1	0.017357202
55	0xbc40d551	-0.011769609
56	0x3d6842de	0.056704395
57	0x3c3cda29	0.011526623
58	0xbd50e9ec	-0.051004335
59	0xbd8b0ce9	-0.06789572
60	0x3982d95f	0.00024957486
61	0xbba60d9e	-0.0050675413
62	0x3c330a10	0.010927692
63	0x3d53a603	0.051671993
64	0x3ca1d1dd	0.01975339
65	0x3b48592a	0.0030570724
66	0xbb1dcf8c	-0.0024080006
67	0x3a9a12cc	0.001175487
68	0xbc1d3b84	-0.009596709
69	0x3a541dde	0.0008091609
70	0x3b8c50b8	0.0042820834
71	0xba8b214b	-0.001061478
72	0xb8f2a956	-0.000115710005
73	0x3a9272bb	0.0011173108
74	0x3c820813	0.01587299
75	0xba50d8cf	-0.00079668773
76	0xbc76daeb	-0.015066843
77	0x3b8461d8	0.004039984
78	0x3b32de0e	0.0027293
79	0x3ae784f4	0.0017663524
80	0x3a026e69	0.0004975559
81	0x3b41c4b4	0.0029566707
82	0x3b4e2444	0.0031454721
83	0xb97ea90b	-0.00024286301
84	0x3b2e024b	0.002655166
85	0xba449f10	-0.0007500509
86	0x3b8e55f4	0.0043437425
87	0xba96f6ff	-0.0011517702
88	0x3b7f4e09	0.0038956425
89	0x3ac8bc83	0.001531497
90	0xb9deb022	-0.0004247437
91	0x3b146541	0.002264336
92	0x3b4b92a7	0.0031062753
93	0x3b32053a	0.002716376
94	0x3b9d47e4	0.00479983
95	0xba7005d9	-0.0009156145
96	0xba0dc808	-0.000540853
97	0xbad9b8c4	-0.001661085
98	0x3a7373e0	0.0009286981
99	0x3c812fe1	0.0157699
100	0x3af501ac	0.0018692515
101	0xbd88e10f	-0.066835515
102	0x3b675f4b	0.0035304602
103	0xbb85b61b	-0.0040805466
104	0x3b2e3c3c	0.0026586195
105	0xb956840c	-0.00020457822
106	0x3b02025d	0.0019837834
107	0x3d884743	0.06654217
108	0x3dd71e4e	0.10503827
109	0x3963503d	0.00021678298
110	0xb9534fc9	-0.0002015225
111	0x3cbc9c2a	0.023023684
112	0x391391a7	0.00014073272
113	0x3c9f9cc0	0.019483924
114	0x3ca6b650	0.020350605
115	0xbb157364	-0.0022804374
116	0x3a83850f	0.0010034161
117	0xb9df2ab7	-0.000425657
118	0x3ae9cf14	0.0017838203
119	0x3c615fd0	0.013755754
120	0xb93cbf5b	-0.00018000363
121	0x3a1feb09	0.00061003916
122	0xbc35405b	-0.011062707
123	0x3a4f0603	0.0007897319
124	0x3a66dfdc	0.00088071614
125	0xb9988698	-0.0002909198
126	0x3c8d4fea	0.01725002
127	0x3cd49e51	0.025954397
128	0xbc8a388c	-0.016872667
129	0x3d05d93f	0.032677885
130	0xbbc905c9	-0.006134723
131	0xbde9cfce	-0.11416589
132	0xbbb08837	-0.005387332
133	0xbcc92840	-0.024555326
134	0x3d095a78	0.033533543
135	0x3beacfa7	0.0071658674
136	0x3d5bd759	0.05367217
137	0x3c820821	0.015873017
138	0x3c842626	0.016131472
139	0x3cb6a94b	0.022297522
140	0xbcead819	-0.028667497
141	0xbca8144f	-0.020517496
142	0xbd8019ea	-0.06254943
143	0xbb27e301	-0.0025617483
144	0xbd3cab16	-0.046061598
145	0xbcc63171	-0.024193497
146	0xbda17c76	-0.07885067
147	0xbd0910c6	-0.033463262
148	0x3c703f66	0.014663553
149	0xbce6c2a4	-0.028168984
150	0x3c9b24ef	0.01893851
151	0xbd674f01	-0.05647183
152	0xbd736e99	-0.059431646
153	0x3bbb90f0	0.005724065
154	0xbc98336d	-0.01857921
155	0xbd0f4db5	-0.034986217
156	0xbd61cef5	-0.05512901
157	0xbd0c52a4	-0.0342585
158	0x3c896da9	0.016775923
159	0x3c40fdd7	0.01177927
160	0x3cbae702	0.022815231
161	0xbbdeda26	-0.0068009077
162	0x3c820821	0.015873017
163	0xbd78a09e	-0.06070005
164	0xbda0bfbc	-0.078490704
165	0xbcb56897	-0.022144599
166	0x3cfbb685	0.03072668
167	0xbd5377e3	-0.051628005
168	0x3c093e62	0.00837669
169	0xbc3c5adc	-0.011496272
170	0x3d96eb5a	0.073691085
171	0x3d84137e	0.0644903
172	0x3a7a3f78	0.0009546201
173	0x3c2b023f	0.010437547
174	0x3d33da0b	0.043909114
175	0x3b0edd03	0.0021799214
176	0x3d9a5c4d	0.07537136
177	0x3d9007fa	0.070327714
178	0x3c775bbe	0.015097557
179	0xbbbad19c	-0.005701257
180	0x3c6d8ff0	0.014499649
181	0xbc49f784	-0.012327079
182	0x3d815bd0	0.0631634
183	0x3c0b1818	0.008489631
184	0xbd94e8ec	-0.07270989
185	0xbe03bc1e	-0.1286473
186	0xbb6d37b8	-0.003619654
187	0xbbc7238c	-0.0060772356
188	0x3c135c25	0.008994137
189	0x3cf99257	0.030465288
190	0x3cb67c8a	0.022276182
191	0xbc54fca8	-0.012999691
192	0x3cc319ce	0.023816016
193	0xbc04dfea	-0.008110026
194	0xbc6f50e5	-0.014606689
195	0xbc03edae	-0.008052273
196	0xbc59056b	-0.013245921
197	0x3cd1adad	0.02559551
198	0x3b886972	0.0041629607
199	0x3ce7f521	0.028315129
200	0x3c820821	0.015873017
201	0x3c556894	0.013025422
202	0x3b0adabb	0.0021187502
203	0xbc827509	-0.015924947
204	0xbc87192e	-0.016491499
205	0xbca20fe9	-0.019782977
206	0xbbbab26c	-0.005697539
207	0xbca34964	-0.019932456
208	0xbc8c468a	-0.01712348
209	0xbc938322	-0.018006865
210	0xbcacdff9	-0.021102892
211	0x3c39ae98	0.01133313
212	0xbc70a719	-0.014688277
213	0x3c750c15	0.014956494
214	0xbc477a93	-0.01217522
215	0xbae927f6	-0.0017788399
216	0x3b1391e8	0.0022517387
217	0xbc84a7ae	-0.016193237
218	0xbca3e961	-0.020008745
219	0xbc8b189a	-0.016979504
220	0xbc6b30c4	-0.014354888
221	0x3c575384	0.01314247
222	0x3c0c84c6	0.0085765775
223	0x3c90e0b3	0.01768527
224	0xbc1a79e4	-0.009428475
225	0x3c820821	0.015873017
226	0xbc94f1ec	-0.018181764
227	0x3d0efcbd	0.034909
228	0xbc756e36	-0.01497989
229	0x3cabb741	0.020961406
230	0xbc9ec791	-0.01938227
231	0x3baffbd0	0.0053705946
232	0xbc3726b1	-0.011178658
233	0x3cec68b3	0.028858518
234	0x3c10ec48	0.008845396
235	0xbb159638	-0.0022825133
236	0x3c01091d	0.007875708
237	0x3c9bd10b	0.019020578
238	0xba80f085	-0.0009837305
239	0x3d18c36e	0.03729575
240	0x3cf6b238	0.030114278
241	0x3c268183	0.010162714
242	0xbc005405	-0.007832532
243	0x3c458f2b	0.01205806
244	0xbc4d5e4c	-0.012534689
245	0x3d163f52	0.03668148
246	0x3bb6ec1d	0.005582346
247	0xbc95655a	-0.018236805
248	0xbcf8268d	-0.03029182
249	0xbbcfc077	-0.0063400823
250	0xbc0dae4d	-0.008647514
251	0x3bc1cd7d	0.0059143887
252	0x3d065751	0.032798115
253	0x3d3616f0	0.04445547
254	0x3c238745	0.009980981
255	0x3b9c7082	0.004774154
