models/s_p_joint7.pth (torch, 332311 bytes, 32 tensors)

dnets.0.means f4 [63]
000000 f3 76 30 3f 3f ca 87 3f bd 24 5a bf 1c 6d 5a be
       0.689315 1.0608596 -0.8521231 -0.21330684
000010 0b 6c 1e c0 66 38 ad 3f 44 92 d4 bd 49 00 12 bf
       -2.4753444 1.3532836 -0.103794605 -0.57031685
000020 29 ee c7 bf d5 e0 27 bf 2f 08 44 3f 90 f9 f6 3e
       -1.5619556 -0.6557744 0.7657499 0.48237276
000030 45 4a 0f 3f b1 5d ab be ff 06 9d 3f b5 3a 31 3f
       0.559727 -0.33469918 1.226776 0.69230205
000040 76 5f 23 c0 8e f7 db bf 7b f9 5e 3c 2c 86 26 3f
       -2.5527015 -1.7184923 0.0136092855 0.6504848
000050 6b e7 20 3f e7 23 e9 bf 64 8b 0a c0 aa 74 4a 3f
       0.62853116 -1.8214082 -2.1647577 0.79084265
000060 30 85 04 c0 a6 3b dc 3e 95 db f1 3f 59 01 04 bd
       -2.0706291 0.43014258 1.8895136 -0.032227848
000070 26 06 af 3e cf 4c 9e 3e e6 8d 36 3f ce 51 c8 3f
       0.34184378 0.30917975 0.7131027 1.5649965
000080 8d 6c 9b 3e c5 c9 6d 3f d8 69 0b 40 90 74 63 3e
       0.30356255 0.92886 2.1783352 0.22212434
000090 9f 33 a4 bf f6 ce 7b 3f 50 45 9a bf ee 10 d7 bc
       -1.2828254 0.9836267 -1.2052402 -0.02625319
0000a0 24 3b 39 3f 8b b9 c0 3c e3 ef 92 bf 54 53 70 3f
       0.72355866 0.023525974 -1.1479458 0.9387715
0000b0 c9 39 ac 3f 0a 11 1c c0 a1 39 a7 be 34 7b c1 bf
       1.3455135 -2.43854 -0.32661155 -1.5115724
0000c0 bd 57 69 3f 68 69 c0 bf c8 ea d4 3f 1b 69 4b 3f
       0.91149503 -1.5032167 1.663415 0.79457253
0000d0 9d 6c f4 3f fa 24 36 bf b6 fd 91 bf b9 ae 0f c0
       1.9095646 -0.7115017 -1.1405551 -2.2450392
0000e0 55 a9 e8 3f cd f2 e5 3f a8 70 fd 3e bd 0f 0b 40
       1.8176676 1.7964722 0.49500012 2.1728356
0000f0 e5 09 c0 bf b0 fe f3 3d 45 7e 47 40
       -1.500302 0.11913812 3.1170819

dnets.0.std f4 [63]
000000 3a 31 bf 3f 56 4a e4 be 2a 65 dd 3e d8 27 8b 3f
       1.4936898 -0.44587964 0.43241245 1.0871534
000010 a3 c0 cb 3f d1 98 10 bf b7 a9 a8 3f de d8 08 3f
       1.5918163 -0.5648318 1.3176793 0.53455913
000020 7c 41 42 3f cd 6d c2 3e 94 74 61 3e 50 47 0b 3f
       0.7588117 0.37974396 0.22017127 0.5440569
000030 e3 68 80 be 09 87 89 3f 73 03 03 3f 80 26 87 3f
       -0.25080022 1.0744334 0.5117714 1.0558624
000040 9e 98 b5 3f 68 f9 d6 3e 28 4a 5b 3f 18 0a 88 3f
       1.41872 0.41987157 0.8566003 1.062808
000050 22 9e 8e 3e 27 23 65 3f b6 b7 c4 3f 69 87 0d 40
       0.2785502 0.89506763 1.5368564 2.2113898
000060 95 32 84 3f 4b 7c 73 3f 1f b2 58 3f 85 d1 13 3f
       1.0327936 0.9511153 0.8464679 0.57741576
000070 a7 ef 67 3f 4e 58 6c 3f f8 41 38 3f d1 e1 2a 3f
       0.90600055 0.9232224 0.7197566 0.6675082
000080 8c b1 81 3f ad 3a 9d 3f 34 c0 82 3f 98 fa 8f 3e
       1.0132308 1.2283531 1.0214906 0.28120875
000090 e8 82 25 bf b9 16 36 3f 71 10 dc 3e 52 aa 89 3f
       -0.6465287 0.7112842 0.42981294 1.0755103
0000a0 e4 4a 2a 40 7b 88 02 3d 4f 08 13 3f 16 a3 c9 3e
       2.660821 0.03186844 0.5743455 0.39382237
0000b0 8d 7a 41 bc d3 b5 93 3f 57 36 23 40 6b 99 e8 3f
       -0.011809004 1.1539863 2.5501916 1.817182
0000c0 5a 54 d9 3f 6c a2 40 3f c4 89 3b 3f e2 09 5b 3f
       1.6978867 0.75247836 0.7325709 0.85561955
0000d0 86 84 68 3f e7 c9 e0 3f ff 3c 3b be 5c ee f6 3e
       0.90827215 1.7561616 -0.18284987 0.4822873
0000e0 10 c7 48 3f e1 40 97 3f 87 0c c7 3e cb 90 99 3f
       0.78428745 1.1816674 0.38876745 1.1997312
0000f0 c2 26 2a 3e bc c0 c8 3f 32 e5 e5 3f
       0.16616347 1.5683818 1.796057

dnets.0.weights_rbf f4 [48, 63]
000000 a1 5f c5 39 7c 10 e9 3b 12 a8 6f 3a 53 c3 e1 ba
       0.00037646017 0.007112561 0.0009142171 -0.0017224349
000010 5c ea 9c 3a cd 32 ec 3b d4 e9 b5 ba 73 b4 8a ba
       0.00119717 0.0072082044 -0.001387889 -0.0010582343
000020 fd ba 2b bb 91 61 53 bc ed 5e 96 3d 6b 75 6b 3b
       -0.0026203983 -0.01290168 0.073423244 0.003592814
000030 2b d5 07 3c fa d9 bc ba c4 55 cc 3b a3 b3 a5 3a
       0.008290569 -0.0014408224 0.00623581 0.0012642037
000040 1d 11 ca 3a 41 e3 94 bc ef bd 1d bb 1d d0 8b 3a
       0.0015416477 -0.01817477 -0.0024069508 0.0010666881
000050 6c af 25 3c 96 3c 34 39 d3 75 7b 3a 4e 2f e2 38
       0.010112625 0.00017188708 0.00095924473 0.00010785331
000060 e9 45 70 3a b2 53 89 39 3c 7b c6 3b 86 3c 99 bb
       0.0009165691 0.00026193034 0.006057171 -0.0046764044
000070 19 5e 80 b9 89 26 09 ba b4 0c 52 3b cb 16 e6 3b
       -0.0002448417 -0.00052318774 0.0032051029 0.00702176
000080 62 c7 1e ba 7b d0 c7 3a 90 67 ce 3b b0 f7 a0 3b
       -0.0006056932 0.0015244627 0.0062989667 0.004912339
000090 4e 18 13 39 6b be 94 3b 14 90 cb 3b 1b 9c e9 ba
       0.00014028067 0.004539301 0.006212244 -0.0017823012
0000a0 a6 f0 8b b8 94 e9 73 bb 0d 87 c9 3a ea b2 c0 3b
       -6.672861e-05 -0.003721808 0.0015375331 0.005880703
0000b0 21 08 82 3c 0b 28 26 39 ea ac 24 ba 7a fd ea b8
       0.015873017 0.00015845911 -0.000628187 -0.00011205203
0000c0 81 25 1c 3a b4 b4 96 39 03 75 d1 3b a5 6b 2c 3b
       0.0005956516 0.00028744864 0.0063921227 0.0026309278
0000d0 e3 c2 b8 3b b6 5c 52 ba e6 f1 80 3c 13 66 6b 3c
       0.0056384667 -0.0008024679 0.015740346 0.014367598
0000e0 8c 11 f5 3b ac 9f 71 3b a7 b3 ca 3b b4 ae 93 3b
       0.0074788984 0.0036868853 0.006185967 0.00450691
0000f0 21 08 82 3c fe 0d 4f ba 42 c1 82 3b 9e ba 86 3a
       0.015873017 -0.00078985083 0.0039903233 0.0010279005
000100 8c a1 7b 3c f8 42 ef bb ce 71 81 bb e8 d4 9f bb
       0.01535834 -0.0073016845 -0.003950334 -0.0048776753
000110 3d d8 62 3c 4c 56 17 bb b9 1f d5 bb af db ad bc
       0.013845501 -0.0023092208 -0.006504026 -0.021222917
000120 70 6f 36 bd 95 e2 ac 3d 8a 9d 23 3c 8a ad a8 3c
       -0.04453987 0.084416546 0.009986291 0.020590562
000130 bd 16 95 bb a9 d7 33 3c b2 81 5e 3b 00 e3 a9 bb
       -0.0045498298 0.01097671 0.0033951816 -0.005184531
000140 a3 2d 6f bd 29 a4 53 bb b3 9e 4a 3b d6 9b c1 3c
       -0.058393132 -0.0032293892 0.0030917346 0.023633879
000150 71 74 4a bc 73 d2 a1 bb d9 11 22 3a b0 6f 1a bc
       -0.012356863 -0.0049384176 0.0006182469 -0.009426042
000160 b9 6c 16 3b 59 d0 29 3c e4 62 f5 bb 67 7d b3 3a
       0.0022952987 0.010364615 -0.0074885953 0.0013693989
000170 5d fd 31 3a eb c3 f7 3b 73 ff 51 3c 00 e2 ec 38
       0.0006789768 0.007561197 0.0128172515 0.00011295453
000180 50 f7 51 3b 2a b6 42 3c 5a c7 84 3c 97 54 44 bc
       0.003203828 0.011884252 0.01620834 -0.011983058
000190 9d 7b 12 3c 98 54 8b bc f3 6e 26 bb 6b 09 da 39
       0.0089406045 -0.01700811 -0.002539572 0.00041587217
0001a0 22 7d c6 bb f6 fb df bb 78 31 58 3c 21 08 82 3c
       -0.0060573975 -0.006835456 0.013195388 0.015873017
0001b0 43 66 47 bc 9e eb aa ba 82 a7 a3 bb 6d 3b 99 3a
       -0.012170377 -0.001304019 -0.0049943337 0.0011690684
0001c0 49 22 42 bc bb 66 22 3c 84 91 c6 3b 31 22 04 3c
       -0.0118489945 0.009912188 0.0060598273 0.0080647925
0001d0 9b 82 7e bb cb 26 80 3c 6b 7e 8e 3b b8 06 71 3c
       -0.003883517 0.015643498 0.0043485663 0.0147110745
0001e0 dc 74 c2 3b a9 e7 5d 3c 28 3b d1 3b 33 08 82 3c
       0.005934341 0.013544002 0.006385226 0.01587305
0001f0 67 58 11 ba 81 18 b4 3b d4 19 29 3c 68 92 89 3d
       -0.0005544484 0.005496085 0.010321099 0.06717378
000200 17 81 b2 bd 6c 8d cd bc 74 b5 5e bd 85 e9 7a 3d
       -0.08716028 -0.02509185 -0.054372266 0.061257858
000210 0e ee 8e bc b0 fc 46 bd 47 d6 bb bd f0 c5 e4 bd
       -0.017447498 -0.048580825 -0.091717295 -0.11170566
000220 dd 32 38 3e cb 18 11 3d 43 15 66 3d 18 17 02 bd
       0.17988153 0.035424035 0.05617262 -0.031760305
000230 0f f4 7c 3d 75 1f cf 3c 70 d0 70 bd 60 cb 05 be
       0.06175619 0.025283555 -0.05879253 -0.13065863
000240 81 83 07 bb 33 42 c5 3c b2 d6 77 3d 1d 16 a0 bd
       -0.0020677748 0.024079418 0.060507484 -0.07816718
000250 d4 48 59 bd 67 51 0a ba 90 22 92 bd 70 1a b3 3c
       -0.05304797 -0.0005276412 -0.071354985 0.021863192
000260 aa 23 44 3d 0c 19 84 3b ea 3a a3 3c 34 94 8a 3c
       0.047885574 0.004031306 0.019925553 0.016916372
000270 71 f6 0e 3d 8c 18 64 3d 05 11 44 3c a3 98 c7 3c
       0.034902994 0.055687472 0.011966948 0.024364775
000280 ca 49 3e 3d c7 5d 7c 3c c5 3a ae bd cf 61 1d 3d
       0.04645709 0.015403218 -0.08507303 0.038423356
000290 9a b6 2f be 7f 99 2f bc 8c 5d ca bb 2a c8 7e 3b
       -0.171595 -0.010717749 -0.0061757024 0.0038876631
0002a0 17 6b ab bd 96 bd 8c 3d 21 08 82 3c b6 40 96 bd
       -0.08370035 0.06872098 0.015873017 -0.073365614
0002b0 4e 3e b3 bc 09 99 37 bd e8 d5 2b 3c 49 ac a6 bd
       -0.021880295 -0.04482368 0.010488011 -0.081383295
0002c0 0e 66 4c 3d 6d 7a 06 3d 2b 23 2f 3d 2a 69 0e bd
       0.049902014 0.032831598 0.04275815 -0.03476826
0002d0 10 85 e7 ba 30 b2 05 bc 97 82 5c 3d b9 64 0f 3d
       -0.0017663557 -0.008160159 0.053835478 0.035008166
0002e0 01 dc 0d 3d 8a f1 17 3d dc 04 82 3c 07 3f 0e bc
       0.03463364 0.037095584 0.015871458 -0.008682019
0002f0 fd 4a 09 3d 16 62 64 bb f0 d3 8d bc df 81 39 3c
       0.03351878 -0.0034848503 -0.017312974 0.011322468
000300 8d 30 61 3b 6c 3c 00 3c a5 d7 4f bc 6b 8b 39 3b
       0.0034361214 0.007826906 -0.012685691 0.002831186
000310 46 38 06 3b 12 fd 6b 3c 13 a2 05 3c 3c 1e b4 bd
       0.002048032 0.014403598 0.008156317 -0.08794829
000320 c1 5c a8 b8 46 cd 8f bc eb b6 6d 3b 6f 80 72 bc
       -8.028141e-05 -0.017553937 0.0036272358 -0.014801129
000330 4c ba 79 bb 9f b0 15 3c 76 a6 e5 3d 26 78 08 3a
       -0.0038105426 0.009136348 0.112133905 0.0005205892
000340 ee 95 79 bb 35 e1 91 bc 76 74 4f 3c 51 65 ee 3b
       -0.003808375 -0.017807582 0.012662044 0.0072752615
000350 79 a2 0c bb 3a d3 3d 3c 99 15 6e bb 92 f8 da bb
       -0.0021459146 0.011586005 -0.0036328791 -0.006682464
000360 6c 0b a7 3a 64 41 67 bb e1 8d 6e bb a3 ef 26 bb
       0.0012744493 -0.0035286779 -0.0036400484 -0.0025472424
000370 22 35 1c bc e7 26 5d bb 04 51 82 bb ea 52 ab bb
       -0.009534152 -0.0033745111 -0.003976943 -0.00522839
000380 6f bb 07 3b c4 c2 59 3c 47 87 4c bb 4d 88 4a 3e
       0.0020711084 0.013291065 -0.0031208561 0.19778557
000390 80 d9 e7 3a 60 7e 8c ba b0 aa 5e 3a b2 f4 5f 3c
       0.0017688721 -0.0010718815 0.00084940623 0.01366918
0003a0 9f 18 a4 bc 21 08 82 3c 3b 7c 40 3c e9 7c 5d 3b
       -0.020031272 0.015873017 0.011748369 0.0033796376
0003b0 3c 89 b5 3b 0d 77 68 bb 95 93 56 3c 5e 70 02 bc
       0.0055400413 -0.003547135 0.01309671 -0.007961361
0003c0 39 55 56 bb c2 d0 b5 bb be ba 9b 3b 4d 2e 5e 3c
       -0.0032704605 -0.0055485675 0.004752486 0.013560844
0003d0 04 5f 62 3d cf f1 f8 bb 01 62 85 bb cd ad 8e 3a
       0.055266395 -0.007597185 -0.004070521 0.0010885537
0003e0 af ec 8a bb 02 0c 82 3c 6f ad 26 39 06 c4 84 bb
       -0.0042396407 0.015874866 0.00015895603 -0.004051688
0003f0 23 e1 d9 3b 94 7d 2b 3d dc 30 46 bd e7 cc 7c bc
       0.006649153 0.041867808 -0.04838644 -0.015429712

dnets.0.conv.weight f4 [48, 3, 7, 7]
000000 c1 61 c7 bc 13 ec c4 3b 29 b8 0d bc c4 e9 9d bd
       -0.024338605 0.0060095876 -0.008649864 -0.07710603
000010 5d 78 15 bd 3d f2 85 bc a0 a8 38 bd d7 2b 81 bb
       -0.03649174 -0.01635086 -0.04508269 -0.0039419937
000020 cc 8d 56 bc 1c 52 2a bb 48 16 ba 3b 76 13 f9 bc
       -0.01309533 -0.0025988882 0.0056789257 -0.030404788
000030 5e 0b da ba a0 1c e9 3c 1e 31 47 bd 3e bf 11 bd
       -0.0016635468 0.028456032 -0.048630826 -0.035582773
000040 7e 08 01 3c 5e 01 8c 3d 24 ac 55 3d a3 82 3a bd
       0.00787556 0.06836198 0.05216612 -0.04553474
000050 f5 42 b3 3c f2 50 4e bc 14 cf 84 3b 90 3b a1 3d
       0.021882514 -0.012592541 0.004053006 0.07872689
000060 8c 2d 17 3e 0c fc 6b bd 36 cf a9 3b 5b cf b7 3d
       0.14763469 -0.057613418 0.005182172 0.08975097
000070 07 2e 07 bd 59 96 f7 bb f4 4d 94 bc 60 cd 67 bd
       -0.03300288 -0.0075557646 -0.018103577 -0.056592345
000080 aa 38 09 bc e9 4f 71 3c d6 6a 80 3c 97 f7 17 3c
       -0.008375326 0.014728525 0.015675943 0.009275339
000090 bb f1 0f 3d f3 de 06 bd 15 f1 ab 3d 31 66 e8 3c
       0.03514264 -0.032927465 0.08395592 0.028369041
0000a0 92 db 27 bd 00 8e 82 bc 9f e2 e4 3c c0 38 a2 bc
       -0.040980883 -0.015936852 0.027940093 -0.019802451
0000b0 ca 4d f0 bb f8 a2 54 bd af 9c 32 bc 74 eb 4b 3a
       -0.007333492 -0.05191323 -0.010901614 0.00077789207
0000c0 59 ca bd 3c da 68 bd bc bc ac 6e 3c e8 bf 00 3d
       0.023167776 -0.023121286 0.01456755 0.031433016
0000d0 1b 9b ba bb b6 a0 ab 3c bf ec 04 3d e3 25 ca bb
       -0.0056947595 0.020950656 0.03245234 -0.006169067
0000e0 40 0a 97 bc 99 0c cb 3a 98 c0 79 bc 46 3d 96 3b
       -0.018437505 0.0015491425 -0.015243672 0.004584941
0000f0 83 84 0a bd d0 6c ed 3c ba b8 b8 3c 22 79 36 bc
       -0.03381778 0.02898255 0.022549022 -0.011137279
000100 b0 e8 87 3c da f5 72 3c ed 35 54 3d 8b 90 3d bd
       0.016590446 0.014829123 0.05180924 -0.046280425
000110 55 e0 01 3d 78 4c 03 3d 6d f6 be 3c 15 92 92 bd
       0.03170808 0.03205535 0.023310864 -0.07156769
000120 c7 5a a9 bb 25 f2 f6 bd cf 67 72 bd 77 ba 56 3d
       -0.005168292 -0.12057904 -0.05918103 0.05242392
000130 3f 24 0d bd 1a 4a b7 3c 8b 54 9b 3b 01 2e 4e bd
       -0.034458395 0.022374202 0.004740303 -0.05033684
000140 ec c1 b3 bd 8b 8a 1b 3d a4 dc 05 bc f9 58 d1 3c
       -0.08777222 0.03797392 -0.008170281 0.02555512
000150 ea 67 4d bc 71 0f 72 3d 73 fb 1e bb 38 13 63 bc
       -0.012536982 0.059096757 -0.0024258762 -0.013859563
000160 9c 39 b0 3c b9 67 5b bc 76 00 95 3c 91 d6 64 bc
       0.021511845 -0.013391429 0.018188696 -0.013967172
000170 4f 04 3c bd 47 52 0d 3d cb ab e4 3c 89 8c 15 3d
       -0.045902546 0.034502294 0.027913949 0.036510978
000180 f7 2d 42 3d e8 50 b1 bc 66 4f 80 bc cd 3b 1f bb
       0.047407117 -0.021645024 -0.01566286 -0.0024297119
000190 9a e0 01 3d 51 2d 90 3d 07 d0 6d 3d 30 99 1a bc
       0.031708337 0.070398934 0.05805972 -0.009435937
0001a0 cd 47 99 bc 7f 5d 23 bc a5 e0 29 3c 42 67 e8 bc
       -0.018710995 -0.009971022 0.010368501 -0.02836955
0001b0 ab ab 5b 3c 3c 4b 84 3c 33 fc 3b bc 43 9b 53 3d
       0.013407628 0.016149156 -0.011473703 0.05166174
0001c0 0f 6c 65 3a 1e 36 16 bd 61 fd 08 bb 87 f5 89 bd
       0.0008751759 -0.036672704 -0.0020902979 -0.06736284
0001d0 1f cc ed 3b 82 d6 8f 3c 3f e5 63 bd 0a 59 9e bd
       0.007256999 0.01755834 -0.055638548 -0.077318266
0001e0 cb 1d 61 3d 42 2a 83 3d 76 36 00 3e 6f 2f f2 bc
       0.054960053 0.064045444 0.12520775 -0.029563634
0001f0 20 a6 78 3d 6f 6b 84 bd 9f c9 18 3c ca 97 98 3c
       0.060705304 -0.06465804 0.009325414 0.018627066
000200 2e 42 4d 3d 70 29 0f 3c 8d 3a 99 3c 35 53 15 bd
       0.050111942 0.008737907 0.018704677 -0.036456306
000210 23 64 af bc 6a 56 1f bb cd fb 04 bd 66 b8 f8 3c
       -0.021410054 -0.0024312981 -0.0324667 0.030361366
000220 11 2b 90 bd 04 db 9c bc e5 84 0d bd 10 2d 49 3d
       -0.07039464 -0.019147404 -0.034550566 0.04911524
000230 e1 4e 77 bd d9 55 df 3a a2 98 54 3c c8 b8 86 bd
       -0.06037796 0.0017039134 0.012975844 -0.06578213
000240 1f 9c 2e bd 33 04 06 3d b0 4f 06 3c a2 ec a6 3b
       -0.042629357 0.03271885 0.00819771 0.005094127
000250 f7 67 dd 3c 3a 30 91 bd 66 ad ae 3d 3b 23 27 bc
       0.027027113 -0.070892766 0.08529167 -0.010201271
000260 0b 17 8d 3c 03 5f ce bc 2a e8 0f 3c c1 51 83 3b
       0.017222902 -0.02519179 0.00878338 0.0040075486
000270 76 7e 10 bd 5b 2a 35 bd 91 f9 e2 3b 77 c5 b3 3c
       -0.035276853 -0.044229846 0.0069267233 0.021944745
000280 c9 11 03 bb 80 6d bc 3b 22 f2 df bc ef ca a6 3d
       -0.0019999614 0.005750358 -0.027337138 0.08144175
000290 1a 8c 60 3d 68 68 44 bd 6a 4e 23 3c 9b 69 8d bb
       0.05482111 -0.047951132 0.009967426 -0.0043155677
0002a0 1d cd af 3c a2 74 f1 bd ee 6d c9 3d 55 73 05 3e
       0.02146011 -0.11789824 0.098354205 0.13032277
0002b0 82 25 87 bd 11 47 07 bd a2 50 89 3c 74 0e 8c 3c
       -0.06598951 -0.03302676 0.016762082 0.017096736
0002c0 68 12 e3 bc a0 e9 2c 3d c2 e8 df 3c a0 9f a1 3d
       -0.027718738 0.04221499 0.027332667 0.07891774
0002d0 7b b8 fd bb 39 f0 0e bd 57 4b 96 3b 94 9d a4 bc
       -0.007742939 -0.034897063 0.004586618 -0.02009467
0002e0 dc f5 28 bc bf 3b 89 bd d9 08 be 3b 43 b7 d5 ba
       -0.010312524 -0.06700849 0.0057993946 -0.0016305227
0002f0 e8 b9 0c 3c 3d 63 bf bb 56 8e 7e bc 07 dd d1 3c
       0.008589245 -0.0058406875 -0.015536865 0.02561809
000300 5d dc ab bd bf 48 ba bc b9 80 f0 bc d6 c8 d5 3b
       -0.0839164 -0.022739766 -0.029358255 0.0065241857
000310 f5 c6 c2 bc 3c 13 6a 3b 0a b8 1c 3d e8 f5 72 3c
       -0.02377651 0.003571703 0.03826145 0.014829136
000320 89 bd d5 3b 3c 62 be 3c 0c cd 91 bc 2c 79 de bb
       0.0065228385 0.023240201 -0.01779797 -0.006789347
000330 a4 53 77 3c 17 5e e2 3c 65 c4 67 bd 34 f0 56 bb
       0.015095625 0.027632756 -0.05658378 -0.003279698
000340 a8 3a d9 3b 7e 68 c7 3b bc 9b 20 3b a1 a7 8b 3b
       0.006629307 0.0060854545 0.0024506887 0.0042619263
000350 ef d2 49 bd 4f 05 8a 3b 3c e0 65 bd 0d f5 0f 3d
       -0.049273428 0.0042120586 -0.05612205 0.035145808
000360 c0 16 75 3b b3 0d d3 bd bd 20 45 bd 61 51 e7 3c
       0.0037397593 -0.10305347 -0.048126925 0.028237047
000370 bd 32 b2 bd 7b c2 15 3e b9 d4 8b 3d 39 e2 07 bd
       -0.08701084 0.1462497 0.06827683 -0.033174727
000380 63 e5 05 bd b7 9c 64 3c 4b 84 65 3b 4b 44 12 3e
       -0.032689463 0.013953379 0.003502148 0.14283864
000390 86 e4 2b bd a3 d3 bd 3c 13 0e ca 3c 48 2e 30 bd
       -0.041965984 0.023172205 0.024664914 -0.043012887
0003a0 75 32 0f bb 86 2c ef 3c 83 74 1c bc 49 90 01 3d
       -0.0021850143 0.029196035 -0.009549263 0.03163174
0003b0 66 38 bd bc 8e 0e 34 3c 17 23 bd 3c 17 91 5b b9
       -0.023098182 0.010989798 0.023088021 -0.00020939518
0003c0 a3 c0 8b ba 0a fc a8 bd b8 30 ef bc f1 c7 90 3a
       -0.0010662269 -0.08251198 -0.029198036 0.0011045915
0003d0 a7 28 1c 3c ab 35 bc bb de 3d 2c 3c 81 f2 20 bc
       0.009531177 -0.0057437024 0.010512797 -0.009823442
0003e0 fa dc 93 bd 1a ed 07 3c e9 fe 0c bd 36 60 2d 3c
       -0.07219882 0.0082962755 -0.03442279 0.0105820205
0003f0 f4 79 1f bd a8 bd 2f bb f2 e8 76 3d 61 fc 7a bd
       -0.038934663 -0.0026815925 0.060280748 -0.061275844

dnets.1.means f4 [63]
000000 f3 76 30 3f 3f ca 87 3f bd 24 5a bf 1c 6d 5a be
       0.689315 1.0608596 -0.8521231 -0.21330684
000010 0b 6c 1e c0 66 38 ad 3f 44 92 d4 bd 49 00 12 bf
       -2.4753444 1.3532836 -0.103794605 -0.57031685
000020 29 ee c7 bf d5 e0 27 bf 2f 08 44 3f 90 f9 f6 3e
       -1.5619556 -0.6557744 0.7657499 0.48237276
000030 45 4a 0f 3f b1 5d ab be ff 06 9d 3f b5 3a 31 3f
       0.559727 -0.33469918 1.226776 0.69230205
000040 76 5f 23 c0 8e f7 db bf 7b f9 5e 3c 2c 86 26 3f
       -2.5527015 -1.7184923 0.0136092855 0.6504848
000050 6b e7 20 3f e7 23 e9 bf 64 8b 0a c0 aa 74 4a 3f
       0.62853116 -1.8214082 -2.1647577 0.79084265
000060 30 85 04 c0 a6 3b dc 3e 95 db f1 3f 59 01 04 bd
       -2.0706291 0.43014258 1.8895136 -0.032227848
000070 26 06 af 3e cf 4c 9e 3e e6 8d 36 3f ce 51 c8 3f
       0.34184378 0.30917975 0.7131027 1.5649965
000080 8d 6c 9b 3e c5 c9 6d 3f d8 69 0b 40 90 74 63 3e
       0.30356255 0.92886 2.1783352 0.22212434
000090 9f 33 a4 bf f6 ce 7b 3f 50 45 9a bf ee 10 d7 bc
       -1.2828254 0.9836267 -1.2052402 -0.02625319
0000a0 24 3b 39 3f 8b b9 c0 3c e3 ef 92 bf 54 53 70 3f
       0.72355866 0.023525974 -1.1479458 0.9387715
0000b0 c9 39 ac 3f 0a 11 1c c0 a1 39 a7 be 34 7b c1 bf
       1.3455135 -2.43854 -0.32661155 -1.5115724
0000c0 bd 57 69 3f 68 69 c0 bf c8 ea d4 3f 1b 69 4b 3f
       0.91149503 -1.5032167 1.663415 0.79457253
0000d0 9d 6c f4 3f fa 24 36 bf b6 fd 91 bf b9 ae 0f c0
       1.9095646 -0.7115017 -1.1405551 -2.2450392
0000e0 55 a9 e8 3f cd f2 e5 3f a8 70 fd 3e bd 0f 0b 40
       1.8176676 1.7964722 0.49500012 2.1728356
0000f0 e5 09 c0 bf b0 fe f3 3d 45 7e 47 40
       -1.500302 0.11913812 3.1170819

dnets.1.std f4 [63]
000000 3a 31 bf 3f 56 4a e4 be 2a 65 dd 3e d8 27 8b 3f
       1.4936898 -0.44587964 0.43241245 1.0871534
000010 a3 c0 cb 3f d1 98 10 bf b7 a9 a8 3f de d8 08 3f
       1.5918163 -0.5648318 1.3176793 0.53455913
000020 7c 41 42 3f cd 6d c2 3e 94 74 61 3e 50 47 0b 3f
       0.7588117 0.37974396 0.22017127 0.5440569
000030 e3 68 80 be 09 87 89 3f 73 03 03 3f 80 26 87 3f
       -0.25080022 1.0744334 0.5117714 1.0558624
000040 9e 98 b5 3f 68 f9 d6 3e 28 4a 5b 3f 18 0a 88 3f
       1.41872 0.41987157 0.8566003 1.062808
000050 22 9e 8e 3e 27 23 65 3f b6 b7 c4 3f 69 87 0d 40
       0.2785502 0.89506763 1.5368564 2.2113898
000060 95 32 84 3f 4b 7c 73 3f 1f b2 58 3f 85 d1 13 3f
       1.0327936 0.9511153 0.8464679 0.57741576
000070 a7 ef 67 3f 4e 58 6c 3f f8 41 38 3f d1 e1 2a 3f
       0.90600055 0.9232224 0.7197566 0.6675082
000080 8c b1 81 3f ad 3a 9d 3f 34 c0 82 3f 98 fa 8f 3e
       1.0132308 1.2283531 1.0214906 0.28120875
000090 e8 82 25 bf b9 16 36 3f 71 10 dc 3e 52 aa 89 3f
       -0.6465287 0.7112842 0.42981294 1.0755103
0000a0 e4 4a 2a 40 7b 88 02 3d 4f 08 13 3f 16 a3 c9 3e
       2.660821 0.03186844 0.5743455 0.39382237
0000b0 8d 7a 41 bc d3 b5 93 3f 57 36 23 40 6b 99 e8 3f
       -0.011809004 1.1539863 2.5501916 1.817182
0000c0 5a 54 d9 3f 6c a2 40 3f c4 89 3b 3f e2 09 5b 3f
       1.6978867 0.75247836 0.7325709 0.85561955
0000d0 86 84 68 3f e7 c9 e0 3f ff 3c 3b be 5c ee f6 3e
       0.90827215 1.7561616 -0.18284987 0.4822873
0000e0 10 c7 48 3f e1 40 97 3f 87 0c c7 3e cb 90 99 3f
       0.78428745 1.1816674 0.38876745 1.1997312
0000f0 c2 26 2a 3e bc c0 c8 3f 32 e5 e5 3f
       0.16616347 1.5683818 1.796057

dnets.1.weights_rbf f4 [48, 63]
000000 07 25 dc ba 97 da 85 bb e4 22 d9 3b ee 72 e5 3a
       -0.0016795703 -0.004084896 0.0066264737 0.0017505565
000010 e8 12 61 3b ce 55 34 bb c3 d6 4c 3a ed cc a5 3b
       0.0034343544 -0.0027516964 0.00078139844 0.0050598294
000020 a8 b2 71 3b 32 0e 26 3c 23 99 16 bc fe 11 41 bb
       0.003688017 0.01013522 -0.009191784 -0.0029460187
000030 87 bf 22 bc fa d8 17 3b 14 af f3 ba 3b 48 22 bb
       -0.009933359 0.00231701 -0.0018591606 -0.002476229
000040 80 ee 6a 3b 49 8c e8 bc 40 47 a8 39 28 0a 1c bb
       0.0035847723 -0.028387206 0.00032096542 -0.0023809765
000050 29 35 24 bc e9 9f 67 3b 2e e1 5b 3b 2c e5 86 ba
       -0.01002244 0.0035343117 0.0033550966 -0.0010291687
000060 b0 6a 6a 3b 5d 7a 08 bb 97 5a 01 bb 4e 32 b7 3a
       0.0035769157 -0.0020824887 -0.0019737834 0.0013976784
000070 38 b1 f8 ba 42 dc e2 ba 9d 47 3e bb c9 85 21 bb
       -0.0018973714 -0.0017308074 -0.0029034384 -0.0024646393
000080 b3 e8 c4 ba 83 71 25 bb 04 ff 3c bb ca 4f 21 bb
       -0.0015022963 -0.002524466 -0.0028838525 -0.0024614208
000090 0b 44 7d 3b d8 0c 43 bb 34 40 3d bd 82 3d 16 3a
       0.0038645293 -0.0029762294 -0.046203807 0.0005731211
0000a0 21 7b 2e ba 89 8f 80 3c 4d f1 90 3b ff 5c 88 bb
       -0.0006655921 0.015693443 0.0044232965 -0.0041614766
0000b0 21 08 82 3c 94 09 6e 3b 12 11 02 3a 4c 72 26 3b
       0.015873017 0.0036321627 0.000496165 0.0025397716
0000c0 1c 10 e4 ba cd 53 6b 3b ca 8b d5 ba 48 65 48 bb
       -0.001739982 0.0035908103 -0.0016292271 -0.0030577946
0000d0 c7 0d db ba 1f 7c e5 3a 9d 3d 86 3c 6d 6a 43 3c
       -0.001671248 0.0017508304 0.016386801 0.011927229
0000e0 46 a1 54 bb c3 55 25 bb 79 93 54 bb 83 8d 01 bb
       -0.003244476 -0.002522812 -0.0032436533 -0.0019768185
0000f0 8f f3 86 3c 49 7e 1d b9 45 b4 09 bb cc 00 5d ba
       0.01647356 -0.00015019732 -0.002101199 -0.00084305997
000100 e5 13 c7 3c 22 0d 04 bd 57 a2 a7 bb 06 a0 5c bc
       0.024301479 -0.032239087 -0.005115788 -0.013465887
000110 cd 97 b2 3c fe 42 84 bb 3f 50 89 bc 3d 71 f8 bc
       0.0218009 -0.0040363064 -0.016761897 -0.030327434
000120 ea 6a 1a bd 07 dc 52 3c 58 1b 30 3c 01 bf 02 3d
       -0.037699617 0.012869841 0.010748707 0.031920437
000130 75 a6 ce bb c2 e5 b2 3c e2 2b 20 3b db 57 84 bc
       -0.0063064643 0.021838073 0.0024440219 -0.016155174
000140 43 54 6e bd d8 76 24 bb 04 d6 06 3b 27 e6 08 3d
       -0.058185827 -0.002509525 0.002057434 0.033422615
000150 79 a0 cd bc 2d d7 50 bc 71 2e 15 bb 07 f9 b5 bc
       -0.025100933 -0.012746614 -0.0022763277 -0.022213472
000160 4c ad b7 3a 50 f5 8b 3c e6 51 1f bb 8f f5 6c 3a
       0.0014013438 0.017084748 -0.002431029 0.00090392766
000170 d0 9f 8c 39 1c b3 05 3c ff a2 a3 3c 02 97 19 ba
       0.0002682195 0.008160379 0.019975184 -0.0005858989
000180 77 7e 0e 3b a4 3e 81 3c b1 c6 e3 3c f8 1d ed bc
       0.002174286 0.01577694 0.027804704 -0.028944954
000190 7b 41 40 3c 72 6f 02 be df 43 5c bb 64 df 3d bb
       0.011734362 -0.12737826 -0.003360979 -0.0028972263
0001a0 83 e1 6a 3c fc 09 f2 bc 5e d4 cb 3c 1e 96 86 3c
       0.014335993 -0.029545777 0.024881538 0.016429003
0001b0 98 85 b7 bc 23 74 92 bb 41 87 0c bc b1 2a 57 ba
       -0.02240257 -0.004469411 -0.008577169 -0.00082079606
0001c0 06 22 dd bc fe 5d 94 3c 57 02 c9 3b 01 01 76 3c
       -0.026993763 0.018111225 0.006134312 0.015014888
0001d0 28 a1 cc bb 55 0b 82 3c 32 3b 0c bc e1 07 9f 3c
       -0.0062447973 0.015874544 -0.008559035 0.019412937
0001e0 45 99 08 3c 0f 07 86 3c 66 f2 30 3c 21 08 82 3c
       0.008337324 0.016360788 0.01079998 0.015873017
0001f0 b7 d9 4c bb ca 72 fe 3b 27 4c 24 bb 7e 53 80 bb
       -0.0031257698 0.0077651488 -0.0025069804 -0.003916203
000200 11 50 a7 3b 9d 07 73 3b 02 5c c3 3b 65 0b 46 bb
       0.00510598 0.0037083395 0.005961896 -0.0030219194
000210 ce 9f 0b 3b 5d 2a 38 3c 7c 08 ce 3b a9 32 72 3c
       0.0021304968 0.011240569 0.0062876325 0.014782586
000220 31 35 2e 3d ee 79 b1 bb 19 27 a3 ba db c7 98 3b
       0.042531196 -0.0054161465 -0.0012447565 0.0046624965
000230 9d 70 30 bb 6a 92 76 bb 77 59 c3 3b 1a 09 21 bd
       -0.0026922591 -0.003762389 0.005961593 -0.03931532
000240 ad 47 24 3a 8d ea 6c bb a7 82 51 bb a9 0e bf 3b
       0.0006266784 -0.0036150545 -0.0031968744 0.005830605
000250 e4 2b c1 3b 32 fd ab ba e7 fa c2 3b 63 66 54 bb
       0.0058951247 -0.0013121723 0.00595032 -0.003240966
000260 42 d5 4b bb 83 5b cc 3a 4e 11 44 bb 61 ac 2f bb
       -0.0031102453 0.0015591237 -0.002991754 -0.0026805627
000270 c6 b2 a1 bb a0 ec 45 bb 42 53 1d bb 12 d9 75 bb
       -0.0049346415 -0.0030200854 -0.0024005924 -0.0037513417
000280 53 87 67 bb 07 0b d0 bb d6 e2 90 3b c5 6d a6 bb
       -0.0035328462 -0.006348971 0.004421572 -0.0050790035
000290 17 dd 39 bd be 95 c0 3a 65 da 0f ba de 83 68 3c
       -0.045376863 0.0014693064 -0.00054875604 0.014191596
0002a0 a5 c2 f4 3a 18 7b 6f bb 20 02 8b 3c c1 a8 d8 3b
       0.0018673731 -0.0036541875 0.016968787 0.006611914
0002b0 a0 51 05 3b 26 e6 a8 3b 0f 2d 2a bb b5 84 a3 3b
       0.0020342842 0.005154389 -0.0025966798 0.004990185
0002c0 08 ce 43 bb e1 33 98 bb bd fb 62 bb 6b 5b 86 3b
       -0.0029877443 -0.0046448563 -0.003463491 0.0041002533
0002d0 79 59 8d 3c 28 fd c5 3b 7d 03 4b bb fe 19 90 bb
       0.017254578 0.0060421415 -0.003097742 -0.0043976298
0002e0 4b 4b a6 bb b8 ce 7a bb d3 07 82 3c 31 5b a4 39
       -0.0050748936 -0.0038270187 0.015872872 0.0003134846
0002f0 e2 f8 5c bb 3d 51 c6 3a 8f 4e 65 3d 69 df 54 bd
       -0.0033717682 0.0015130412 0.055983122 -0.051970873
000300 bb 65 e7 bb 58 70 9b bc 63 a5 47 3d 89 21 94 bb
       -0.0070616878 -0.018974468 0.04874171 -0.0045205993
000310 76 09 ea bc 91 5a 8f bd 30 7a fc bd 5f 06 70 3c
       -0.028568964 -0.06999696 -0.12327993 0.0146499565
000320 21 cd 96 3c 4a 5c 82 3d 90 4e 18 bc 16 8d 2d 3d
       0.01840836 0.06365259 -0.0092960745 0.04237088
000330 3d c6 d6 3b 81 d4 c3 bc 71 5b ac bd e4 fe 3f bb
       0.0065543936 -0.02390504 -0.084158786 -0.0029296214
000340 9b dd be 3b 34 d2 8a 3d 88 31 4c bd b0 26 91 bc
       0.0058247573 0.06778374 -0.049851924 -0.017718643
000350 1c 8b 0a ba 64 54 26 bd 5c cb 7b 3b 4c 15 05 3d
       -0.0005285011 -0.040607825 0.0038420772 0.032491013
000360 25 2f 9c bb 4a 93 29 3b 7e 31 cf 3a ef 08 83 3c
       -0.0047663623 0.0025875145 0.0015807597 0.01599547
000370 1f 83 30 3d 4d 4c 14 3a ba 21 da 3b 74 05 11 3d
       0.043093797 0.00056571217 0.0066568526 0.03540559
000380 67 1f 2a 3d 4a 64 62 bd 7c 3d be 3c d7 f7 3a 3b
       0.041533854 -0.055271424 0.023222677 0.0028529072
000390 ff 04 75 bb cd ca c7 ba d1 bc 33 3c 73 a0 42 bd
       -0.003738701 -0.0015242934 0.01097031 -0.047516298
0003a0 58 54 57 3d 21 08 82 3c 4f 2c 38 bd 81 81 93 bb
       0.05257067 0.015873017 -0.04496413 -0.004501522
0003b0 fa c9 42 bc 92 92 f1 3a fd a9 55 bd 29 7b 08 3d
       -0.011888975 0.0018430522 -0.052164067 0.03332058
0003c0 3d 30 52 3c 9c 3d d5 3c 66 2f 06 bc 21 08 82 3c
       0.012828884 0.026030354 -0.008190012 0.015873017
0003d0 1b dc 74 3c 0f 64 3e 3d da 5c 83 3c 1a 85 fe 3c
       0.014945055 0.046482142 0.016035486 0.031069327
0003e0 53 8f 98 3c 21 08 82 3c ab 92 24 bb 24 c3 64 3c
       0.01862303 0.015873017 -0.0025111835 0.013962541
0003f0 27 52 a7 ba 87 7a 2c bb 84 78 d3 3c 85 b0 cd 3a
       -0.0012765572 -0.002631815 0.025814302 0.0015692866

dnets.1.conv.weight f4 [48, 3, 7, 7]
000000 72 72 d6 3b 1e a0 88 3c 1c 72 30 bd 49 e0 70 bd
       0.0065444047 0.016677912 -0.043077573 -0.058807645
000010 8c 2a 86 bd b5 ed 46 bc 12 ad 90 bd c7 bc 06 3c
       -0.06551084 -0.012141635 -0.070642605 0.008223719
000020 67 60 5e 3d 45 42 8c 3b c2 1a e7 bc 98 a4 89 3d
       0.054291155 0.004280361 -0.028211001 0.06720847
000030 ef 78 58 bd df 33 8d 3d d7 8c d7 3b 98 aa c5 bb
       -0.052849706 0.06894659 0.0065780687 -0.0060322993
000040 c9 b0 44 bc 47 31 9f 3b 94 b6 19 bd b5 cd 97 bb
       -0.0120050395 0.0048581692 -0.037527636 -0.0046326765
000050 2e 5c a0 bd ca fe 5e 3d fc dc 1d bd d7 fd 52 3d
       -0.07830082 0.054442205 -0.038540825 0.05151161
000060 4c c4 3e 3d 9a 14 df bc 9f 37 07 3d 1d f6 b1 bd
       0.046573922 -0.027231503 0.03301203 -0.086895205
000070 27 45 67 3d aa 65 8e 3c cb 79 91 3d f5 fd 9a 3d
       0.056462433 0.017382462 0.07103308 0.0756797
000080 0e 2b d4 3c 87 ee 65 bd 85 d4 47 bc 68 96 27 3d
       0.025899436 -0.05613568 -0.012196665 0.040914923
000090 fc bd 63 bd 7d e5 51 3d 2d 1f 46 3d d7 bd 09 bd
       -0.055601105 0.051244248 0.048369575 -0.03362831
0000a0 91 03 0c bd 53 31 a3 3c 3d 83 9f bc a7 9a ac bc
       -0.03418309 0.01992098 -0.019471759 -0.021069838
0000b0 07 5a a8 3c 36 a3 57 3c 2e 50 3c 3c 73 59 7b bd
       0.02055074 0.013161471 0.011493726 -0.061364602
0000c0 7d bb 3e 3d 9c c7 fe bc 01 f3 81 bd 02 c5 01 3c
       0.04656552 -0.03110104 -0.063451774 0.0079205055
0000d0 cd 33 be 3d 19 39 40 bd dc 79 d8 3c 00 b5 1b 3d
       0.09287224 -0.046929453 0.026425295 0.038014412
0000e0 cb 2d 77 3d 50 17 7d bd f9 1f ed bb 5d b0 fa bc
       0.060346406 -0.06178981 -0.0072364775 -0.030601675
0000f0 0f 5c 11 bd 62 ac a3 3d 78 da 4b bc 18 dd 96 bd
       -0.035488185 0.07991864 -0.012442224 -0.07366389
000100 fa 04 13 3d cd 7c 49 bc 87 76 3f 3b ab e2 b0 3d
       0.035893418 -0.012297821 0.0029214935 0.086369835
000110 52 c0 24 bc 71 70 6d 3d 68 f4 9f ba 6c a2 02 3d
       -0.010055618 0.05796856 -0.0012203576 0.03189318
000120 dc 3f 9e 3c f7 db 41 bd b6 c8 c2 bc 90 70 ef 3b
       0.01931756 -0.047328915 -0.023777347 0.0073071197
000130 68 70 5d bc 37 17 46 3d 42 e7 58 3d fc 2e cc bb
       -0.013515569 0.048361983 0.05295492 -0.006231187
000140 a4 99 7f bd 33 e9 1c bd 6d ce d0 bb a6 4d 94 3c
       -0.062402382 -0.038308334 -0.006372264 0.018103432
000150 89 25 02 bd a8 3b bd ba 49 7a 86 bc 4c 27 3a 3d
       -0.031774078 -0.0014437335 -0.016415732 0.045447633
000160 61 6b 6f b9 35 99 2d 3c db ac 1b bd d2 51 a6 bd
       -0.00022832818 0.010595609 -0.038006645 -0.08121075
000170 eb c8 fe 3c 52 19 6f 3c a1 02 03 3b 7e 75 06 3c
       0.031101665 0.014593439 0.001999058 0.008206723
000180 e7 53 dc 3c 44 a8 89 bd bb 18 26 bb d9 df 4e 3c
       0.026895477 -0.06721547 -0.002534433 0.012626612
000190 13 95 d3 bc 73 b5 7c bd f9 74 92 3d 2d 65 d0 3d
       -0.02582792 -0.06169648 0.07151217 0.10175548
0001a0 dd c2 88 3c 16 6c a0 3d 0d d1 d3 bc 43 89 04 bc
       0.01669448 0.07833116 -0.02585652 -0.008089366
0001b0 13 eb 33 bd 97 86 a9 3d 7d 90 74 3d 6b 21 43 bc
       -0.043925356 0.08277624 0.059708107 -0.011909823
0001c0 dc 22 75 bd c5 65 4d bd b5 c6 ac 3d 22 12 80 bd
       -0.059847698 -0.050145883 0.08436338 -0.062534586
0001d0 9c e6 55 bd 71 d7 b2 bc 81 b3 18 bc c0 97 2d 3d
       -0.05222188 -0.021831246 -0.009320141 0.04238105
0001e0 7d b3 86 bd 53 60 4e bd d5 2c 19 3d ce 28 8d bd
       -0.065772034 -0.05038483 0.03739627 -0.068925485
0001f0 e5 0b 7b bd 5f 0a ad 3d 4d 1f f1 ba ec 47 c0 3b
       -0.06129064 0.08449244 -0.0018396169 0.0058679488
000200 de 3a 3b bd cc 3b 7b 3d 04 ee 27 bc 11 39 0b bd
       -0.045710437 0.061336324 -0.010249618 -0.03398997
000210 d5 2d 41 bd bd 97 86 bd 10 93 9b bd 70 ed 2d bd
       -0.04716285 -0.065719105 -0.07596409 -0.042462766
000220 68 6d bf 3d 01 1d 18 3d ea d9 14 3d da c7 bf 3c
       0.093470395 0.037137035 0.03634063 0.023410726
000230 8d 2f 82 3d 03 0a 5e 3d 5e b1 34 bd b0 9a 23 bd
       0.06356726 0.054208767 -0.044114463 -0.039942443
000240 ea 5b 39 bd cc f1 e0 bc 6a b3 9d 3d d8 aa 8c 3d
       -0.04525367 -0.027459048 0.07700236 0.06868523
000250 d9 62 8c bc b8 37 9a 3d c2 a5 e7 bc a6 19 5c bd
       -0.017136978 0.07530159 -0.028277282 -0.053735398
000260 c6 d9 80 3d f5 fd 7a 3d 17 cf 06 bc c5 0d 56 3d
       0.06291537 0.06127735 -0.008228085 0.052259225
000270 91 07 d7 bc 5f e6 1e 3d 08 cd c0 bc 7c eb dd bc
       -0.026248725 0.038793918 -0.023535267 -0.027089827
000280 a6 ab 6c bd 9a bc ce bd de 02 a8 bd 08 35 bd 3c
       -0.057780884 -0.10094567 -0.08203672 0.023096576
000290 e5 38 00 3b 08 51 37 bd 33 4b b7 3d 34 2a 71 bd
       0.0019565162 -0.04475501 0.0894989 -0.05887814
0002a0 3f de 27 3d 2a c6 d4 3c c9 b1 2b 3d ba 0e 0d bd
       0.040983435 0.025973398 0.041917596 -0.034437872
0002b0 cd cf 85 3c 22 55 4c bc 97 84 92 3d e1 82 3f bd
       0.016334439 -0.012471469 0.07154196 -0.046755675
0002c0 7e b8 95 3c a8 25 aa bc 7d 66 3c 3d 22 8a 57 3d
       0.01827645 -0.020769909 0.045996178 0.052621968
0002d0 f8 ed 7c bd 63 5b 52 bd c4 38 31 3d 6d e0 5a 3d
       -0.061750382 -0.051356684 0.043267027 0.053436685
0002e0 2b d3 aa bc 76 25 5b bc 58 8d 78 bd ba 12 84 3d
       -0.020852646 -0.013375631 -0.06068167 0.06448884
0002f0 c8 a4 40 bd 58 ee 8c bd 20 77 6a bd bd ee b5 3d
       -0.047032148 -0.06881398 -0.057242513 0.08883426
000300 ea b3 83 bd b2 8d d3 bc b1 51 ee 3c c6 cb 0f 3d
       -0.064308 -0.025824402 0.029091688 0.035106443
000310 c0 ea 6b 3d ef b1 30 bd 71 ec 95 bc 9c 64 a1 3c
       0.057596922 -0.04313844 -0.01830122 0.019701295
000320 ad 7c 88 bd a3 13 ba bb 60 ba 1b bd 62 9a 0c 3d
       -0.06664405 -0.0056786104 -0.038019538 0.03432692
000330 ca 78 8c bd b6 6c aa bd b2 dc 06 bd ac c5 72 3d
       -0.06858976 -0.08321516 -0.032925315 0.059270546
000340 c3 76 39 3d b4 4d 9a 3d 89 f7 47 3d 62 d5 d1 3c
       0.045279276 0.07534352 0.048820052 0.025614444
000350 2d eb 83 39 f5 0e bf 3b 7d e5 a8 3c 96 70 82 bd
       0.00025161487 0.0058306404 0.020617241 -0.0636913
000360 c9 7b cc 3c 76 3d 86 bc d6 a6 74 3d 40 df 6c bd
       0.02496137 -0.016386729 0.05972942 -0.057830095
000370 a5 2d 66 3d fe 1c 8c 3d 2a eb df 3c 5c f5 61 bd
       0.056195874 0.06841467 0.027333815 -0.055165634
000380 c1 f5 92 3d 15 8b 85 3d 3d c8 2d bc b5 2a d1 3c
       0.0717578 0.065206684 -0.010606823 0.02553306
000390 4c 60 66 bd a3 35 34 3d 92 96 b7 3c e9 06 b0 bd
       -0.05624418 0.043996464 0.022410665 -0.08595068
0003a0 7e c7 89 bd 0e 8e f8 bc 96 71 ae 3d b3 25 7b bd
       -0.06727503 -0.030341174 0.085177585 -0.06131525
0003b0 a3 cc a6 bd 3a 63 ce 3a 4c d9 8f 3d 50 30 fe bc
       -0.081445 0.0015746125 0.07023868 -0.031028897
0003c0 65 09 9e bc de ae 29 3d 2d cd f1 3b 46 51 13 bb
       -0.019291589 0.041426532 0.007379195 -0.0022478863
0003d0 10 07 28 bd 23 06 7b bd 69 5c 25 bd dd 79 2b 3d
       -0.04102236 -0.06128515 -0.040371332 0.041864265
0003e0 38 08 6c bd c6 ac 9d 3d 84 3a 6e bd 43 f2 7a bd
       -0.057625026 0.076989695 -0.058161274 -0.061266195
0003f0 2c 32 cd bc fd 59 35 3c eb 66 0d 3d 42 85 a3 3d
       -0.025048338 0.011068818 0.03452198 0.07984401

dnets.2.means f4 [63]
000000 f3 76 30 3f 3f ca 87 3f bd 24 5a bf 1c 6d 5a be
       0.689315 1.0608596 -0.8521231 -0.21330684
000010 0b 6c 1e c0 66 38 ad 3f 44 92 d4 bd 49 00 12 bf
       -2.4753444 1.3532836 -0.103794605 -0.57031685
000020 29 ee c7 bf d5 e0 27 bf 2f 08 44 3f 90 f9 f6 3e
       -1.5619556 -0.6557744 0.7657499 0.48237276
000030 45 4a 0f 3f b1 5d ab be ff 06 9d 3f b5 3a 31 3f
       0.559727 -0.33469918 1.226776 0.69230205
000040 76 5f 23 c0 8e f7 db bf 7b f9 5e 3c 2c 86 26 3f
       -2.5527015 -1.7184923 0.0136092855 0.6504848
000050 6b e7 20 3f e7 23 e9 bf 64 8b 0a c0 aa 74 4a 3f
       0.62853116 -1.8214082 -2.1647577 0.79084265
000060 30 85 04 c0 a6 3b dc 3e 95 db f1 3f 59 01 04 bd
       -2.0706291 0.43014258 1.8895136 -0.032227848
000070 26 06 af 3e cf 4c 9e 3e e6 8d 36 3f ce 51 c8 3f
       0.34184378 0.30917975 0.7131027 1.5649965
000080 8d 6c 9b 3e c5 c9 6d 3f d8 69 0b 40 90 74 63 3e
       0.30356255 0.92886 2.1783352 0.22212434
000090 9f 33 a4 bf f6 ce 7b 3f 50 45 9a bf ee 10 d7 bc
       -1.2828254 0.9836267 -1.2052402 -0.02625319
0000a0 24 3b 39 3f 8b b9 c0 3c e3 ef 92 bf 54 53 70 3f
       0.72355866 0.023525974 -1.1479458 0.9387715
0000b0 c9 39 ac 3f 0a 11 1c c0 a1 39 a7 be 34 7b c1 bf
       1.3455135 -2.43854 -0.32661155 -1.5115724
0000c0 bd 57 69 3f 68 69 c0 bf c8 ea d4 3f 1b 69 4b 3f
       0.91149503 -1.5032167 1.663415 0.79457253
0000d0 9d 6c f4 3f fa 24 36 bf b6 fd 91 bf b9 ae 0f c0
       1.9095646 -0.7115017 -1.1405551 -2.2450392
0000e0 55 a9 e8 3f cd f2 e5 3f a8 70 fd 3e bd 0f 0b 40
       1.8176676 1.7964722 0.49500012 2.1728356
0000f0 e5 09 c0 bf b0 fe f3 3d 45 7e 47 40
       -1.500302 0.11913812 3.1170819

dnets.2.std f4 [63]
000000 3a 31 bf 3f 56 4a e4 be 2a 65 dd 3e d8 27 8b 3f
       1.4936898 -0.44587964 0.43241245 1.0871534
000010 a3 c0 cb 3f d1 98 10 bf b7 a9 a8 3f de d8 08 3f
       1.5918163 -0.5648318 1.3176793 0.53455913
000020 7c 41 42 3f cd 6d c2 3e 94 74 61 3e 50 47 0b 3f
       0.7588117 0.37974396 0.22017127 0.5440569
000030 e3 68 80 be 09 87 89 3f 73 03 03 3f 80 26 87 3f
       -0.25080022 1.0744334 0.5117714 1.0558624
000040 9e 98 b5 3f 68 f9 d6 3e 28 4a 5b 3f 18 0a 88 3f
       1.41872 0.41987157 0.8566003 1.062808
000050 22 9e 8e 3e 27 23 65 3f b6 b7 c4 3f 69 87 0d 40
       0.2785502 0.89506763 1.5368564 2.2113898
000060 95 32 84 3f 4b 7c 73 3f 1f b2 58 3f 85 d1 13 3f
       1.0327936 0.9511153 0.8464679 0.57741576
000070 a7 ef 67 3f 4e 58 6c 3f f8 41 38 3f d1 e1 2a 3f
       0.90600055 0.9232224 0.7197566 0.6675082
000080 8c b1 81 3f ad 3a 9d 3f 34 c0 82 3f 98 fa 8f 3e
       1.0132308 1.2283531 1.0214906 0.28120875
000090 e8 82 25 bf b9 16 36 3f 71 10 dc 3e 52 aa 89 3f
       -0.6465287 0.7112842 0.42981294 1.0755103
0000a0 e4 4a 2a 40 7b 88 02 3d 4f 08 13 3f 16 a3 c9 3e
       2.660821 0.03186844 0.5743455 0.39382237
0000b0 8d 7a 41 bc d3 b5 93 3f 57 36 23 40 6b 99 e8 3f
       -0.011809004 1.1539863 2.5501916 1.817182
0000c0 5a 54 d9 3f 6c a2 40 3f c4 89 3b 3f e2 09 5b 3f
       1.6978867 0.75247836 0.7325709 0.85561955
0000d0 86 84 68 3f e7 c9 e0 3f ff 3c 3b be 5c ee f6 3e
       0.90827215 1.7561616 -0.18284987 0.4822873
0000e0 10 c7 48 3f e1 40 97 3f 87 0c c7 3e cb 90 99 3f
       0.78428745 1.1816674 0.38876745 1.1997312
0000f0 c2 26 2a 3e bc c0 c8 3f 32 e5 e5 3f
       0.16616347 1.5683818 1.796057

dnets.2.weights_rbf f4 [48, 63]
000000 17 d6 1b b9 c2 a9 c3 3b ed bb a2 ba 5e 21 47 3a
       -0.00014861707 0.0059711644 -0.0012415625 0.00075962197
000010 66 e7 1e 3b d4 b8 94 3a 71 41 fc 39 0a 46 77 3b
       0.002424681 0.0011346587 0.00048113943 0.0037730956
000020 d8 19 0d 3a 9a 6f 2b 3b 08 f3 8f 3c b2 e7 a5 bb
       0.0005382574 0.002615905 0.017571941 -0.0050630206
000030 c1 c2 11 3d 7a 64 88 3a 51 d4 41 ba b9 ee 82 ba
       0.035586122 0.0010405921 -0.00073940033 -0.0009989358
000040 3c a7 28 3b 9f 43 81 bc e4 14 40 39 55 c6 70 ba
       0.0025734445 -0.015779315 0.00018318329 -0.0009184827
000050 f2 d6 05 3d 0b 1f dc 3a 9c a9 18 3b be 21 36 39
       0.03267569 0.001679392 0.0023294454 0.00017369443
000060 22 45 11 3b b5 e4 73 ba 5c c2 16 bb 36 d3 4c 39
       0.002216645 -0.00093037944 -0.002300403 0.00019533638
000070 7f 34 67 ba b5 67 3a ba 8e c8 4d bb 4e 0c 12 ba
       -0.0008819773 -0.00071107905 -0.0031400057 -0.00055712915
000080 ca d1 de b9 aa 42 47 ba 72 43 7c b9 70 60 60 bb
       -0.00042499445 -0.0007601181 -0.00024057718 -0.0034237169
000090 83 7d ad 39 2d c7 88 bb ea 0c 3a bd 38 8a c1 39
       0.00033090645 -0.004174134 -0.045422472 0.0003691481
0000a0 bc 46 90 39 27 84 10 3c 9d b7 22 ba db a5 00 3c
       0.00027518522 0.00882057 -0.000620717 0.007852043
0000b0 67 39 7a 3c 94 19 14 3b 2e 2e 03 3a e2 a4 b3 3a
       0.015272475 0.0022598254 0.0005004135 0.0013705755
0000c0 e1 ed be b8 ca 37 89 3a f3 cf 59 bb d1 8e 0c bb
       -9.1042144e-05 0.0010468897 -0.003323552 -0.002144743
0000d0 bf 7c 80 bb 7e 17 60 3a 13 e5 39 bd 34 d7 eb bc
       -0.003921121 0.00085484225 -0.045384478 -0.02878914
0000e0 7a 5c 79 3a 4a f4 0b bb ad 34 0b bc b0 ca 31 bb
       0.0009512376 -0.0021355324 -0.008496446 -0.0027128868
0000f0 5c 4d 80 3c b2 e8 99 39 f4 61 86 ba e0 9e 2d b9
       0.015661888 0.00029355806 -0.0010252581 -0.00016557751
000100 87 11 51 3c 73 18 02 bd 1b d7 db b9 3f 9c bb bb
       0.0127605265 -0.031761598 -0.000419312 -0.005725413
000110 7e 41 0e 3c 36 6b 42 ba f2 50 07 bb 13 a7 e7 bc
       0.008682607 -0.00074164884 -0.0020647612 -0.02827791
000120 86 d3 0e bd f1 8a e9 3a 54 89 7d 3a ff 60 f4 3c
       -0.034869693 0.0017817897 0.00096716476 0.029831408
000130 ec 6e 4a ba 3a 6f 07 3c b6 2a 6a 3a 3b 34 02 bc
       -0.0007722217 0.008266265 0.0008932756 -0.007947023
000140 c1 be 4a bd 23 36 87 3a 34 e9 5f 3a 2e e6 e1 3c
       -0.049498323 0.0010315817 0.0008541525 0.027575579
000150 73 8c a1 bc 32 44 a1 bb 10 0a 85 ba 79 3c 7b bc
       -0.019720292 -0.0049214596 -0.0010150094 -0.015334242
000160 ca 13 80 3a dc 24 5e 3b c1 b8 65 3b 89 58 80 3a
       0.0009771523 0.0033896482 0.003505275 0.000979201
000170 88 29 5f 3a de 53 b1 3a 8d 42 cb 3b 6e 0a 0d 3a
       0.00085129635 0.0013529023 0.006203002 0.0005380277
000180 d9 13 1a 3a 8f 6f 86 3b 7e 5d cc bb 03 40 d6 bc
       0.00058775913 0.0041026543 -0.006236731 -0.02615357
000190 05 2e ae 3a 38 0e 2a be 67 c8 59 38 b1 8e b5 ba
       0.0013288861 -0.16606987 5.192347e-05 -0.001385173
0001a0 93 d6 2e 3c 81 a4 e2 bc 5e c6 69 3c 21 08 82 3c
       0.010671276 -0.027666332 0.014268486 0.015873017
0001b0 dc 62 84 bc 86 c7 02 bb e0 17 58 bb 92 ab ab b9
       -0.016160421 -0.001995535 -0.0032973215 -0.00032743491
0001c0 ee c6 b9 bc 43 2d 69 3b 45 f0 a3 3a 6f 63 fc 3a
       -0.022677865 0.0035579957 0.0012507519 0.0019255708
0001d0 99 cd 13 bb 4c 24 5d 3c 22 c4 07 bd 8e 71 d1 3b
       -0.0022552966 0.013497423 -0.03314603 0.0063917106
0001e0 65 d8 77 3a 58 49 ba 39 c2 36 a9 3a 21 08 82 3c
       0.00094545475 0.0003553133 0.0012909996 0.015873017
0001f0 34 aa 5e ba bb f2 a3 3a 7d 8f bb b9 9e 10 8b 3c
       -0.000849399 0.0012508252 -0.00035774327 0.016975697
000200 83 6f 2a bc 7e 96 2e bb 4d 25 09 bc 4b 02 8b 3c
       -0.010402563 -0.0026639993 -0.00837071 0.016968867
000210 4a 46 24 bb f0 11 3c bb b8 3d 35 bd 64 89 8c bd
       -0.002506631 -0.0028697215 -0.044248313 -0.06862143
000220 18 8e 86 3c 8a 53 23 3c bb 73 ca 3b 01 ed 6c bb
       0.016425177 0.009968648 0.006178347 -0.0036152008
000230 03 96 85 3c a8 f5 43 3b 2e 84 29 bc 82 6b 07 be
       0.016306883 0.0029901061 -0.0103464555 -0.13224605
000240 4b d0 92 b9 82 57 2c 3b c9 ce 86 3b c2 3b d7 bc
       -0.0002800248 0.0026297276 0.004114006 -0.026273612
000250 67 f8 fc bb 94 a8 0a bb d6 67 a4 bc 5d cd eb 3a
       -0.0077200416 -0.002115761 -0.020069044 0.001799028
000260 61 fa 46 3c fb e9 06 3b be e4 86 3a 6f aa b0 39
       0.012144656 0.002058624 0.0010291559 0.0003369632
000270 26 e5 03 3c d9 7d 80 3c 52 5b c0 b9 e8 c8 26 3b
       0.008050239 0.015685009 -0.00036689133 0.002544934
000280 48 0d 61 3c 3e e3 10 3c 58 52 cb bc 52 a8 21 3c
       0.013736077 0.008843241 -0.024819538 0.009866791
000290 3d 6c a5 bd 17 fe b6 ba 60 88 38 bb 81 0e 79 3c
       -0.080772854 -0.0013961223 -0.0028157458 0.015201212
0002a0 34 86 6e bc 77 96 8e 3c 21 08 82 3c e4 ca d3 bc
       -0.014558364 0.017405732 0.015873017 -0.025853582
0002b0 82 42 8b bb 7c 35 ea bb 24 e3 d4 b9 5c 1f cd bc
       -0.0042498717 -0.007147489 -0.00040605024 -0.025039367
0002c0 de a0 43 3c 14 ad cc 3b bf 15 03 3c 2b 00 b2 bb
       0.011940209 0.0062462185 0.00800079 -0.005432149
0002d0 99 9c 80 3c 80 93 19 bd c6 4a 83 3c 2f 77 a9 3b
       0.015699672 -0.037494183 0.016026866 0.0051716785
0002e0 74 c2 6c 3c 5b 8f aa 3b 21 08 82 3c 3b 3a 19 bb
       0.014450658 0.0052050776 0.015873017 -0.0023380655
0002f0 8d 60 88 3b 72 bf 5e 3a 7a c4 56 3c 11 6a 7e 3b
       0.0041619004 0.00084971555 0.013108367 0.0038820545
000300 12 51 8f b8 8e 16 2f 3b 56 94 1d 3c a4 7d 1e 3a
       -6.833872e-05 0.0026716325 0.009617886 0.00060459436
000310 e1 50 9b ba c6 be 1a bc 80 99 b7 bc 78 74 18 3d
       -0.0011849665 -0.009444898 -0.022412062 0.03722045
000320 a2 5a 1e bb 58 cb b9 3c 44 07 40 b9 9f 1d bf 3b
       -0.0024162908 0.02267997 -0.00018313254 0.0058323885
000330 5d 6a 8c 39 02 c6 33 3b 3c b3 e5 bb 06 c1 fd b9
       0.00026782128 0.0027431254 -0.007009892 -0.00048399734
000340 5e cf 57 39 d5 9f d9 3c 58 99 38 bb 79 5f 22 3b
       0.00020581248 0.026565472 -0.0028167572 0.0024776144
000350 ac f9 bc 3a 29 b4 12 ba 6a c1 f5 b9 c5 fe 84 3b
       0.001441767 -0.0005596304 -0.00046874146 0.004058691
000360 cc 48 22 bb 0f 60 42 ba 03 0d 30 ba f7 3d 6a b9
       -0.0024762629 -0.00074148265 -0.0006715806 -0.00022339063
000370 2c ff f2 3b d0 ba a2 b9 51 dd 5a 3a 2d 56 e5 3b
       0.0074156728 -0.00031038234 0.0008349019 0.0069987983
000380 7d f7 5c bc 0c 0e f0 ba d4 01 88 3a c9 2a 3f 3d
       -0.01348674 -0.0018314733 0.0010376521 0.046671662
000390 2b 87 23 39 78 70 d1 3a 75 46 d9 3b e0 44 60 3b
       0.00015595245 0.0015978953 0.0066307136 0.003422074
0003a0 eb 37 3c 3c 21 08 82 3c 52 6a 45 bb 0d 58 c5 3a
       0.011487941 0.015873017 -0.0030123186 0.0015056148
0003b0 a9 fa 8a 3a e9 50 96 3a 1c 3c 07 bb 2e ad 43 3b
       0.0010603267 0.0011468205 -0.0020635193 0.0029857862
0003c0 1e 3b 7b 39 9a 9d 8d 3a f7 3b 84 3a 21 08 82 3c
       0.00023959248 0.0010804415 0.0010088672 0.015873017
0003d0 95 a5 80 3c 82 91 2c 3c ea bd 9b 3a b2 e8 30 bb
       0.015703956 0.010532739 0.001188216 -0.0026994166
0003e0 3e 15 59 3a 21 08 82 3c 7d 89 84 3a f5 5b f2 3a
       0.00082810584 0.015873017 0.0010111775 0.001849054
0003f0 0a 77 f1 3a 56 bc 3f 3d 4b 55 d2 bc 1e 48 a2 bb
       0.0018422317 0.04681047 -0.025675436 -0.0049524447
