models/s_p_greedy5.pth (torch, 115607 bytes, 32 tensors)

dnets.0.means f4 [63]
0	0x3d11e5f3	0.035619687
1	0x3f89a9d9	1.0754958
2	0xbfeca041	-1.8486406
3	0x3fdc6b81	1.7220308
4	0xc017aef6	-2.3700538
5	0xbf8de13f	-1.1084365
6	0xbf220e41	-0.63303
7	0xbf9b2410	-1.212038
8	0x400efec4	2.2342997
9	0x3f9a9a98	1.2078428
10	0x3f871e70	1.0556164
11	0xc01eba48	-2.4801197
12	0x3ffb541f	1.9635047
13	0x3de85aef	0.11345469
14	0xbfacced4	-1.3500619
15	0xc01cf5dc	-2.452506
16	0xbf8be3bf	-1.0928878
17	0xbee7b9c2	-0.4525891
18	0xbf839521	-1.0279886
19	0xbffbc1d9	-1.9668533
20	0xbf671446	-0.9026531
21	0xbff07e8c	-1.8788619
22	0x3f909cec	1.1297889
23	0xbfa03887	-1.2517251
24	0x3fc42b6c	1.5325751
25	0xbee35e94	-0.44408095
26	0xbe51f37f	-0.20503043
27	0x3e39c17b	0.18140213
28	0xbe40f403	-0.18843083
29	0xbfbc3094	-1.4702325
30	0xbf245af1	-0.64201266
31	0xbf730389	-0.9492727
32	0x3fbdd894	1.4831719
33	0x3f66412a	0.8994318
34	0x3fa597a9	1.2936908
35	0xbee1e952	-0.44123322
36	0xc0091765	-2.142053
37	0xbf3ff606	-0.74984777
38	0xbf3779ae	-0.71670043
39	0xbfe0db30	-1.7566891
40	0x3f2b5236	0.6692232
41	0xbf63c73d	-0.8897589
42	0x3f9077ee	1.12866
43	0xbfc27a3d	-1.5193554
44	0x3ed9a52e	0.42508835
45	0x3e88f4ce	0.2674927
46	0xbe4946ad	-0.19655867
47	0x40392b4a	2.8932672
48	0x3e053f77	0.13012491
49	0xbdc68de9	-0.09695036
50	0x3f820a05	1.0159308
51	0x3f2a2f79	0.6647869
52	0x3ebd81b5	0.3701302
53	0xbfc12cb3	-1.5091766
54	0x4039be6d	2.9022477
55	0xbf2473f3	-0.64239424
56	0x4011473a	2.2699723
57	0x3fe215c7	1.7662896
58	0xbf645852	-0.89197266
59	0xbeff4cf3	-0.49863395
60	0xc030ee20	-2.764534
61	0xbf1783bb	-0.5918538
62	0x3f5e160e	0.867524

dnets.0.std f4 [63]
0	0x3d32ce46	0.04365375
1	0xbe7749a0	-0.2414918
2	0x3fa02c2f	1.2513484
3	0x3f837330	1.0269527
4	0x4011997f	2.2749937
5	0xbed970f2	-0.42468983
6	0x3fa2dad6	1.2723033
7	0x3f4c6bde	0.7985209
8	0x3fa0dbfb	1.2567133
9	0x4020c66f	2.5121114
10	0x3f0b1721	0.54332167
11	0x3e672330	0.22572017
12	0x3fe1ebaa	1.7650044
13	0xbe6b2e1c	-0.22966808
14	0x3f574549	0.84090096
15	0x3fbae63d	1.4601513
16	0x3f1f371b	0.6219346
17	0x3faeb262	1.3648188
18	0x3f291639	0.66049534
19	0x3f97c2b3	1.1856292
20	0xbf005c18	-0.50140524
21	0xbf8c4e73	-1.0961441
22	0x3fb095d0	1.3795719
23	0x3f4942c0	0.7861748
24	0x3faeb0f0	1.3647747
25	0x3eac0eb2	0.33604962
26	0x3e51b28f	0.20478271
27	0x3f917151	1.1362706
28	0x3ea31480	0.31851578
29	0x3f66bb99	0.9013
30	0x3ee9fe7d	0.45701972
31	0x3f1c4cfd	0.61054975
32	0x3fba7d17	1.4569424
33	0xbfb7354d	-1.4313141
34	0x3f8b32a4	1.0874829
35	0x3f7826d0	0.96934223
36	0x3e4c41e5	0.19947012
37	0x3effdc10	0.49972582
38	0xbe81989c	-0.25311744
39	0x3f8c1104	1.0942693
40	0x3f176519	0.5913864
41	0x3f153681	0.5828629
42	0x4007815f	2.1172712
43	0x3fafc1b4	1.3730989
44	0x3e44496a	0.1916863
45	0x3dda50cf	0.10659944
46	0x3fc6e4ff	1.5538634
47	0x40432596	3.049169
48	0x3db71178	0.08938879
49	0x3fe2e8a6	1.7727249
50	0xbef95797	-0.48699638
51	0x3ea489be	0.3213634
52	0x3f3c9805	0.73669463
53	0x3feefae6	1.8670318
54	0x401c06e8	2.4379215
55	0x3f61999e	0.88125026
56	0x3f818fb9	1.0121986
57	0x402ac82f	2.6684682
58	0xbf047c99	-0.5175262
59	0xbe9f1391	-0.31069615
60	0x40404a41	3.004532
61	0x3f967e16	1.1757228
62	0x3fddf7d2	1.7341254

dnets.0.weights_rbf f4 [24, 63]
0	0x3a49dfbb	0.000770088
1	0x3ec22af0	0.37923384
2	0xbcce7833	-0.0252038
3	0x3d60c52d	0.05487554
4	0xbc9b0ead	-0.018927896
5	0xbd9fd8d2	-0.07805027
6	0xbcaeebf1	-0.02135274
7	0xbccbee97	-0.024894042
8	0x3d688d1c	0.056775197
9	0x3c5accaf	0.013354464
10	0x3dc6d4c3	0.0970855
11	0x3c820821	0.015873017
12	0x3cf29dc7	0.02961625
13	0x3c02ad81	0.007975937
14	0xbcd65e8f	-0.026168136
15	0xbcda7b2a	-0.026670057
16	0xbd112e5c	-0.035444602
17	0xbc8a3202	-0.016869549
18	0xbcf68fad	-0.030097807
19	0xbcdd5073	-0.0270159
20	0xbd2489fc	-0.040170655
21	0xbcf4de17	-0.029891057
22	0x3cc04fd0	0.023475558
23	0xbcd06ddd	-0.025443012
24	0x3d02545c	0.031818733
25	0xbcc9c7cb	-0.024631402
26	0xbca72a66	-0.02040596
27	0x3b19c323	0.0023462258
28	0xbcd77434	-0.026300527
29	0xbcee2473	-0.029070115
30	0xbceb2ca0	-0.028707802
31	0xbccd0340	-0.025025964
32	0x3ce9db82	0.028547052
33	0x3c953d2c	0.018217646
34	0x3d0f89be	0.03504347
35	0xbccfd1e6	-0.025368642
36	0x3c820821	0.015873017
37	0xbd02f9d8	-0.03197655
38	0xbdf18ff5	-0.11795036
39	0xbcd435b1	-0.025904508
40	0x3cfa7c35	0.030576805
41	0xbcfaf41a	-0.030633975
42	0x3c766398	0.015038393
43	0xbcc776cc	-0.024348639
44	0x3d630662	0.05542601
45	0x3c8d871e	0.017276343
46	0xbbf4e85f	-0.00747399
47	0x3caee05f	0.021347223
48	0x3c552f11	0.01301171
49	0xbb1509f4	-0.0022741528
50	0x3e39d17f	0.18146323
51	0x3deb5eb2	0.11492671
52	0x3c427763	0.011869284
53	0xbc9a9894	-0.018871583
54	0x3ce7bcef	0.028288333
55	0xbcdedaad	-0.027203882
56	0x3dfcf1ea	0.12350829
57	0x3c890c7b	0.016729584
58	0xbd19d57f	-0.03755712
59	0xbd7ca059	-0.061676357
60	0xbc6c6ff1	-0.014430986
61	0xbcba93ac	-0.022775494
62	0x3c7080f5	0.014679183
63	0xbb381b39	-0.0028092398
64	0xbc6fb0f6	-0.014629593
65	0x3c172bd8	0.009226762
66	0xbc52b47f	-0.012860416
67	0x3c3c5d34	0.011496831
68	0x3d50f8ac	0.051018402
69	0x3c382295	0.011238714
70	0x3bca7847	0.006178889
71	0xbc413e3c	-0.011794623
72	0xbc623f15	-0.013808985
73	0xbcd5181c	-0.026012473
74	0x3c820832	0.015873048
75	0xbc4771de	-0.012173144
76	0x3d308d16	0.0431033
77	0x3baba223	0.005237834
78	0x3c010fad	0.007877273
79	0xbbe8ac47	-0.007100615
80	0x3c4a6b8e	0.012354745
81	0xbbb589a5	-0.00554009
82	0x3bde4eaa	0.00678428
83	0xbc0a24cd	-0.008431626
84	0x3aef3b9a	0.0018252016
85	0xbc1698ec	-0.009191733
86	0x3bb1f3a0	0.0054306537
87	0xbc2559df	-0.010092228
88	0xbcd3402b	-0.025787434
89	0xbcf1d4a7	-0.029520346
90	0x3a1993b8	0.00058584986
91	0xbc263761	-0.010145039
92	0x3ab31972	0.00136642
93	0xbc899281	-0.016793491
94	0x3a9c3803	0.0011918548
95	0xbc2b874f	-0.010469272
96	0xbc11a67b	-0.00888979
97	0xbc02e682	-0.007989528
98	0x3c24d9c8	0.010061689
99	0x3c8235e0	0.01589483
100	0xbc81ef86	-0.015861284
101	0x3dffe16c	0.12494168
102	0x3c019fb8	0.007911615
103	0x3b98b04e	0.004659689
104	0xbc1c90d4	-0.009556014
105	0xbc532d98	-0.012889288
106	0x3c2187f4	0.009859074
107	0x3d35ce56	0.04438623
108	0x3d411eae	0.0471484
109	0x3c1a39db	0.009413208
110	0xbc7943ee	-0.01521395
111	0x3c447440	0.011990607
112	0x3b105de8	0.0022028629
113	0xbc01385b	-0.007886971
114	0xbc788fe5	-0.015171026
115	0x3c01a800	0.0079135895
116	0x3c3b37fa	0.01142692
117	0xbc605684	-0.013692502
118	0x3bd5e743	0.0065278127
119	0xbba6c12b	-0.0050889454
120	0xbc71afa9	-0.014751353
121	0xbc3257ce	-0.010885192
122	0xbd19ea80	-0.037577152
123	0x3c394172	0.011307107
124	0x3c31938c	0.010838401
125	0xbc30c756	-0.010789713
126	0xbade069d	-0.0016939227
127	0xbc2c7831	-0.010526703
128	0x3c3404fe	0.010987518
129	0xbc0a707d	-0.008449671
130	0x3bf4fc9e	0.0074764034
131	0x3d4ac3d0	0.049503148
132	0x3b35f5fd	0.0027765029
133	0x3c1e8578	0.009675376
134	0xbc08231a	-0.00830915
135	0xba114e6f	-0.00055429986
136	0xbc5ea597	-0.013589284
137	0x3c82084c	0.015873097
138	0xbb98fe3f	-0.0046689804
139	0xbbbbda50	-0.005732812
140	0x3c4c90de	0.012485711
141	0x3c6ba1d2	0.014381843
142	0x3c9c0154	0.019043602
143	0x3ae77e55	0.0017661551
144	0x3c4b892f	0.012422844
145	0x3c6ff1f3	0.0146450875
146	0x3c717985	0.014738445
147	0x3c97980d	0.01850512
148	0xbba1f60e	-0.004942662
149	0x3c398a51	0.011324481
150	0xbbbf884a	-0.0058451043
151	0xba85a08e	-0.0010194944
152	0xb8d79114	-0.00010279022
153	0xbb459f71	-0.003015485
154	0xbb4877fb	-0.0030589092
155	0x3c822b90	0.015889913
156	0x3b2b808d	0.0026169152
157	0x3c11e732	0.008905219
158	0xbbac049a	-0.005249572
159	0xbb86d85d	-0.004115148
160	0xbbdfe829	-0.0068330956
161	0x3a47b340	0.0007617958
162	0x3c84ad89	0.01619603
163	0x3bc38555	0.005966822
164	0x3b81df16	0.0039633615
165	0x3c523dec	0.012832146
166	0xbbefd211	-0.007318743
167	0x3c20d9a5	0.0098175155
168	0xbacc6abc	-0.0015595774
169	0x3c0051a2	0.007831963
170	0xbce22c53	-0.027609026
171	0xbc200352	-0.009766417
172	0x3a4d9583	0.00078424084
173	0xbad3ba2c	-0.0016153506
174	0xbb9d8345	-0.0048069083
175	0x3a6b4a87	0.0008975644
176	0xbcb14520	-0.021639407
177	0xbcbe9d0a	-0.023268241
178	0xbbe1b96a	-0.006888558
179	0x3bc7201c	0.006076826
180	0xbb6520cc	-0.0034962175
181	0x3b18574d	0.0023245395
182	0xbc56e260	-0.013115495
183	0xba870432	-0.0010300933
184	0x3c571435	0.013127376
185	0xbba02d88	-0.0048882402
186	0x3bd5e227	0.0065272036
187	0x3b1d9a0b	0.0024048116
188	0xbb21dc3b	-0.0024697918
189	0xb982fdfd	-0.00024984768
190	0x3e71d916	0.23617968
191	0xbc62fcf5	-0.013854255
192	0x3d3b6102	0.04574681
193	0xbbeb8c5f	-0.0071883644
194	0xbd984eab	-0.0743688
195	0xbc20ae57	-0.009807191
196	0xbc831829	-0.016002731
197	0x3d40ac7e	0.0470395
198	0x3c39d087	0.011341221
199	0x3da2ed2f	0.079553954
200	0x3c820821	0.015873017
201	0x3cc85f60	0.02445954
202	0xbb7e23f8	-0.0038778763
203	0xbc904337	-0.017610176
204	0xbc7d103e	-0.015445767
205	0xbd06b2bc	-0.032885298
206	0xbbe35cd7	-0.0069385576
207	0xbcd0a5b1	-0.025469633
208	0xbc890815	-0.016727487
209	0xbd27f053	-0.041000675
210	0xbcac525e	-0.02103537
211	0x3c9fb9e3	0.019497817
212	0xbc8c1ad9	-0.017102646
213	0x3cd9b55a	0.026575733
214	0xbcea369b	-0.028590491
215	0xbcfb8008	-0.030700698
216	0x3b19f796	0.002349352
217	0xbcb8ec14	-0.022573508
218	0xbcad1656	-0.021128815
219	0xbcee0ab1	-0.029057832
220	0xbc9b5d9b	-0.018965533
221	0x3cc2899b	0.023747256
222	0x3c767eaf	0.015044852
223	0x3cf2c73a	0.029636014
224	0xbc5dcde9	-0.013537862
225	0x3c820821	0.015873017
226	0xbd02afab	-0.03190581
227	0xbde9f30e	-0.11423312
228	0xbc7f655f	-0.015588134
229	0x3ce043c8	0.02737607
230	0xbce3e294	-0.027818002
231	0x3c4db61c	0.012555625
232	0xbc46f961	-0.0121444175
233	0x3d85f134	0.065401465
234	0x3cc61e65	0.024184415
235	0xbae16b13	-0.0017198048
236	0x3c8f31ac	0.01747974
237	0x3c4b2fd1	0.012401537
238	0x3aa858a3	0.0012843799
239	0x3e096d47	0.13420592
240	0x3dcbe8e7	0.09956532
241	0x3c1df067	0.009639836
242	0xbbf23be5	-0.007392394
243	0x3cbdf371	0.023187371
244	0xbc81db50	-0.015851647
245	0x3dc0f531	0.094217665
246	0x3c63787f	0.013883709
247	0xbd1a9ea1	-0.037748937
248	0xbda2b40c	-0.079444975
249	0xbb860b90	-0.004090734
250	0xbc34407d	-0.011001703
251	0x3c47f901	0.012205363
252	0x3a3aa573	0.0007119991
253	0x3e581980	0.21103477
254	0xbc377f4e	-0.011199785
255	0x3d30ce43	0.043165457

dnets.0.conv.weight f4 [24, 3, 5, 5]
0	0x3d0c2206	0.034212135
1	0xbc1d3ec6	-0.009597486
2	0x3ce3c97d	0.027806038
3	0x3cbb4abe	0.022862788
4	0x3d19cee2	0.037550814
5	0xbca4c7c8	-0.020114794
6	0xbcb6071e	-0.02222019
7	0xbd1cf937	-0.038323607
8	0xbbb165f4	-0.005413765
9	0x3cb9366e	0.022608962
10	0xbdcb6bee	-0.09932695
11	0x3e3c6ed5	0.18401654
12	0x3eb669c6	0.35627574
13	0xba8a0087	-0.0010528722
14	0xbd7285f0	-0.059209764
15	0xbd0ccdee	-0.034376077
16	0xbcb4295e	-0.021992382
17	0xbdee71d3	-0.11642804
18	0xbd088630	-0.033331096
19	0x3cb0921b	0.021554044
20	0xbd48959c	-0.048970804
21	0xbd4545cb	-0.048162263
22	0x3c9a00f4	0.018799283
23	0xbd00d6d0	-0.03145486
24	0xbcc08718	-0.023501918
25	0xbc534db7	-0.012896947
26	0xbcf21d6f	-0.02955505
27	0xbdb20399	-0.086920924
28	0xbba68f50	-0.005083002
29	0xbc90fb25	-0.01769788
30	0x3c1edf0a	0.009696731
31	0xbc50da3d	-0.012747345
32	0xbd7dede0	-0.061994433
33	0x3c75bb34	0.014998246
34	0x3c2e5d0c	0.010642301
35	0xbd2592c9	-0.04042319
36	0xbd95379b	-0.072859965
37	0xbdf2bf16	-0.11852853
38	0x3e2374d2	0.15962532
39	0xbd5792ce	-0.05263024
40	0x3c197a6f	0.009367569
41	0x3be8848c	0.007095879
42	0x3dc49820	0.09599328
43	0x3cdcd510	0.026957065
44	0x3cb668f4	0.022266842
45	0x3c075267	0.008259392
46	0xbc511fed	-0.012763959
47	0x3db08852	0.08619751
48	0x3b854ef9	0.004068252
49	0x3cfa0700	0.030520916
50	0xbc3d26ed	-0.011544925
51	0x3bf7befb	0.0075606084
52	0xbc998bc4	-0.018743403
53	0x3cae3434	0.021265127
54	0xbcdf1c3f	-0.027235148
55	0x3bf365a7	0.0074278894
56	0xba501c64	-0.0007938801
57	0x3d9d6091	0.07684434
58	0xbd13f49c	-0.03612195
59	0x3bb1af7c	0.0054225307
60	0xbbab399d	-0.005225374
61	0x3dc8142b	0.09769472
62	0xbe3d6ea3	-0.18499236
63	0x3ced4321	0.028962674
64	0xbd9ceefa	-0.07662769
65	0x3c78885a	0.0151692275
66	0x3d17fa09	0.037103686
67	0x3da93301	0.08261681
68	0xbb97863b	-0.004624156
69	0xbc36b220	-0.011150867
70	0xbb2776f7	-0.0025553086
71	0x3c0d3930	0.008619592
72	0x3cbf59c8	0.02335824
73	0xbd026563	-0.03183497
74	0x3c21d95e	0.0098784845
75	0xbd0d723f	-0.03453278
76	0xbc56f8cd	-0.013120842
77	0xbd0db240	-0.03459382
78	0x3b81e1fe	0.003963708
79	0xbd2144a9	-0.03937212
80	0xbc9266a8	-0.017871216
81	0xbd4a2644	-0.0493529
82	0xbdc4d3ee	-0.09610735
83	0xbda93a7f	-0.0826311
84	0xbcd0b127	-0.025475098
85	0x3c5c529e	0.013447432
86	0xbd84e188	-0.06488329
87	0xbe0b5b23	-0.13608985
88	0xbdb798da	-0.08964701
89	0xbd1fd805	-0.03902437
90	0x3cce1099	0.025154399
91	0x3d9989f4	0.074970156
92	0x3d43583a	0.04769156
93	0x3dcaa0c3	0.09893944
94	0x3d5348b1	0.051582996
95	0x3d46db10	0.048548758
96	0x3da86dc9	0.08224065
97	0x3dd10a08	0.102069914
98	0x3dd838f6	0.105577394
99	0x3d76a0b4	0.060211852
100	0xbd1464fb	-0.036229115
101	0xbc61539f	-0.013752847
102	0xbcc3bd7b	-0.023894062
103	0xbbe1b883	-0.0068884506
104	0xbccf4552	-0.02530161
105	0xbce8bccc	-0.028410338
106	0xbd0b457b	-0.03400181
107	0xbdeac0a0	-0.114625216
108	0xbd75c94d	-0.06000643
109	0xbd2f5177	-0.0428023
110	0x3c64d869	0.013967612
111	0xbd6ca579	-0.057774995
112	0xbe1d16b7	-0.15340696
113	0xbd8c660f	-0.06855404
114	0xbd6201c9	-0.055177484
115	0x3d17c6a0	0.037054658
116	0x3d6963bd	0.056979883
117	0x3d754de9	0.059888754
118	0x3dae79f4	0.085193545
119	0x3d7ab72c	0.061209843
120	0x3d31332e	0.0432617
121	0x3da204a4	0.079110414
122	0x3dee27fe	0.11628722
123	0x3dbcbbaf	0.09215485
124	0x3d691911	0.05690867
125	0xbd27759e	-0.040883653
126	0xbbf3aac1	-0.007436127
127	0x3ac99b13	0.0015381299
128	0xbce09dbb	-0.027418962
129	0xbcc85379	-0.024453865
130	0xbaef4379	-0.0018254361
131	0xbd53e48c	-0.05173163
132	0xbde02a6c	-0.10945591
133	0xbd4e25a7	-0.050328877
134	0xbd16c877	-0.036812272
135	0x3c38a9d1	0.011270956
136	0xbd5fec1c	-0.05466853
137	0xbe107237	-0.1410607
138	0xbd9c499e	-0.07631229
139	0xbd347f79	-0.04406688
140	0x3cc725d7	0.024310036
141	0x3d9109e9	0.07081968
142	0x3d3bbadc	0.0458325
143	0x3dbf0a18	0.09328097
144	0x3d48114e	0.048844628
145	0x3d2e4312	0.042544432
146	0x3d94cde9	0.07265837
147	0x3dda14da	0.10648508
148	0x3da3fede	0.080075964
149	0x3d5857d3	0.05281813
150	0x3c0e1cc2	0.008673849
151	0xbc683d8f	-0.014174833
152	0x3d43a2f8	0.04776284
153	0xbc0e9c99	-0.008704328
154	0x3ccf0654	0.025271572
155	0x3d8d6e04	0.069057494
156	0xbc950434	-0.01819048
157	0x3bfaa4cb	0.0076490394
158	0x3dbe3b39	0.092886396
159	0x3d9425ce	0.07233773
160	0xbbbe7284	-0.005811991
161	0x3daacf63	0.08340337
162	0x3cb31223	0.021859234
163	0x3d052f1c	0.03251563
164	0x3d41d179	0.04731891
165	0x3c736129	0.014854708
166	0xbde40800	-0.111343384
167	0xbdbf69f6	-0.09346382
168	0xbd32ed02	-0.04368306
169	0xbd3b6463	-0.045750033
170	0x3da7408c	0.08166608
171	0xbd868b56	-0.06569545
172	0xbd9ff7a6	-0.07810907
173	0xbd8dc16f	-0.0692166
174	0xbdd5f747	-0.10447555
175	0x3d4cfb64	0.050044432
176	0x3dc6ad24	0.09700993
177	0xbd11a3e5	-0.035556693
178	0x3d670ef4	0.056410745
179	0xbd3cf3b8	-0.046130866
180	0xbce4717f	-0.02788615
181	0xbd891bc3	-0.06694748
182	0xbbebd2c1	-0.0071967547
183	0x3b7692f5	0.0037624214
184	0xbc045814	-0.00807764
185	0xbd11e301	-0.03561688
186	0xbd63a5b9	-0.055577967
187	0xbd21d6b0	-0.039511383
188	0x3d678819	0.056526277
189	0x3d89a6b1	0.06721247
190	0x3d6fcba4	0.058543816
191	0xbdbb7ec8	-0.09155041
192	0xbd7f7123	-0.062363755
193	0xbd9192b9	-0.07108063
194	0x3d51ba96	0.051203333
195	0xbdcd32c6	-0.1001945
196	0x3aea814b	0.0017891316
197	0xbad0ed18	-0.00159398
198	0x3db79a6e	0.08965002
199	0x3df3fba7	0.11913233
200	0xbdaca77d	-0.08430383
201	0xbd40e6c6	-0.047095083
202	0xbd140890	-0.03614098
203	0x3c8cae15	0.017172853
204	0xbcc8b5ea	-0.024500806
205	0xbc5331e2	-0.012890311
206	0xbda48501	-0.08033181
207	0xbdb64622	-0.089000955
208	0x3df9ae5b	0.12191459
209	0x3d4c075f	0.049811717
210	0x3d10abd5	0.03532012
211	0x3dd9b44f	0.10630094
212	0xbd495bf9	-0.049159978
213	0x3d51dfc5	0.051238794
214	0x3c9ad99a	0.018902589
215	0x3b3bc2d3	0.002865006
216	0xbd84d038	-0.06485027
217	0x3da7ccc6	0.08193354
218	0xbdb7abf0	-0.08968341
219	0x3daabbfe	0.08336638
220	0xbc79213a	-0.015205676
221	0xbd61dc34	-0.055141643
222	0x3d479fe2	0.04873646
223	0xbd4a901d	-0.049453843
224	0x3a1c4f38	0.0005962732
225	0xbbd176c1	-0.0063923304
226	0xbcd1dcc1	-0.025617959
227	0xbc1034bf	-0.008801638
228	0xbb19ee44	-0.0023487965
229	0x3bb0c5af	0.0053946595
230	0x3cfc4394	0.030793943
231	0x3c6ac948	0.014330216
232	0x3ca42930	0.020039171
233	0x3d22a1ef	0.039705213
234	0x3c86264f	0.016375689
235	0x3c95ab99	0.0182703
236	0x3d128adb	0.035776954
237	0xbe8c6ca2	-0.2742663
238	0x3d1ce2ad	0.038302112
239	0xbcef3a44	-0.029202588
240	0xbc0b967a	-0.008519763
241	0x3d613369	0.05498067
242	0xbc64489c	-0.013933327
243	0xbcbb9032	-0.022895906
244	0x3d043705	0.032279033
245	0x3c176e8d	0.009242666
246	0xbd36e434	-0.044651225
247	0x3d4d1ed6	0.050078236
248	0x3d100c0f	0.03516775
249	0xbd0db6e9	-0.034598265
250	0xbc6a8ef6	-0.014316311
251	0x3a515c7a	0.00079864974
252	0xbdd1a94c	-0.10237369
253	0xbc110547	-0.008851356
254	0xbd0c3951	-0.03423435
255	0xbb8568de	-0.004071339

dnets.1.means f4 [63]
0	0x3d11e5f3	0.035619687
1	0x3f89a9d9	1.0754958
2	0xbfeca041	-1.8486406
3	0x3fdc6b81	1.7220308
4	0xc017aef6	-2.3700538
5	0xbf8de13f	-1.1084365
6	0xbf220e41	-0.63303
7	0xbf9b2410	-1.212038
8	0x400efec4	2.2342997
9	0x3f9a9a98	1.2078428
10	0x3f871e70	1.0556164
11	0xc01eba48	-2.4801197
12	0x3ffb541f	1.9635047
13	0x3de85aef	0.11345469
14	0xbfacced4	-1.3500619
15	0xc01cf5dc	-2.452506
16	0xbf8be3bf	-1.0928878
17	0xbee7b9c2	-0.4525891
18	0xbf839521	-1.0279886
19	0xbffbc1d9	-1.9668533
20	0xbf671446	-0.9026531
21	0xbff07e8c	-1.8788619
22	0x3f909cec	1.1297889
23	0xbfa03887	-1.2517251
24	0x3fc42b6c	1.5325751
25	0xbee35e94	-0.44408095
26	0xbe51f37f	-0.20503043
27	0x3e39c17b	0.18140213
28	0xbe40f403	-0.18843083
29	0xbfbc3094	-1.4702325
30	0xbf245af1	-0.64201266
31	0xbf730389	-0.9492727
32	0x3fbdd894	1.4831719
33	0x3f66412a	0.8994318
34	0x3fa597a9	1.2936908
35	0xbee1e952	-0.44123322
36	0xc0091765	-2.142053
37	0xbf3ff606	-0.74984777
38	0xbf3779ae	-0.71670043
39	0xbfe0db30	-1.7566891
40	0x3f2b5236	0.6692232
41	0xbf63c73d	-0.8897589
42	0x3f9077ee	1.12866
43	0xbfc27a3d	-1.5193554
44	0x3ed9a52e	0.42508835
45	0x3e88f4ce	0.2674927
46	0xbe4946ad	-0.19655867
47	0x40392b4a	2.8932672
48	0x3e053f77	0.13012491
49	0xbdc68de9	-0.09695036
50	0x3f820a05	1.0159308
51	0x3f2a2f79	0.6647869
52	0x3ebd81b5	0.3701302
53	0xbfc12cb3	-1.5091766
54	0x4039be6d	2.9022477
55	0xbf2473f3	-0.64239424
56	0x4011473a	2.2699723
57	0x3fe215c7	1.7662896
58	0xbf645852	-0.89197266
59	0xbeff4cf3	-0.49863395
60	0xc030ee20	-2.764534
61	0xbf1783bb	-0.5918538
62	0x3f5e160e	0.867524

dnets.1.std f4 [63]
0	0x3d32ce46	0.04365375
1	0xbe7749a0	-0.2414918
2	0x3fa02c2f	1.2513484
3	0x3f837330	1.0269527
4	0x4011997f	2.2749937
5	0xbed970f2	-0.42468983
6	0x3fa2dad6	1.2723033
7	0x3f4c6bde	0.7985209
8	0x3fa0dbfb	1.2567133
9	0x4020c66f	2.5121114
10	0x3f0b1721	0.54332167
11	0x3e672330	0.22572017
12	0x3fe1ebaa	1.7650044
13	0xbe6b2e1c	-0.22966808
14	0x3f574549	0.84090096
15	0x3fbae63d	1.4601513
16	0x3f1f371b	0.6219346
17	0x3faeb262	1.3648188
18	0x3f291639	0.66049534
19	0x3f97c2b3	1.1856292
20	0xbf005c18	-0.50140524
21	0xbf8c4e73	-1.0961441
22	0x3fb095d0	1.3795719
23	0x3f4942c0	0.7861748
24	0x3faeb0f0	1.3647747
25	0x3eac0eb2	0.33604962
26	0x3e51b28f	0.20478271
27	0x3f917151	1.1362706
28	0x3ea31480	0.31851578
29	0x3f66bb99	0.9013
30	0x3ee9fe7d	0.45701972
31	0x3f1c4cfd	0.61054975
32	0x3fba7d17	1.4569424
33	0xbfb7354d	-1.4313141
34	0x3f8b32a4	1.0874829
35	0x3f7826d0	0.96934223
36	0x3e4c41e5	0.19947012
37	0x3effdc10	0.49972582
38	0xbe81989c	-0.25311744
39	0x3f8c1104	1.0942693
40	0x3f176519	0.5913864
41	0x3f153681	0.5828629
42	0x4007815f	2.1172712
43	0x3fafc1b4	1.3730989
44	0x3e44496a	0.1916863
45	0x3dda50cf	0.10659944
46	0x3fc6e4ff	1.5538634
47	0x40432596	3.049169
48	0x3db71178	0.08938879
49	0x3fe2e8a6	1.7727249
50	0xbef95797	-0.48699638
51	0x3ea489be	0.3213634
52	0x3f3c9805	0.73669463
53	0x3feefae6	1.8670318
54	0x401c06e8	2.4379215
55	0x3f61999e	0.88125026
56	0x3f818fb9	1.0121986
57	0x402ac82f	2.6684682
58	0xbf047c99	-0.5175262
59	0xbe9f1391	-0.31069615
60	0x40404a41	3.004532
61	0x3f967e16	1.1757228
62	0x3fddf7d2	1.7341254

dnets.1.weights_rbf f4 [24, 63]
0	0xbcbe723c	-0.02324783
1	0x3c6f5616	0.014607927
2	0xbbfc611f	-0.0077020074
3	0x3cc346dc	0.0238375
4	0x3aa90a3f	0.001289673
5	0xbdb62817	-0.08894365
6	0x38046369	3.1563835e-05
7	0xbc818f8b	-0.015815517
8	0x3cbf27d8	0.023334429
9	0x3c211065	0.009830569
10	0x3d05bfec	0.032653734
11	0x3c820821	0.015873017
12	0x3c75f540	0.015012085
13	0x3c0a7c3a	0.0084524695
14	0xbc9d5383	-0.01920486
15	0xbc2a0d00	-0.010379076
16	0xbd66f142	-0.056382425
17	0x3b190315	0.0023347784
18	0xbd23229d	-0.03982793
19	0xbc651a67	-0.013983346
20	0xbd93904b	-0.07205256
21	0xbcc4d282	-0.02402616
22	0x3c608f84	0.013706092
23	0xbc9bbb88	-0.01901032
24	0x3c86582e	0.01639947
25	0xbd6b63ef	-0.05746835
26	0xbd97cae0	-0.07411742
27	0x3c034f5e	0.008014528
28	0xbce5097a	-0.02795862
29	0xbcd57e2e	-0.026061144
30	0xbd591718	-0.05300054
31	0xbcdcb4a7	-0.02694161
32	0x3c78093f	0.015138923
33	0x3c448f45	0.011997049
34	0x3c964765	0.01834459
35	0xbb43d749	-0.0029882959
36	0x3c820821	0.015873017
37	0xbd6c1993	-0.057641577
38	0xbd2c58cd	-0.042076875
39	0xbc4899c4	-0.012243692
40	0x3cabe8a8	0.020984963
41	0xbd3f6fcc	-0.046737477
42	0x3c2ad5d4	0.010426957
43	0xbb6a3aa4	-0.003574052
44	0x3d5a4e6e	0.053297453
45	0x3d81a1e6	0.06329708
46	0x3bac045d	0.0052495436
47	0x3c42a31a	0.011879707
48	0x3c270e35	0.010196258
49	0x3bd23410	0.0064148977
50	0x3d18c44c	0.03729658
51	0x3d262105	0.040558834
52	0x3c4dfbf3	0.012572276
53	0x3aae74e8	0.0013309987
54	0x3c67c6aa	0.014146486
55	0xbc00bc44	-0.007857386
56	0x3ce47886	0.027889501
57	0x3c2ec64f	0.010667398
58	0xbd89a4f0	-0.067209125
59	0xbdbf8295	-0.093510784
60	0x3b52865d	0.0032123544
61	0xba74b20d	-0.0009334393
62	0x3c2d7b48	0.010588475
63	0xbc9a1112	-0.018806968
64	0x3c9b2222	0.018937174
65	0xbc5de78f	-0.013543977
66	0x3cde3541	0.027125003
67	0xba50a0f0	-0.0007958552
68	0xbd7ac827	-0.061226036
69	0xbb98d67b	-0.00466424
70	0xbcb2a816	-0.021808665
71	0x3cd63d5f	0.02615231
72	0x3c3a400f	0.011367812
73	0x3d1d48d9	0.03839955
74	0x3c820821	0.015873017
75	0x3c9047e5	0.017612407
76	0x3c15a590	0.009133711
77	0xbcd1dd4d	-0.02561822
78	0xbc93bb79	-0.01803373
79	0xbd480e5a	-0.04884181
80	0xba6c0cda	-0.00090046006
81	0xbd203ea1	-0.039122228
82	0xbcb701f7	-0.022339804
83	0xbd678d70	-0.05653137
84	0xbcf75239	-0.030190574
85	0x3c848125	0.016174862
86	0xbccccc4b	-0.024999758
87	0x3c9d6339	0.019212352
88	0xbd49f31e	-0.04930412
89	0xbd5b6055	-0.053558666
90	0x3c021405	0.007939343
91	0xbcd2c7f5	-0.025730113
92	0xbcfe67a0	-0.031055272
93	0xbd3f6e6f	-0.046736177
94	0xbcf6ecc4	-0.030142196
95	0x3c91e16f	0.01780769
96	0x3c662c4a	0.014048645
97	0x3cafba52	0.02145115
98	0xbc1c5115	-0.009540816
99	0x3c820821	0.015873017
100	0xbd4a763c	-0.049429163
101	0xbd093bf8	-0.033504456
102	0xbca3f5df	-0.020014701
103	0x3ca96a01	0.02068043
104	0xbd30e0de	-0.0431832
105	0x3c46ef1f	0.012141972
106	0xbc061f16	-0.008186122
107	0x3d211693	0.03932817
108	0x3d396110	0.04525858
109	0x3b8a30c3	0.0042172386
110	0x3c6611d9	0.014042341
111	0x3beacd24	0.007165568
112	0x3bcf478d	0.006325668
113	0x3d189c2f	0.037258323
114	0x3d29b69a	0.041433908
115	0x3c260dde	0.010135142
116	0xba869272	-0.0010267033
117	0x3c88c479	0.016695248
118	0xbc664d01	-0.014056445
119	0x3ce11c87	0.027479423
120	0x3c4c3ad7	0.0124652
121	0xbd5ea61e	-0.05435764
122	0xbd6f6e60	-0.05845487
123	0x3affb98f	0.0019510257
124	0xbbeaf3d3	-0.0071701794
125	0x3c49a130	0.0123064965
126	0x3cdb4084	0.026764162
127	0x3ca4a7d6	0.020099562
128	0xbb6101de	-0.0034333388
129	0x3c6c761f	0.014432459
130	0xbb0a9ecf	-0.0021151786
131	0x3c611838	0.013738684
132	0xbb1dfccd	-0.002410698
133	0xbb60ec76	-0.003432063
134	0x3c7fc9ff	0.015612124
135	0xba1b0e66	-0.00059149263
136	0x3ce99b4c	0.028516434
137	0x3c820821	0.015873017
138	0x3b78687b	0.0037904072
139	0x3ca02a25	0.019551346
140	0xbbc45cb4	-0.0059924964
141	0xbbc2f9d4	-0.005950192
142	0xbc8418dc	-0.016125135
143	0xbaf43841	-0.0018632488
144	0xbc599743	-0.0132806925
145	0xbbd4fba7	-0.006499726
146	0xbc837d82	-0.016051058
147	0xbc2e6560	-0.010644287
148	0x3b34238e	0.0027487013
149	0xbba29637	-0.0049617547
150	0x3ba8cdcc	0.005151486
151	0xbc8bbd6c	-0.017058097
152	0xbd113a80	-0.03545618
153	0xbaa71583	-0.00127475
154	0xbc2bcee9	-0.010486343
155	0xbc26dcd0	-0.010184482
156	0xbc85d886	-0.016338598
157	0xbbc37755	-0.005965153
158	0x3b80814e	0.0039216643
159	0x3ab1b28f	0.0013557243
160	0x3beff722	0.0073231617
161	0xbb3ecfbf	-0.0029115526
162	0x3c820821	0.015873017
163	0xbc8eecd4	-0.017446913
164	0x3e0eb006	0.13934335
165	0xbb9c81f2	-0.004776233
166	0x3c4c00c1	0.012451352
167	0xbc747138	-0.014919572
168	0xb8f8c912	-0.00011863014
169	0xbb3b2fe3	-0.0028562478
170	0x3ca982b4	0.020692207
171	0x3b7b899c	0.0038381582
172	0xbab06f56	-0.0013460915
173	0x3a917c1d	0.0011099611
174	0x3d295dd4	0.041349247
175	0xbaaaa86e	-0.0013020167
176	0x3d211725	0.039328713
177	0x3d110359	0.035403583
178	0x3b5d082f	0.0033726802
179	0xbb08958f	-0.0020841097
180	0x3b572df1	0.003283378
181	0xbb788d4f	-0.0037926023
182	0x3d106bcf	0.035259064
183	0xb727c7d5	-1.0000503e-05
184	0xbc8a986a	-0.01691838
185	0xbc1080c8	-0.008819766
186	0xbaf08f31	-0.0018353221
187	0xbb2a1ec4	-0.002595828
188	0x3902ea12	0.00012484964
189	0x3d249667	0.040182497
190	0x3c8d6069	0.017257886
191	0x3c89239b	0.01674061
192	0xbca158d3	-0.019695675
193	0x3c0be1ba	0.008537704
194	0x3d3c775e	0.046012275
195	0x3bd68b69	0.0065473807
196	0x3ca6bb32	0.020352934
197	0xbc9d3498	-0.019190118
198	0xbc0dcfcd	-0.008655501
199	0xbcbd1819	-0.02308278
200	0x3c820821	0.015873017
201	0xbc792ac9	-0.015207955
202	0xbc45c194	-0.012070078
203	0x3cb2aec1	0.021811845
204	0x3c92ae18	0.01790528
205	0x3d065f7f	0.032805916
206	0x3b5ef340	0.00340195
207	0x3cdd99f2	0.027050946
208	0x3ca0ee2e	0.019644823
209	0x3d1c8e64	0.03822173
210	0x3cb89db1	0.02253613
211	0xbc6e249b	-0.014535095
212	0x3cb2b011	0.02181247
213	0xbc86d317	-0.016458077
214	0x3ced95d7	0.029002113
215	0x3c81a2ce	0.015824702
216	0xbc0fed88	-0.008784659
217	0x3c1c6e72	0.009547817
218	0x3cbf7e31	0.023375602
219	0x3cf18883	0.02948404
220	0x3cc54773	0.024081921
221	0xbc7eae73	-0.015544522
222	0xbc537220	-0.0129056275
223	0xbc90f46a	-0.01769467
224	0x3bf0fc75	0.007354314
225	0x3c8201c5	0.015869984
226	0x3d0261d2	0.03183157
227	0x3d528712	0.051398344
228	0x3c9d4d2d	0.01920184
229	0xbc9c56a0	-0.019084275
230	0x3cec341f	0.028833447
231	0xbc2337da	-0.0099620465
232	0x3c52f03b	0.012874658
233	0xbd3c2b20	-0.045939565
234	0xbc5a8650	-0.013337687
235	0xba7535ad	-0.00093540066
236	0xbc38eacf	-0.0112864515
237	0xbb9f1d71	-0.0048558046
238	0xbb220925	-0.002472469
239	0xbcfc80e9	-0.030823188
240	0xbcf9aee5	-0.030478904
241	0xbc84e6f5	-0.01622341
242	0x3bfcb5e2	0.007712112
243	0xbc650938	-0.013979249
244	0x3c45fa95	0.012083669
245	0xbca87ca3	-0.020567244
246	0xbc21ed14	-0.009883184
247	0x3d14a406	0.036289237
248	0x3d494f4c	0.04914789
249	0x3bbd54cb	0.0057779304
250	0x3be90dc3	0.007112236
251	0xbc2f4339	-0.0106971795
252	0x3d1a841a	0.037723638
253	0x3d8e220e	0.06940089
254	0x3ae95169	0.0017800751
255	0xbadc27c2	-0.0016796517

dnets.1.conv.weight f4 [24, 3, 5, 5]
0	0xbd8e86b6	-0.06959288
1	0x3c8e71e5	0.017388294
2	0xbccd0e8e	-0.025031354
3	0x3aed947c	0.0018125917
4	0x3d0afc05	0.03393175
5	0x3a1081a7	0.0005512484
6	0x3da7e8cf	0.081987016
7	0xbdb3ec34	-0.087852865
8	0x3bd8cef4	0.0066164676
9	0x3d4734dd	0.0486344
10	0x3be0180a	0.006838803
11	0x3e00eca9	0.12590279
12	0xbe09ce13	-0.13457517
13	0x3e2af5bc	0.16695303
14	0xbdc98420	-0.09839654
15	0x3dbd6f7b	0.09249779
16	0xbd5e9c5a	-0.054348327
17	0xbcead74d	-0.028667117
18	0xbd8de037	-0.06927531
19	0x3d8b3860	0.06797862
20	0xbd93b804	-0.072128326
21	0x3d21218d	0.039338637
22	0x3d918706	0.07105832
23	0xbd1b6736	-0.037940226
24	0xbd9fffb0	-0.078124404
25	0x3aba934a	0.0014234569
26	0x3d4a92ce	0.04945641
27	0xbc59b138	-0.013286881
28	0xbd9dbe3d	-0.07702301
29	0x3c54ae90	0.012981072
30	0x3d9c171c	0.07621595
31	0xbd4feaf3	-0.050761174
32	0x3d8c8b2c	0.068624824
33	0xbda9b029	-0.08285553
34	0x3cf38784	0.029727705
35	0xbc8edd9a	-0.017439652
36	0xbddabe3b	-0.10680815
37	0x3e30e07d	0.17273135
38	0x3bc5e8c8	0.0060397126
39	0xbdb362f7	-0.087591104
40	0x3c21b9b1	0.009870932
41	0x3c0647e5	0.008195852
42	0x3b54d2f1	0.0032474364
43	0xbcd49ae6	-0.025952768
44	0x3c8c92e1	0.017159881
45	0xbb793f2d	-0.003803204
46	0xbd60757c	-0.05479954
47	0xbda4fc88	-0.08055979
48	0x3d527172	0.05137772
49	0x3dba4aab	0.09096273
50	0xbd4894e9	-0.048970137
51	0x3d293226	0.04130759
52	0x3d93f464	0.07224348
53	0x3d497b71	0.04918999
54	0xbca70efc	-0.020392887
55	0x3d5b936b	0.053607386
56	0xbd910339	-0.07080693
57	0x3bd1a38e	0.006397671
58	0x3b4ad014	0.0030946778
59	0x3d17c771	0.037055437
60	0xbdd2f8a7	-0.10301333
61	0x3dd17438	0.10227245
62	0xbe564ffa	-0.20928946
63	0xbdb35977	-0.087572984
64	0xbbccff9e	-0.006256058
65	0xbd1fdc4d	-0.039028455
66	0xbc1a03c6	-0.009400314
67	0x3db71272	0.08939065
68	0x3ce78451	0.028261336
69	0x3d7521da	0.059846736
70	0x3cf781ec	0.030213319
71	0x3c2e1435	0.010624935
72	0x3de1fb9a	0.11034317
73	0xbd7450fc	-0.059647545
74	0xbd4af012	-0.049545355
75	0x3ca28915	0.019840756
76	0xbc8977f9	-0.01678084
77	0x3d1b2bcc	0.037883565
78	0xbb9c44d0	-0.0047689453
79	0xbd6718b3	-0.05642004
80	0xbb0a61fe	-0.0021115537
81	0x3cdbc6e5	0.026828239
82	0xbd74a973	-0.059731912
83	0xbdf1075f	-0.11768984
84	0x3d883773	0.06651201
85	0xbb23364e	-0.0024904194
86	0x3daa3b2f	0.083120696
87	0xbd059bbf	-0.032619234
88	0x3cd45666	0.025920104
89	0x3df7a77b	0.12092491
90	0x3c843cee	0.016142335
91	0xbc17f5c1	-0.009274901
92	0x3ddb38cf	0.10704195
93	0x3c4af570	0.012387618
94	0xbc618a95	-0.013765951
95	0x3bc1cb40	0.005914122
96	0xbd696e47	-0.056989934
97	0xbd21a3e1	-0.039462928
98	0xbd47ae33	-0.048750114
99	0xbd21ded5	-0.03951915
100	0x3cc0e063	0.023544496
101	0x3d1ca2d6	0.03824123
102	0x3c7a46da	0.015275681
103	0xbd9a97e8	-0.07548505
104	0x3d554af8	0.05207345
105	0xbd43dcd1	-0.04781801
106	0x3d8f643b	0.07001539
107	0xbdc2520d	-0.09488306
108	0x3db86ce1	0.09005142
109	0xbcc3c342	-0.023896817
110	0xbd262935	-0.04056664
111	0xbddaf5a8	-0.106913865
112	0xbdc0d23d	-0.094151
113	0x3db6c91f	0.089250796
114	0x3c2be6bd	0.010492024
115	0xbdf24201	-0.118289955
116	0x3d30f712	0.043204375
117	0x3dac986c	0.0842751
118	0x3dadab89	0.08479983
119	0x3cd713ed	0.026254619
120	0x3dd50644	0.10401586
121	0xbe10f537	-0.14156042
122	0x3c98e8e9	0.018665748
123	0x3c6f9e59	0.014625155
124	0xbcf9c29d	-0.030488307
125	0xbd0c65e6	-0.034276865
126	0xbd9bdc9d	-0.07610438
127	0x3da0c09d	0.07849238
128	0xbce885da	-0.028384138
129	0xbc4ca53a	-0.012490565
130	0x3dabef9e	0.08395313
131	0xbdad1dfd	-0.084529854
132	0x3df7757e	0.12082957
133	0x3c8a240e	0.016862895
134	0x3dc27e72	0.09496774
135	0x3ce4bfbf	0.027923463
136	0xbde8289e	-0.11335872
137	0x3d6e5871	0.058189813
138	0xbe0893b8	-0.133376
139	0xbde5c905	-0.11219982
140	0x3dbdb6d4	0.09263387
141	0x3c18eb20	0.009333402
142	0xbe08855c	-0.13332123
143	0xbdd30855	-0.103043236
144	0x3ca59b5d	0.020215685
145	0xbd925e62	-0.07146908
146	0x3dd86584	0.105662376
147	0x3c0d8193	0.00863685
148	0x3de30a82	0.110859886
149	0x3d257a59	0.040399883
150	0xbd1136c9	-0.035452638
151	0xbd5ee6e7	-0.054419424
152	0xbce25dd6	-0.027632635
153	0x3ba26450	0.004955806
154	0xbc8d7bdb	-0.017270973
155	0x3c75be54	0.014998991
156	0x3db01bf0	0.08599079
157	0xbb9f7635	-0.0048663863
158	0x3c50dfab	0.012748639
159	0x3dca92a3	0.0989125
160	0xbe130def	-0.14360784
161	0x3d9279e7	0.07152157
162	0xbe071f6c	-0.1319558
163	0x3cf8a5a5	0.030352423
164	0x3dd9447a	0.10608764
165	0xbd95bc7b	-0.073113404
166	0xbc87adfa	-0.01656245
167	0x3e1762f0	0.14783835
168	0x3c8cc085	0.017181644
169	0x3d6cccc7	0.05781248
170	0xbd8af946	-0.067858264
171	0xbc83e5fd	-0.016100878
172	0xbe10ac82	-0.14128307
173	0x3d1ab219	0.037767503
174	0x3d46bd1a	0.048520185
175	0xbcae95a8	-0.021311596
176	0xbcda3a08	-0.026639
177	0xbd503b51	-0.05083782
178	0xbd393eaf	-0.045225795
179	0xbb1e0294	-0.0024110423
180	0xbd66fb55	-0.056392033
181	0x3d09d370	0.03364891
182	0x3cb0180a	0.021495838
183	0xbd07cc17	-0.03315362
184	0xbe071470	-0.1319139
185	0x3db67e46	0.089108035
186	0xbda5db46	-0.08098464
187	0xbdc06440	-0.09394121
188	0x3d6d4ee8	0.05793658
189	0xbdbb110f	-0.09134113
190	0x3d4de52c	0.050267383
191	0x3dd780b5	0.10522596
192	0xbd89470d	-0.06703005
193	0xbdaf5b16	-0.08562295
194	0x3d104ed3	0.035231423
195	0x3d9ee4ff	0.07758521
196	0x3de4d9e4	0.11174372
197	0x3dda65f2	0.10663976
198	0x3d6e7b2f	0.058222946
199	0x3d1a6340	0.03769231
200	0x3dce1a11	0.100635655
201	0x3d9e3c39	0.0772633
202	0x3d35fa60	0.04442823
203	0x3d14eb4a	0.0363572
204	0x3d70fa2c	0.058832332
205	0x3c8f81e9	0.017518
206	0xbcbd5dd2	-0.023116026
207	0xbd74b19f	-0.059739705
208	0x3da633ef	0.08115374
209	0xbd1af4f6	-0.03783127
210	0x3e0916be	0.13387582
211	0x3d1ce6d8	0.038306087
212	0xbc8a6113	-0.016891992
213	0x3d11394a	0.035455026
214	0xbd95cb3e	-0.07314156
215	0x3d2e4b1c	0.0425521
216	0xbcf7d950	-0.03025499
217	0xbdaf1fd5	-0.08550993
218	0x3d003ab2	0.031305976
219	0xbdf6d24b	-0.12051829
220	0xbcde9132	-0.027168844
221	0xbd684463	-0.056705844
222	0x3d174dbb	0.036939364
223	0xbe095fa4	-0.1341539
224	0xbd89d862	-0.06730725
225	0xbd0724c2	-0.03299404
226	0xbd238f45	-0.039931554
227	0xbdab9f62	-0.08380009
228	0x3ce7e91b	0.028309396
229	0x3d94ab2e	0.072592124
230	0xbd267252	-0.040636368
231	0x3c070fa7	0.008243478
232	0x3d8a4652	0.06751694
233	0x3d87fa83	0.06639578
234	0xbd1ca52e	-0.038243465
235	0x3d10a298	0.03531131
236	0x3ca2da68	0.019879535
237	0xbd4588dd	-0.048226226
238	0x3daf728b	0.08566769
239	0xbdda2fe7	-0.10653668
240	0x3cd6f3da	0.026239324
241	0xbc979751	-0.01850477
242	0xbdc2b6c3	-0.09507515
243	0xbd8c6c19	-0.068565555
244	0x3c2dd110	0.010608926
245	0x3dba90c3	0.09109642
246	0xbd138b7e	-0.036021702
247	0xbcfa57ae	-0.030559387
248	0x3dec1c6a	0.11528857
249	0x3bdf3b86	0.0068125157
250	0x3c7ad3d4	0.015309293
251	0xbda7ca62	-0.08192898
252	0xbde5d020	-0.11221337
253	0xbdbdb04e	-0.09262143
254	0x3d354969	0.044259463
255	0x3d70339a	0.05864296

dnets.2.means f4 [63]
0	0x3d11e5f3	0.035619687
1	0x3f89a9d9	1.0754958
2	0xbfeca041	-1.8486406
3	0x3fdc6b81	1.7220308
4	0xc017aef6	-2.3700538
5	0xbf8de13f	-1.1084365
6	0xbf220e41	-0.63303
7	0xbf9b2410	-1.212038
8	0x400efec4	2.2342997
9	0x3f9a9a98	1.2078428
10	0x3f871e70	1.0556164
11	0xc01eba48	-2.4801197
12	0x3ffb541f	1.9635047
13	0x3de85aef	0.11345469
14	0xbfacced4	-1.3500619
15	0xc01cf5dc	-2.452506
16	0xbf8be3bf	-1.0928878
17	0xbee7b9c2	-0.4525891
18	0xbf839521	-1.0279886
19	0xbffbc1d9	-1.9668533
20	0xbf671446	-0.9026531
21	0xbff07e8c	-1.8788619
22	0x3f909cec	1.1297889
23	0xbfa03887	-1.2517251
24	0x3fc42b6c	1.5325751
25	0xbee35e94	-0.44408095
26	0xbe51f37f	-0.20503043
27	0x3e39c17b	0.18140213
28	0xbe40f403	-0.18843083
29	0xbfbc3094	-1.4702325
30	0xbf245af1	-0.64201266
31	0xbf730389	-0.9492727
32	0x3fbdd894	1.4831719
33	0x3f66412a	0.8994318
34	0x3fa597a9	1.2936908
35	0xbee1e952	-0.44123322
36	0xc0091765	-2.142053
37	0xbf3ff606	-0.74984777
38	0xbf3779ae	-0.71670043
39	0xbfe0db30	-1.7566891
40	0x3f2b5236	0.6692232
41	0xbf63c73d	-0.8897589
42	0x3f9077ee	1.12866
43	0xbfc27a3d	-1.5193554
44	0x3ed9a52e	0.42508835
45	0x3e88f4ce	0.2674927
46	0xbe4946ad	-0.19655867
47	0x40392b4a	2.8932672
48	0x3e053f77	0.13012491
49	0xbdc68de9	-0.09695036
50	0x3f820a05	1.0159308
51	0x3f2a2f79	0.6647869
52	0x3ebd81b5	0.3701302
53	0xbfc12cb3	-1.5091766
54	0x4039be6d	2.9022477
55	0xbf2473f3	-0.64239424
56	0x4011473a	2.2699723
57	0x3fe215c7	1.7662896
58	0xbf645852	-0.89197266
59	0xbeff4cf3	-0.49863395
60	0xc030ee20	-2.764534
61	0xbf1783bb	-0.5918538
62	0x3f5e160e	0.867524

dnets.2.std f4 [63]
0	0x3d32ce46	0.04365375
1	0xbe7749a0	-0.2414918
2	0x3fa02c2f	1.2513484
3	0x3f837330	1.0269527
4	0x4011997f	2.2749937
5	0xbed970f2	-0.42468983
6	0x3fa2dad6	1.2723033
7	0x3f4c6bde	0.7985209
8	0x3fa0dbfb	1.2567133
9	0x4020c66f	2.5121114
10	0x3f0b1721	0.54332167
11	0x3e672330	0.22572017
12	0x3fe1ebaa	1.7650044
13	0xbe6b2e1c	-0.22966808
14	0x3f574549	0.84090096
15	0x3fbae63d	1.4601513
16	0x3f1f371b	0.6219346
17	0x3faeb262	1.3648188
18	0x3f291639	0.66049534
19	0x3f97c2b3	1.1856292
20	0xbf005c18	-0.50140524
21	0xbf8c4e73	-1.0961441
22	0x3fb095d0	1.3795719
23	0x3f4942c0	0.7861748
24	0x3faeb0f0	1.3647747
25	0x3eac0eb2	0.33604962
26	0x3e51b28f	0.20478271
27	0x3f917151	1.1362706
28	0x3ea31480	0.31851578
29	0x3f66bb99	0.9013
30	0x3ee9fe7d	0.45701972
31	0x3f1c4cfd	0.61054975
32	0x3fba7d17	1.4569424
33	0xbfb7354d	-1.4313141
34	0x3f8b32a4	1.0874829
35	0x3f7826d0	0.96934223
36	0x3e4c41e5	0.19947012
37	0x3effdc10	0.49972582
38	0xbe81989c	-0.25311744
39	0x3f8c1104	1.0942693
40	0x3f176519	0.5913864
41	0x3f153681	0.5828629
42	0x4007815f	2.1172712
43	0x3fafc1b4	1.3730989
44	0x3e44496a	0.1916863
45	0x3dda50cf	0.10659944
46	0x3fc6e4ff	1.5538634
47	0x40432596	3.049169
48	0x3db71178	0.08938879
49	0x3fe2e8a6	1.7727249
50	0xbef95797	-0.48699638
51	0x3ea489be	0.3213634
52	0x3f3c9805	0.73669463
53	0x3feefae6	1.8670318
54	0x401c06e8	2.4379215
55	0x3f61999e	0.88125026
56	0x3f818fb9	1.0121986
57	0x402ac82f	2.6684682
58	0xbf047c99	-0.5175262
59	0xbe9f1391	-0.31069615
60	0x40404a41	3.004532
61	0x3f967e16	1.1757228
62	0x3fddf7d2	1.7341254

dnets.2.weights_rbf f4 [24, 63]
0	0x3c88ab1b	0.016683152
1	0x3cb3d1c3	0.021950608
2	0xbbfe3eb1	-0.0077589382
3	0x3cceaa16	0.025227588
4	0xb9e81197	-0.00044263594
5	0xbd42995e	-0.047509544
6	0xbb21d6b3	-0.002469462
7	0xbc46c9c7	-0.012133068
8	0x3ce625c5	0.028094182
9	0x3c17a50d	0.00925566
10	0x3d0ba0c3	0.03408886
11	0x3c820821	0.015873017
12	0x3c7d1f0d	0.015449298
13	0xbb9c8673	-0.00477677
14	0xbc88dbd6	-0.016706388
15	0xbc48e1aa	-0.012260834
16	0xbd2b9c00	-0.04189682
17	0xb98a712f	-0.0002640574
18	0xbd06e919	-0.032937143
19	0xbc71b495	-0.014752527
20	0xbd3e2863	-0.046425235
21	0xbcc40e92	-0.023932729
22	0x3c563c48	0.013075896
23	0xbc7d81f5	-0.015472879
24	0x3c85d932	0.016338918
25	0xbd2a4eba	-0.041578986
26	0xbd6847dd	-0.05670916
27	0x3bbb85f1	0.005722754
28	0xbcd51d84	-0.02601505
29	0xbcc6f9c1	-0.024289014
30	0xbd22a64a	-0.039709367
31	0xbca54695	-0.020175258
32	0x3c760406	0.015015608
33	0x3c34da9b	0.011038448
34	0x3c9169fa	0.017750729
35	0xbbaf1df4	-0.005344147
36	0x3c820821	0.015873017
37	0xbd2c8863	-0.042122256
38	0x3c8d31a7	0.01723559
39	0xbc429824	-0.011877093
40	0x3c8c099c	0.017094426
41	0xbd1716d1	-0.036886994
42	0x3c210832	0.009828614
43	0xbb9a2ad6	-0.0047048135
44	0x3c9fd8c0	0.019512534
45	0xbc8a0cf9	-0.016851889
46	0x3b45110f	0.0030069982
47	0x3c4aa679	0.012368792
48	0xbab5444e	-0.001382956
49	0x3b95706c	0.004560521
50	0x3d5311be	0.051530592
51	0x3d17e186	0.03708031
52	0x3c18722e	0.009304566
53	0xba18720a	-0.0005815333
54	0x3c7b1a2a	0.015326062
55	0xbc10da15	-0.008841057
56	0x3d4eecd2	0.05051882
57	0x3c2b459e	0.01045361
58	0xbd396607	-0.045263316
59	0xbd7ee27e	-0.06222772
60	0x3ab94f0f	0.0014137941
61	0xbb5f68b4	-0.0034089508
62	0x3c1ee44a	0.009697983
63	0x3d2ebcbd	0.042660464
64	0x3ca18fe5	0.019721935
65	0x3b00b89a	0.001964128
66	0xbaeb7b34	-0.0017965795
67	0x3a053a2d	0.0005082216
68	0xbc0ee304	-0.008721117
69	0x39694c9e	0.00022249154
70	0x3b3cb7c1	0.002879605
71	0xba0cde1f	-0.0005373675
72	0xb9aa031d	-0.00032427246
73	0x3a9ba7cf	0.0011875572
74	0x3c820813	0.01587299
75	0xba3617b0	-0.0006946279
76	0xbc46dc8b	-0.0121375425
77	0x3b2d0589	0.0026401004
78	0x3ad7eef1	0.0016474408
79	0x392b143e	0.00016315372
80	0x3780c154	1.5348814e-05
81	0x3ab64ae6	0.001390782
82	0x3afef7db	0.0019452529
83	0xbaf4521a	-0.0018640191
84	0x3ab4cc07	0.0013793715
85	0xba2b0d16	-0.0006525082
86	0x3b3e7316	0.0029060296
87	0xba7100a4	-0.0009193516
88	0x3ac37ea3	0.001491506
89	0xba834633	-0.0010015428
90	0xba1ae885	-0.0005909282
91	0x3accef32	0.0015635251
92	0x3ae36410	0.0017348547
93	0x3a58d8f9	0.00082720775
94	0x3b519258	0.0031978097
95	0xba47ae35	-0.00076172064
96	0xba0dfcad	-0.0005416375
97	0xbaa5fb55	-0.0012663404
98	0x39ab5751	0.00032680717
99	0x3c812fe1	0.0157699
100	0x38ab60b0	8.171925e-05
101	0xbd78bad7	-0.06072506
102	0x3b16e123	0.0023022376
103	0xbb5797f1	-0.003289696
104	0x3a835896	0.0010020908
105	0xb9bea735	-0.00036364203
106	0x3a90de45	0.001105257
107	0x3d576182	0.052583225
108	0x3daf15cd	0.0854908
109	0xb924d492	-0.00015719447
110	0xb9ad7248	-0.00033082278
111	0x3bcb4368	0.006203104
112	0xb9599f63	-0.00020754109
113	0x3c9a1afc	0.018811695
114	0x3c84610e	0.01615956
115	0xbafe5d36	-0.0019406441
116	0x39bb4b37	0.0003572346
117	0xb9e068bd	-0.00042802645
118	0x3a75cf87	0.0009376932
119	0x3c6b971d	0.01437929
120	0xb9b7c9e9	-0.00035054915
121	0xba8ba9bb	-0.0010655442
122	0xbc59f24f	-0.0133024
123	0x396a5f6d	0.00022351528
124	0x39910981	0.00027663636
125	0xb9d760f4	-0.0004108023
126	0x3bdbd75a	0.0067090215
127	0x3cd478e1	0.025936546
128	0xbbe8785f	-0.0070944275
129	0x3c97300c	0.018455528
130	0xbb395d76	-0.0028284467
131	0xbda8bcdb	-0.08239146
132	0xbb3078d9	-0.00269275
133	0xbc145cb3	-0.009055304
134	0x3caa7c64	0.020811267
135	0x3b913aad	0.0044320435
136	0x3cf5bcba	0.029997218
137	0x3c820821	0.015873017
138	0x3c1c0611	0.009522931
139	0x3bdf71f6	0.006819005
140	0xbc569e9d	-0.01309934
141	0xbc34503e	-0.011005459
142	0xbd2875ed	-0.041128088
143	0xbaa3df68	-0.0012502493
144	0xbce0c4ca	-0.027437586
145	0xbc4e3877	-0.012586704
146	0xbd5bf6ae	-0.05370205
147	0xbca83435	-0.020532707
148	0x3c08d419	0.008351349
149	0xbc40e16b	-0.011772494
150	0x3c2f9353	0.010716277
151	0xbcf9bcf3	-0.030485606
152	0xbd01e6dc	-0.031714305
153	0x3b6356e1	0.0034689235
154	0xbbad51e2	-0.005289302
155	0xbca51ee2	-0.020156328
156	0xbd04f891	-0.032463614
157	0xbc6cf50c	-0.014462721
158	0x3c1cfcc5	0.009581749
159	0x3bdf0c6f	0.006806902
160	0x3c4bc4c8	0.012437053
161	0xbb5da32d	-0.0033819184
162	0x3c820821	0.015873017
163	0xbd1d2945	-0.038369436
164	0xbd1f370c	-0.038870856
165	0xbc238f95	-0.009982963
166	0x3c718154	0.014740307
167	0xbd009c30	-0.031398952
168	0x3ba6cb73	0.005090171
169	0xbba4414d	-0.0050126673
170	0x3d26e342	0.040744074
171	0x3cbe1eb7	0.023208005
172	0x3a45948f	0.00075370906
173	0x3bd93b4d	0.0066293837
174	0x3c3b58bf	0.011434733
175	0x3ac5a62b	0.0015079429
176	0x3d4b301e	0.049606435
177	0x3d25449d	0.040348638
178	0x3c04cc2a	0.008105317
179	0xbb2b6bee	-0.002615686
180	0x3c157ba4	0.0091237165
181	0xbbb9a7f2	-0.0056657726
182	0x3d3b8109	0.045777354
183	0x3babcce8	0.0052429326
184	0xbd479f83	-0.048736107
185	0xbdca751f	-0.0988562
186	0xbae15bd1	-0.0017193501
187	0xbb473257	-0.0030394995
188	0x3baff633	0.0053699254
189	0x3ceae635	0.028674224
190	0x3cb66be3	0.022268241
191	0xbc12158b	-0.008916269
192	0x3c97d8f1	0.018536063
193	0xbbd00a9a	-0.00634892
194	0xbc1e5e70	-0.00966607
195	0xbbd5e6c9	-0.006527756
196	0xbc03ff5e	-0.00805649
197	0x3ca96ba7	0.020681215
198	0x3b400bed	0.0029303983
199	0x3cb03cab	0.021513304
200	0x3c820821	0.015873017
201	0x3c23add0	0.009990171
202	0xbb36a4b0	-0.0027869157
203	0xbc300894	-0.010744233
204	0xbc4cae2d	-0.012492699
205	0xbc68e03b	-0.014213617
206	0xbb9e9a07	-0.004840139
207	0xbc6d1c1d	-0.014472035
208	0xbc4ec9e0	-0.012621373
209	0xbc4b0fa2	-0.012393864
210	0xbc860c1b	-0.016363194
211	0x3c0a49cf	0.008440449
212	0xbc19fefc	-0.009399172
213	0x3c3c0d51	0.011477784
214	0xbbd0ceed	-0.0063723237
215	0x3b9c3b6e	0.0047678268
216	0x3aadd894	0.0013263398
217	0xbc2fae65	-0.010722731
218	0xbc750258	-0.014954172
219	0xbc38b8ce	-0.01127453
220	0xbc0f8183	-0.008758905
221	0x3c24e4da	0.010064328
222	0x3bcdf710	0.0062855557
223	0x3c5c8c80	0.013461232
224	0xbbf6ad7a	-0.0075280042
225	0x3c820821	0.015873017
226	0xbc4d3f5c	-0.012527313
227	0x3d1a3725	0.037650246
228	0xbc29a609	-0.010354527
229	0x3c7b8ae0	0.015352935
230	0xbc62582b	-0.013814966
231	0x3b7d7b8b	0.0038678374
232	0xbc04c98a	-0.008104691
233	0x3cb4a3ec	0.02205082
234	0x3b64ef1b	0.0034932557
235	0xbb0fd167	-0.0021944882
236	0x3bc81011	0.006105431
237	0x3c2921ea	0.010323027
238	0xba9666bf	-0.0011474713
239	0x3cf87369	0.03032847
240	0x3cbb6aea	0.022878129
241	0x3beedde9	0.0072896373
242	0xbbc9f859	-0.0061636386
243	0x3c1c84e6	0.00955317
244	0xbc18d346	-0.009327715
245	0x3cfbf692	0.030757222
246	0x3b860f98	0.0040912144
247	0xbc4ea053	-0.012611466
248	0xbccb97e2	-0.024852697
249	0xbbabc7fe	-0.005242347
250	0xbbe3e283	-0.0069544925
251	0x3b8b7326	0.00425567
252	0x3d00f66b	0.031485002
253	0x3d3616c9	0.044455323
254	0x3bd83715	0.006598363
255	0x3c01ecb6	0.007929971
