models/s_p_greedy7.pth (torch, 332311 bytes, 32 tensors)

dnets.0.means f4 [63]
0	0x3f2cc0b2	0.6748153
1	0x3f884d14	1.0648522
2	0xbf5c4b56	-0.86052454
3	0xbe590406	-0.21192941
4	0xc01e8eb4	-2.47746
5	0x3fad113c	1.3520885
6	0xbdceb3b1	-0.10092867
7	0xbf0eb10b	-0.55738896
8	0xbfc8ea62	-1.5696528
9	0xbf278d1a	-0.6544968
10	0x3f489178	0.7834697
11	0x3eef00ec	0.4668039
12	0x3f10a1d7	0.5649695
13	0xbeaa5441	-0.33267406
14	0x3f9cc947	1.2248925
15	0x3f2e0e97	0.6799101
16	0xc0239d07	-2.5564592
17	0xbfddbef1	-1.7323896
18	0x3c6c3f84	0.01441944
19	0x3f236d56	0.6383871
20	0x3f22d614	0.6360791
21	0xbfea1b46	-1.8289573
22	0xc00aa288	-2.1661701
23	0x3f4857ed	0.78259164
24	0xc004ec3a	-2.0769181
25	0x3ed97f5b	0.42479977
26	0x3ff1d5df	1.8893393
27	0xbd052e0e	-0.032514624
28	0x3eadff70	0.33983946
29	0x3e9d7dd2	0.30760056
30	0x3f3406e7	0.7032303
31	0x3fc89d43	1.5672992
32	0x3e9a43f2	0.30129963
33	0x3f6ab0df	0.91676134
34	0x400b4d46	2.1765914
35	0x3e641f5a	0.22277585
36	0xbfa539e8	-1.2908297
37	0x3f7a706e	0.97827804
38	0xbf9a48c6	-1.2053459
39	0xbcca9e49	-0.02473368
40	0x3f37d92c	0.71815753
41	0x3cbdaa57	0.023152513
42	0xbf93e505	-1.1554266
43	0x3f717f79	0.9433513
44	0x3fac52b7	1.3462743
45	0xc01c5f8d	-2.443332
46	0xbea41e64	-0.32054436
47	0xbfc0e650	-1.5070286
48	0x3f644318	0.89164877
49	0xbfc184f5	-1.51187
50	0x3fd556b6	1.6667087
51	0x3f48b7d7	0.7840552
52	0x3ff44ed2	1.9086554
53	0xbf342237	-0.7036471
54	0xbf945df4	-1.1591172
55	0xc00f6c5d	-2.240989
56	0x3fe8d564	1.8190122
57	0x3fe58244	1.7930379
58	0x3ef82084	0.48462307
59	0x400af5d7	2.1712549
60	0xbfbedb43	-1.4910663
61	0x3df59c4f	0.11992704
62	0x40477e92	3.1171002

dnets.0.std f4 [63]
0	0x3fc00986	1.5002906
1	0xbee243fb	-0.4419249
2	0x3edaca98	0.42732692
3	0x3f8b25e0	1.0870934
4	0x3fcb9f8d	1.5908066
5	0xbf10beb2	-0.5654098
6	0x3fa8b723	1.3180889
7	0x3f09b352	0.53789246
8	0x3f40a021	0.7524434
9	0x3ec4cd31	0.384378
10	0x3e4cf9ec	0.20017213
11	0x3f0a84e4	0.54109025
12	0xbe7fa04d	-0.24963494
13	0x3f897833	1.0739807
14	0x3f028bb5	0.50994426
15	0x3f8759f2	1.0574324
16	0x3fb53dd7	1.4159497
17	0x3ecfe92d	0.40607587
18	0x3f5c3c23	0.8602926
19	0x3f883465	1.064099
20	0x3e8d480d	0.27594033
21	0x3f638e49	0.88888985
22	0x3fc4b646	1.5368125
23	0x400dc010	2.2148476
24	0x3f838ab5	1.0276705
25	0x3f7335f4	0.950042
26	0x3f58366c	0.8445804
27	0x3f156a35	0.58365184
28	0x3f67a85c	0.9049127
29	0x3f6c5445	0.92316085
30	0x3f38ee47	0.7223858
31	0x3f2b7652	0.6697742
32	0x3f81ce74	1.014113
33	0x3f9e0c99	1.2347594
34	0x3f82cf56	1.0219524
35	0x3e8cdbdc	0.2751149
36	0xbf237fbb	-0.63866776
37	0x3f373a92	0.71573746
38	0x3eda7678	0.4266851
39	0x3f89cb65	1.0765196
40	0x402a6602	2.662476
41	0x3cdb6fb2	0.026786659
42	0x3f111476	0.56671846
43	0x3ec6b65d	0.38811007
44	0xbbf2d6a2	-0.00741084
45	0x3f932fb6	1.1498935
46	0x402376e3	2.5541313
47	0x3fe976d6	1.8239391
48	0x3fdaa3fb	1.7081293
49	0x3f3eaecd	0.74485475
50	0x3f3bd35b	0.7336938
51	0x3f5b9948	0.85780764
52	0x3f682d24	0.9069388
53	0x3fe137f8	1.7595205
54	0xbe2e05d4	-0.16994411
55	0x3ef98539	0.48734453
56	0x3f48366f	0.7820806
57	0x3f97b993	1.1853508
58	0x3ecc680b	0.39923128
59	0x3f99a841	1.2004472
60	0x3e3452fa	0.17609778
61	0x3fc8c2ba	1.5684426
62	0x3fe5fe78	1.7968283

dnets.0.weights_rbf f4 [48, 63]
0	0x38a69580	7.9433434e-05
1	0x3a690814	0.00088894484
2	0x3adf1d78	0.0017022332
3	0xba799a72	-0.00095216103
4	0x3b01d4df	0.001981072
5	0x3b0d56c9	0.002156662
6	0xba652c77	-0.00087422825
7	0xba043f68	-0.00050448487
8	0xbaf86d1f	-0.0018953419
9	0xbc4d5d43	-0.012534442
10	0x3d6b639e	0.05746805
11	0x3b2f56e2	0.0026754667
12	0x3aa273db	0.0012394147
13	0xba20a5e1	-0.00061282335
14	0x3a381027	0.000702145
15	0x3a29700b	0.0006463534
16	0x3b17bc61	0.0023153054
17	0xbc8dc3ea	-0.017305333
18	0xbacd914b	-0.001568356
19	0x3a0902be	0.0005226544
20	0x3b3cc251	0.0028802345
21	0x3a699e9c	0.0008911879
22	0x3ae4c8b6	0.0017454836
23	0xb7fbf4b6	-3.0035484e-05
24	0x3ad78dfc	0.0016445513
25	0x3835dccb	4.3359392e-05
26	0x3b347fd6	0.0027542016
27	0xbb420eb1	-0.0029610808
28	0xb98fc761	-0.00027423634
29	0xb9f5c6d8	-0.00046878192
30	0x3b01d00a	0.0019807839
31	0x3b35c54e	0.002773601
32	0xba0c306a	-0.00053477904
33	0x3a4b049b	0.0007744522
34	0x3b6cbe4f	0.0036124175
35	0x3bb1e109	0.0054284376
36	0x3a64b44a	0.0008724375
37	0x3b27a615	0.002558117
38	0x3c105453	0.008809167
39	0xba985e89	-0.0011624853
40	0xb8f04429	-0.000114567876
41	0xb8428871	-4.6380275e-05
42	0x3b16f6f8	0.0023035388
43	0xba85783c	-0.0010182927
44	0x3c820821	0.015873017
45	0x3a6a5ef1	0.0008940539
46	0xb9bf52cd	-0.0003649205
47	0x3a1a79ee	0.0005892803
48	0x3963e759	0.0002173459
49	0x3a842eb3	0.0010084718
50	0x3b2af292	0.0026084525
51	0x3ac9ffec	0.0015411354
52	0x3b334d09	0.002735915
53	0xb96adafb	-0.00022397556
54	0x3c821be4	0.01588244
55	0x3c6b9ba3	0.014380368
56	0x3b77aeb1	0.0037793333
57	0x3b01dee4	0.001981669
58	0x3b8cf9ec	0.004302254
59	0x3b22aafb	0.002482115
60	0x3c820821	0.015873017
61	0xba1267ba	-0.00055849145
62	0x3b23400a	0.0024909996
63	0x39de78d0	0.00042433152
64	0x3c2c8676	0.010530105
65	0xbbdaf683	-0.0066822185
66	0xbb808bdd	-0.003922923
67	0xbba45fce	-0.0050163036
68	0x3c22f56c	0.009946208
69	0xbb21ab3b	-0.0024668712
70	0xbbe68de5	-0.007035958
71	0xbcabff48	-0.020995751
72	0xbd371219	-0.044694994
73	0x3d926670	0.07148445
74	0x3c1f1c5e	0.009711353
75	0x3c804c2e	0.015661325
76	0xbb960724	-0.004578488
77	0x3bdad04f	0.0066776644
78	0x3b3692e7	0.0027858557
79	0xbbad6803	-0.00529194
80	0xbd61bd9e	-0.055112474
81	0xbb2f25ce	-0.0026725414
82	0x3b23eec5	0.0025014144
83	0x3c96cb3c	0.018407457
84	0xbc48efae	-0.012264175
85	0xbba6ab9a	-0.0050863745
86	0xb93a409c	-0.00017762411
87	0xbc1a5059	-0.00941857
88	0x3afba490	0.0019198824
89	0x3c02d0b8	0.007984333
90	0xbbc162c1	-0.005901665
91	0x3aacfd6f	0.0013198088
92	0x3a276f9a	0.00063871744
93	0x3be1eda5	0.0068947845
94	0x3c1d8961	0.009615273
95	0xb814ef89	-3.5509034e-05
96	0x3b2068db	0.0024476561
97	0x3c23dfd9	0.0100021
98	0x3c8f7ffa	0.017517079
99	0xbc3f5501	-0.011677981
100	0x3bfd0a90	0.0077222064
101	0xbc5634c2	-0.013074102
102	0xbb20d2b3	-0.002453965
103	0xb9d9e684	-0.00041561213
104	0x3991a380	0.00027778372
105	0xbbd15f21	-0.006389514
106	0x3c00c724	0.007859979
107	0x3c820821	0.015873017
108	0xbc475aca	-0.012167642
109	0xbaf3fcd4	-0.0018614777
110	0xbba96f5d	-0.0051707462
111	0x39fb1fda	0.00047898182
112	0xbc3f029f	-0.01165834
113	0x3be959df	0.007121309
114	0x3bb04583	0.00537938
115	0x3bc5575d	0.0060223774
116	0xbb86ad0d	-0.0041099847
117	0x3c86ffed	0.016479457
118	0x3b9094e8	0.0044122823
119	0x3c44726d	0.011990172
120	0x3b9c0044	0.004760774
121	0x3c4f8004	0.012664799
122	0x3ba39786	0.0049924282
123	0x3c820833	0.01587305
124	0xba86a1c5	-0.00102716
125	0x3b8e3c4e	0.004340685
126	0x3c2c924e	0.010532929
127	0x3d483f8b	0.048888724
128	0xbd8103b9	-0.06299538
129	0xbcc3ff6a	-0.023925502
130	0xbd46555f	-0.04842126
131	0x3d3e3db7	0.046445575
132	0xbc85233a	-0.016252149
133	0xbd38f44d	-0.04515486
134	0xbd989331	-0.074499495
135	0xbdc24d7a	-0.09487434
136	0x3e0d5fab	0.13806026
137	0x3d18b985	0.0372863
138	0x3d2945bf	0.04132628
139	0xbcf85f1d	-0.030318791
140	0x3d39b57e	0.0453391
141	0x3cccc5bc	0.02499663
142	0xbd5140e8	-0.05108729
143	0xbdd906e9	-0.10597021
144	0xbaf30111	-0.0018539747
145	0x3cc371b1	0.023857923
146	0x3d31adf2	0.043378778
147	0xbd82c478	-0.0638513
148	0xbd42e3f8	-0.04758069
149	0x39748cd7	0.0002332212
150	0xbd72de10	-0.059293807
151	0x3cb334da	0.021875788
152	0x3d2443ae	0.040103607
153	0x3b251340	0.0025188476
154	0x3ca3e91b	0.020008614
155	0x3c8b7e44	0.017027982
156	0x3d0e5c11	0.03475577
157	0x3d3440b2	0.04400701
158	0x3c47245c	0.012154665
159	0x3cc3d2d5	0.023904243
160	0x3d27eca5	0.040997166
161	0x3cdb4afd	0.026769156
162	0xbd87ce0d	-0.06631098
163	0x3d1594e2	0.03651894
164	0xbe04c0dd	-0.12964197
165	0xbc22ffec	-0.009948712
166	0xbba8621a	-0.0051386477
167	0x39a97138	0.00032318546
168	0xbd8084f1	-0.062753566
169	0x3d47ce22	0.048780568
170	0x3c820821	0.015873017
171	0xbd7cc910	-0.061715186
172	0xbca586f9	-0.020205962
173	0xbd2a5008	-0.04158023
174	0x3c2efac6	0.010679906
175	0xbd84cbf2	-0.06484212
176	0x3d24b432	0.04021091
177	0x3d04696b	0.032327097
178	0x3d16061b	0.036626916
179	0xbd057825	-0.032585282
180	0x3bf706ee	0.007538668
181	0xbbf1f9f1	-0.0073845317
182	0x3d35c9db	0.044381958
183	0x3d06242c	0.03274934
184	0x3d1870ff	0.037217136
185	0x3d0acd27	0.033887055
186	0x3c8205ea	0.01587196
187	0xbbfac82a	-0.007653256
188	0x3d0153db	0.03157411
189	0xbb1d2b1c	-0.0023981994
190	0xbc6d6a72	-0.014490711
191	0x3c2c057e	0.010499356
192	0x3b1ad7f5	0.0023627256
193	0x3be37067	0.0069408896
194	0xbc272472	-0.01020156
195	0x3b07f685	0.0020746302
196	0x3aa9a1e8	0.0012941929
197	0x3c5da70e	0.0135285985
198	0x3bf512c1	0.0074790423
199	0xbda78adf	-0.081807844
200	0x3a5bce8d	0.00083849655
201	0xbc79f581	-0.015256287
202	0x3b289879	0.0025725646
203	0xbc474584	-0.01216257
204	0xbb3b83aa	-0.0028612413
205	0x3c077122	0.008266719
206	0x3de2503d	0.110504605
207	0xb984e7e3	-0.0002534977
208	0xbb3cbca7	-0.002879897
209	0xbc7a3932	-0.0152724255
210	0x3c415198	0.011799239
211	0x3bd137fc	0.0063848477
212	0xba97c7ad	-0.0011579894
213	0x3c2fc061	0.010727019
214	0xbb39a4cd	-0.0028326989
215	0xbb9e564b	-0.0048320643
216	0xba15d6c4	-0.00057159015
217	0xbb3887e2	-0.0028157164
218	0xbb35d313	-0.0027744218
219	0xbac226c4	-0.0014812578
220	0xbbf06b43	-0.0073370053
221	0xbb259b91	-0.0025269727
222	0xbb425894	-0.0029654847
223	0xbb6c455c	-0.0036052084
224	0x3b273d69	0.002551878
225	0x3c4bd431	0.012440727
226	0xbaec29fd	-0.0018017885
227	0x3e48dc5e	0.19615313
228	0x3a85aed9	0.0010199203
229	0xb98427d7	-0.00025206685
230	0x39552a99	0.00020329132
231	0x3c52051e	0.012818603
232	0xbc8bc51e	-0.017061766
233	0x3c820821	0.015873017
234	0x3c323ef5	0.010879268
235	0x3b40e04d	0.0029430569
236	0x3b9722ca	0.0046123015
237	0xbb1df0cf	-0.0024099832
238	0x3c489198	0.0122417435
239	0xbbc29df5	-0.00593924
240	0xbb115af3	-0.0022179454
241	0xbb7c79f2	-0.0038524834
242	0x3b7b211a	0.003831929
243	0x3c856f72	0.016288493
244	0x3d622d77	0.05521914
245	0xbbb738af	-0.005591474
246	0xbb366874	-0.0027833255
247	0x3b10d4e5	0.0022099551
248	0xbb3aa277	-0.0028478184
249	0x3c820d0d	0.015875364
250	0x39bddfa7	0.00036215523
251	0xbb377719	-0.0027994572
252	0x3be182f5	0.0068820664
253	0x3d07f46d	0.033192087
254	0xbd33ffaa	-0.043944992
255	0xbc717f53	-0.014739829

dnets.0.conv.weight f4 [48, 3, 7, 7]
0	0xbcce2303	-0.02516318
1	0x3bb568d1	0.0055361767
2	0xbc1446bf	-0.00905007
3	0xbd9e4e7d	-0.07729814
4	0xbd0fbf94	-0.035094813
5	0xbc770bd4	-0.015078504
6	0xbd343709	-0.043997798
7	0xbbcc13e1	-0.0062279557
8	0xbc7a29b0	-0.015268728
9	0xbbb9033e	-0.0056461385
10	0x3b744322	0.003727146
11	0xbcf502d4	-0.029908575
12	0x39cda1a7	0.00039221087
13	0x3d003948	0.031304628
14	0xbd4f7280	-0.050646305
15	0xbd1f99fb	-0.038965207
16	0x3bb0717b	0.0053846217
17	0x3d86bd1a	0.06579037
18	0x3d4c9658	0.049948066
19	0xbd383488	-0.044971973
20	0x3cc33606	0.023829471
21	0xbc5e6c46	-0.013575619
22	0x3b5b53d2	0.003346671
23	0x3d9ef0c6	0.07760768
24	0x3e13d094	0.14435035
25	0xbd6ddddf	-0.05807292
26	0x3b9d3d2c	0.004798552
27	0x3db55741	0.08854533
28	0xbcfc43e1	-0.030794086
29	0xbbb99375	-0.00566333
30	0xbc90df2f	-0.017684547
31	0xbd6a37db	-0.057182174
32	0xbbf3cfc4	-0.007440539
33	0x3c851534	0.016245462
34	0x3c939b5c	0.018018417
35	0x3c3ac9d4	0.011400659
36	0x3d1a1e0e	0.03762632
37	0xbd00e4dd	-0.03146826
38	0x3da9a23b	0.08282896
39	0x3cfdb226	0.030968737
40	0xbd1d59a6	-0.038415574
41	0xbc507025	-0.01272205
42	0x3ceb039e	0.028688248
43	0xbc97bd92	-0.018523011
44	0xbbbe5b25	-0.005809205
45	0xbd51f74b	-0.051261228
46	0xbbf3f663	-0.007445143
47	0x3b9b9832	0.0047483677
48	0x3ce1daa5	0.027570078
49	0xbcd12b14	-0.025533237
50	0x3c6479a8	0.013945021
51	0x3d03769b	0.032095533
52	0xbb75a909	-0.0037484786
53	0x3cbcf8ec	0.023067914
54	0x3d08b3fa	0.033374764
55	0xbb961811	-0.0045805057
56	0xbca78210	-0.02044776
57	0x3850dcd2	4.979672e-05
58	0xbc814ea8	-0.015784577
59	0x3bcdc49b	0.0062795407
60	0xbd00376e	-0.031302862
61	0x3cff4993	0.031163013
62	0x3cd87424	0.026422568
63	0xbc67e8e4	-0.014154647
64	0x3c69c407	0.014267928
65	0x3c702f0c	0.014659654
66	0x3d58df55	0.05294736
67	0xbd3ac9f1	-0.045602743
68	0x3d0655c6	0.032796644
69	0x3d1019b6	0.03518077
70	0x3cb6d1e5	0.022316882
71	0xbd90c812	-0.070694104
72	0xbb799939	-0.0038085713
73	0xbdf46fa2	-0.11935355
74	0xbd6a3bfe	-0.05718612
75	0x3d59cfb9	0.053176615
76	0xbd02b279	-0.031908486
77	0x3cac7694	0.021052636
78	0x3b9bb669	0.0047519696
79	0xbd518f4a	-0.05116204
80	0xbdb36f8f	-0.087615125
81	0x3d1d61a7	0.038423207
82	0xbc0286c7	-0.007966704
83	0x3cda66c7	0.026660336
84	0xbc69cb69	-0.014269688
85	0x3d73630d	0.059420634
86	0xbb240d00	-0.0025032163
87	0xbc6a2e89	-0.014293321
88	0x3cb49e80	0.022048235
89	0xbc6cfe33	-0.014464903
90	0x3c9bd573	0.019022679
91	0xbc902d98	-0.017599866
92	0xbd422a9a	-0.04740391
93	0x3d073d59	0.03301749
94	0x3cddd5d4	0.0270795
95	0x3d184162	0.03717173
96	0x3d41755a	0.047231056
97	0xbca012d6	-0.019540232
98	0xbc4c57f6	-0.012472143
99	0x3a792b40	0.0009505041
100	0x3d092cff	0.033490177
101	0x3d93e40d	0.072212316
102	0x3d7948d8	0.060860485
103	0xbbe28041	-0.0069122617
104	0xbc8454ef	-0.01615378
105	0xbbfd5bc6	-0.0077318875
106	0x3c3a85d7	0.011384449
107	0xbce6fd8a	-0.028197069
108	0x3c719cb5	0.0147468345
109	0x3c955b3c	0.01823198
110	0xbc041c3f	-0.008063375
111	0x3d636955	0.055520374
112	0x3a3f5760	0.00072990917
113	0xbd19e4c5	-0.037571687
114	0xba95bc26	-0.001142387
115	0xbd862e9c	-0.06551859
116	0x3bf67949	0.0075217825
117	0x3c9d41aa	0.01919635
118	0xbd546a4b	-0.05185918
119	0xbda1d074	-0.079010874
120	0x3d5dd23b	0.05415557
121	0x3d7da276	0.061922513
122	0x3df93fa1	0.121703394
123	0xbcfdcb1c	-0.03098064
124	0x3d6ee95e	0.058328025
125	0xbd82af2c	-0.06381068
126	0x3c1c82dc	0.009552684
127	0x3c97786c	0.018490039
128	0x3d3e902b	0.046524208
129	0x3bafa342	0.005360038
130	0x3c8925dd	0.016741687
131	0xbd195ded	-0.03744309
132	0xbcadfb18	-0.021237895
133	0xbb14694f	-0.0022645777
134	0xbd0430bf	-0.03227305
135	0x3cee285f	0.029071985
136	0xbd941448	-0.07230431
137	0xbca377fc	-0.019954674
138	0xbd11e0be	-0.03561472
139	0x3d475625	0.04866614
140	0xbd7eb7cc	-0.062187
141	0x3a38364c	0.0007027134
142	0x3c2c87ec	0.010530453
143	0xbd8b8e97	-0.06814306
144	0xbd2e0d3c	-0.04249309
145	0x3d08d07b	0.033401947
146	0x3c2560c1	0.010093869
147	0x3c1e0606	0.009644991
148	0x3d0071c6	0.031358503
149	0xbd85e2e6	-0.06537418
150	0x3db0422e	0.08606373
151	0xbbd787d3	-0.006577471
152	0x3c92b1d7	0.017907066
153	0xbcb02ad3	-0.021504795
154	0x3c5af430	0.013363883
155	0x3c2226b5	0.009896924
156	0xbcfa8c7c	-0.030584566
157	0xbd2a7f83	-0.04162551
158	0x3c25ae5e	0.010112373
159	0x3cc2e770	0.023791999
160	0xba663aed	-0.00087825843
161	0x3c0354dc	0.0080158375
162	0xbcc60fdf	-0.02417749
163	0x3dabfdf6	0.083980486
164	0x3d593140	0.053025484
165	0xbd3b6f51	-0.045760456
166	0x3c40bf21	0.011764319
167	0xbb2a2f5f	-0.0025968177
168	0x3cb93b1c	0.022611193
169	0xbde9cb70	-0.11415756
170	0x3dc981f4	0.0983924
171	0x3e03a670	0.1285646
172	0xbd887497	-0.06662863
173	0xbd069a11	-0.032861773
174	0x3c8dc297	0.017304702
175	0x3c8a0bf3	0.016851401
176	0xbcd2ce29	-0.02573307
177	0x3d2dc13f	0.042420622
178	0x3cd38067	0.025818063
179	0x3d9ee73d	0.07758949
180	0xbc1afbc7	-0.009459442
181	0xbd17da91	-0.037073676
182	0x3b8e9b78	0.0043520294
183	0xbc90d551	-0.017679842
184	0xbc1e7abd	-0.009672818
185	0xbd8ed175	-0.069735445
186	0x3b034276	0.0020028627
187	0xbbe1169f	-0.0068691517
188	0x3b281958	0.0025649872
189	0xbc0db420	-0.008648902
190	0xbc6a73b6	-0.014309814
191	0x3cd2bd62	0.02572507
192	0xbdaf5d81	-0.08562756
193	0xbcd98c71	-0.026556225
194	0xbd115414	-0.035480574
195	0x3b1da1a3	0.0024052642
196	0xbcdcaaba	-0.026936878
197	0x39a47800	0.00031369925
198	0x3d10f050	0.03538543
199	0x3c4e8365	0.012604569
200	0x3c22d884	0.009939317
201	0x3cde4eee	0.027137246
202	0xbc1520e0	-0.009102076
203	0xbc168b47	-0.00918848
204	0x3c355da7	0.011069692
205	0x3cc402f8	0.023927197
206	0xbd659946	-0.056054376
207	0x39f32f36	0.00046383747
208	0x3c2d596b	0.010580401
209	0x3c315744	0.010824028
210	0xbae2518a	-0.0017266732
211	0x3a48db3a	0.0007662062
212	0xbd4b38c8	-0.049614698
213	0x3b8e2804	0.0043382663
214	0xbd574da3	-0.052564275
215	0x3d17625f	0.03695905
216	0x3c1bd7d9	0.009511911
217	0xbdd58e8b	-0.104275785
218	0xbd48ec2d	-0.04905336
219	0x3ce26415	0.027635613
220	0xbdb29bc7	-0.087211184
221	0x3e15a359	0.14613093
222	0x3d911cca	0.07085569
223	0xbcce51b5	-0.025185445
224	0xbd1086a8	-0.03528467
225	0x3c3fa9cb	0.011698197
226	0x3b48186d	0.0030532137
227	0x3e1097b8	0.14120376
228	0xbd21cab9	-0.039499972
229	0x3ccbfa8e	0.024899747
230	0x3cf4445b	0.02981775
231	0xbd3fdcf7	-0.046841588
232	0xbbaa5b35	-0.005198861
233	0x3cd6b6c0	0.026210189
234	0xbc2c2925	-0.0105078565
235	0x3d0dd8b0	0.034630477
236	0xbcc113d6	-0.023569029
237	0x3c615655	0.013753493
238	0x3c92274c	0.017841004
239	0xbb26caa3	-0.002545037
240	0xbb1b561e	-0.0023702453
241	0xbda74ae0	-0.08168578
242	0xbce38d56	-0.027777355
243	0xb9b35c44	-0.00034210284
244	0x3c6d49b1	0.014482901
245	0xbbcc06eb	-0.0062264106
246	0x3c249b53	0.010046798
247	0xbc414182	-0.011795403
248	0xbd957a38	-0.07298702
249	0x3c05df81	0.008170963
250	0xbd0c721a	-0.034288503
251	0x3c21534d	0.009846521
252	0xbd233fe5	-0.039855856
253	0xbb973b31	-0.0046152105
254	0x3d6cc036	0.057800494
255	0xbd7fd99d	-0.06246339

dnets.1.means f4 [63]
0	0x3f2cc0b2	0.6748153
1	0x3f884d14	1.0648522
2	0xbf5c4b56	-0.86052454
3	0xbe590406	-0.21192941
4	0xc01e8eb4	-2.47746
5	0x3fad113c	1.3520885
6	0xbdceb3b1	-0.10092867
7	0xbf0eb10b	-0.55738896
8	0xbfc8ea62	-1.5696528
9	0xbf278d1a	-0.6544968
10	0x3f489178	0.7834697
11	0x3eef00ec	0.4668039
12	0x3f10a1d7	0.5649695
13	0xbeaa5441	-0.33267406
14	0x3f9cc947	1.2248925
15	0x3f2e0e97	0.6799101
16	0xc0239d07	-2.5564592
17	0xbfddbef1	-1.7323896
18	0x3c6c3f84	0.01441944
19	0x3f236d56	0.6383871
20	0x3f22d614	0.6360791
21	0xbfea1b46	-1.8289573
22	0xc00aa288	-2.1661701
23	0x3f4857ed	0.78259164
24	0xc004ec3a	-2.0769181
25	0x3ed97f5b	0.42479977
26	0x3ff1d5df	1.8893393
27	0xbd052e0e	-0.032514624
28	0x3eadff70	0.33983946
29	0x3e9d7dd2	0.30760056
30	0x3f3406e7	0.7032303
31	0x3fc89d43	1.5672992
32	0x3e9a43f2	0.30129963
33	0x3f6ab0df	0.91676134
34	0x400b4d46	2.1765914
35	0x3e641f5a	0.22277585
36	0xbfa539e8	-1.2908297
37	0x3f7a706e	0.97827804
38	0xbf9a48c6	-1.2053459
39	0xbcca9e49	-0.02473368
40	0x3f37d92c	0.71815753
41	0x3cbdaa57	0.023152513
42	0xbf93e505	-1.1554266
43	0x3f717f79	0.9433513
44	0x3fac52b7	1.3462743
45	0xc01c5f8d	-2.443332
46	0xbea41e64	-0.32054436
47	0xbfc0e650	-1.5070286
48	0x3f644318	0.89164877
49	0xbfc184f5	-1.51187
50	0x3fd556b6	1.6667087
51	0x3f48b7d7	0.7840552
52	0x3ff44ed2	1.9086554
53	0xbf342237	-0.7036471
54	0xbf945df4	-1.1591172
55	0xc00f6c5d	-2.240989
56	0x3fe8d564	1.8190122
57	0x3fe58244	1.7930379
58	0x3ef82084	0.48462307
59	0x400af5d7	2.1712549
60	0xbfbedb43	-1.4910663
61	0x3df59c4f	0.11992704
62	0x40477e92	3.1171002

dnets.1.std f4 [63]
0	0x3fc00986	1.5002906
1	0xbee243fb	-0.4419249
2	0x3edaca98	0.42732692
3	0x3f8b25e0	1.0870934
4	0x3fcb9f8d	1.5908066
5	0xbf10beb2	-0.5654098
6	0x3fa8b723	1.3180889
7	0x3f09b352	0.53789246
8	0x3f40a021	0.7524434
9	0x3ec4cd31	0.384378
10	0x3e4cf9ec	0.20017213
11	0x3f0a84e4	0.54109025
12	0xbe7fa04d	-0.24963494
13	0x3f897833	1.0739807
14	0x3f028bb5	0.50994426
15	0x3f8759f2	1.0574324
16	0x3fb53dd7	1.4159497
17	0x3ecfe92d	0.40607587
18	0x3f5c3c23	0.8602926
19	0x3f883465	1.064099
20	0x3e8d480d	0.27594033
21	0x3f638e49	0.88888985
22	0x3fc4b646	1.5368125
23	0x400dc010	2.2148476
24	0x3f838ab5	1.0276705
25	0x3f7335f4	0.950042
26	0x3f58366c	0.8445804
27	0x3f156a35	0.58365184
28	0x3f67a85c	0.9049127
29	0x3f6c5445	0.92316085
30	0x3f38ee47	0.7223858
31	0x3f2b7652	0.6697742
32	0x3f81ce74	1.014113
33	0x3f9e0c99	1.2347594
34	0x3f82cf56	1.0219524
35	0x3e8cdbdc	0.2751149
36	0xbf237fbb	-0.63866776
37	0x3f373a92	0.71573746
38	0x3eda7678	0.4266851
39	0x3f89cb65	1.0765196
40	0x402a6602	2.662476
41	0x3cdb6fb2	0.026786659
42	0x3f111476	0.56671846
43	0x3ec6b65d	0.38811007
44	0xbbf2d6a2	-0.00741084
45	0x3f932fb6	1.1498935
46	0x402376e3	2.5541313
47	0x3fe976d6	1.8239391
48	0x3fdaa3fb	1.7081293
49	0x3f3eaecd	0.74485475
50	0x3f3bd35b	0.7336938
51	0x3f5b9948	0.85780764
52	0x3f682d24	0.9069388
53	0x3fe137f8	1.7595205
54	0xbe2e05d4	-0.16994411
55	0x3ef98539	0.48734453
56	0x3f48366f	0.7820806
57	0x3f97b993	1.1853508
58	0x3ecc680b	0.39923128
59	0x3f99a841	1.2004472
60	0x3e3452fa	0.17609778
61	0x3fc8c2ba	1.5684426
62	0x3fe5fe78	1.7968283

dnets.1.weights_rbf f4 [48, 63]
0	0xbaee06d3	-0.0018159993
1	0xbb46d1b0	-0.0030337386
2	0x3c00d636	0.007863572
3	0x3b0c690f	0.0021424924
4	0x3b908c7d	0.0044112788
5	0xbb1af353	-0.0023643568
6	0x3a88fd92	0.0010451546
7	0x3bcaf99f	0.006194308
8	0x3b9f2ddb	0.0048577613
9	0x3c39d03e	0.011341153
10	0xbb4bf45e	-0.0031120996
11	0xbb7b40e5	-0.003833824
12	0xbbe35e93	-0.0069387644
13	0x3b39c53e	0.0028346325
14	0xbaa0c3c1	-0.001226537
15	0xbb39fef4	-0.0028380724
16	0x3b97a822	0.0046281973
17	0xbce89944	-0.028393395
18	0x39d6000d	0.000408173
19	0xbb32a15b	-0.002725682
20	0xbbf12267	-0.0073588374
21	0x3b9984a8	0.0046850033
22	0x3b8d4dc7	0.0043122503
23	0xba82e24f	-0.0009985658
24	0x3b9a13b1	0.0047020544
25	0xbb1d970c	-0.002404633
26	0xbb157125	-0.0022803035
27	0x3ac3cdfa	0.0014938705
28	0xbb0ffe3f	-0.002197161
29	0xbb02569e	-0.0019888054
30	0xbb6fefba	-0.0036611394
31	0xbb1f1335	-0.0024272923
32	0xbadce230	-0.0016852077
33	0xbb3b6613	-0.0028594777
34	0xbb5d56d6	-0.0033773682
35	0xbb76b138	-0.0037642252
36	0x3ba691ab	0.005083283
37	0xbb6d9e72	-0.003625777
38	0xbd3a3701	-0.045462612
39	0x3a47ad72	0.0007617093
40	0xba1304a3	-0.0005608296
41	0x3c2520fa	0.010078663
42	0x3bb9aa18	0.0056660287
43	0xbb2c25ef	-0.0026267727
44	0x3c820821	0.015873017
45	0x3b9b4525	0.0047384673
46	0x3a4e6ad4	0.0007874195
47	0x3b5569a8	0.0032564197
48	0xbaf549c2	-0.0018713998
49	0x3b9c9e15	0.004779587
50	0xbae789c2	-0.0017664956
51	0xbb64c8cc	-0.0034909723
52	0xbb09a6d7	-0.0021003985
53	0x3b13193e	0.0022445465
54	0x3c863d9d	0.016386801
55	0x3c436a37	0.011927179
56	0xbb5fe02c	-0.0034160716
57	0xbb4dd1fe	-0.0031405683
58	0xbb7ab9a2	-0.0038257618
59	0xbb29c0fe	-0.0025902386
60	0x3c86f38f	0.01647356
61	0xb6f0a13d	-7.171328e-06
62	0xbb1f40c1	-0.002430007
63	0xba1be701	-0.0005947203
64	0x3cc4fee5	0.024047324
65	0xbcea84ca	-0.028627772
66	0xbb9b33ab	-0.004736384
67	0xbc50dfd4	-0.012748677
68	0x3cb0d806	0.021587383
69	0xbb71b44e	-0.0036881152
70	0xbc802ce4	-0.015646406
71	0xbce948d0	-0.028477103
72	0xbd0d86e2	-0.034552462
73	0x3c640c06	0.013918882
74	0x3c302ade	0.010752408
75	0x3d00e2b3	0.031466197
76	0xbbc10769	-0.005890776
77	0x3cb0ffa7	0.02160628
78	0x3b2b563d	0.0026143931
79	0xbc7a7f7c	-0.015289184
80	0xbd6e3681	-0.058157448
81	0xbb1089db	-0.0022054825
82	0x3b129bae	0.0022370624
83	0x3d0756ce	0.033041768
84	0xbcc14623	-0.023593014
85	0xbc459892	-0.012060301
86	0xbb02079c	-0.0019840961
87	0xbcab903f	-0.020942805
88	0x3ad14d26	0.0015968427
89	0x3c8b0100	0.01696825
90	0xbb0c2744	-0.0021385709
91	0x3a916c41	0.0011094884
92	0x39ff3640	0.0004867781
93	0x3c065add	0.008200374
94	0x3ca25354	0.019815125
95	0xb9b5ddaa	-0.00034688163
96	0x3b1a0566	0.0023501753
97	0x3c80c174	0.015717246
98	0x3ce36b19	0.02776103
99	0xbcdb536b	-0.026773175
100	0x3c3fecba	0.011714155
101	0xbdf8a50e	-0.12140857
102	0xbb46b156	-0.0030318103
103	0xbb298377	-0.0025865713
104	0x3c069b4c	0.008215737
105	0xbcdd2694	-0.026995935
106	0x3cc9b85c	0.024624042
107	0x3c86961e	0.016429003
108	0xbcadbbd7	-0.021207733
109	0xbb86c93e	-0.0041133454
110	0xbc0475dc	-0.0080847405
111	0xba15d7fa	-0.0005716082
112	0xbcce405e	-0.025177177
113	0x3c93438f	0.01797655
114	0x3bcbbd89	0.0062176627
115	0x3c7496ed	0.014928562
116	0xbbbf2cef	-0.005834214
117	0x3c820b55	0.015874544
118	0xbc0c39cd	-0.008558703
119	0x3c9ddcfe	0.019270416
120	0x3c095a65	0.008383368
121	0x3c8576a8	0.016291931
122	0x3c311c27	0.010809935
123	0x3c820821	0.015873017
124	0xbb37e79d	-0.0028061636
125	0x3c00e01d	0.007865933
126	0xba9cad72	-0.0011953546
127	0x3ae217f7	0.0017249574
128	0x3a579147	0.0008223247
129	0x3b19dd82	0.0023477976
130	0x3b6e5413	0.003636603
131	0x3aef0c7d	0.0018237975
132	0x3aafc973	0.0013411477
133	0x3c1e834a	0.009674856
134	0x3b2f80d8	0.0026779678
135	0x3c42abad	0.011881751
136	0x3d59d348	0.05318001
137	0xbb8aa77a	-0.0042313905
138	0x3b3656b1	0.0027822668
139	0x3b471525	0.0030377593
140	0x3b260947	0.002533512
141	0xbb1b91ca	-0.002373802
142	0x3b634121	0.003467627
143	0xbd3dc6dc	-0.046332225
144	0x3a03a943	0.00050224754
145	0xbb1454a8	-0.0022633467
146	0x3aca86ab	0.0015451511
147	0x3b2977b2	0.0025858697
148	0x3b6dafc6	0.00362681
149	0xb9f485eb	-0.00046639083
150	0x3b431efe	0.0029773111
151	0xbb078fad	-0.0020685003
152	0x390c217d	0.00013363916
153	0x3a87616b	0.0010328715
154	0xbafcad24	-0.0019277674
155	0xbadc6dec	-0.0016817427
156	0xbb5fb8c9	-0.003413724
157	0x3a90632d	0.0011015885
158	0xbaa66d9b	-0.001269746
159	0xbb155536	-0.0022786385
160	0xba56f2d2	-0.0008199635
161	0xbbc5f5b0	-0.006041251
162	0x3a323f04	0.0006799551
163	0xbb4b9be0	-0.003106825
164	0xbd5ac58c	-0.05341105
165	0x3a864d24	0.0010246378
166	0xb8932d6c	-7.017967e-05
167	0x3bf0ac30	0.007344745
168	0xbb0c676d	-0.0021423951
169	0x3b1740b7	0.0023079345
170	0x3c8b0220	0.016968787
171	0x3b6fd1a7	0.0036593468
172	0x3a9bcf1f	0.0011887288
173	0x3b49d037	0.0030794272
174	0xbaa2288d	-0.0012371704
175	0x3ac48fa2	0.0014996419
176	0x3a33b73c	0.0006855612
177	0xbb4b4eae	-0.0031022239
178	0xba1b228f	-0.00059179304
179	0x3b197772	0.0023417142
180	0x3c5beeb5	0.013423611
181	0x3bb911f3	0.0056478917
182	0x3a09979a	0.00052487256
183	0xbb1ddd07	-0.0024088041
184	0xbb73d0c8	-0.00372033
185	0xbad449e1	-0.0016196334
186	0x3c820798	0.015872762
187	0x39c46d92	0.0003746567
188	0xbabd6322	-0.00144491
189	0x3abbb29d	0.0014320199
190	0x3d48c7fa	0.049018838
191	0xbd34f29d	-0.044176687
192	0xbbc38ce8	-0.005967725
193	0xbc834310	-0.016023189
194	0x3d2e7f0c	0.04260163
195	0xbb737b03	-0.0037152178
196	0xbcc2ee95	-0.023795405
197	0xbd82f5ca	-0.06394537
198	0xbded5267	-0.115879826
199	0x3c6eec37	0.014582685
200	0x3c7b9a18	0.015356563
201	0x3d686f2e	0.056746654
202	0xbc0213bf	-0.007939278
203	0x3d132543	0.035924207
204	0x3bbb6f8e	0.0057200855
205	0xbca68d98	-0.020331189
206	0xbdac5794	-0.08415142
207	0xbb188dd6	-0.00232779
208	0x3ba70679	0.005097207
209	0x3d784241	0.06061006
210	0xbd35ffd6	-0.044433437
211	0xbc742ac6	-0.014902776
212	0xb984e809	-0.00025349882
213	0xbd126de5	-0.035749335
214	0x3b5b3795	0.0033449878
215	0x3ce3c3b3	0.027803278
216	0xbb801e68	-0.0039098747
217	0x3b11fe92	0.002227698
218	0x3ab1205c	0.0013513672
219	0x3c5ca837	0.01346784
220	0x3d1992a9	0.03749338
221	0x3a03b23b	0.0005023812
222	0x3bbf622a	0.0058405595
223	0x3d014fdc	0.0315703
224	0x3d145e84	0.03622295
225	0xbd4795f6	-0.048727
226	0x3ca0ac70	0.019613475
227	0x3c22e782	0.009942891
228	0xbb467372	-0.0030281213
229	0xba90b9e7	-0.0011041731
230	0x3b1bb416	0.0023758463
231	0xbd260b58	-0.040538162
232	0x3d39c2d3	0.045351814
233	0x3c820821	0.015873017
234	0xbd253335	-0.040332038
235	0xbb734874	-0.0037122043
236	0xbc25f6ef	-0.010129674
237	0x3ae5041d	0.0017472539
238	0xbd3d06a9	-0.04614893
239	0x3ce60acb	0.028081318
240	0x3c3304dc	0.0109264515
241	0x3cb2967c	0.021800272
242	0xbbe46185	-0.006969633
243	0x3c820821	0.015873017
244	0x3c74dc20	0.01494506
245	0x3d298c88	0.041393787
246	0x3c608c07	0.01370526
247	0x3cd24a4f	0.025670199
248	0x3c81ab16	0.01582865
249	0x3c820821	0.015873017
250	0xbb00ccf0	-0.0019653402
251	0x3c4a01aa	0.012329498
252	0xbae4768a	-0.0017430347
253	0xbc33c012	-0.010971086
254	0x3cc90c99	0.02454214
255	0x3ae01667	0.001709652

dnets.1.conv.weight f4 [48, 3, 7, 7]
0	0x3bf9800e	0.0076141423
1	0x3c8e0524	0.017336436
2	0xbd2d920e	-0.042375617
3	0xbd6c7478	-0.05772826
4	0xbd84d89c	-0.064866275
5	0xbc3a6f35	-0.011379053
6	0xbd8df168	-0.0693081
7	0x3c123a16	0.008924982
8	0x3d5f49ae	0.054513626
9	0x3ba3cafc	0.004998563
10	0xbcdc5a0f	-0.026898412
11	0x3d8bba57	0.06822651
12	0xbd53f592	-0.051747866
13	0x3d916360	0.070990324
14	0x3bd217a2	0.0064115087
15	0xbbe89345	-0.007097634
16	0xbc4e97ae	-0.012609405
17	0x3baf5386	0.005350533
18	0xbd17f8f5	-0.03710266
19	0xbb83b991	-0.004019924
20	0xbd9d47c5	-0.076797046
21	0x3d59b1c6	0.053148054
22	0xbd25fabb	-0.04052232
23	0x3d4c5d76	0.04989382
24	0x3d3b950e	0.045796447
25	0xbcdfe003	-0.027328497
26	0x3d093120	0.033494115
27	0xbdaf3fde	-0.085571036
28	0x3d6332b1	0.055468265
29	0x3c82d4ba	0.015970577
30	0x3d8f592e	0.069994316
31	0x3d98f922	0.07469393
32	0x3cd44a80	0.02591443
33	0xbd624e55	-0.055250484
34	0xbc24635e	-0.010033457
35	0x3d255dbe	0.040372603
36	0xbd67fc30	-0.05663699
37	0x3d4e7c27	0.05041137
38	0x3d41ed61	0.047345523
39	0xbd0c14b6	-0.03419944
40	0xbd0b054d	-0.033940602
41	0x3cb1b65d	0.021693403
42	0xbca4213b	-0.020035377
43	0xbcb68c60	-0.022283733
44	0x3c9ea6a1	0.019366564
45	0x3c436079	0.011924856
46	0x3c278521	0.0102246115
47	0xbd7e6017	-0.062103357
48	0x3d414e47	0.04719379
49	0xbcf81348	-0.030282632
50	0xbd817165	-0.063204564
51	0x3c0b3fac	0.008499067
52	0x3dbfddfe	0.093685135
53	0xbd3e945b	-0.0465282
54	0x3cdd8da1	0.027045073
55	0x3d1fe196	0.039033495
56	0x3d7af98b	0.06127314
57	0xbd7c5194	-0.061601236
58	0xbbd48e1d	-0.006486668
59	0xbcefd16d	-0.029274667
60	0xbd0dd287	-0.034624603
61	0x3da5d107	0.080965094
62	0xbc2f95c9	-0.010716864
63	0xbd9658e7	-0.073411755
64	0x3d1046f9	0.035223935
65	0xbc4d0fba	-0.012515957
66	0x3b6c2aae	0.0036036181
67	0x3db1b9e5	0.08678035
68	0xbc1d16a9	-0.009587922
69	0x3d723253	0.059130024
70	0xbae8c944	-0.0017760177
71	0x3cfa456d	0.030550683
72	0x3c96adad	0.018393362
73	0xbd428601	-0.047491077
74	0xbcc24241	-0.023713233
75	0x3bfd14cf	0.007723428
76	0xbc4cde7a	-0.012504214
77	0x3d45be8c	0.048277423
78	0x3d56ecae	0.05247181
79	0xbbd6610b	-0.00654233
80	0xbd801f93	-0.06256022
81	0xbd1bfee8	-0.038084894
82	0xbbafb71f	-0.005362406
83	0x3ca3f65c	0.020014934
84	0xbd00919d	-0.031388868
85	0xbac41503	-0.0014959875
86	0xbc878f76	-0.0165479
87	0x3d39ac98	0.045330614
88	0xb9d58671	-0.00040726693
89	0x3c35b40e	0.011090292
90	0xbd158ff5	-0.03651424
91	0xbda5a8d1	-0.0808884
92	0x3cfca0f8	0.030838475
93	0x3c68a2af	0.014198943
94	0x3ad07ac2	0.0015905725
95	0x3bf14abc	0.0073636454
96	0x3cd7c844	0.026340611
97	0xbd8911ba	-0.06692834
98	0xba805fc2	-0.0009794163
99	0x3c5e46a1	0.013566644
100	0xbccc002e	-0.02490243
101	0xbd791cfe	-0.060818665
102	0x3d932207	0.071842246
103	0x3dd0e154	0.10199228
104	0x3c8c7fd1	0.017150791
105	0x3da3ecb7	0.08004134
106	0xbccd3c03	-0.02505303
107	0xbbde133f	-0.0067771967
108	0xbd2c753a	-0.042103983
109	0x3dabaf10	0.08383
110	0x3d77cba7	0.060496952
111	0xbc2e8bbe	-0.010653434
112	0xbd703fba	-0.058654524
113	0xbd4da8dd	-0.05020987
114	0x3dada249	0.08478219
115	0xbd7aa749	-0.06119469
116	0xbd53685f	-0.051613208
117	0xbcb17ece	-0.02166691
118	0xbc0ed8ea	-0.0087187085
119	0x3d2fb812	0.042900153
120	0xbd87d871	-0.0663308
121	0xbd4f46b9	-0.050604556
122	0x3d1bb257	0.038011875
123	0xbd8c5bd0	-0.06853449
124	0xbd7a586b	-0.06111948
125	0x3dae467d	0.08509538
126	0xba647310	-0.00087146554
127	0x3bd0660a	0.0063598203
128	0xbd38c40b	-0.045108836
129	0x3d7eb969	0.06218854
130	0xbc1b6f9c	-0.009487059
131	0xbd06ec94	-0.032940462
132	0xbd39640b	-0.045261424
133	0xbd834e15	-0.06411377
134	0xbd993d3c	-0.07482383
135	0xbd299b6e	-0.041407995
136	0x3dc15031	0.094391234
137	0x3d19f1fb	0.037584286
138	0x3d181e34	0.03713818
139	0x3ccf3afa	0.025296677
140	0x3d85a6d3	0.0652596
141	0x3d61d09a	0.05513058
142	0xbd31f57a	-0.043446995
143	0xbd2180ca	-0.039429463
144	0xbd3a3068	-0.04545632
145	0xbce20c82	-0.027593855
146	0x3d9f7169	0.07785303
147	0x3d8e95bb	0.069621526
148	0xbc89e7ec	-0.016834222
149	0x3d9bf00d	0.076141454
150	0xbcdadd97	-0.02671699
151	0xbd5875e1	-0.052846793
152	0x3d815282	0.06314565
153	0x3d7b1c59	0.06130633
154	0xbbd51757	-0.0065030265
155	0x3d5a86ed	0.05335133
156	0xbcccd2e1	-0.025002899
157	0x3d24fe97	0.04028186
158	0xbcb6cf82	-0.022315744
159	0xbcd79083	-0.026314026
160	0xbd6a344a	-0.057178773
161	0xbdcb3a01	-0.09923173
162	0xbda4db58	-0.08049649
163	0x3cc2982a	0.023754198
164	0x3b1106b8	0.0022129249
165	0xbd354d78	-0.044263333
166	0x3db84c61	0.08998943
167	0xbd6e16f6	-0.058127366
168	0x3d2b8c35	0.04188176
169	0x3cdb113f	0.026741622
170	0x3d2978ab	0.041374844
171	0xbd118b47	-0.035533216
172	0x3c81b66b	0.015834054
173	0xbc4edb64	-0.012625549
174	0x3d930a84	0.0717974
175	0xbd3a72de	-0.045519702
176	0x3c9dc06e	0.019256797
177	0xbca6e64d	-0.020373488
178	0x3d3cfd16	0.0461398
179	0x3d583619	0.052785967
180	0xbd7dd9b1	-0.061975185
181	0xbd53da68	-0.05172196
182	0x3d33b2f5	0.04387184
183	0x3d5cad48	0.05387619
184	0xbca55c30	-0.02018556
185	0xbc4db2f9	-0.012554877
186	0xbd77f60e	-0.06053739
187	0x3d82beed	0.063840725
188	0xbd43d5d1	-0.047811333
189	0xbd8c82de	-0.068608984
190	0xbd69e835	-0.057106216
191	0x3db771d6	0.08957259
192	0xbd81264b	-0.06306132
193	0xbcd14e54	-0.025550045
194	0x3ced46d3	0.028964436
195	0x3d0f6774	0.03501077
196	0x3d6e309b	0.058151823
197	0xbd2e3911	-0.04253489
198	0xbc8810cc	-0.016609572
199	0x3cab9246	0.020943772
200	0xbd875b3b	-0.06609198
201	0xbbbd1997	-0.005770873
202	0xbd1e2789	-0.038611922
203	0x3d0dcdf1	0.03462023
204	0xbd8b35c1	-0.06797362
205	0xbda76e19	-0.08175296
206	0xbd042c96	-0.032269083
207	0x3d742403	0.059604656
208	0x3d395bf3	0.045253705
209	0x3d99036a	0.07471354
210	0x3d477522	0.04869569
211	0x3cd642db	0.026154926
212	0x3a55892b	0.0008145745
213	0x3ba860f5	0.0051385113
214	0x3ca4ba80	0.020108461
215	0xbd830bcd	-0.06398735
216	0x3cc7dc60	0.024397075
217	0xbc8a50f9	-0.016884314
218	0x3d74f94d	0.059808064
219	0xbd6df72a	-0.058097042
220	0x3d5efb56	0.05443891
221	0x3d89e774	0.06733599
222	0x3cd8b492	0.02645329
223	0xbd649616	-0.055807196
224	0x3d92ce69	0.07168276
225	0x3d868a86	0.0656939
226	0xbc23b6e9	-0.00999234
227	0x3ccc6397	0.024949832
228	0xbd681673	-0.056662034
229	0x3d30cbab	0.043162983
230	0x3cac7238	0.021050557
231	0xbdaf58ae	-0.08561836
232	0xbd881446	-0.06644492
233	0xbceb8768	-0.02875109
234	0x3dafbf77	0.08581441
235	0xbd7a9098	-0.06117305
236	0xbda80cdc	-0.08205578
237	0x39cd83bd	0.000391988
238	0x3d8ed069	0.06973345
239	0xbcfd988a	-0.030956525
240	0xbc949d0c	-0.018141292
241	0x3d2bd921	0.041955117
242	0x3beb2d86	0.0071770577
243	0xbb392a2a	-0.0028253892
244	0xbd2b7edd	-0.041869033
245	0xbd789ebe	-0.060698263
246	0xbd27288b	-0.04081015
247	0x3d2bb895	0.041924078
248	0xbd69f9ed	-0.057123113
249	0x3d9bd042	0.076080814
250	0xbd715c8f	-0.05892616
251	0xbd7ec313	-0.062197756
252	0xbcca041d	-0.024660164
253	0x3c2c9aeb	0.010534982
254	0x3d0c3363	0.034228694
255	0x3da3018f	0.07959282

dnets.2.means f4 [63]
0	0x3f2cc0b2	0.6748153
1	0x3f884d14	1.0648522
2	0xbf5c4b56	-0.86052454
3	0xbe590406	-0.21192941
4	0xc01e8eb4	-2.47746
5	0x3fad113c	1.3520885
6	0xbdceb3b1	-0.10092867
7	0xbf0eb10b	-0.55738896
8	0xbfc8ea62	-1.5696528
9	0xbf278d1a	-0.6544968
10	0x3f489178	0.7834697
11	0x3eef00ec	0.4668039
12	0x3f10a1d7	0.5649695
13	0xbeaa5441	-0.33267406
14	0x3f9cc947	1.2248925
15	0x3f2e0e97	0.6799101
16	0xc0239d07	-2.5564592
17	0xbfddbef1	-1.7323896
18	0x3c6c3f84	0.01441944
19	0x3f236d56	0.6383871
20	0x3f22d614	0.6360791
21	0xbfea1b46	-1.8289573
22	0xc00aa288	-2.1661701
23	0x3f4857ed	0.78259164
24	0xc004ec3a	-2.0769181
25	0x3ed97f5b	0.42479977
26	0x3ff1d5df	1.8893393
27	0xbd052e0e	-0.032514624
28	0x3eadff70	0.33983946
29	0x3e9d7dd2	0.30760056
30	0x3f3406e7	0.7032303
31	0x3fc89d43	1.5672992
32	0x3e9a43f2	0.30129963
33	0x3f6ab0df	0.91676134
34	0x400b4d46	2.1765914
35	0x3e641f5a	0.22277585
36	0xbfa539e8	-1.2908297
37	0x3f7a706e	0.97827804
38	0xbf9a48c6	-1.2053459
39	0xbcca9e49	-0.02473368
40	0x3f37d92c	0.71815753
41	0x3cbdaa57	0.023152513
42	0xbf93e505	-1.1554266
43	0x3f717f79	0.9433513
44	0x3fac52b7	1.3462743
45	0xc01c5f8d	-2.443332
46	0xbea41e64	-0.32054436
47	0xbfc0e650	-1.5070286
48	0x3f644318	0.89164877
49	0xbfc184f5	-1.51187
50	0x3fd556b6	1.6667087
51	0x3f48b7d7	0.7840552
52	0x3ff44ed2	1.9086554
53	0xbf342237	-0.7036471
54	0xbf945df4	-1.1591172
55	0xc00f6c5d	-2.240989
56	0x3fe8d564	1.8190122
57	0x3fe58244	1.7930379
58	0x3ef82084	0.48462307
59	0x400af5d7	2.1712549
60	0xbfbedb43	-1.4910663
61	0x3df59c4f	0.11992704
62	0x40477e92	3.1171002

dnets.2.std f4 [63]
0	0x3fc00986	1.5002906
1	0xbee243fb	-0.4419249
2	0x3edaca98	0.42732692
3	0x3f8b25e0	1.0870934
4	0x3fcb9f8d	1.5908066
5	0xbf10beb2	-0.5654098
6	0x3fa8b723	1.3180889
7	0x3f09b352	0.53789246
8	0x3f40a021	0.7524434
9	0x3ec4cd31	0.384378
10	0x3e4cf9ec	0.20017213
11	0x3f0a84e4	0.54109025
12	0xbe7fa04d	-0.24963494
13	0x3f897833	1.0739807
14	0x3f028bb5	0.50994426
15	0x3f8759f2	1.0574324
16	0x3fb53dd7	1.4159497
17	0x3ecfe92d	0.40607587
18	0x3f5c3c23	0.8602926
19	0x3f883465	1.064099
20	0x3e8d480d	0.27594033
21	0x3f638e49	0.88888985
22	0x3fc4b646	1.5368125
23	0x400dc010	2.2148476
24	0x3f838ab5	1.0276705
25	0x3f7335f4	0.950042
26	0x3f58366c	0.8445804
27	0x3f156a35	0.58365184
28	0x3f67a85c	0.9049127
29	0x3f6c5445	0.92316085
30	0x3f38ee47	0.7223858
31	0x3f2b7652	0.6697742
32	0x3f81ce74	1.014113
33	0x3f9e0c99	1.2347594
34	0x3f82cf56	1.0219524
35	0x3e8cdbdc	0.2751149
36	0xbf237fbb	-0.63866776
37	0x3f373a92	0.71573746
38	0x3eda7678	0.4266851
39	0x3f89cb65	1.0765196
40	0x402a6602	2.662476
41	0x3cdb6fb2	0.026786659
42	0x3f111476	0.56671846
43	0x3ec6b65d	0.38811007
44	0xbbf2d6a2	-0.00741084
45	0x3f932fb6	1.1498935
46	0x402376e3	2.5541313
47	0x3fe976d6	1.8239391
48	0x3fdaa3fb	1.7081293
49	0x3f3eaecd	0.74485475
50	0x3f3bd35b	0.7336938
51	0x3f5b9948	0.85780764
52	0x3f682d24	0.9069388
53	0x3fe137f8	1.7595205
54	0xbe2e05d4	-0.16994411
55	0x3ef98539	0.48734453
56	0x3f48366f	0.7820806
57	0x3f97b993	1.1853508
58	0x3ecc680b	0.39923128
59	0x3f99a841	1.2004472
60	0x3e3452fa	0.17609778
61	0x3fc8c2ba	1.5684426
62	0x3fe5fe78	1.7968283

dnets.2.weights_rbf f4 [48, 63]
0	0xb90ee974	-0.00013629143
1	0x3bf4fd4a	0.0074764835
2	0x3acc08de	0.0015566607
3	0x3a340bd7	0.00068682194
4	0x3b2c6944	0.002630786
5	0x3b220ff1	0.002472874
6	0x39e8360c	0.00044290756
7	0x3b7e4326	0.0038797348
8	0x3b00cef9	0.0019654615
9	0x3b973105	0.004613998
10	0x3c9ed54c	0.019388817
11	0xbb9770d7	-0.004621606
12	0x3d15d1d9	0.03657708
13	0x3a7df3e8	0.0009687529
14	0x3a323d95	0.00067993376
15	0xba780b5b	-0.00094621413
16	0x3b3fe762	0.0029282202
17	0xbc6e435e	-0.014542429
18	0x388a2e3a	6.588963e-05
19	0xba662355	-0.00087790686
20	0x3d0a9bc2	0.03383995
21	0x3b3385ca	0.0027392977
22	0x3b23d244	0.0024997154
23	0x39479d20	0.00019036653
24	0x3b45992e	0.0030151117
25	0xba73f845	-0.00093067094
26	0xbab2f522	-0.0013653378
27	0xb8bf0943	-9.109315e-05
28	0xba6d6760	-0.00090562366
29	0xba4357c6	-0.0007451739
30	0xbb38b048	-0.0028181244
31	0x3a22409b	0.00061894365
32	0xb9f09b3c	-0.00045892026
33	0xba3679a3	-0.00069608743
34	0x39f1779d	0.0004605622
35	0xbb07d8ca	-0.0020728582
36	0x3b04c31b	0.0020257893
37	0xbb6a3140	-0.0035734922
38	0xbd233842	-0.039848574
39	0x399d2280	0.00029971078
40	0x399a34cf	0.00029412514
41	0x3c4df5b0	0.0125707835
42	0x3aba6c32	0.0014222919
43	0x3c191915	0.009344359
44	0x3c7a3967	0.015272475
45	0x3b447a23	0.0029980026
46	0x3a06ad41	0.0005137511
47	0x3ab867ac	0.0014068983
48	0xb891bdca	-6.94949e-05
49	0x3b1ddb22	0.0024086912
50	0xbb13dbbb	-0.002256139
51	0xbafe9646	-0.0019423447
52	0xbb4c7607	-0.003119828
53	0x3a5fa4cc	0.00085313316
54	0xbd39cfa2	-0.04536403
55	0xbcebb8cb	-0.02877464
56	0x3b02f733	0.0019983768
57	0xbaed901a	-0.0018124611
58	0xbbef8bab	-0.007310351
59	0xbb153bd9	-0.0022771268
60	0x3c804d5c	0.015661888
61	0x3992b1a7	0.0002797965
62	0xba5390cd	-0.0008070588
63	0x391847b3	0.0001452256
64	0x3c9888e1	0.018619956
65	0xbccca380	-0.024980307
66	0xb9187134	-0.00014538021
67	0xbb9af30a	-0.0047286795
68	0x3c5ff01c	0.013668086
69	0xb9e7e704	-0.00044231873
70	0xb94e745d	-0.0001968904
71	0xbcc8853d	-0.024477595
72	0xbcebc616	-0.028780978
73	0x3c9c4017	0.01907353
74	0x3a6b558f	0.0008977288
75	0x3d014a3b	0.031564932
76	0xb9ec0567	-0.00045017453
77	0x3c60883c	0.013704356
78	0x3a93cf9b	0.0011277081
79	0xbbd719a3	-0.0065643354
80	0xbd48fe2d	-0.049070526
81	0x3a91810c	0.0011101081
82	0x3a8cf0e9	0.0010752949
83	0x3cfcdcab	0.030866941
84	0xbc88dd3c	-0.016707055
85	0xbb89b8bc	-0.0042029303
86	0xba25784c	-0.0006312176
87	0xbc5365b6	-0.012902668
88	0x3a8f3f16	0.0010928835
89	0x3bcab2aa	0.006185849
90	0x3b5a5915	0.0033317257
91	0x3a89a870	0.0010502469
92	0x3a741f51	0.0009312528
93	0x3ada4e20	0.0016655363
94	0x3c27e481	0.010247351
95	0x3a30d4b3	0.0006745562
96	0x3a6f8ad0	0.0009137811
97	0x3bc7daa0	0.00609906
98	0xbbdfa445	-0.0068250024
99	0xbcb1f93b	-0.021725288
100	0x3b1572e7	0.0022804083
101	0xbe218ce1	-0.15776397
102	0x398a203f	0.00026345436
103	0xba80579d	-0.0009791736
104	0x3bd5001e	0.006500258
105	0xbcb88cc2	-0.022528056
106	0x3ca75cc1	0.02042997
107	0x3c820821	0.015873017
108	0xbc63c9c7	-0.013903088
109	0xbace7330	-0.0015750881
110	0xbb342a7a	-0.0027491138
111	0x37b75ee6	2.185949e-05
112	0xbc9b7ba1	-0.01897985
113	0x3be4a8e5	0.0069781416
114	0x3ace2f02	0.0015730562
115	0x3b889af6	0.0041688634
116	0xbaef67e8	-0.0018265219
117	0x3c5d37db	0.0135020865
118	0xbd07c074	-0.033142522
119	0x3c1f7f21	0.0097349
120	0x3aee107e	0.0018162874
121	0x39f58a6b	0.0004683317
122	0x3b22a81a	0.0024819435
123	0x3c820821	0.015873017
124	0xba09a956	-0.0005251368
125	0x3b033579	0.0020020886
126	0xb91e2b98	-0.00015084294
127	0x3c8bc0dc	0.017059736
128	0xbc389201	-0.011265279
129	0xbb1e6889	-0.0024171195
130	0xbc09bf9d	-0.008407501
131	0x3c8c5cc0	0.01713407
132	0xbb11d6bf	-0.0022253243
133	0xbb4b3b37	-0.0031010637
134	0xbd376054	-0.0447696
135	0xbd8e300f	-0.0694276
136	0x3c814c43	0.015783435
137	0x3c29f81d	0.010374096
138	0x3bc8a3a8	0.006123025
139	0xbb5f3883	-0.0034060783
140	0x3c869e1b	0.016432812
141	0x3b56053d	0.003265693
142	0xbc2b9a8c	-0.010473859
143	0xbe076cc3	-0.13225083
144	0x3853cfc1	5.0499806e-05
145	0x3b3dde25	0.002897152
146	0x3b85c4be	0.0040822914
147	0xbcda9bc8	-0.02668561
148	0xbbfd7c5d	-0.0077357725
149	0xbae85922	-0.0017726759
150	0xbca70d6c	-0.020392142
151	0x3b068a99	0.0020529388
152	0x3c4d1b3f	0.012518703
153	0x3b1d1ec6	0.0023974641
154	0x3aa6d78c	0.0012729033
155	0x3a147713	0.00056634954
156	0x3c09a64a	0.008401463
157	0x3c829a26	0.015942644
158	0xb91cfa8f	-0.0001497066
159	0x3b38572a	0.0028128126
160	0x3c67bf65	0.014144753
161	0x3c18d0d1	0.009327129
162	0xbcd01cf2	-0.025404427
163	0x3c288025	0.010284458
164	0xbda7dee3	-0.08196809
165	0xba8f5df6	-0.0010938037
166	0xbb23619e	-0.002493001
167	0x3c2d5b57	0.010580859
168	0xbc796c76	-0.015223613
169	0x3c8efa18	0.017453238
170	0x3c820821	0.015873017
171	0xbcd63d27	-0.026152207
172	0xbb825843	-0.003977807
173	0xbbe5cc1b	-0.0070128567
174	0xb957b050	-0.0002056968
175	0xbcd13502	-0.025537971
176	0x3c48c9e3	0.012255165
177	0x3bd7791f	0.006575718
178	0x3c09a81b	0.008401896
179	0xbbaafed0	-0.0052183643
180	0x3c809c99	0.015699672
181	0xbd1993ab	-0.037494343
182	0x3c8608af	0.016361563
183	0x3bb4164a	0.005495821
184	0x3c72d762	0.014821859
185	0x3bb622da	0.005558354
186	0x3c820821	0.015873017
187	0xbb04b972	-0.0020252136
188	0x3b927d2c	0.004470488
189	0x3a84349a	0.0010086477
190	0x3c8234b7	0.015894277
191	0xb9981012	-0.00029003673
192	0xba0407f3	-0.0005036585
193	0x3ac91b1b	0.0015343161
194	0x3c47c09a	0.012191916
195	0x39a2aaaf	0.00031026217
196	0xbb49e534	-0.0030806782
197	0xbc4a1631	-0.012334392
198	0xbcd6ef8e	-0.026237275
199	0x3d19a192	0.0375076
200	0xba5b668d	-0.0008369468
201	0x3ccf8a7b	0.025334587
202	0xba4c0114	-0.0007782143
203	0x3c0b29b1	0.008493827
204	0x3a56e1f3	0.0008197121
205	0x3aa6def1	0.0012731237
206	0xbbe79018	-0.007066738
207	0xba232d41	-0.00062247
208	0x3a393fd9	0.0007066704
209	0x3cf02bb9	0.029317724
210	0xbbae0f9f	-0.005311921
211	0x3ab9a42f	0.001416331
212	0x3ab82312	0.0014048538
213	0xbb33174a	-0.0027327114
214	0xb8892b01	-6.540679e-05
215	0x3bcbb3ff	0.0062165256
216	0xbb2dd3cc	-0.0026523946
217	0xb9d0faf5	-0.0003985983
218	0xb9cf70c9	-0.00039566148
219	0x3a919121	0.0011105874
220	0x3c213ff6	0.00984191
221	0xb9070e85	-0.00012880012
222	0x3ab2f78e	0.0013654099
223	0x3c10f040	0.008846343
224	0xbc351b29	-0.011053839
225	0xbba3d54e	-0.004999793
226	0x3b376253	0.002798219
227	0x3d285075	0.041092355
228	0xb89231c4	-6.971092e-05
229	0x3ac22710	0.0014812667
230	0x3c01ce22	0.007922681
231	0xb866da5e	-5.5039643e-05
232	0x3c6ada1c	0.014334228
233	0x3c820821	0.015873017
234	0xbba67d8b	-0.005080884
235	0x3a9c5743	0.0011927861
236	0x3a11f146	0.00055672636
237	0x3aab3d2b	0.0013064494
238	0xbba082b0	-0.0048983917
239	0x3badeed0	0.0053080097
240	0x3aa9915c	0.0012936997
241	0x3b4971bd	0.003073796
242	0x39f45f29	0.00046610206
243	0x3c820821	0.015873017
244	0x3c80a42a	0.01570328
245	0x3c5212b8	0.012821846
246	0x3b1e3d1c	0.002414531
247	0xb9a3c44e	-0.0003123604
248	0x3b13c7f5	0.0022549604
249	0x3c820821	0.015873017
250	0x3a5d6aa8	0.0008446374
251	0x3b34e04a	0.0027599507
252	0x3b069d75	0.002054063
253	0x3d3f105f	0.046646472
254	0xbcdc1d5c	-0.026869468
255	0xbb9dfa61	-0.0048211073
