models/SnP_joint7.pth (torch, 332311 bytes, 32 tensors)

dnets.0.means f4 [63]
0	0x3f39b463	0.72540873
1	0x3ff9ea03	1.952454
2	0x3e517c84	0.20457655
3	0x3ffe4fa8	1.9868059
4	0x3fdf97bd	1.7468182
5	0x4015839d	2.336158
6	0x3fdfadc4	1.7474904
7	0x3fa263a2	1.2686656
8	0x3efa1695	0.48845354
9	0xbfd4f564	-1.6637387
10	0x3f0d617c	0.55226874
11	0x4074af41	3.8231966
12	0x3fb5d488	1.4205484
13	0x3f391c8c	0.72309184
14	0xbedd6593	-0.43241557
15	0x3ee656af	0.4498801
16	0xbf2962fc	-0.66166663
17	0xbf9ad65d	-1.2096668
18	0x3fb9ca9d	1.4514958
19	0x3f236cd0	0.6383791
20	0x3dd1743a	0.102272466
21	0xbf8228a7	-1.0168656
22	0x3df102bf	0.11768102
23	0x40058222	2.0860677
24	0x3fbf67eb	1.4953588
25	0x3f2791b2	0.6545669
26	0x3f552858	0.83264685
27	0x3feadde5	1.8348967
28	0x3fa00f7e	1.2504728
29	0x3e50f559	0.20406093
30	0x3fe64bba	1.799186
31	0xc0004bcc	-2.0046263
32	0x3fb39cf4	1.4032273
33	0x3d7241b8	0.059144706
34	0x40292d12	2.6433759
35	0x3f200ea3	0.62522334
36	0xbeef642a	-0.46756107
37	0xbfb04a44	-1.3772664
38	0xbf145cee	-0.579543
39	0x3ddc7260	0.10764003
40	0xbfa009e7	-1.2503022
41	0xbf47c65d	-0.78037053
42	0x3e8b0ba3	0.27157316
43	0x400eee8c	2.2333097
44	0xbfa0eff3	-1.2573227
45	0xbfd59b84	-1.6688085
46	0xbf2b9b48	-0.67033815
47	0x3d252d7f	0.04032659
48	0x3f51662e	0.8179654
49	0xbeaf7c8b	-0.34274706
50	0x3e90cb3e	0.2828006
51	0xbf174fde	-0.5910624
52	0x3f033dab	0.5126597
53	0x3fdab905	1.7087713
54	0x3e94e7f2	0.2908321
55	0x3f8718c6	1.0554435
56	0x3e021f50	0.12707257
57	0xbd50cdb9	-0.050977442
58	0x3f459865	0.7718566
59	0xbeeae766	-0.45879668
60	0x3d543034	0.051803783
61	0xbf4f3989	-0.80947167
62	0x3f343f59	0.7040916

dnets.0.std f4 [63]
0	0x3fe565ac	1.7921653
1	0x4004f9dd	2.0777504
2	0x3e7664c3	0.24061875
3	0x4047acf3	3.119931
4	0x3fb8684c	1.4406829
5	0x3fddd777	1.733138
6	0x3f3b4ce3	0.73164195
7	0x3f090d80	0.53536224
8	0x3fcde1fa	1.6084588
9	0x3fa8f250	1.3198948
10	0x3f9d975b	1.2311815
11	0x3fd75b0c	1.682466
12	0x3e8d180e	0.27557415
13	0x3f83b300	1.0289001
14	0x4027ac92	2.6199079
15	0x3f8ff091	1.124529
16	0x3f90015b	1.1250414
17	0x3f7606d5	0.96104175
18	0x3f5edb70	0.87053585
19	0x3e60b226	0.21942958
20	0x3df0960c	0.11747369
21	0x3f9a00b1	1.2031461
22	0x3f8e7989	1.113084
23	0x3f9aa6b9	1.208213
24	0xbe0028f2	-0.1251562
25	0x3ef7c15a	0.48389703
26	0x40136b50	2.3034248
27	0xbee739f5	-0.45161405
28	0x3fbb9b95	1.4656855
29	0x3efa5fc3	0.48901185
30	0x4006394f	2.0972478
31	0xbf4d7738	-0.8026004
32	0x3f576d32	0.84150994
33	0x40554b07	3.3327043
34	0x3fba5f2e	1.4560297
35	0x3ed40a55	0.41414133
36	0x3fb7b905	1.4353338
37	0x3ed1360b	0.40861544
38	0x40256c41	2.5847323
39	0x3f8c5232	1.0962584
40	0x3f181216	0.59402597
41	0x3f84d7e1	1.0378381
42	0x3e62a1b8	0.22132003
43	0x3f32e67e	0.69882953
44	0x3f953353	1.1656288
45	0xbf06bfb4	-0.52636266
46	0x3ecdadf6	0.40171784
47	0x3ee555db	0.44792065
48	0x3fef635b	1.8702196
49	0xbe98e47b	-0.29861817
50	0x3fde22da	1.7354386
51	0x401fb43e	2.495376
52	0x3e7455d6	0.23860869
53	0x3ee8965e	0.4542722
54	0xbe07f08a	-0.13275352
55	0xbe2e80c9	-0.17041315
56	0x3e00cfa6	0.12579212
57	0xbf1da414	-0.6157849
58	0x3fb01267	1.3755616
59	0x3f1798eb	0.5921771
60	0x3ff87912	1.9411948
61	0x3f1aea7f	0.6051406
62	0x3fcd4d90	1.6039295

dnets.0.weights_rbf f4 [48, 63]
0	0x3afa9eac	0.0019120774
1	0x3be75f06	0.007060888
2	0x3c0c341f	0.0085573485
3	0x3b1c4892	0.0023846966
4	0x3c4e6345	0.01259691
5	0x3c4f5bb4	0.012656141
6	0x3d8b7a5d	0.06810448
7	0x3da4554f	0.08024084
8	0x3a96911c	0.0011487338
9	0xbc7bdae4	-0.015372012
10	0x3b7d78cc	0.0038676737
11	0x3cf104ae	0.029421177
12	0x3dc8b12b	0.09799417
13	0x3c08e4cd	0.008355332
14	0xbb3e4f36	-0.0029038913
15	0x3b690be4	0.0035560066
16	0xbc186ee7	-0.009303785
17	0xbc908a60	-0.017644107
18	0x3cb4397f	0.022000073
19	0x3d903e4c	0.07043132
20	0x3bdadd2a	0.006679197
21	0xbc45d462	-0.012074562
22	0xb6c71028	-5.932543e-06
23	0x3cacf8e7	0.02111478
24	0x3ca0a55b	0.019610098
25	0x3c95e751	0.018298777
26	0x3a605207	0.0008557145
27	0x3e515e44	0.20446116
28	0x3c0836b6	0.008313825
29	0x3bb75884	0.0055952687
30	0x3bca9f75	0.0061835595
31	0xbd8e8187	-0.06958299
32	0x3cb5b38c	0.022180341
33	0xbaf3c821	-0.0018599072
34	0x3cb76772	0.022388194
35	0x3c9eb11d	0.019371564
36	0xbbb4d651	-0.0055187126
37	0xbddf1d23	-0.10894229
38	0xbb596fe9	-0.0033178276
39	0xb8a49b94	-7.849108e-05
40	0xbd856ca0	-0.06514859
41	0xbc3e2b0d	-0.011606944
42	0x3c3261ca	0.010887573
43	0x3e060f6e	0.13091823
44	0xbc6c5fc7	-0.014427132
45	0xbe1cad25	-0.15300424
46	0xbd43340a	-0.04765705
47	0x3aed0d0d	0.0018085554
48	0x3b0d7e82	0.0021590297
49	0xbc63266c	-0.013864141
50	0xb98b4b9d	-0.00026568482
51	0xbb61b72f	-0.0034441461
52	0x3cf0a82e	0.02937707
53	0x3e61c293	0.2204688
54	0x3c8c433e	0.017121907
55	0x3e15c123	0.14624457
56	0x3b840539	0.004028943
57	0xbaf6ff76	-0.0018844444
58	0x3ba0b13c	0.0049039405
59	0xbc498d50	-0.012301758
60	0xbaccd451	-0.001562724
61	0xbcc52f78	-0.024070486
62	0x3b2f76ed	0.0026773766
63	0x36e64e79	6.8636696e-06
64	0x3ad369bf	0.0016129537
65	0x3b485c15	0.0030572463
66	0x393d2ce6	0.0001804117
67	0x3b366d45	0.0027836126
68	0x3b4f3126	0.0031614988
69	0x3c8df431	0.017328354
70	0x3c9d74a9	0.019220667
71	0xb8cbc635	-9.716713e-05
72	0xbb9e3554	-0.0048281346
73	0x3a49cbf0	0.00076979306
74	0x3c25d43c	0.010121401
75	0x3d768d3b	0.06019328
76	0x3af6b0e2	0.0018821026
77	0xbaa3db48	-0.0012501264
78	0x3a5666ac	0.00081787515
79	0xbaf90e92	-0.0019001535
80	0xbbb694d1	-0.0055719395
81	0x3b2ed608	0.0026677866
82	0x3c8cbf2d	0.017181003
83	0x3a2fa03b	0.00066995964
84	0xbb4ebe1b	-0.0031546417
85	0x3a09570d	0.0005239107
86	0x3b91e89d	0.0044527785
87	0x3c6f8fe8	0.014621712
88	0x3adf62cc	0.0017042994
89	0xb9bcbb1c	-0.00035997562
90	0x3dc8e921	0.09810091
91	0x3aeb050a	0.0017930579
92	0x3b2b61c7	0.002615081
93	0x3aae6a62	0.0013306851
94	0xbd4604ac	-0.0483443
95	0x3b2780d3	0.0025558963
96	0xba9729c5	-0.0011532834
97	0x3bcc59f3	0.0062363087
98	0x3a910a79	0.0011065743
99	0xbaaac4e4	-0.0013028649
100	0xbe0de7c6	-0.13857946
101	0xbab0347c	-0.0013443376
102	0x3a10364f	0.00055012567
103	0xbd2f0b1c	-0.042735204
104	0xbb275b5a	-0.0025536628
105	0x3b45fc1e	0.0030210088
106	0x3d2444ab	0.04010455
107	0xbb89499e	-0.004189684
108	0xbe0a50f8	-0.1350745
109	0xbcacbaf6	-0.021085244
110	0x3b64708b	0.003485712
111	0x388befe1	6.6727174e-05
112	0x3b6f7326	0.003653714
113	0xb9bfa459	-0.00036552807
114	0xbab192a8	-0.0013547735
115	0x3b6694f7	0.0035184005
116	0x3dcd6c64	0.100304395
117	0x3bc51997	0.0060150134
118	0x3d918fa2	0.07107474
119	0xba838649	-0.0010034527
120	0x3b10326c	0.002200271
121	0x3a758926	0.0009366445
122	0xb9e57de0	-0.00043772068
123	0xba393154	-0.00070645404
124	0xbc083799	-0.008314037
125	0x398b86d6	0.00026612607
126	0xb9c20b32	-0.00037010905
127	0xba2c49f2	-0.0006572298
128	0x39d6f830	0.00041002175
129	0xb9902587	-0.0002749378
130	0xba9c41d1	-0.001192147
131	0xba85dad3	-0.001021231
132	0x3ad2a6bd	0.001607142
133	0x3b7813e3	0.003785365
134	0xb9932bdf	-0.0002807071
135	0x3b007e62	0.001960658
136	0xba108f2b	-0.0005514498
137	0x3a30c704	0.0006743523
138	0x3cfad141	0.030617358
139	0xba53255d	-0.0008054579
140	0x39b412e8	0.00034346362
141	0xba059274	-0.00050953706
142	0x3a8f409e	0.0010929292
143	0x3ae3c95f	0.0017378739
144	0xbb69b3dd	-0.0035660185
145	0x3c30897c	0.010774966
146	0x3b1170f7	0.0022192576
147	0x3ab21235	0.0013585748
148	0x38df207e	0.00010639521
149	0xbb1fd07a	-0.0024385736
150	0x3c7b02e5	0.015320514
151	0xbb129cbe	-0.0022371258
152	0xb97685cf	-0.00023510236
153	0x3d5878f6	0.052849732
154	0xba5ac830	-0.00083458703
155	0xb7575633	-1.2835068e-05
156	0xba211b23	-0.0006145706
157	0xbc78fef1	-0.0151975015
158	0xbb7284a2	-0.0037005325
159	0x390ff224	0.00013727747
160	0xba592207	-0.00082829635
161	0xbb40e7f8	-0.002943514
162	0x3a44c0d1	0.00075055385
163	0xbcf54dec	-0.029944383
164	0x39d577a7	0.00040715674
165	0x39037a95	0.00012538799
166	0xbc629e53	-0.013831693
167	0x3aa29f5d	0.0012407113
168	0xb8c06f92	-9.176055e-05
169	0x3c07df95	0.008293052
170	0x3adf0967	0.0017016352
171	0xbd15a16d	-0.0365309
172	0xbc3bd17a	-0.011463517
173	0x399e8414	0.00030234514
174	0xb9ca94b7	-0.00038639244
175	0xba88530f	-0.001040073
176	0xb80cabbc	-3.353854e-05
177	0x39e05e31	0.00042794787
178	0x3aafaa3b	0.0013402173
179	0x3d293764	0.04131259
180	0x3a9c69c8	0.0011933381
181	0x3d34292a	0.04398457
182	0x3b23bb0b	0.0024983312
183	0x3a0c0129	0.0005340749
184	0xba24a33c	-0.00062804273
185	0x3a710f8a	0.0009195736
186	0x393efcf7	0.00018214049
187	0xb98662d9	-0.0002563212
188	0xb9ebf4ee	-0.0004500518
189	0x3b07d6b3	0.0020727336
190	0x3bc40710	0.005982287
191	0x3b45fece	0.003021169
192	0x3b3883fe	0.0028154845
193	0x3c173731	0.009229467
194	0x3c1edce0	0.009696215
195	0x3cf6a261	0.030106725
196	0x3cfea8ab	0.031086287
197	0x3ac69906	0.0015151806
198	0xbc2a8973	-0.010408747
199	0x3b4a7750	0.003089387
200	0x3c95d7d1	0.018291386
201	0x3d6538fc	0.055962548
202	0x3bbdcb56	0.005792062
203	0xba727f32	-0.0009250521
204	0x3b37bea4	0.0028037215
205	0xbbc32266	-0.0059550283
206	0xbc566681	-0.013085962
207	0x3c479ec8	0.0121838525
208	0x3c9a5e8f	0.018843917
209	0xba0945b5	-0.00052365224
210	0xbc006796	-0.007837197
211	0x3985b783	0.00025504464
212	0x3c5bc16f	0.013412817
213	0x3d0bf918	0.0341731
214	0x3c16efe9	0.0092124725
215	0x3ac4bfa0	0.0015010722
216	0x3d9bb949	0.076037
217	0x3bd072a8	0.0063613243
218	0x3afa1796	0.0019080515
219	0x3baee6f8	0.005337592
220	0xbd99f950	-0.07518256
221	0x3c469319	0.012120032
222	0xb962f5c8	-0.000216446
223	0x3c6e5fb7	0.014549187
224	0x3c18f2fe	0.009335278
225	0xbb4e5b81	-0.0031487646
226	0xbe5ddc37	-0.21666037
227	0xba9cd998	-0.0011966703
228	0x3935bbb2	0.00017331427
229	0xbd9692f1	-0.073522456
230	0xbbfcc226	-0.007713574
231	0x3bfcb94d	0.0077125193
232	0x3d56a8ee	0.052407198
233	0xbc219a4c	-0.009863447
234	0xbe3a7c5d	-0.18211503
235	0xbd865fb2	-0.06561221
236	0xbb32088e	-0.0027165744
237	0x3b150d93	0.0022743687
238	0xbc5a86a6	-0.013337767
239	0x3a1fc1ae	0.0006094229
240	0xbaa9f830	-0.0012967642
241	0x3c4c35c3	0.01246399
242	0x3d97b3bc	0.074073285
243	0x3c4dce53	0.012561399
244	0x3d816b53	0.063192986
245	0x3c359656	0.011083206
246	0xbb465678	-0.0030263942
247	0x3b7ecf89	0.0038881025
248	0xbc226019	-0.009910607
249	0xb9622b16	-0.0002156909
250	0xbcacbd93	-0.02108649
251	0x3b24b2a9	0.0025130904
252	0x3aac37d6	0.0013139199
253	0x3b36330d	0.0027801425
254	0xbb08b2dd	-0.0020858564
255	0x3b0dfc8d	0.0021665425

dnets.0.conv.weight f4 [48, 3, 7, 7]
0	0xbd83e935	-0.06440965
1	0x3aa5bb16	0.0012644257
2	0x3d691c5a	0.056911804
3	0xbcb03fa7	-0.021514727
4	0xbd3f130a	-0.046649016
5	0xbc87ae87	-0.016562713
6	0x3d00084b	0.03125791
7	0xbd23d58d	-0.03999858
8	0x3c8982e0	0.016786039
9	0x3cc45753	0.02396742
10	0x3cf66e45	0.030081877
11	0xbc17c57e	-0.009263394
12	0x3c708214	0.014679451
13	0x3a5b2947	0.0008360338
14	0x3c6ffaea	0.014647225
15	0xbd0711cd	-0.03297596
16	0x3d8b1cbe	0.067925915
17	0xbdd1e725	-0.102491654
18	0x3c3c8568	0.011506416
19	0x3d434ccb	0.047680657
20	0xbc701c15	-0.014655133
21	0xbb3850a3	-0.0028124235
22	0xbdafe6e4	-0.08588961
23	0x3d1f4b3a	0.0388901
24	0xbdfe7819	-0.124252506
25	0x3de30f70	0.11086929
26	0x3ccb7149	0.024834292
27	0xbd8485aa	-0.06470807
28	0xbb7d68d9	-0.003866723
29	0xbda8c31b	-0.082403384
30	0xbbd74c31	-0.006570362
31	0xbd285aad	-0.0411021
32	0x3d3a3d8e	0.04546886
33	0x3d0056f4	0.031332925
34	0xbd408861	-0.04700506
35	0xbca6f55e	-0.020380672
36	0xbadd72cc	-0.0016895174
37	0x3da3f0b5	0.080048956
38	0x3da8418d	0.08215628
39	0xbd37976a	-0.044822134
40	0xbacee569	-0.0015784922
41	0x3cf3ccc8	0.029760733
42	0xbaf8cd4e	-0.0018982084
43	0x3c5da7ba	0.013528759
44	0x3c80852e	0.015688505
45	0xbc79d665	-0.01524887
46	0x3d69ecb0	0.05711049
47	0x3c7bbe77	0.015365235
48	0x3ca88cb8	0.020574912
49	0xbd0cd856	-0.034386
50	0x3cd60bc3	0.026128655
51	0x3d343fad	0.04400604
52	0x3dc4ec1b	0.09615346
53	0x3d4da679	0.05020759
54	0xbc998b27	-0.01874311
55	0xbd1335fc	-0.035940155
56	0xbcaaa7c3	-0.020831948
57	0x3d274c01	0.040843967
58	0x3cd8dc5b	0.026472261
59	0xbd4d2113	-0.05008037
60	0x3cd778d9	0.026302742
61	0x3d061872	0.032738157
62	0xbc9bb572	-0.019007418
63	0xbd2479dd	-0.04015528
64	0x3d215fb6	0.039397918
65	0xbd4ef32f	-0.050524887
66	0xbd9a3403	-0.07529452
67	0x3ce21d12	0.027601752
68	0xbd786ece	-0.060652547
69	0x3d06af70	0.032882154
70	0xbd2870ba	-0.04112313
71	0x3e08879f	0.13332985
72	0xbd57a3d7	-0.052646484
73	0xbe2f3e3c	-0.17113584
74	0x3e24f016	0.1610721
75	0x3c782e76	0.015147796
76	0xbda75cc8	-0.081719935
77	0x3d5b1168	0.053483397
78	0xbd593487	-0.05302861
79	0x3d4a1e95	0.04934557
80	0xbd8b944e	-0.06815396
81	0x3dd539b5	0.10411397
82	0xbd43bdd1	-0.047788445
83	0x39ac9019	0.00032913758
84	0xba802da5	-0.0009779228
85	0x3d08e24e	0.033418946
86	0xb9c1b728	-0.0003694829
87	0xbdbe7eeb	-0.093015514
88	0xbd058c26	-0.03260436
89	0xbd21702c	-0.039413616
90	0xbbc87cdc	-0.0061184
91	0x3d0e6049	0.034759793
92	0x3a190e35	0.0005838604
93	0x3cb638b7	0.02224384
94	0x3d6df36a	0.058093466
95	0x3d1cd0b4	0.038284972
96	0xbcf96ef5	-0.030448416
97	0xbcd9d15f	-0.026589094
98	0xbcdbcb1e	-0.026830252
99	0x3ad01eb4	0.0015878291
100	0xbd3af2b7	-0.045641627
101	0x3d65ba6c	0.05608599
102	0x3cf0f5c6	0.029414069
103	0xbb6f51f4	-0.0036517354
104	0xbbb2292d	-0.0054370374
105	0x3d15b812	0.036552496
106	0xbc7e3af8	-0.015516989
107	0x3d2781e4	0.040895358
108	0x3d9755b7	0.07389396
109	0x3d170978	0.036874264
110	0xbd0cb659	-0.034353588
111	0xbb9ee7ca	-0.0048494088
112	0x3d3eed85	0.046613235
113	0xbda1dc44	-0.079033405
114	0xbd0cc28c	-0.03436522
115	0xbdea4b11	-0.11440099
116	0x38bcc84a	9.001845e-05
117	0xbd5e4f98	-0.054275125
118	0x3c8a3350	0.01687017
119	0x3cf22e69	0.029563146
120	0xbcdfc917	-0.027317567
121	0x3da7acb1	0.08187235
122	0x3dcf59d0	0.10124552
123	0x3dd2d38a	0.10294254
124	0xbd03d472	-0.032185026
125	0xbde0eabb	-0.10982271
126	0xbd004cec	-0.03132336
127	0x3ca217e1	0.019786777
128	0xbc913c4e	-0.01772895
129	0xbdb3e98a	-0.087847784
130	0x3dbe2076	0.09283535
131	0x3d2d1ed8	0.042265743
132	0x3cc7e33d	0.024400348
133	0x3cad9fe3	0.021194404
134	0xbd20af54	-0.039229706
135	0xbd2adf9e	-0.041717164
136	0x3cb46083	0.022018677
137	0x3ba2c22c	0.0049669947
138	0xbc657891	-0.014005796
139	0xbc06e4d6	-0.00823327
140	0xbcba2394	-0.022722043
141	0xbcdaea8f	-0.026723174
142	0x3b87dfbc	0.0041465443
143	0x3d2f4be9	0.042797003
144	0xbcf157c1	-0.02946079
145	0x3c23b933	0.009992885
146	0xbd131882	-0.035912044
147	0x3d4543c1	0.04816032
148	0xbd35473e	-0.044257395
149	0xbd6b1236	-0.057390414
150	0xbd1af4c0	-0.037831068
151	0x3d15d0c6	0.036576055
152	0xbb83d7a2	-0.004023508
153	0xbb8b0020	-0.0042419583
154	0xbd2b92d6	-0.04188808
155	0x3cc1ceed	0.02365824
156	0xbd6944cf	-0.056950387
157	0xbd46fe14	-0.04858215
158	0xbc88ece5	-0.016714523
159	0xbc741db9	-0.014899665
160	0x3c893f72	0.016753886
161	0xbcf75ab9	-0.030194627
162	0x3c246047	0.01003272
163	0x3d5847e1	0.052802924
164	0xbccfc674	-0.025363185
165	0x3dabd849	0.083908625
166	0xbd4d0f2a	-0.05006329
167	0xbc00d20f	-0.007862582
168	0xbcebe237	-0.028794391
169	0x3df1449d	0.11780665
170	0xbcddbe73	-0.027068352
171	0xbd252016	-0.040313803
172	0xbd03221c	-0.03201495
173	0xbce4610c	-0.027878307
174	0x3c3d4be1	0.0115537355
175	0xbd66b0da	-0.056321003
176	0x3d1c3283	0.03813411
177	0x3cf81634	0.030284025
178	0x3d71098b	0.05884699
179	0x3d9380ef	0.072023265
180	0x3ce8bd7c	0.028410666
181	0xbc969958	-0.018383667
182	0xbcd542cd	-0.02603283
183	0xbcb8e09d	-0.022568041
184	0x3d75ebcc	0.060039327
185	0x3d93f201	0.07223893
186	0xbc88f9ca	-0.016720671
187	0xbd172d97	-0.036908712
188	0xbd2fe9f3	-0.04294772
189	0xbcbcc746	-0.02304424
190	0x3c913436	0.017725091
191	0xbc363a80	-0.011122346
192	0x3c83ddac	0.016096912
193	0x3cc17b82	0.023618463
194	0x3c03fe0e	0.008056177
195	0x3cb9ba5f	0.022671876
196	0x3ce32494	0.027727403
197	0xbc860a5f	-0.016362367
198	0xbd1ce5e1	-0.038305167
199	0xbd221d6a	-0.039578833
200	0xbcc5467e	-0.024081465
201	0xbd81df32	-0.06341399
202	0x3c42c8e0	0.011888713
203	0xbca8d44a	-0.02060904
204	0xbd29cffd	-0.04145812
205	0x3d6c1659	0.0576385
206	0xbd1878fb	-0.03722475
207	0x3cbbd14e	0.022926953
208	0x3cf5a621	0.029986443
209	0xbd58db6e	-0.05294364
210	0x3d07723b	0.033067923
211	0x3ce0f36f	0.027459828
212	0xba305964	-0.00067271874
213	0x3dac6450	0.084175706
214	0x3d004c3c	0.031322703
215	0x3d43c65c	0.047796592
216	0x3d1af530	0.037831485
217	0x3d037974	0.03209825
218	0x3d37b6e7	0.044852164
219	0xbdfebf1e	-0.124387965
220	0x3c384fb3	0.0112494705
221	0xbe0bab9e	-0.13639686
222	0x3e0ba623	0.13637595
223	0xbdad6ec5	-0.08468393
224	0xbc878e8b	-0.016547462
225	0x3d51d62d	0.051229645
226	0xbd7f3278	-0.06230399
227	0xbca4cfeb	-0.020118674
228	0x3da5a95d	0.08088944
229	0x3ba19def	0.004932157
230	0x3c838d8c	0.016058706
231	0x3da699ee	0.081348285
232	0xbd8df9d0	-0.069324136
233	0xbd43b547	-0.0477803
234	0x3c84a946	0.016193997
235	0x3c413241	0.011791767
236	0x3c86f3db	0.016473701
237	0xbcbed1df	-0.023293434
238	0xbd24b4b8	-0.04021141
239	0x3cb0db3e	0.021588918
240	0x3d3e4441	0.04645181
241	0x3dab67e6	0.083694264
242	0xbd1a8637	-0.037725653
243	0xbd07095e	-0.032967918
244	0xbcca8513	-0.024721658
245	0x3c929ae0	0.017896116
246	0x3d9673ee	0.073463306
247	0xbd279a19	-0.040918443
248	0xbbaf88fc	-0.005356906
249	0x3cf8b6c8	0.030360594
250	0x3d1b84f9	0.03796861
251	0xbce771a8	-0.028252438
252	0x3d198917	0.037484255
253	0x3c34cfc4	0.011035863
254	0xbce5c5f5	-0.028048495
255	0x3d0cd653	0.034384083

dnets.1.means f4 [63]
0	0x3f39b463	0.72540873
1	0x3ff9ea03	1.952454
2	0x3e517c84	0.20457655
3	0x3ffe4fa8	1.9868059
4	0x3fdf97bd	1.7468182
5	0x4015839d	2.336158
6	0x3fdfadc4	1.7474904
7	0x3fa263a2	1.2686656
8	0x3efa1695	0.48845354
9	0xbfd4f564	-1.6637387
10	0x3f0d617c	0.55226874
11	0x4074af41	3.8231966
12	0x3fb5d488	1.4205484
13	0x3f391c8c	0.72309184
14	0xbedd6593	-0.43241557
15	0x3ee656af	0.4498801
16	0xbf2962fc	-0.66166663
17	0xbf9ad65d	-1.2096668
18	0x3fb9ca9d	1.4514958
19	0x3f236cd0	0.6383791
20	0x3dd1743a	0.102272466
21	0xbf8228a7	-1.0168656
22	0x3df102bf	0.11768102
23	0x40058222	2.0860677
24	0x3fbf67eb	1.4953588
25	0x3f2791b2	0.6545669
26	0x3f552858	0.83264685
27	0x3feadde5	1.8348967
28	0x3fa00f7e	1.2504728
29	0x3e50f559	0.20406093
30	0x3fe64bba	1.799186
31	0xc0004bcc	-2.0046263
32	0x3fb39cf4	1.4032273
33	0x3d7241b8	0.059144706
34	0x40292d12	2.6433759
35	0x3f200ea3	0.62522334
36	0xbeef642a	-0.46756107
37	0xbfb04a44	-1.3772664
38	0xbf145cee	-0.579543
39	0x3ddc7260	0.10764003
40	0xbfa009e7	-1.2503022
41	0xbf47c65d	-0.78037053
42	0x3e8b0ba3	0.27157316
43	0x400eee8c	2.2333097
44	0xbfa0eff3	-1.2573227
45	0xbfd59b84	-1.6688085
46	0xbf2b9b48	-0.67033815
47	0x3d252d7f	0.04032659
48	0x3f51662e	0.8179654
49	0xbeaf7c8b	-0.34274706
50	0x3e90cb3e	0.2828006
51	0xbf174fde	-0.5910624
52	0x3f033dab	0.5126597
53	0x3fdab905	1.7087713
54	0x3e94e7f2	0.2908321
55	0x3f8718c6	1.0554435
56	0x3e021f50	0.12707257
57	0xbd50cdb9	-0.050977442
58	0x3f459865	0.7718566
59	0xbeeae766	-0.45879668
60	0x3d543034	0.051803783
61	0xbf4f3989	-0.80947167
62	0x3f343f59	0.7040916

dnets.1.std f4 [63]
0	0x3fe565ac	1.7921653
1	0x4004f9dd	2.0777504
2	0x3e7664c3	0.24061875
3	0x4047acf3	3.119931
4	0x3fb8684c	1.4406829
5	0x3fddd777	1.733138
6	0x3f3b4ce3	0.73164195
7	0x3f090d80	0.53536224
8	0x3fcde1fa	1.6084588
9	0x3fa8f250	1.3198948
10	0x3f9d975b	1.2311815
11	0x3fd75b0c	1.682466
12	0x3e8d180e	0.27557415
13	0x3f83b300	1.0289001
14	0x4027ac92	2.6199079
15	0x3f8ff091	1.124529
16	0x3f90015b	1.1250414
17	0x3f7606d5	0.96104175
18	0x3f5edb70	0.87053585
19	0x3e60b226	0.21942958
20	0x3df0960c	0.11747369
21	0x3f9a00b1	1.2031461
22	0x3f8e7989	1.113084
23	0x3f9aa6b9	1.208213
24	0xbe0028f2	-0.1251562
25	0x3ef7c15a	0.48389703
26	0x40136b50	2.3034248
27	0xbee739f5	-0.45161405
28	0x3fbb9b95	1.4656855
29	0x3efa5fc3	0.48901185
30	0x4006394f	2.0972478
31	0xbf4d7738	-0.8026004
32	0x3f576d32	0.84150994
33	0x40554b07	3.3327043
34	0x3fba5f2e	1.4560297
35	0x3ed40a55	0.41414133
36	0x3fb7b905	1.4353338
37	0x3ed1360b	0.40861544
38	0x40256c41	2.5847323
39	0x3f8c5232	1.0962584
40	0x3f181216	0.59402597
41	0x3f84d7e1	1.0378381
42	0x3e62a1b8	0.22132003
43	0x3f32e67e	0.69882953
44	0x3f953353	1.1656288
45	0xbf06bfb4	-0.52636266
46	0x3ecdadf6	0.40171784
47	0x3ee555db	0.44792065
48	0x3fef635b	1.8702196
49	0xbe98e47b	-0.29861817
50	0x3fde22da	1.7354386
51	0x401fb43e	2.495376
52	0x3e7455d6	0.23860869
53	0x3ee8965e	0.4542722
54	0xbe07f08a	-0.13275352
55	0xbe2e80c9	-0.17041315
56	0x3e00cfa6	0.12579212
57	0xbf1da414	-0.6157849
58	0x3fb01267	1.3755616
59	0x3f1798eb	0.5921771
60	0x3ff87912	1.9411948
61	0x3f1aea7f	0.6051406
62	0x3fcd4d90	1.6039295

dnets.1.weights_rbf f4 [48, 63]
0	0x3b278e1f	0.0025566889
1	0x3bb304b1	0.0054632057
2	0x3b809a72	0.0039246613
3	0x3b51f1b7	0.0032034942
4	0x3c0c0a08	0.0085473135
5	0x3c10f19d	0.008846668
6	0x3d088961	0.03333414
7	0x3d21b8eb	0.039482992
8	0x3b092021	0.0020923691
9	0xbc0bcf3c	-0.008533295
10	0x3b588d42	0.003304318
11	0x3c9840d7	0.018585606
12	0x3cb2d2ce	0.021829035
13	0x3bb707a3	0.005585627
14	0x39b88a89	0.00035198432
15	0x3b4849fd	0.0030561679
16	0xbbadb055	-0.0053005614
17	0xbc48db87	-0.012259371
18	0x3c6925e0	0.0142302215
19	0x3d9ca8a7	0.076493554
20	0xbb5396f2	-0.0032286015
21	0xbbded26f	-0.006799988
22	0x3a8707c7	0.0010302
23	0x3c64d8fc	0.013967749
24	0x3c8215f6	0.015879612
25	0x3c5eeae7	0.01360581
26	0x3b0dbd78	0.0021627825
27	0x3cf862a8	0.03032048
28	0x3bc05074	0.0058689658
29	0x3b4b412e	0.0031014192
30	0x3ba846eb	0.005135407
31	0xbd87f5bf	-0.06638669
32	0x3c6b5eb1	0.014365838
33	0x3a7354e1	0.00092823623
34	0x3c71a463	0.0147486655
35	0x3c7dd281	0.015492083
36	0xbb22192b	-0.002473424
37	0x3b7ea2f4	0.0038854452
38	0x3913f522	0.00014110332
39	0x3a7c0f59	0.0009615324
40	0xbda0c7ce	-0.0785061
41	0xbbea7e4e	-0.00715617
42	0x3bebfde8	0.007201899
43	0x3d2e12a9	0.042498264
44	0xbc0cc405	-0.008591657
45	0xbd7e4c4d	-0.062084485
46	0xbdddfb46	-0.10838942
47	0xba8cdb3a	-0.0010746487
48	0x3b326a8a	0.0027224147
49	0xbd00e856	-0.031471573
50	0x3abaeb0b	0.0014260722
51	0x3868e927	5.553025e-05
52	0x3d206ce6	0.039166354
53	0x3d0361bd	0.032075632
54	0x3e113906	0.14181909
55	0x3caea811	0.021320375
56	0xbca0ffd3	-0.019653236
57	0xbb2aa578	-0.0026038568
58	0x3b828a8f	0.0039838026
59	0xbc51f4ea	-0.01281474
60	0x3a5a6ce1	0.0008332264
61	0xbcd5b6fa	-0.026088227
62	0x3b3cd9e4	0.0028816396
63	0x3a6dbc97	0.00090689346
64	0x3b88a30c	0.0041698273
65	0x3c90e2b8	0.017686233
66	0x3a920657	0.0011140805
67	0x3bf905f9	0.007599589
68	0x3bf6f4cf	0.0075365077
69	0x3c3eab5b	0.011637534
70	0x3b8b3a9e	0.004248931
71	0x3a0ca7f0	0.0005365601
72	0xbc4ccf61	-0.012500615
73	0x3b2cdf2a	0.0026378133
74	0x3c7aab86	0.015299683
75	0x3c87863b	0.016543498
76	0x3bc47a84	0.0059960503
77	0xbb074510	-0.002064053
78	0x3b2d13c1	0.002640948
79	0xbbc0d7c7	-0.0058850977
80	0xbc83f7a1	-0.01610929
81	0x3c42bbbf	0.0118855825
82	0xbd14d25f	-0.036333438
83	0x3cc69402	0.024240497
84	0xbc0c0303	-0.00854564
85	0x3a4d87c6	0.0007840361
86	0x3c410f0e	0.0117833745
87	0x3c820825	0.015873024
88	0x3c5cf977	0.013487211
89	0x3900ae8c	0.00012272055
90	0x3cc4ce00	0.02402401
91	0x3baa9276	0.005205448
92	0x3bf2f18f	0.00741405
93	0x3b6d5386	0.0036213114
94	0xbda430e2	-0.08017136
95	0x3c43d395	0.011952301
96	0xbad3dc88	-0.0016163746
97	0x3c56f233	0.013119268
98	0x3c57f64d	0.013181281
99	0xbb57b01d	-0.0032911368
100	0x3c82d182	0.015969042
101	0xbb16f001	-0.0023031237
102	0x3a4c9e52	0.0007805574
103	0xbdba79a0	-0.091052294
104	0xbc03187b	-0.008001442
105	0x3ca4b54e	0.020105984
106	0x3b785ead	0.0037898228
107	0xbc3a8ed0	-0.011386588
108	0xbdf2f8ec	-0.11863884
109	0xbdde7c76	-0.10863583
110	0x3bbf2b98	0.005834054
111	0x3a89a0f7	0.0010500242
112	0xbcc32647	-0.023821963
113	0xb98e92ce	-0.0002719373
114	0xbb1aae9c	-0.002360261
115	0xbc0f48d6	-0.008745393
116	0x3cd44666	0.025912475
117	0x3e1fe836	0.15615925
118	0x3c8722a8	0.016496018
119	0xbd358790	-0.044318736
120	0x3ad9eeb0	0.001662692
121	0x3b4d21c5	0.0031300646
122	0xbc1ed32f	-0.009693905
123	0xba8eecc4	-0.0010904302
124	0xbcf2a22c	-0.029618345
125	0x3ac32099	0.0014887034
126	0x389f09ba	7.5835225e-05
127	0x3ab645ac	0.0013906262
128	0xba6d55a7	-0.0009053596
129	0x39ad51d2	0.00033058092
130	0x3b09af73	0.0021009117
131	0x3b14f7e9	0.0022730774
132	0x3c669a96	0.014074942
133	0x3c87daa0	0.01658374
134	0xb8bbed7a	-8.961088e-05
135	0xbb3f54a6	-0.0029194742
136	0x39f9eb53	0.0004766831
137	0x3c0b1057	0.008487782
138	0x3c89da44	0.01682771
139	0x3ac01ec4	0.0014657606
140	0xba642d25	-0.0008704237
141	0x39d3a42a	0.00040367368
142	0xbb03c7e4	-0.0020108158
143	0xbb7e97c8	-0.0038847793
144	0x3b0e837e	0.0021745856
145	0x3d23e4da	0.04001317
146	0xbb1ab3e7	-0.0023605765
147	0xbb296c20	-0.00258518
148	0xb68e0310	-4.2322863e-06
149	0x3b461429	0.0030224419
150	0x3c820821	0.015873017
151	0x3af2e0ce	0.0018530132
152	0xb914ccf4	-0.00014190731
153	0x3d0abf0b	0.0338736
154	0x3aca895e	0.0015452316
155	0x3a058f9f	0.00050949486
156	0x3a9acf01	0.001181096
157	0xbd49490c	-0.04914193
158	0x3b0a85aa	0.00211368
159	0xba3c9d94	-0.0007195112
160	0x3ba24a1c	0.004952682
161	0x3ab00155	0.0013428131
162	0xbaa843a8	-0.0012837546
163	0x3c8f32f5	0.017480353
164	0xba78ac38	-0.0009486112
165	0xb6b1af1f	-5.295398e-06
166	0xbd665f1b	-0.056243043
167	0xbb2598df	-0.002526812
168	0xbb206049	-0.0024471453
169	0x3cb39ed0	0.021926314
170	0xbb4072a5	-0.0029365208
171	0xbd851483	-0.06498053
172	0xbd88a845	-0.0667272
173	0x3a9e8e4c	0.0012096851
174	0x3917df13	0.00014483584
175	0xbbe40da2	-0.006959633
176	0xb99f907b	-0.0003043449
177	0xba7df982	-0.00096883636
178	0x3c385991	0.011251823
179	0x3d1a9e2c	0.0377485
180	0x3de64fc0	0.1124568
181	0x3c87c7d2	0.016574774
182	0x3ccef8ee	0.025265183
183	0x39991535	0.00029198235
184	0x3a43869a	0.0007458717
185	0xbb394325	-0.002826878
186	0xba0ff433	-0.00054914056
187	0xbc38452d	-0.011246962
188	0x397d117e	0.00024134477
189	0x386aec68	5.6010118e-05
190	0x3b0e0938	0.0021672975
191	0x3c4b269c	0.012399342
192	0xb8b27a17	-8.5104424e-05
193	0x3ba7d2fe	0.005121588
194	0x3ba2f76d	0.004973343
195	0x3c686d68	0.014186241
196	0x3c76216a	0.015022615
197	0xb909d2c3	-0.00013143853
198	0xbc0b6ebc	-0.008510288
199	0x3ac27bd0	0.0014837924
200	0x3c1b5147	0.009479827
201	0x3c8210d3	0.015877163
202	0x3b82269b	0.0039718873
203	0xbb0e38a6	-0.0021701246
204	0x3acd3f87	0.0015659191
205	0xbb8d0741	-0.0043038432
206	0xbc2e9d5d	-0.0106576355
207	0x3c2ac7cc	0.010423612
208	0x3db87320	0.09006333
209	0x3c0089e6	0.007845378
210	0xbbc6f49c	-0.00607164
211	0x3966e450	0.00022019562
212	0x3c169308	0.009190328
213	0x3c820821	0.015873017
214	0x3c44ecf3	0.012019384
215	0xba1af189	-0.00059106253
216	0x3c8ecc43	0.017431384
217	0x3b4ac9ea	0.0030943104
218	0x3bcc233f	0.0062297876
219	0x3ae6e82e	0.0017616802
220	0xbd39dc04	-0.04537584
221	0x3c2dcee1	0.010608406
222	0xbaf425a7	-0.0018626944
223	0x3c0eb517	0.008710167
224	0x3c574753	0.013139564
225	0xbb30595a	-0.0026908726
226	0xbdcc0ba0	-0.09963155
227	0xbb18db20	-0.0023323968
228	0x3971d083	0.00023061228
229	0xbd425190	-0.047441065
230	0xbbb98015	-0.0056610205
231	0x3c4b27ac	0.012399595
232	0x3c3ec2fd	0.0116431685
233	0xbc00ace2	-0.0078537185
234	0xbdc5c0b9	-0.096558996
235	0xbd39dcba	-0.045376517
236	0x3b9da634	0.0048110727
237	0x38fa9ce4	0.00011950152
238	0xbc851bf1	-0.016248675
239	0xba46801a	-0.0007572189
240	0xbb1aaf56	-0.0023603044
241	0x3caea15c	0.021317177
242	0x3c8f2f3a	0.017478574
243	0x3e343886	0.17599687
244	0x3c82082e	0.015873041
245	0xbb94b1ae	-0.0045377826
246	0x3ab3fee7	0.0013732583
247	0x3ae04b93	0.0017112367
248	0xbbd2a73e	-0.006428628
249	0xbab5989f	-0.0013854689
250	0xbc8f7c7a	-0.01751541
251	0x3a05ba2b	0.00051012886
252	0x3a0bdbfa	0.0005335208
253	0x3b1a4fdd	0.0023546137
254	0x3c195ee4	0.009361003
255	0x3a19401c	0.000584604

dnets.1.conv.weight f4 [48, 3, 7, 7]
0	0x3d089097	0.033341017
1	0x3d1ca384	0.03824188
2	0xbd123581	-0.035695557
3	0xbcd91a4a	-0.026501793
4	0xbc32003a	-0.010864312
5	0xbd56c279	-0.052431557
6	0x3cc6df50	0.024276406
7	0x3d841bf1	0.06450642
8	0x3d811544	0.06302884
9	0xbd11c1eb	-0.035585325
10	0x3c57dbc5	0.013174956
11	0x3dbf85d7	0.093517
12	0xbc82de6e	-0.015975203
13	0xbd4ca9e1	-0.049966697
14	0x3cd0fcd9	0.025511192
15	0x3c98e175	0.018662194
16	0xbd8b51f8	-0.06802744
17	0xbd477cc2	-0.048702963
18	0xbd2e1a95	-0.04250582
19	0x3cb4ec97	0.022085471
20	0xbd727017	-0.05918893
21	0xbd2e1ef4	-0.042509988
22	0xbc985dce	-0.018599417
23	0x3cdb708f	0.02678707
24	0x3b2e1c78	0.0026567262
25	0xbd2c4fb0	-0.042068183
26	0xbdb39117	-0.08767908
27	0x3d070999	0.032968137
28	0xbd95d4c4	-0.073159724
29	0x3c8698dc	0.01643031
30	0x3d9ac6de	0.07557462
31	0xbc93af44	-0.01802791
32	0x3cc9e144	0.024643548
33	0x3c68df96	0.014213463
34	0xbb5491ff	-0.0032435653
35	0x3db140d2	0.086549416
36	0x3cc2dd6b	0.023787221
37	0x3c1e476d	0.009660584
38	0xbda7ce82	-0.08193685
39	0x39fc9136	0.00048173376
40	0x3d809ba6	0.062796876
41	0x3d4c148e	0.04982429
42	0xbd106343	-0.035250913
43	0x3d383dc2	0.04498077
44	0x3d2666bf	0.04062533
45	0xbdac26a3	-0.08405807
46	0x3d91a095	0.07110707
47	0xbb83a695	-0.004017661
48	0xbd47f5d6	-0.04881843
49	0xbc35aa09	-0.011087903
50	0x3d3d69ee	0.0462436
51	0xbdbb2487	-0.091378264
52	0xbd1b83e9	-0.037967596
53	0x3dc79f67	0.097472005
54	0xbc1a57b9	-0.009420329
55	0xbd0f8ad6	-0.035044514
56	0xbd60bc83	-0.05486728
57	0xbd86d5b1	-0.06583727
58	0x3d68044f	0.056644734
59	0xbd023a96	-0.031794153
60	0x3da2ff28	0.079588234
61	0x3c0cb624	0.008588348
62	0xbdbb5831	-0.091476806
63	0x3d11e6b7	0.035620417
64	0xbd7a6cd4	-0.061138943
65	0x3d571189	0.052506957
66	0xba7d0b79	-0.00096528936
67	0x3d197039	0.03746054
68	0x3d23f26c	0.040026113
69	0x3c8e7d21	0.01739365
70	0x3bf5e4ec	0.0075040963
71	0x3cceb1da	0.02523129
72	0x3cf980d6	0.030456942
73	0xbd3eb24f	-0.046556767
74	0x3d2f3c07	0.042781856
75	0x3c48725f	0.012234299
76	0x3c0f41b8	0.008743696
77	0xbd16465b	-0.03668819
78	0xbd0872d6	-0.03331264
79	0x3d70b23f	0.05876374
80	0x3d68ea91	0.056864325
81	0xbd70cbd4	-0.058788136
82	0x3cacbb1f	0.02108532
83	0xbd0fbc73	-0.03509183
84	0x3d77d10f	0.06050211
85	0x3d6db341	0.058032278
86	0xbd9073c8	-0.070533335
87	0xbd31ffa1	-0.043456677
88	0x3b8e859b	0.004349423
89	0x3d814724	0.06312397
90	0xbd1d7bb0	-0.038448036
91	0xbc7689e7	-0.015047527
92	0xbc614da6	-0.013751423
93	0xbd0c0d45	-0.034192342
94	0xbd1b649b	-0.03793774
95	0x3d8bf726	0.06834249
96	0x3af2a8f3	0.0018513486
97	0xbd13d44b	-0.03609113
98	0x3d465853	0.048424076
99	0xbd8edf94	-0.06976238
100	0xbce2ed26	-0.027700972
101	0xbdc0c413	-0.09412398
102	0xbd37262b	-0.044714134
103	0xbd627c72	-0.05529446
104	0xbc792a2f	-0.015207811
105	0xbdab96c2	-0.08378364
106	0x3d7bfe28	0.06152168
107	0x3d81a889	0.06330974
108	0x3da8383f	0.08213853
109	0xbcb725f4	-0.022356965
110	0x3d1ada2e	0.03780573
111	0x3c4e2b72	0.0125836
112	0x3cee9ff3	0.029129004
113	0x3d1f61da	0.038911678
114	0x3d24f004	0.04026796
115	0x3d7b5e4a	0.061369218
116	0x3dafcd66	0.085840985
117	0xbcd3205a	-0.025772262
118	0x3cb1df86	0.02171303
119	0xbcf58704	-0.029971607
120	0xbd58888e	-0.052864604
121	0xbd602791	-0.054725233
122	0xbdaee831	-0.08540381
123	0xbc360a5f	-0.011110871
124	0x3d3b2275	0.045687158
125	0xbdbc1224	-0.091831475
126	0x3c86a993	0.016438281
127	0x3cf072b0	0.029351562
128	0xbd1cdca8	-0.03829637
129	0x3ce42b91	0.027852805
130	0x3d1a89ea	0.03772918
131	0xbd29f1fd	-0.041490544
132	0x3d3d1be2	0.04616917
133	0x3db9ac09	0.09066016
134	0xbd0229f5	-0.031778295
135	0xbd2c81a3	-0.04211582
136	0xbc8ba29c	-0.017045312
137	0xbce86164	-0.028366752
138	0x3d52656a	0.051366247
139	0xbcfde206	-0.030991565
140	0x3b97d7f7	0.0046338993
141	0x3d2b84d6	0.04187473
142	0x3c2f32ee	0.010693295
143	0x3d89d881	0.06730748
144	0x3c8618a7	0.016369177
145	0x3bf1d911	0.0073806127
146	0xbdaee19b	-0.085391246
147	0xbcad9a3d	-0.02119171
148	0x3d725325	0.059161324
149	0x3c392dd2	0.011302428
150	0x3d362f5a	0.04447875
151	0xbc0297cf	-0.007970764
152	0x3d596a86	0.053080104
153	0xbd5b7332	-0.053576656
154	0xbda768cb	-0.081742845
155	0x3d0d08ae	0.034432106
156	0x3be3b3d3	0.006948927
157	0x3dbfb0b6	0.09359877
158	0xbd983bbf	-0.07433271
159	0x3db2b951	0.087267525
160	0xbc8eb521	-0.017420353
161	0x3d2d6cf0	0.04234022
162	0x3d668b5c	0.056285247
163	0xbdceca96	-0.10097234
164	0xbb68b0aa	-0.003550569
165	0x3d86cd30	0.06582105
166	0xbd98fd20	-0.07470155
167	0xbd6db70f	-0.058035906
168	0xbc3e1829	-0.01160244
169	0xbdb4b4d6	-0.08823554
170	0x3d97bde9	0.07409269
171	0xbde87bb1	-0.11351717
172	0xbd75a2dd	-0.05996977
173	0x3d228334	0.039675906
174	0x3ddfb716	0.10923593
175	0xbae24afa	-0.0017264776
176	0xbd3939a1	-0.045220975
177	0x3dd93ccb	0.106072985
178	0x3d355329	0.04426876
179	0x3d5f1402	0.05446244
180	0xbd61c1cd	-0.055116463
181	0x3c686f74	0.014186729
182	0xbd2db038	-0.042404383
183	0xbd600fd9	-0.054702614
184	0x3c8005c6	0.015627753
185	0x3dac77a4	0.08421257
186	0xbc8cca14	-0.017186202
187	0x3d91fd81	0.0712843
188	0x3d6f1695	0.058371145
189	0x3b2d1732	0.002641153
190	0xbd9f2e52	-0.07772507
191	0xbd5d02b8	-0.05395767
192	0x3d1a0008	0.037597686
193	0xbdb57c53	-0.088616036
194	0xbd7a5934	-0.061120227
195	0x3b61d7e1	0.003446095
196	0xbd6a6817	-0.057228174
197	0xbc4b022f	-0.012390657
198	0x3cf35b54	0.029706635
199	0xbc0897be	-0.008336959
200	0xbc1c8f46	-0.009555643
201	0xbda290e4	-0.07937792
202	0x3d13259a	0.03592453
203	0x3d834637	0.06409877
204	0x3cb586f5	0.02215908
205	0xbd434130	-0.04766959
206	0xbdb564ab	-0.088570915
207	0xbd392d55	-0.045209248
208	0xbc9459b5	-0.018109182
209	0x3d54114f	0.05177432
210	0xbc030a0e	-0.007998003
211	0xbd60270b	-0.054724734
212	0x3d031058	0.03199801
213	0xbd219e52	-0.039457627
214	0x3dbb23ab	0.091376625
215	0xbd6bde6b	-0.05758516
216	0x3dace377	0.08441823
217	0x3be9065c	0.007111354
218	0x3dc1d031	0.094635375
219	0x3d386203	0.045015346
220	0x3d60ace8	0.054852396
221	0xbc8fa41a	-0.017534304
222	0x3cf88182	0.030335192
223	0xbd8da45b	-0.06916114
224	0x3d73a2f8	0.05948159
225	0x3c834015	0.016021768
226	0xbcea52b6	-0.028603893
227	0xbda5497d	-0.080706574
228	0x3da2f2e4	0.07956484
229	0xbdc1a1ae	-0.09454666
230	0xbd704afe	-0.058665268
231	0xbd355cdf	-0.044278022
232	0xbd183763	-0.037162196
233	0x3cdd64fd	0.027025694
234	0xbd34484a	-0.044014253
235	0x3d44b398	0.048022836
236	0x3d9a7237	0.07541316
237	0xbd15027f	-0.036379334
238	0x3d84261f	0.064525835
239	0x3cc0cc50	0.023534924
240	0xbd21b9e3	-0.039483916
241	0x3d8d4fbf	0.06899976
242	0x3d424fd8	0.047439426
243	0xbd34e98d	-0.044168044
244	0xbc974ea9	-0.018470125
245	0x3d28550e	0.04109674
246	0x3ca59a96	0.020215314
247	0xbd9920a0	-0.07476926
248	0xb9c5feb9	-0.0003776455
249	0xbd8426f7	-0.064527445
250	0x3ca25cad	0.019819582
251	0x3cf576b0	0.029963821
252	0xbd78ecf0	-0.060772836
253	0x3d1bb849	0.038017545
254	0x3d953be4	0.07286814
255	0x3d8bb480	0.06821537

dnets.2.means f4 [63]
0	0x3f39b463	0.72540873
1	0x3ff9ea03	1.952454
2	0x3e517c84	0.20457655
3	0x3ffe4fa8	1.9868059
4	0x3fdf97bd	1.7468182
5	0x4015839d	2.336158
6	0x3fdfadc4	1.7474904
7	0x3fa263a2	1.2686656
8	0x3efa1695	0.48845354
9	0xbfd4f564	-1.6637387
10	0x3f0d617c	0.55226874
11	0x4074af41	3.8231966
12	0x3fb5d488	1.4205484
13	0x3f391c8c	0.72309184
14	0xbedd6593	-0.43241557
15	0x3ee656af	0.4498801
16	0xbf2962fc	-0.66166663
17	0xbf9ad65d	-1.2096668
18	0x3fb9ca9d	1.4514958
19	0x3f236cd0	0.6383791
20	0x3dd1743a	0.102272466
21	0xbf8228a7	-1.0168656
22	0x3df102bf	0.11768102
23	0x40058222	2.0860677
24	0x3fbf67eb	1.4953588
25	0x3f2791b2	0.6545669
26	0x3f552858	0.83264685
27	0x3feadde5	1.8348967
28	0x3fa00f7e	1.2504728
29	0x3e50f559	0.20406093
30	0x3fe64bba	1.799186
31	0xc0004bcc	-2.0046263
32	0x3fb39cf4	1.4032273
33	0x3d7241b8	0.059144706
34	0x40292d12	2.6433759
35	0x3f200ea3	0.62522334
36	0xbeef642a	-0.46756107
37	0xbfb04a44	-1.3772664
38	0xbf145cee	-0.579543
39	0x3ddc7260	0.10764003
40	0xbfa009e7	-1.2503022
41	0xbf47c65d	-0.78037053
42	0x3e8b0ba3	0.27157316
43	0x400eee8c	2.2333097
44	0xbfa0eff3	-1.2573227
45	0xbfd59b84	-1.6688085
46	0xbf2b9b48	-0.67033815
47	0x3d252d7f	0.04032659
48	0x3f51662e	0.8179654
49	0xbeaf7c8b	-0.34274706
50	0x3e90cb3e	0.2828006
51	0xbf174fde	-0.5910624
52	0x3f033dab	0.5126597
53	0x3fdab905	1.7087713
54	0x3e94e7f2	0.2908321
55	0x3f8718c6	1.0554435
56	0x3e021f50	0.12707257
57	0xbd50cdb9	-0.050977442
58	0x3f459865	0.7718566
59	0xbeeae766	-0.45879668
60	0x3d543034	0.051803783
61	0xbf4f3989	-0.80947167
62	0x3f343f59	0.7040916

dnets.2.std f4 [63]
0	0x3fe565ac	1.7921653
1	0x4004f9dd	2.0777504
2	0x3e7664c3	0.24061875
3	0x4047acf3	3.119931
4	0x3fb8684c	1.4406829
5	0x3fddd777	1.733138
6	0x3f3b4ce3	0.73164195
7	0x3f090d80	0.53536224
8	0x3fcde1fa	1.6084588
9	0x3fa8f250	1.3198948
10	0x3f9d975b	1.2311815
11	0x3fd75b0c	1.682466
12	0x3e8d180e	0.27557415
13	0x3f83b300	1.0289001
14	0x4027ac92	2.6199079
15	0x3f8ff091	1.124529
16	0x3f90015b	1.1250414
17	0x3f7606d5	0.96104175
18	0x3f5edb70	0.87053585
19	0x3e60b226	0.21942958
20	0x3df0960c	0.11747369
21	0x3f9a00b1	1.2031461
22	0x3f8e7989	1.113084
23	0x3f9aa6b9	1.208213
24	0xbe0028f2	-0.1251562
25	0x3ef7c15a	0.48389703
26	0x40136b50	2.3034248
27	0xbee739f5	-0.45161405
28	0x3fbb9b95	1.4656855
29	0x3efa5fc3	0.48901185
30	0x4006394f	2.0972478
31	0xbf4d7738	-0.8026004
32	0x3f576d32	0.84150994
33	0x40554b07	3.3327043
34	0x3fba5f2e	1.4560297
35	0x3ed40a55	0.41414133
36	0x3fb7b905	1.4353338
37	0x3ed1360b	0.40861544
38	0x40256c41	2.5847323
39	0x3f8c5232	1.0962584
40	0x3f181216	0.59402597
41	0x3f84d7e1	1.0378381
42	0x3e62a1b8	0.22132003
43	0x3f32e67e	0.69882953
44	0x3f953353	1.1656288
45	0xbf06bfb4	-0.52636266
46	0x3ecdadf6	0.40171784
47	0x3ee555db	0.44792065
48	0x3fef635b	1.8702196
49	0xbe98e47b	-0.29861817
50	0x3fde22da	1.7354386
51	0x401fb43e	2.495376
52	0x3e7455d6	0.23860869
53	0x3ee8965e	0.4542722
54	0xbe07f08a	-0.13275352
55	0xbe2e80c9	-0.17041315
56	0x3e00cfa6	0.12579212
57	0xbf1da414	-0.6157849
58	0x3fb01267	1.3755616
59	0x3f1798eb	0.5921771
60	0x3ff87912	1.9411948
61	0x3f1aea7f	0.6051406
62	0x3fcd4d90	1.6039295

dnets.2.weights_rbf f4 [48, 63]
0	0xba88beff	-0.0010432898
1	0x3a23d30c	0.0006249405
2	0x3b2f2283	0.0026723451
3	0xba5a9acb	-0.0008339106
4	0x3b217a72	0.0024639633
5	0x3b2d0ca5	0.0026405242
6	0x3c8c2e0d	0.017111802
7	0x3c6a0547	0.014283485
8	0xba948603	-0.0011331443
9	0xbb256b1d	-0.0025240846
10	0xb993e115	-0.00028205724
11	0x3c31caef	0.010851606
12	0x3c9a716e	0.018852916
13	0x3aac281c	0.0013134512
14	0xbaf10847	-0.0018389308
15	0xb9776b37	-0.00023595696
16	0xbad460a0	-0.0016203113
17	0xbb0b1adf	-0.0021225733
18	0x3bb45e60	0.0055044144
19	0xbced7b40	-0.028989434
20	0xba00adbc	-0.0004908701
21	0xbb0e1295	-0.0021678556
22	0xb9be2244	-0.00036265154
23	0x3bc08eda	0.0058764042
24	0x3c820821	0.015873017
25	0x3bdbd06c	0.0067081954
26	0xbaafde6b	-0.0013417726
27	0x3cec0c78	0.02881454
28	0x3a8384e4	0.0010034111
29	0x3abe32de	0.0014511009
30	0x39a6f608	0.00031845295
31	0xbba22407	-0.0049481425
32	0x3bb657d1	0.0055646678
33	0xbaf6b0f6	-0.0018821049
34	0x3bf80aaa	0.0075696306
35	0x3bf49526	0.007464069
36	0xbad5efc6	-0.0016322068
37	0x3c5d3c11	0.0135030905
38	0xbaf682d0	-0.0018807296
39	0xb9ae116e	-0.00033200852
40	0xbbd5bc12	-0.006522664
41	0xbae1748e	-0.0017200874
42	0x3bcdc043	0.006279023
43	0x3c4ea5eb	0.0126128
44	0xbb14009f	-0.0022583378
45	0x3c16e2a9	0.009209313
46	0xbc4c72e1	-0.012478561
47	0x3b4876d4	0.0030588405
48	0xba8095e8	-0.00098103
49	0x3c2858d2	0.010275083
50	0xbaa79c51	-0.0012787675
51	0xbaf619de	-0.001877602
52	0x3c15da1a	0.009146238
53	0x3cddb098	0.027061746
54	0xbd303365	-0.043017764
55	0x3cbe7123	0.023247307
56	0x3c928f79	0.017890679
57	0x3ad4f33c	0.0016246806
58	0xb8a5d66f	-7.9077545e-05
59	0x3a9cadd4	0.001195366
60	0xbac27069	-0.0014834526
61	0xbb4f0b62	-0.0031592478
62	0xba52be92	-0.00080392614
63	0x3b2ec489	0.0026667437
64	0x3c170b18	0.009218954
65	0x3bf9bbe1	0.007621274
66	0x3b82f40f	0.003996379
67	0x3c80d7e2	0.015727941
68	0x3c83edab	0.01610454
69	0x3d809cfa	0.06279941
70	0x3d884c66	0.06655197
71	0x3aee7cae	0.0018195116
72	0xbc9b5ae9	-0.018964248
73	0x3b93f8cd	0.0045157433
74	0x3d1916f3	0.0373754
75	0x3d31e338	0.043429583
76	0x3c236dfd	0.009974954
77	0xbabe265f	-0.0014507285
78	0x3b87fdd1	0.0041501303
79	0xbc255621	-0.0100913355
80	0xbcce9994	-0.025219716
81	0x3cdac2b2	0.026704166
82	0x3d9f9916	0.07792871
83	0xbbce90c2	-0.0063038776
84	0xbc5fff7b	-0.013671751
85	0x3a518ddb	0.00079938554
86	0x3cd9b2fc	0.026574604
87	0x3c97bbf4	0.01852224
88	0x3cd943ad	0.026521528
89	0x3aee49b6	0.0018179927
90	0x3d7b97ad	0.061423946
91	0x3c27b4f8	0.010236017
92	0x3bac88b1	0.0052653183
93	0x3c05179f	0.0081233075
94	0xbdef889d	-0.11695979
95	0x3cdcb611	0.026942285
96	0xba1aa093	-0.0005898561
97	0x3cebe1b5	0.028794149
98	0x3cee0c93	0.02905873
99	0xbbb4b5e6	-0.005514848
100	0x39712c8f	0.0002300015
101	0xbaef85a7	-0.0018274084
102	0x3a3a6e89	0.0007111808
103	0xbe04423f	-0.12915896
104	0xbc5d720a	-0.013515959
105	0x3c89b6ec	0.016810857
106	0x3d9f392b	0.07774576
107	0xbc9235a4	-0.017847843
108	0xbe2d2994	-0.16910392
109	0xbe12de92	-0.14342716
110	0x3a6af820	0.0008963365
111	0x3b451a05	0.0030075323
112	0xbd48cb17	-0.049021807
113	0x3a2dfc88	0.00066370564
114	0xbb00e0bf	-0.001966521
115	0x3d402050	0.046905816
116	0x3d804355	0.062628426
117	0x3d21692b	0.039406937
118	0x3d3a5e64	0.045500174
119	0x3d25aeb1	0.0404498
120	0xbb23b969	-0.002498234
121	0x3bbec332	0.005821609
122	0xbca7e1d3	-0.020493424
123	0xb9e32efe	-0.00043331826
124	0xbd46dd24	-0.04855074
125	0x3b5e0d2e	0.0033882367
126	0x3ad3dc28	0.0016163634
127	0x3bec1cc7	0.007205579
128	0x3c2b4b93	0.01045503
129	0x3b2a6c21	0.0026004391
130	0x3c581070	0.013187513
131	0x3c5ac7a0	0.013353258
132	0x3d82e83a	0.0639195
133	0x3d93c4ed	0.07215295
134	0x3a6647af	0.00087844854
135	0xbc7fe27f	-0.015617966
136	0x3b57c123	0.0032921515
137	0x3d0a6ce7	0.033795264
138	0x3d24df76	0.04025217
139	0x3c06c204	0.008224968
140	0xbb0bee43	-0.0021351732
141	0x3b41fddb	0.0029600773
142	0xbc105150	-0.008808449
143	0xbca6da41	-0.020367743
144	0x3cc98ff8	0.024604782
145	0x3d98545e	0.07437967
146	0x3b6b4859	0.0035901277
147	0xbc3ed765	-0.011648034
148	0xb89b8718	-7.416139e-05
149	0x3cc0a394	0.0235155
150	0x3c85a8d1	0.01631585
151	0x3cd9df79	0.026595818
152	0x3a564bba	0.0008174736
153	0x3d9d30bc	0.07675311
154	0x3c07a1aa	0.00827829
155	0x3b8bb7f8	0.004263874
156	0x3bccef73	0.0062541305
157	0xbda87867	-0.0822609
158	0x3ccc7b3d	0.024961108
159	0xbab164ab	-0.001353403
160	0x3cd138eb	0.025539836
161	0x3cff3a14	0.031155623
162	0xbb9f4482	-0.0048604617
163	0x3c4fef2e	0.012691302
164	0xbb2189aa	-0.0024648705
165	0xb91e8b7d	-0.00015120018
166	0xbdc2932f	-0.09500729
167	0xbc3d639a	-0.011559391
168	0x3cc135b8	0.023585185
169	0x3da8eba7	0.08248072
170	0xbc72d3e9	-0.014821031
171	0xbd802c20	-0.06258416
172	0xbde46832	-0.11152686
173	0xb97e703d	-0.0002426514
174	0x3af8b651	0.0018975233
175	0xbd1d5922	-0.03841508
176	0xb946998d	-0.00018939954
177	0xbb294b58	-0.0025832262
178	0x3d7dd3dc	0.061969623
179	0x3da747ec	0.08168015
180	0x3d0f48ee	0.03498166
181	0x3d20ccd6	0.039257847
182	0x3d474dc6	0.048658155
183	0xbb46f9ae	-0.0030361223
184	0x3b912705	0.0044297003
185	0xbc8b6d97	-0.01702003
186	0xba9b79b7	-0.0011861835
187	0xbd1c2c10	-0.03812796
188	0x3b14bc2e	0.0022695172
189	0xb8e1f473	-0.00010774368
190	0x3b629c0d	0.0034577877
191	0x3be8eee3	0.0071085556
192	0x39c40e53	0.00037394706
193	0x3beb5a0f	0.0071823667
194	0x3be97dbc	0.0071255844
195	0x3d223008	0.039596587
196	0x3d2b7b66	0.04186573
197	0xba02b8f5	-0.0004986667
198	0xbc1aeaea	-0.009455422
199	0x3aaa76cf	0.0013005378
200	0x3cb1c589	0.021700637
201	0x3d21f545	0.039540548
202	0x3b98d039	0.004663494
203	0xbb29464f	-0.002582926
204	0x3a9e0c50	0.0012058113
205	0xbbb06f73	-0.0053843795
206	0xbc38e3dd	-0.011284796
207	0x3c57c1dd	0.013168779
208	0xbc5c412b	-0.013443272
209	0x3b5b6cdd	0.0033481636
210	0xbbebd951	-0.007197537
211	0xb95e3b17	-0.00021193583
212	0x3c50f820	0.01275447
213	0x3c822700	0.015887737
214	0x3c78bf0c	0.015182268
215	0xba4427dc	-0.0007482746
216	0x3daa3814	0.08311477
217	0x3b8e1658	0.0043361597
218	0x3b676d56	0.0035312972
219	0x3b3b6380	0.0028593242
220	0xbd831b19	-0.06401653
221	0x3c5a901a	0.013340021
222	0xbb1305dc	-0.0022433912
223	0x3c775419	0.015095734
224	0x3c890cb4	0.01672969
225	0xbb69e64f	-0.0035690253
226	0xbd89d71f	-0.06730484
227	0xbb360a2c	-0.002777706
228	0xb961b20b	-0.00021523998
229	0xbd8dbec1	-0.06921149
230	0xbbdd42fc	-0.00675237
231	0x3c489a36	0.012243798
232	0x3d59edb5	0.05320521
233	0xbc0f6caf	-0.0087539395
234	0xbdbf2b99	-0.093344875
235	0xbd9a5b5d	-0.075369574
236	0x3b3fede2	0.0029286076
237	0x387a988a	5.9746708e-05
238	0xbc235d75	-0.009971012
239	0xba92c848	-0.0011198604
240	0xbb3928d1	-0.0028253088
241	0x3cbe8b6a	0.023259837
242	0x3da526a1	0.080640085
243	0xbd6bbcb3	-0.057553004
244	0x3d1fdeaf	0.039030727
245	0x3d16e8e9	0.036843214
246	0x39abac05	0.00032743826
247	0x3afdb559	0.0019356414
248	0xbbdf0ac5	-0.0068067038
249	0xbae86eea	-0.001773325
250	0xbcb0bdb2	-0.021574829
251	0x39ce39f0	0.0003933455
252	0xba6c1ef7	-0.00090072997
253	0x3b86325a	0.004095358
254	0x3c950a6e	0.01819345
255	0xba14055e	-0.0005646552
