models/SnP_greedy7.pth (torch, 332311 bytes, 32 tensors)

dnets.0.means f4 [63]
000000 33 a7 35 3f bb 1a f9 3f 90 c6 48 3e 47 3b fd 3f
       0.7095825 1.9461282 0.19606996 1.9783715
000010 44 c9 de 3f 4b 4e 15 40 ce fa df 3f fc 08 a3 3f
       1.7405171 2.3329036 1.7498415 1.2737117
000020 f9 8f f4 3e e5 7f d3 bf 7f 66 0b 3f af 95 74 40
       0.47766092 -1.6523405 0.5445327 3.821636
000030 5d 1b b7 3f d6 0c 37 3f 30 94 c7 be b4 8a e3 3e
       1.4305226 0.7150396 -0.38980246 0.4444176
000040 64 1a 26 bf 5a aa 99 bf 93 8d b8 3f 12 a3 24 3f
       -0.6488402 -1.2005112 1.4418205 0.64311326
000050 95 85 de 3d 53 6e 80 bf ae 28 f2 3d ad 6b 05 40
       0.108653225 -1.0033668 0.11824165 2.084697
000060 12 71 be 3f b4 98 26 3f 23 6c 50 3f aa a7 ea 3f
       1.4878256 0.65076756 0.81415004 1.8332417
000070 27 98 9e 3f a7 80 4d 3e c8 58 e5 3f e4 86 fe bf
       1.2390183 0.20068608 1.7917719 -1.9884915
000080 38 41 b2 3f 58 e5 6f 3d 3e 1a 29 40 b0 bd 1f 3f
       1.3926153 0.05856833 2.6422267 0.62398815
000090 ba 58 ea be 14 5b b1 bf 95 64 07 bf 56 02 de 3d
       -0.45770818 -1.385592 -0.5288785 0.10840289
0000a0 a4 28 9e bf 83 a1 44 bf 89 99 8a 3e c8 c2 0e 40
       -1.2356153 -0.7680895 0.27070263 2.2306385
0000b0 58 75 9f bf 2d 0f d4 bf c8 c9 29 bf 3a 4b 33 3d
       -1.2457685 -1.6567131 -0.6632352 0.043772914
0000c0 8d 39 4d 3f 96 f4 b3 be b4 b5 8d 3e a6 c6 08 bf
       0.8016594 -0.35147542 0.2767769 -0.53428113
0000d0 ae d8 04 3f ff 04 db 3f cb 9d 93 3e 39 34 86 3f
       0.51893127 1.71109 0.28831324 1.0484687
0000e0 6d 2e 08 3e b5 12 44 bd 6c a3 42 3f 6f 73 e9 be
       0.1329896 -0.047869403 0.7603061 -0.4559588
0000f0 9d d2 55 3d a3 9c 4d bf cc bc 30 3f
       0.05220281 -0.80317134 0.6903808

dnets.0.std f4 [63]
000000 cd 65 e7 3f 94 73 05 40 83 56 83 3e 0a 50 48 40
       1.8077942 2.0851793 0.2565194 3.1298852
000010 1e 65 b9 3f 5a 63 de 3f 8c af 3a 3f 42 d3 09 3f
       1.4483984 1.737407 0.72924113 0.5383798
000020 45 64 cf 3f d5 41 aa 3f 1a 8f 9e 3f 05 7e d7 3f
       1.6202475 1.330134 1.2387421 1.6835333
000030 3c af 8d 3e ae aa 84 3f 84 3a 29 40 83 9f 90 3f
       0.27672756 1.0364587 2.6441965 1.1298679
000040 50 ed 90 3f 3e df 77 3f 8d fa 61 3f 3d 1e 5d 3e
       1.1322422 0.96825016 0.88272935 0.21593566
000050 3c cc 07 3e af 40 9b 3f 6f c8 8e 3f 3e f4 9a 3f
       0.13261503 1.2129115 1.1154917 1.2105787
000060 83 53 f2 bd 8c 5c 00 3f d2 77 14 40 34 64 e6 be
       -0.11832335 0.50141215 2.3198133 -0.44998324
000070 e4 db bc 3f 0d e6 fb 3e 83 c3 06 40 df 38 51 bf
       1.4754605 0.49198952 2.105683 -0.81727403
000080 7e 9f 5a 3f b8 8a 55 40 40 81 ba 3f 17 2e dc 3e
       0.85399616 3.3365917 1.4570694 0.43003914
000090 e8 4a b8 3f 3e e4 cd 3e a4 07 27 40 7f a3 8c 3f
       1.439786 0.40213197 2.6098413 1.0987395
0000a0 6d 11 1b 3f 9e e1 85 3f 0b 53 67 3e f8 12 33 3f
       0.60573465 1.0459478 0.22590272 0.6995082
0000b0 c3 6f 96 3f 79 1d 0a bf 17 9c cf 3e c9 5e e7 3e
       1.1752857 -0.5395122 0.40548775 0.45189503
0000c0 fd 4c f1 3f 17 35 9b be ba a8 de 3f ce d6 20 40
       1.885162 -0.30313942 1.7395241 2.5131106
0000d0 b4 9e 75 3e 77 98 e6 3e 3f ba 0d be 23 71 29 be
       0.23986322 0.45038196 -0.13840578 -0.16547064
0000e0 98 99 01 3e a1 1d 1f bf 9a 6e b1 3f 7d 85 18 3f
       0.12656248 -0.62154585 1.3861878 0.59578687
0000f0 fc b8 f8 3f c2 a7 1b 3f 3b 1a cf 3f
       1.9431453 0.60802853 1.617988

dnets.0.weights_rbf f4 [48, 63]
000000 1f 72 c1 3a bd 01 a7 3b ff e5 b4 3b 99 31 f6 3a
       0.0014758742 0.0050966428 0.0055205817 0.0018783092
000010 4d d9 0a 3c 67 ab 0e 3c 9c 0a 5d 3d 2c fa 84 3d
       0.00847466 0.008707858 0.053965196 0.06493029
000020 84 bf 82 3a 79 7a 3b bc 83 be 3d 3b 75 98 b3 3c
       0.0009975289 -0.011442774 0.0028952665 0.021923283
000030 4c 70 ba 3d c5 0e bd 3b f4 43 eb ba 71 d0 33 3b
       0.0910345 0.005769583 -0.0017949329 0.0027437473
000040 74 db c0 bb f7 b0 59 bc 38 60 5a 3c 76 b8 64 3d
       -0.005885536 -0.013286821 0.013328604 0.05583998
000050 1b 9c 8c 3b 6a 1d 07 bc 44 63 32 3a 93 57 61 3c
       0.00429107 -0.008246759 0.0006804953 0.0137537895
000060 8e b7 8b 3c 84 48 27 3c 03 1a 3f 3a 15 ce 44 3e
       0.0170553 0.01021016 0.0007289948 0.19219239
000070 ae 4a be 3b 69 df 93 3b b3 50 93 3b 69 3c 8b bd
       0.0058072424 0.0045127166 0.004495704 -0.06798632
000080 f4 d2 5a 3c 4f 52 99 ba 41 b5 80 3c 5a 96 29 3c
       0.013355959 -0.0011697504 0.015711429 0.010350788
000090 1b 8f 5c bb 7d 0a e7 bd 5b 49 08 bb 6e 41 2b 3a
       -0.0033654633 -0.11281297 -0.0020795676 0.0006532882
0000a0 10 6b 80 bd 97 c3 f9 bb 74 0b ce 3b ef 81 e9 3d
       -0.062704206 -0.007622193 0.0062879864 0.11401736
0000b0 5e bf 2a bc cb 60 1f be da 75 30 bd ac 23 62 3b
       -0.010421602 -0.15564267 -0.043081142 0.0034506125
0000c0 3d 3b d8 3a 32 74 e7 bb d3 72 cc 38 a7 4e 0d bb
       0.0016497147 -0.007063412 9.748866e-05 -0.0021561773
0000d0 03 22 9c 3c 25 af 51 3e 0b 09 50 3c 65 bd 09 3e
       0.019059187 0.20476969 0.0126974685 0.13451155
0000e0 93 6e 9b 3a 58 76 1f 3a b7 bf 68 3b d1 6f e8 bb
       0.0011858515 0.0006083003 0.0035514662 -0.0070934077
0000f0 ef da 4e ba 72 a0 9d bc d8 41 04 3b cb da 1d b9
       -0.00078909 -0.019241545 0.0020180847 -0.00015054193
000100 dc 72 fc 3a cb 0b 53 3b e9 51 18 39 54 45 7a 3b
       0.0019260305 0.0032203074 0.00014526364 0.0038188295
000110 af 14 88 3b 56 8c be 3c e5 d9 d3 3c 6d 83 bb b9
       0.0041528563 0.023260277 0.025860736 -0.0003576534
000120 68 01 ab bb 38 25 23 3a ed 2c 4f 3c 33 a2 7c 3d
       -0.0052186735 0.00062235026 0.0126449885 0.061678123
000130 9b 6e 11 3b ea de d2 ba 1c 58 17 3a 5d ee 39 bb
       0.002219117 -0.0016088162 0.0005773322 -0.0028370835
000140 89 1b c0 bb b7 33 c7 3b 77 1c d1 3c 38 38 16 3b
       -0.0058626574 0.006079163 0.025526268 0.0022921693
000150 0d 88 80 bb 6c f6 01 b9 9c 65 e3 3b 4f 0c 71 3c
       -0.0039224685 -0.00012394198 0.006939603 0.014712407
000160 19 fa a8 3b 84 ce 0a ba 37 35 d1 3d a1 e3 10 3b
       0.005156767 -0.00052950555 0.10215228 0.0022108334
000170 c4 10 ef 3a 48 70 cc 3a 71 57 33 bd f1 7e c6 3b
       0.001823925 0.0015597427 -0.043784562 0.006057613
000180 80 8c ba ba c7 65 09 3c 99 b6 ad 3b 9a bd 03 bb
       -0.0014232546 0.008386082 0.0053013084 -0.0020102025
000190 ac 48 fb bd fe a5 e1 ba 35 b6 fa b8 e9 4f 1e bd
       -0.122697204 -0.0017215607 -0.00011954868 -0.038650427
0001a0 cb f6 64 bb d8 f4 8c 3b 9a 9b 3f 3d 94 51 9c bb
       -0.003493714 0.0043016486 0.046779253 -0.004770467
0001b0 e4 a3 fc bd 08 21 9f bc 6f 07 b2 3a 0d 04 7d b8
       -0.12335947 -0.01942493 0.0013582538 -6.0323673e-05
0001c0 92 00 2f 3a 6d 9a 3a ba 13 ab e4 ba 2c 85 1d 3c
       0.0006675805 -0.0007118348 -0.0017446004 0.00961427
0001d0 fd 80 d8 3d 75 06 d6 3b 94 ee 98 3d 15 a2 a7 39
       0.105714776 0.0065315315 0.0746738 0.00031973483
0001e0 42 da ce 39 f2 fd 78 3a f7 06 10 bb 55 5b 8f ba
       0.00039453997 0.000949829 -0.0021976808 -0.0010937253
0001f0 c9 3c 07 bc e1 7b 0a 39 30 78 28 ba d3 dc a3 ba
       -0.008254238 0.00013206854 -0.0006426601 -0.0012501724
000200 f7 8f 03 ba 3b fb e6 b9 3a 4d 11 bb be a8 01 bb
       -0.0005018706 -0.000440562 -0.0022171275 -0.0019784416
000210 6d f7 6a 3a dd 47 52 3b 21 f5 08 ba 67 64 96 3b
       0.0008963261 0.003208629 -0.00052245153 0.0045896056
000220 87 c7 96 ba 96 00 0e ba e7 a1 06 3d 48 d6 eb ba
       -0.0011503556 -0.00054169574 0.032869246 -0.0017992938
000230 d1 d2 34 3a ac 78 95 ba 6e f3 10 3b e8 79 a6 3b
       0.0006897869 -0.0011403761 0.0022117752 0.0050804503
000240 b4 0b 9f bb 77 30 11 3c 5f ce a7 39 e4 00 49 3b
       -0.00485369 0.008861653 0.0003200648 0.0030670697
000250 d4 bb 1c b9 9d 5d 73 bb eb 44 78 3c 69 0c 64 bb
       -0.00014947291 -0.0037134655 0.01515315 -0.0034797436
000260 2c 60 b3 b9 a9 71 60 3d bf e2 d5 ba a6 e3 cb ba
       -0.00034213194 0.054795895 -0.0016318186 -0.0015555515
000270 2c 5f 96 ba d7 65 e3 bb 98 58 a3 bb 70 1f c3 39
       -0.0011472455 -0.0069396305 -0.0049849264 0.0003721672
000280 c9 14 06 bb 74 14 86 bb ac ee aa 3a b5 86 90 bc
       -0.0020459166 -0.0040917937 0.00130411 -0.017642358
000290 2a 65 52 3a 6b 78 09 b9 01 8e c0 bb f0 a3 39 3b
       0.0008025939 -0.00013110197 -0.005876303 0.0028326474
0002a0 99 e8 67 b8 d4 41 0b 3c bc ba 85 3b a1 fb ca bc
       -5.5291315e-05 0.008499581 0.0040810984 -0.02477819
0002b0 ff b0 a4 bb 4f 8a 9a ba 09 ff 2d ba 9e 54 de 3a
       -0.0050259824 -0.0011790487 -0.00066374295 0.0016962474
0002c0 bb f8 b9 b8 99 a3 5a 3a d9 67 97 b9 c5 a3 32 3d
       -8.867817e-05 0.0008340418 -0.00028878337 0.043613214
0002d0 9a f3 4e 3b 91 2b 4d 3d 06 fe a3 3a 1a 95 fb b7
       0.0031578303 0.050090376 0.0012511618 -2.9990963e-05
0002e0 97 7e a2 ba 12 48 37 3b 0c 57 a4 39 b7 a5 86 3b
       -0.0012397346 0.0027966541 0.00031345373 0.00410911
0002f0 d1 c4 58 ba 03 a8 d2 3a 9f 16 c3 3b b1 df aa 39
       -0.0008269074 0.00160718 0.0059536244 0.0003259159
000300 d4 1e 28 3b 40 3b 22 3c 5f d8 29 3c e6 17 1f 3d
       0.002565314 0.009901822 0.010366528 0.03884115
000310 76 b3 29 3d 7d cf 74 3a 91 5c 1c bc f1 2b 20 3b
       0.041430913 0.00093387795 -0.009543554 0.0024440254
000320 51 f5 ad 3c 0d 50 86 3d 7e 50 b4 3b 6c 4b ad ba
       0.02123514 0.06558237 0.0055027595 -0.001322133
000330 a2 4c 04 3b 92 ee d7 bb 40 3f 3e bc 8e 4e 82 3c
       0.0020187278 -0.006589719 -0.01161176 0.015906598
000340 12 70 00 3d 25 77 3e bb 16 3c 02 bc e3 f5 53 ba
       0.03135688 -0.0029062715 -0.007948896 -0.0008085651
000350 f4 87 84 3c 7a 9b 0b 3d 4d 13 48 3c 86 6c 91 3a
       0.016178109 0.03408382 0.012211633 0.0011094965
000360 fc 7a b8 3d bb cd cf 3b 8c ca 94 b9 50 6f ab 3b
       0.090078324 0.0063416637 -0.0002837967 0.0052317753
000370 39 5f 7e bd e6 c9 82 3c 44 53 12 ba 36 6f 8a 3c
       -0.06210253 0.015965413 -0.00055818656 0.016898733
000380 0e 92 59 3c 1b 0d 7c bb d1 2e 2c be 85 89 d0 ba
       0.013279451 -0.003845996 -0.16814734 -0.0015910125
000390 ae 2c 70 ba 48 72 7b bd fa 46 04 bc 1b 46 c7 3b
       -0.0009161931 -0.061388284 -0.008073563 0.0060813553
0003a0 17 7c 85 3d 93 60 19 bc 17 60 17 be 61 74 72 bd
       0.06517809 -0.009361404 -0.14782749 -0.05919302
0003b0 e0 48 c1 bb 1b e0 f1 3a 7a a0 7d bc 49 94 ac 37
       -0.00589858 0.001845363 -0.015480155 2.0573048e-05
0003c0 32 e7 de ba e2 22 9b 3c 3b f9 b8 3d 41 16 27 3c
       -0.0017006157 0.018937532 0.09031912 0.010198177
0003d0 51 b5 9c 3d 93 9d 08 3c d1 70 b2 bb fd cd 61 3b
       0.07651771 0.00833835 -0.0054455777 0.0034455054
0003e0 92 6e 32 bc 31 74 46 ba 70 59 95 bc 26 50 04 3b
       -0.01089062 -0.00075704145 -0.018231124 0.0020189374
0003f0 a5 7d 40 3a d7 d6 83 3a 87 9b 71 bb f2 61 d0 3a
       0.0007342941 0.0010058534 -0.0036866383 0.0015898331

dnets.0.conv.weight f4 [48, 3, 7, 7]
000000 3d 1a 98 bd 0a 79 13 bc a1 e8 28 3d 0e d8 ef bc
       -0.074268796 -0.009001026 0.041237477 -0.029277828
000010 45 e5 42 bd 01 66 9f bc 61 ab cf 3c d2 a0 36 bd
       -0.04758193 -0.019457819 0.025350275 -0.044586964
000020 eb a1 07 3c 09 78 a1 3c 5a d0 de 3c 46 19 0e bc
       0.00827835 0.019710558 0.02719896 -0.008673018
000030 09 93 86 3c d3 4f a5 ba a2 5d 14 3c 96 ce 17 bd
       0.016427534 -0.001261229 0.009055527 -0.03706225
000040 47 34 65 3d 81 d7 d3 bd 4b 7d 30 3c a0 a8 4a 3d
       0.05595806 -0.103438385 0.01077206 0.04947722
000050 64 bf 75 bc fa 18 e9 bb d6 8c b3 bd 2a 2f e7 3c
       -0.014999244 -0.007113573 -0.08767097 0.028220732
000060 0e e0 fe bd ea 95 da 3d c0 b8 cf 3c 00 f8 7c bd
       -0.12445079 0.10673125 0.02535665 -0.06175995
000070 6f fc fc ba 9a ab 9a bd 42 34 41 bc d7 6f 1c bd
       -0.0019301305 -0.07552262 -0.011792244 -0.038192596
000080 45 dc 58 3d 45 e4 14 3d 4a a5 13 bd 14 69 a4 bc
       0.05294444 0.036350507 -0.036046304 -0.020069636
000090 17 a5 fe 38 c1 9a 94 3d 38 eb ab 3d 35 55 13 bd
       0.00012142414 0.072560795 0.08394474 -0.03596993
0000a0 ae 73 03 3c c2 ac 37 3d ff 79 1e 3b e8 c9 a7 3c
       0.008023186 0.04484249 0.0024181602 0.020482019
0000b0 55 85 88 3c a4 18 44 bc f7 26 86 3d 47 aa f1 3c
       0.01666514 -0.011968765 0.06550401 0.02950014
0000c0 57 8d 13 3d fc 42 77 bc 2e 4d f9 3c 8c 79 3e 3d
       0.036023464 -0.015091654 0.03043231 0.046502635
0000d0 a7 d0 cc 3d 8f 23 47 3d 40 64 a3 bc 79 ff 17 bd
       0.10000735 0.048617896 -0.019945264 -0.037108872
0000e0 28 b8 1c bb 16 1c 39 3d b1 ae fe 3c 98 82 3c bd
       -0.0023913477 0.0451928 0.031089159 -0.04602298
0000f0 df 02 d0 3c cd f5 03 3d 04 a3 d3 bc d6 83 db bc
       0.025391994 0.032216836 -0.025834568 -0.026796263
000100 42 a4 18 3d 7a 0d 32 bd dc f7 88 bd f8 76 c8 3c
       0.037266023 -0.043469884 -0.066879004 0.024470791
000110 0b ea 65 bd 0c ea de 3c fe 28 35 bd b1 45 fe 3d
       -0.056131404 0.027211212 -0.044228546 0.12415636
000120 bf cd 7f bd ee 20 32 be 28 0e 17 3e 8d 96 4f 3c
       -0.062452074 -0.17395374 0.14751494 0.012670171
000130 2a b2 b0 bd 43 c9 37 3d 37 fa 67 bd ea 15 1d 3d
       -0.08627732 0.044869673 -0.056635108 0.038350977
000140 a6 5b 83 bd e0 15 b6 3d 6d be 47 bd a8 26 f0 bb
       -0.06413965 0.08890891 -0.04876559 -0.007328827
000150 2d 39 ee bb dc 08 12 3d 54 2f ef bb b7 25 bd bd
       -0.0072699995 0.03565298 -0.007299343 -0.09235709
000160 20 37 03 bd 39 9f f3 bc 71 97 01 bc ac 88 03 3d
       -0.032034993 -0.02973901 -0.007909642 0.032112762
000170 e5 49 fc 3a 4d 50 87 3c 24 df 51 3d ed 09 25 3d
       0.0019248097 0.016517783 0.051238194 0.04029267
000180 20 2d ce bc 46 a9 da bc ae 2f d7 bb 9d 57 71 3c
       -0.025168002 -0.026692044 -0.006566963 0.014730361
000190 54 0c 05 bd c6 39 8e 3d 0b 43 23 3d e2 0d 91 3b
       -0.03248246 0.06944613 0.03985886 0.004426704
0001a0 42 5d eb 3b 5d 12 40 3d fc d2 81 bb 0a 4d 45 3d
       0.007182748 0.046892513 -0.003961919 0.048169173
0001b0 e9 27 b3 3d fb 92 31 3d e1 54 cc bc 6c 65 ea 3b
       0.08747847 0.043353062 -0.024942817 0.0071532037
0001c0 05 66 67 3d b5 87 8f bd bc 03 da bc 93 d4 d1 bd
       0.056493778 -0.07008306 -0.026613109 -0.102456234
0001d0 66 c1 c9 3b 38 15 35 bd f4 67 ca 3c 0c 11 d4 3c
       0.006157088 -0.04420969 0.024707772 0.025887035
0001e0 4b fa 09 bd 4a 58 94 3d f7 98 be 3d e7 47 bf 3d
       -0.033685964 0.07243402 0.093065195 0.09339886
0001f0 5f f5 21 bd 22 00 e2 bd 01 ce 1d bd b2 05 67 3c
       -0.039540645 -0.110351816 -0.03852654 0.014100479
000200 f2 ef d7 bc 37 4a cd bd 06 ea a2 3d 84 1b 00 3d
       -0.026359532 -0.10023921 0.07954793 0.03127624
000210 89 30 85 3c 9a ce 92 3c 23 33 3b bd e7 54 47 bd
       0.016258495 0.01792078 -0.045703065 -0.048664954
000220 d7 da 4a 3c d4 00 a0 bb 2f 5b c3 bc 90 15 9d bc
       0.012381277 -0.004882911 -0.02384719 -0.01917532
000230 57 f1 e9 bc 70 d5 fc bc 17 a4 62 bb d2 f5 f7 3c
       -0.028557463 -0.030863494 -0.0034582668 0.030268583
000240 61 3a 27 bd 6b 21 8b 3a ec 47 34 bd 59 45 30 3d
       -0.04082716 0.0010614818 -0.044013903 0.043034885
000250 cb f4 44 bd 91 6b 7d bd 3a b1 20 bd 3a df ff 3c
       -0.048085015 -0.06187016 -0.039231516 0.031234372
000260 5f d0 cf bb 0f 44 ea bb f5 6b 37 bd ca 97 96 3c
       -0.0063419784 -0.0071492265 -0.04478069 0.018382926
000270 f3 46 77 bd 93 d2 4f bd b6 49 a3 bc ee 21 9c bc
       -0.060370397 -0.05073793 -0.019932609 -0.019059148
000280 76 9c 56 3c 25 6e 05 bd 4a 02 c2 3b 18 5b 4b 3d
       0.013098827 -0.032575745 0.005920683 0.04964742
000290 52 b8 e5 bc c7 4a a5 3d f1 37 59 bd f7 04 32 bc
       -0.028041992 0.08070903 -0.053031866 -0.0108654415
0002a0 f5 a1 cc bc 14 63 f1 3d d3 c5 c4 bc e1 bf 0d bd
       -0.02497957 0.11786476 -0.024020111 -0.034606818
0002b0 ee 5f e8 bc d1 cd d0 bc 12 ed 51 3c 4f b3 52 bd
       -0.028366055 -0.025488766 0.01281287 -0.051440533
0002c0 04 92 24 3d 71 bc 07 3d 86 a6 83 3d 20 b7 99 3d
       0.040178314 0.033138696 0.06428246 0.075056314
0002d0 37 3d fc 3c d5 b7 85 bc 94 b4 a4 bc 98 2e 89 bc
       0.030790908 -0.01632301 -0.020105638 -0.01674585
0002e0 d8 19 82 3d 98 58 a3 3d 82 9c 3d bc 9d 66 01 bd
       0.063525856 0.07975882 -0.011572959 -0.031592
0002f0 38 89 22 bd fd 13 6e bc c7 73 ce 3c f3 7b 3e bb
       -0.039681643 -0.014531133 0.025201691 -0.0029065579
000300 de 09 e0 3c 38 e4 fa 3c 25 84 80 3c f0 bf e5 3c
       0.027348455 0.030626401 0.015688011 0.028045624
000310 db 9d d3 3c 8b 8e 61 bc 55 1f 18 bd c4 71 11 bd
       0.025832107 -0.013766895 -0.037139256 -0.035508886
000320 15 48 c9 bc 7d dd 78 bd 05 1a 15 3c 7d f6 8d bc
       -0.024570504 -0.060758103 0.009100442 -0.017329449
000330 85 22 10 bd 8a 7f 75 3d 95 1c 00 bd ab c9 b0 3c
       -0.03518917 0.059936084 -0.031277258 0.021580538
000340 19 af ee 3c 7f 0d 5b bd 4a 24 0a 3d c0 3b 00 3d
       0.029136227 -0.053479668 0.033726014 0.031306982
000350 e2 b0 8f 3b 15 bd af 3d 17 86 e6 3c e1 73 35 3d
       0.0043850997 0.085809864 0.02814011 0.044299964
000360 7f e2 02 3d cc 09 08 3d 6f 95 3e 3d 1a 20 f2 bd
       0.031954285 0.033212468 0.04652923 -0.11822529
000370 ec 1e 80 3c e8 2f 09 be 61 c7 06 3e 8a 11 b5 bd
       0.015639745 -0.13397181 0.13161995 -0.08841236
000380 68 d3 85 bc ef 6d 49 3d 5c ea 71 bd 56 fd 9c bc
       -0.016336158 0.049177106 -0.059061393 -0.019163769
000390 ad 99 9c 3d 13 9c 0c bb 42 e3 12 3c c7 9c a3 3d
       0.07646499 -0.0021455332 0.008965315 0.07988887
0003a0 ee fe 83 bd 9a 80 33 bd 28 db 9c 3c f0 a9 57 3c
       -0.06445108 -0.043823816 0.01914747 0.013163075
0003b0 fe 67 6a 3c 4b 70 f7 bc 39 52 19 bd 14 82 db 3c
       0.01430702 -0.030204913 -0.03743193 0.026795425
0003c0 7a db 4b 3d 43 f4 b4 3d ca 9a 02 bd 98 05 09 bd
       0.049769856 0.08835652 -0.0318859 -0.0334526
0003d0 42 d0 f1 bc 70 f6 e5 3c 0f 3f a6 3d 8c 16 f2 bc
       -0.02951825 0.028071612 0.08117496 -0.029551767
0003e0 2a d5 56 3a 8e 18 0e 3d 26 c1 28 3d 8f 1e ba bc
       0.0008195216 0.034691386 0.041199826 -0.02271965
0003f0 21 8b 3b 3d 8c 44 ac 3c d4 f3 a2 bc 6c 3d 26 3d
       0.04578698 0.02102878 -0.019891657 0.04058592

dnets.1.means f4 [63]
000000 33 a7 35 3f bb 1a f9 3f 90 c6 48 3e 47 3b fd 3f
       0.7095825 1.9461282 0.19606996 1.9783715
000010 44 c9 de 3f 4b 4e 15 40 ce fa df 3f fc 08 a3 3f
       1.7405171 2.3329036 1.7498415 1.2737117
000020 f9 8f f4 3e e5 7f d3 bf 7f 66 0b 3f af 95 74 40
       0.47766092 -1.6523405 0.5445327 3.821636
000030 5d 1b b7 3f d6 0c 37 3f 30 94 c7 be b4 8a e3 3e
       1.4305226 0.7150396 -0.38980246 0.4444176
000040 64 1a 26 bf 5a aa 99 bf 93 8d b8 3f 12 a3 24 3f
       -0.6488402 -1.2005112 1.4418205 0.64311326
000050 95 85 de 3d 53 6e 80 bf ae 28 f2 3d ad 6b 05 40
       0.108653225 -1.0033668 0.11824165 2.084697
000060 12 71 be 3f b4 98 26 3f 23 6c 50 3f aa a7 ea 3f
       1.4878256 0.65076756 0.81415004 1.8332417
000070 27 98 9e 3f a7 80 4d 3e c8 58 e5 3f e4 86 fe bf
       1.2390183 0.20068608 1.7917719 -1.9884915
000080 38 41 b2 3f 58 e5 6f 3d 3e 1a 29 40 b0 bd 1f 3f
       1.3926153 0.05856833 2.6422267 0.62398815
000090 ba 58 ea be 14 5b b1 bf 95 64 07 bf 56 02 de 3d
       -0.45770818 -1.385592 -0.5288785 0.10840289
0000a0 a4 28 9e bf 83 a1 44 bf 89 99 8a 3e c8 c2 0e 40
       -1.2356153 -0.7680895 0.27070263 2.2306385
0000b0 58 75 9f bf 2d 0f d4 bf c8 c9 29 bf 3a 4b 33 3d
       -1.2457685 -1.6567131 -0.6632352 0.043772914
0000c0 8d 39 4d 3f 96 f4 b3 be b4 b5 8d 3e a6 c6 08 bf
       0.8016594 -0.35147542 0.2767769 -0.53428113
0000d0 ae d8 04 3f ff 04 db 3f cb 9d 93 3e 39 34 86 3f
       0.51893127 1.71109 0.28831324 1.0484687
0000e0 6d 2e 08 3e b5 12 44 bd 6c a3 42 3f 6f 73 e9 be
       0.1329896 -0.047869403 0.7603061 -0.4559588
0000f0 9d d2 55 3d a3 9c 4d bf cc bc 30 3f
       0.05220281 -0.80317134 0.6903808

dnets.1.std f4 [63]
000000 cd 65 e7 3f 94 73 05 40 83 56 83 3e 0a 50 48 40
       1.8077942 2.0851793 0.2565194 3.1298852
000010 1e 65 b9 3f 5a 63 de 3f 8c af 3a 3f 42 d3 09 3f
       1.4483984 1.737407 0.72924113 0.5383798
000020 45 64 cf 3f d5 41 aa 3f 1a 8f 9e 3f 05 7e d7 3f
       1.6202475 1.330134 1.2387421 1.6835333
000030 3c af 8d 3e ae aa 84 3f 84 3a 29 40 83 9f 90 3f
       0.27672756 1.0364587 2.6441965 1.1298679
000040 50 ed 90 3f 3e df 77 3f 8d fa 61 3f 3d 1e 5d 3e
       1.1322422 0.96825016 0.88272935 0.21593566
000050 3c cc 07 3e af 40 9b 3f 6f c8 8e 3f 3e f4 9a 3f
       0.13261503 1.2129115 1.1154917 1.2105787
000060 83 53 f2 bd 8c 5c 00 3f d2 77 14 40 34 64 e6 be
       -0.11832335 0.50141215 2.3198133 -0.44998324
000070 e4 db bc 3f 0d e6 fb 3e 83 c3 06 40 df 38 51 bf
       1.4754605 0.49198952 2.105683 -0.81727403
000080 7e 9f 5a 3f b8 8a 55 40 40 81 ba 3f 17 2e dc 3e
       0.85399616 3.3365917 1.4570694 0.43003914
000090 e8 4a b8 3f 3e e4 cd 3e a4 07 27 40 7f a3 8c 3f
       1.439786 0.40213197 2.6098413 1.0987395
0000a0 6d 11 1b 3f 9e e1 85 3f 0b 53 67 3e f8 12 33 3f
       0.60573465 1.0459478 0.22590272 0.6995082
0000b0 c3 6f 96 3f 79 1d 0a bf 17 9c cf 3e c9 5e e7 3e
       1.1752857 -0.5395122 0.40548775 0.45189503
0000c0 fd 4c f1 3f 17 35 9b be ba a8 de 3f ce d6 20 40
       1.885162 -0.30313942 1.7395241 2.5131106
0000d0 b4 9e 75 3e 77 98 e6 3e 3f ba 0d be 23 71 29 be
       0.23986322 0.45038196 -0.13840578 -0.16547064
0000e0 98 99 01 3e a1 1d 1f bf 9a 6e b1 3f 7d 85 18 3f
       0.12656248 -0.62154585 1.3861878 0.59578687
0000f0 fc b8 f8 3f c2 a7 1b 3f 3b 1a cf 3f
       1.9431453 0.60802853 1.617988

dnets.1.weights_rbf f4 [48, 63]
000000 7a 72 1e 3b 16 2d a8 3b 1f b5 ab 3a 18 1d 4a 3b
       0.002417712 0.005132328 0.0013100243 0.0030840095
000010 62 44 f8 3b 4d 72 02 3c b9 11 e7 3c ff cb 05 3d
       0.0075765112 0.007961822 0.028206693 0.03266525
000020 cd 37 04 3b 2a 94 d9 bb 17 ae 41 3b 7e aa 88 3c
       0.0020174861 -0.006639977 0.0029553229 0.01668286
000030 06 d2 b2 3c b3 93 a1 3b 86 3e 31 3a 2a bd 32 3b
       0.021828663 0.004930937 0.0006761331 0.0027273395
000040 15 36 89 bb 60 a2 1e bc 4e 31 3e 3c 0e 2f 58 3d
       -0.0041873553 -0.009682268 0.011608435 0.05277925
000050 52 74 74 bb 23 18 b0 bb d6 6c 93 3a 24 41 44 3c
       -0.0037300778 -0.005373971 0.0011247646 0.011978421
000060 f6 15 82 3c 4b 26 25 3c 53 9b 0b 3b 90 03 f6 3c
       0.015879612 0.010079931 0.0021302297 0.030030996
000070 d2 20 af 3b 27 5a 1e 3b 4a 5d 99 3b c3 6e 76 bd
       0.0053444887 0.0024162622 0.0046803104 -0.060164224
000080 3c 07 3f 3c 00 95 95 3a 2d bb 55 3c 6c fe 32 3c
       0.01165944 0.0011412203 0.013045114 0.010924917
000090 50 01 f4 ba 5c 3c 5e 3c b0 fa 03 3a 0a b6 8b 3a
       -0.0018616114 0.0135641955 0.0005034609 0.001065911
0000a0 f9 07 92 bd 90 7c ba bb a1 2f 14 3b f8 dc 15 3d
       -0.07130427 -0.0056911185 0.0022611397 0.036587685
0000b0 a8 6d dd bb 18 fd 52 bd 2f 4f cc bd 84 92 80 ba
       -0.006757457 -0.0515109 -0.099760406 -0.000980929
0000c0 08 52 28 3b 8c a2 c6 bc d1 05 c5 3a a5 2c e2 39
       0.002568366 -0.02424743 0.0015031641 0.00043139342
0000d0 92 dd d8 3c 80 24 f7 3c 8d 68 01 3e 17 a8 ae 3c
       0.02647284 0.030168772 0.12637539 0.021320386
0000e0 a5 ca b0 bc 29 e5 08 bb d7 19 69 3b 52 8f 28 bc
       -0.021581003 -0.0020888543 0.003556838 -0.0102880765
0000f0 69 33 88 3a d7 85 b1 bc 35 db 2e 3b a4 c0 11 3a
       0.0010391298 -0.021670265 0.002668095 0.0005560017
000100 61 fd 6f 3b 36 3d 87 3c d6 10 47 3a b0 f2 df 3b
       0.0036619531 0.01650868 0.00075937563 0.0068343505
000110 0a e4 de 3b 0d 3f 08 3c 04 52 1d ba 7f 3e 5f 39
       0.0068020867 0.008315814 -0.0006001296 0.00021290219
000120 60 5b 48 bc e3 9c 11 3b cb d9 66 3c 9f 85 87 3c
       -0.012228817 0.0022218756 0.014090012 0.016543208
000130 18 8a b0 3b 13 fe 13 bb 7b b5 12 3b 22 13 be bb
       0.005387556 -0.002258186 0.0022386003 -0.0058006207
000140 23 67 80 bc 89 d1 28 3c 81 fc 5d bd 97 66 ce 3c
       -0.01567418 0.010303863 -0.054195885 0.025195403
000150 88 53 09 bc f7 f5 0d 3a f2 aa 2c 3c 25 08 82 3c
       -0.008381732 0.0005415375 0.010538803 0.015873024
000160 d2 ae 3a 3c ad 13 4c b9 63 d2 c3 3c 90 b7 97 3b
       0.0113942195 -0.00019462286 0.023904031 0.0046300367
000170 51 15 e3 3b 87 f5 4d 3b eb 4c a2 bd f8 19 29 3c
       0.0069300313 0.0031426863 -0.07924827 0.010321133
000180 d0 8f f2 ba 63 cd 44 3c e3 7a 28 3c cf f7 5c bb
       -0.0018505994 0.012011859 0.010283205 -0.0033717041
000190 8d b5 75 3c 1c cc 22 bb 71 48 0e 3a 41 59 b8 bd
       0.014996898 -0.0024840897 0.0005427665 -0.09001399
0001a0 7a 11 00 bc ab 97 88 3c b7 db 0c b8 57 36 36 bc
       -0.007816667 0.016673883 -3.3583226e-05 -0.011121354
0001b0 e6 aa f1 bd e5 e2 db bd 1c eb bc 3b 62 71 35 3a
       -0.118001744 -0.10736636 0.005765332 0.00069214974
0001c0 04 c5 b7 bc c9 4c 0e ba 8a 38 26 bb 75 a9 a5 bc
       -0.022432812 -0.0005428312 -0.002536329 -0.020222405
0001d0 57 96 cd 3c 04 65 0f 3e 70 22 87 3c a5 8a 38 bd
       0.025096102 0.14003378 0.016495913 -0.045054097
0001e0 0d e9 d7 3a 0d 7e 2f 3b f8 8d 16 bc 34 d6 ac ba
       0.0016472653 0.0026778013 -0.009189121 -0.0013186396
0001f0 5c 2c ec bc c9 e7 91 3a e1 cb de b9 f6 64 3a 3a
       -0.028829746 0.00111317 -0.0004249504 0.0007110381
000200 2a f8 bd ba b1 07 2d b9 12 1f b1 3a 2c a0 cb 3a
       -0.0014493514 -0.00016501431 0.0013513288 0.0015535406
000210 e0 b3 43 3c 56 46 64 3c e4 6a 12 ba 75 ea 2d bb
       0.011944741 0.013932785 -0.0005585386 -0.0026537452
000220 6d d5 e5 b8 a4 50 f1 3b 93 d9 89 3c 00 99 2e 3a
       -0.000109593246 0.0073643494 0.01682738 0.0006660372
000230 22 19 98 ba 59 21 31 b9 ee 28 01 bb f2 eb 63 bb
       -0.001160417 -0.00016892458 -0.0019708234 -0.0034778086
000240 eb 90 63 3a 57 14 fb 3c bd 4a 1f ba 8a 36 20 bb
       0.0008680957 0.030649347 -0.00060765055 -0.002444657
000250 47 1e c9 b9 a1 59 f7 3a 21 08 82 3c 19 c5 d2 39
       -0.00038360266 0.0018871316 0.015873017 0.0004020117
000260 55 56 1c ba fd 45 0a 3d 28 fd 4d 3a a5 8c 33 37
       -0.0005963792 0.033758152 0.00078578526 1.0701978e-05
000270 5c 25 0c 3a b3 2a 47 bd 78 bb 4d 3a 36 4c 8b ba
       0.0005346143 -0.048624706 0.00078480644 -0.0010627571
000280 fd 22 80 3b 8c 27 c0 b9 07 28 bd ba 4a 28 95 3c
       0.003910421 -0.00036650558 -0.0014431485 0.018207688
000290 77 0e a0 ba b3 0b c7 b9 f7 3e 64 bd 07 67 1b bb
       -0.0012211342 -0.00037964954 -0.05572411 -0.0023712532
0002a0 a0 4a 70 bb 41 28 a1 3c 63 dd 2f bb 1f ee 84 bd
       -0.0036665574 0.019672515 -0.0026834838 -0.064907305
0002b0 37 b0 87 bd 36 54 71 3a 04 80 be b9 18 c9 d9 bb
       -0.06625407 0.0009205969 -0.00036335003 -0.0066462867
0002c0 74 89 38 ba cf d8 a1 ba 1f 78 cd 3b 1e 66 17 3d
       -0.0007039525 -0.0012347939 0.006270423 0.03696262
0002d0 de e8 d8 3d a5 c7 87 3c 10 c7 d8 3c 50 98 05 39
       0.10591291 0.01657469 0.026462108 0.00012740609
0002e0 93 52 fb 38 34 aa 1f bb 78 a4 69 ba e6 12 2f bc
       0.00011983993 -0.0024362924 -0.00089127524 -0.010685658
0002f0 68 e9 98 b9 0f 01 be 37 b0 3b ec 3a f5 a4 19 3c
       -0.000291656 2.2650258e-05 0.0018023159 0.009377708
000300 27 65 b2 b8 27 fa 89 3b 00 d8 87 3b 61 9b 28 3c
       -8.5065425e-05 0.0042107287 0.0041456223 0.0102909515
000310 2e f7 24 3c 74 96 f0 b8 4d 11 dd bb a1 32 a2 3a
       0.010068698 -0.00011472116 -0.006746447 0.0012374708
000320 29 11 01 3c f8 10 82 3c a6 b0 56 3b 25 12 e9 ba
       0.007877626 0.015877232 0.00327591 -0.0017781897
000330 91 c5 ad 3a 67 bc 54 bb b8 b9 08 bc a9 34 06 3c
       0.0013257732 -0.003246093 -0.00834506 0.008191266
000340 b5 df a3 3d d9 4b c5 3b bc e0 9a bb be c6 b8 39
       0.08001653 0.0060210046 -0.0047264975 0.0003524329
000350 c3 61 f5 3b 21 08 82 3c d5 04 13 3c 94 7e 08 ba
       0.0074884607 0.015873017 0.00897332 -0.000520685
000360 3e 6b 8e 3c 85 d4 26 3b ff 47 ac 3b a0 4d bf 3a
       0.017385121 0.0025456261 0.005257606 0.0014595278
000370 2e 6f 24 bd db 0e 08 3c d8 29 cd ba 62 3e ed 3b
       -0.04014509 0.008304323 -0.0015652729 0.0072401026
000380 e5 dc 18 3c 0b 43 07 bb 87 24 c0 bd cf e7 f9 ba
       0.009330009 -0.0020639326 -0.09381967 -0.0019066277
000390 0d cf c1 39 7d c8 29 bd d9 da 8c bb 2f 0f 00 3c
       0.00036966093 -0.041450966 -0.0042985496 0.00781612
0003a0 05 68 0c 3c ff 9c c9 bb ba 7c b5 bd 76 fb 1c bd
       0.008569722 -0.0061527486 -0.0886168 -0.03832575
0003b0 56 96 97 3b ac bd 9c 38 52 b4 2a bc 53 ac 1d ba
       0.0046260757 7.473989e-05 -0.010418968 -0.0006014753
0003c0 8f 2d fc ba 5a 68 4b 3c fe 4e 8c 3c c4 10 27 3e
       -0.0019239652 0.012415016 0.01712751 0.1631499
0003d0 2e 08 82 3c 48 ab eb bb ea 6b e5 3a 0d a9 b8 3a
       0.015873041 -0.007192049 0.0017503474 0.0014088467
0003e0 fe b7 8b bb ca 54 91 ba 89 93 61 bc 00 50 d4 39
       -0.004263877 -0.0011087891 -0.013768085 0.00040495396
0003f0 eb da ac 39 06 c4 01 3b e1 e2 07 3c ed f3 cc 39
       0.00032969503 0.0019800677 0.008293838 0.0003909165

dnets.1.conv.weight f4 [48, 3, 7, 7]
000000 bc 14 12 3d b0 43 23 3d 4d 03 04 bd 50 d4 c0 bc
       0.035664305 0.039859474 -0.03222971 -0.023538738
000010 6d a9 2d bc f3 5d 56 bd 7f 65 bd 3c 95 f9 87 3d
       -0.010599476 -0.05233569 0.023119686 0.06639401
000020 9a 44 82 3d 07 86 08 bd 53 d0 7b 3c 61 4f be 3d
       0.06360741 -0.033330943 0.015369493 0.09292484
000030 47 78 89 bc bd 36 53 bd 39 e3 dc 3c f2 8b 98 3c
       -0.016780986 -0.051565874 0.026963817 0.018621419
000040 cf 47 88 bd 62 ce 3e bd c8 4f 2b bd a7 29 bd 3c
       -0.066543214 -0.04658354 -0.041824132 0.02309115
000050 cc 21 72 bd b2 5c 2e bd d0 3c a4 bc 98 d8 db 3c
       -0.059114262 -0.04256887 -0.020048529 0.026836678
000060 5c a8 83 3b 03 38 2b bd 05 5a b0 bd 13 76 0b 3d
       0.0040178727 -0.041801464 -0.0861092 0.03404815
000070 7f 28 96 bd 3a a2 6a 3c b7 5e 97 3d 48 e9 93 bc
       -0.07331943 0.014320904 0.07391112 -0.018055573
000080 35 56 c4 3c 3b 33 6d 3c 8c 89 4c bb 4c 9c ae 3d
       0.023966888 0.014477546 -0.0031209914 0.08525905
000090 93 a6 ac 3c d9 ad f5 3b 35 2a a9 bd c1 ab a0 ba
       0.021075523 0.007497531 -0.082600035 -0.0012258218
0000a0 68 69 80 3d 94 7a 4a 3d 89 d8 0e bd 85 94 31 3d
       0.06270105 0.049433306 -0.034874473 0.04335453
0000b0 63 97 23 3d 53 b8 ab bd 8e 50 92 3d 36 66 40 bb
       0.039939296 -0.083847664 0.07144271 -0.0029357797
0000c0 e7 45 45 bd d6 48 e1 bb cf ef 4c 3d 66 e3 b2 bd
       -0.048162367 -0.006875138 0.050033387 -0.08734779
0000d0 df d5 0c bd a5 02 c7 3d 66 b8 02 bc 15 9a ff bc
       -0.03438365 0.09717301 -0.007978534 -0.031201402
0000e0 da 7b 57 bd 93 58 83 bd 7e 45 6d 3d 8e 13 00 bd
       -0.05260835 -0.064133786 0.0579276 -0.03126865
0000f0 f8 61 9e 3d e8 64 fc 3b 78 ba b5 bd 9f d0 0f 3d
       0.0773353 0.0077024586 -0.08873457 0.035111066
000100 07 52 7e bd c5 ec 52 3d 7e b1 b5 ba 35 5c 0a 3d
       -0.062089946 0.051495332 -0.0013862101 0.03377934
000110 15 e4 1d 3d 24 e4 a2 3c e5 dd b0 3b 4f 71 bb 3c
       0.038547594 0.019884177 0.0053975456 0.022881178
000120 05 6a e5 3c ac ae 46 bd ea 5e 22 3d b9 96 3c 3c
       0.028004656 -0.048506424 0.0396413 0.011510544
000130 db 97 47 3c 19 5b 1f bd 43 89 15 bd e9 58 66 3d
       0.012182201 -0.038905237 -0.036507856 0.056237135
000140 68 c5 5f 3d 13 ff 7d bd b3 fe a7 3c 1f 11 02 bd
       0.05463162 -0.062010836 0.020507192 -0.03175461
000150 d0 27 6e 3d 92 5d 61 3d de b7 94 bd 43 a7 3a bd
       0.058143437 0.055020876 -0.072616324 -0.04556967
000160 43 f8 1e 3b c0 22 82 3d b4 70 0b bd a4 bc 79 bc
       0.0024256862 0.06354284 -0.03404303 -0.015242729
000170 06 c7 6e bc 7a 58 0d bd c1 82 1c bd 29 f3 8b 3d
       -0.014573818 -0.034508206 -0.038210634 0.068334885
000180 76 fa 92 3b 6f cf f4 bc 90 89 54 3d 1a 20 8a bd
       0.0044854237 -0.029884068 0.051889002 -0.06744404
000190 de fe be bc 35 fd ba bd 14 8d 2e bd 5d 8c 58 bd
       -0.02331489 -0.09130327 -0.04261501 -0.052868236
0001a0 ed 17 57 bc f2 63 aa bd 2b b3 78 3d 93 c1 82 3d
       -0.013128263 -0.08319844 0.060717743 0.063845776
0001b0 19 07 a6 3d ef 61 ca bc 08 c5 13 3d 98 7e 43 3c
       0.081068225 -0.024704902 0.036076576 0.011932038
0001c0 54 06 df 3c 4a a5 13 3d 28 9a 1c 3d 99 c3 6d 3d
       0.027224697 0.036046304 0.038232952 0.058047865
0001d0 96 5a a7 3d bf ea e8 bc 67 f7 a5 3c 18 21 f8 bc
       0.08171575 -0.028432248 0.020259572 -0.030289218
0001e0 17 df 5e bd 9b 20 5e bd 90 90 af bd 4f e3 31 bc
       -0.054411974 -0.054230314 -0.08572495 -0.010857417
0001f0 4b 98 44 3d f8 34 b4 bd 9d b5 6a 3c 66 e0 d4 3c
       0.0479968 -0.087991655 0.014325527 0.025985908
000200 a6 b1 23 bd 91 d0 cc 3c 05 d3 12 3d 6a 62 2a bd
       -0.03996434 0.025001796 0.035845775 -0.04159776
000210 9a 08 44 3d b8 3d b7 3d f0 38 0b bd 0f d7 2b bd
       0.047859766 0.08947319 -0.033989847 -0.041953143
000220 72 6e 95 bc ac 47 e8 bc 4d 78 5b 3d ee 80 db bc
       -0.018241141 -0.028354488 0.053581525 -0.026794877
000230 9e 4d a1 3b e7 92 2a 3d e1 0d 4a 3c 6e 2e 8d 3d
       0.004922583 0.041644003 0.012332411 0.068936214
000240 c1 3e 94 3c 32 ad 3c 3c b2 3c a2 bd 5c c5 9d bc
       0.01809633 0.011515902 -0.07921733 -0.019259147
000250 be 11 7c 3d 35 04 8a 3c 5a fd 39 3d a7 b8 d7 bb
       0.061540358 0.01684771 0.04540763 -0.0065832916
000260 aa 88 5c 3d 39 06 49 bd 7d cc a4 bd 6a b5 11 3d
       0.05384127 -0.0490782 -0.080468155 0.0355734
000270 f1 07 3e 3c 52 d4 c0 3d ee 65 97 bd 04 ec b2 3d
       0.011598573 0.09415497 -0.073924884 0.08736423
000280 86 d2 52 bc e2 8c 2c 3d 5f 0b 6b 3d 1f f3 c8 bd
       -0.0128675755 0.042126544 0.05738389 -0.09811997
000290 c2 e0 28 bb a1 ac 89 3d c5 a4 98 bd 65 0d 5b bd
       -0.0025768732 0.067223795 -0.07453302 -0.05347957
0002a0 30 fe 57 bc 0b 94 b5 bd 02 1c 9c 3d 44 f1 e9 bd
       -0.013183162 -0.088661276 0.076225296 -0.11422971
0002b0 14 7c 76 bd 77 43 1e 3d 2f 21 e4 3d c7 01 d0 bb
       -0.060176924 0.03863856 0.11139142 -0.006347868
0002c0 d2 83 4b bd 13 5f d6 3d 7d 6a 25 3d d9 c1 53 3d
       -0.04968626 0.10467353 0.04038476 0.05169854
0002d0 2a d6 6c bd 02 4c 75 3c f1 36 3f bd 54 a0 72 bd
       -0.05782143 0.014971735 -0.046683256 -0.059234932
0002e0 bf d0 6b 3c 24 c8 a4 3d 20 38 99 bc 78 5e 8c 3d
       0.014393031 0.08045986 -0.01870352 0.06853956
0002f0 ee f0 72 3d 3d a4 00 3b 9b b3 a0 bd 9f 74 54 bd
       0.0593118 0.0019629144 -0.07846757 -0.05186903
000300 e8 f1 1a 3d b2 a6 b1 bd 9d cc 77 bd c4 86 ee 3b
       0.037828356 -0.08674373 -0.06049787 0.007279249
000310 57 5d 57 bd 27 7d 27 bc f4 04 04 3d 35 d3 0c bc
       -0.05257925 -0.01022271 0.032231286 -0.008595278
000320 d3 aa 69 bc c7 2b ac bd 4a bd 01 3d 35 e2 86 3d
       -0.014261919 -0.08406787 0.03167466 0.06586114
000330 91 73 c0 3c 76 0f 44 bd 97 46 b8 bd 99 5e 53 bd
       0.023492606 -0.047866307 -0.08997839 -0.051603887
000340 7f 69 c2 bc f4 3c 3c 3d 97 3d c4 bb 1d d1 58 bd
       -0.023731945 0.045956567 -0.0059887874 -0.0529338
000350 f1 af 05 3d a5 97 21 bd c7 68 af 3d b2 79 77 bd
       0.032638494 -0.03945126 0.085649066 -0.060418792
000360 4c 28 a3 3d da 5d e7 3b 19 2b c3 3d 25 17 39 3d
       0.079666704 0.0070607485 0.095297046 0.045188088
000370 ee 08 60 3d 39 30 bf bc c8 6d d9 3c 9d 57 95 bd
       0.054696016 -0.023338424 0.026541606 -0.072921015
000380 49 04 7a 3d b2 b3 9b 3c 41 f1 de bc 7c 8d a2 bd
       0.061039243 0.019006584 -0.027214648 -0.07937142
000390 09 bd 9b 3d ad a4 c2 bd 9a 79 79 bd ed 51 23 bd
       0.07604415 -0.09504066 -0.060906984 -0.039873052
0003a0 69 95 01 bd 3b a7 04 3d 03 00 1c bd 6b 12 3c 3d
       -0.03163663 0.032386046 -0.03808595 0.045916002
0003b0 c6 9b 9e 3d 46 f3 17 bd ba e7 8c 3d f8 0c ed 3c
       0.07744555 -0.037097238 0.06880136 0.028936848
0003c0 4c d8 0f bd 2f 67 95 3d 15 0c 41 3d 30 44 2e bd
       -0.035118386 0.07295071 0.047130663 -0.042545497
0003d0 cb 9a 9d bc 15 1b 3f 3d d8 cf d2 3c 39 10 8b bd
       -0.01923885 0.046656687 0.025733873 -0.067902036
0003e0 85 29 67 3b 55 c5 8a bd 90 6b a2 3c ab 02 f0 3c
       0.003527255 -0.06775919 0.01982668 0.029298147
0003f0 aa d9 77 bd d9 ec 1b 3d fc e5 9a 3d cf 72 87 3d
       -0.060510315 0.038067672 0.07563397 0.06613695

dnets.2.means f4 [63]
000000 33 a7 35 3f bb 1a f9 3f 90 c6 48 3e 47 3b fd 3f
       0.7095825 1.9461282 0.19606996 1.9783715
000010 44 c9 de 3f 4b 4e 15 40 ce fa df 3f fc 08 a3 3f
       1.7405171 2.3329036 1.7498415 1.2737117
000020 f9 8f f4 3e e5 7f d3 bf 7f 66 0b 3f af 95 74 40
       0.47766092 -1.6523405 0.5445327 3.821636
000030 5d 1b b7 3f d6 0c 37 3f 30 94 c7 be b4 8a e3 3e
       1.4305226 0.7150396 -0.38980246 0.4444176
000040 64 1a 26 bf 5a aa 99 bf 93 8d b8 3f 12 a3 24 3f
       -0.6488402 -1.2005112 1.4418205 0.64311326
000050 95 85 de 3d 53 6e 80 bf ae 28 f2 3d ad 6b 05 40
       0.108653225 -1.0033668 0.11824165 2.084697
000060 12 71 be 3f b4 98 26 3f 23 6c 50 3f aa a7 ea 3f
       1.4878256 0.65076756 0.81415004 1.8332417
000070 27 98 9e 3f a7 80 4d 3e c8 58 e5 3f e4 86 fe bf
       1.2390183 0.20068608 1.7917719 -1.9884915
000080 38 41 b2 3f 58 e5 6f 3d 3e 1a 29 40 b0 bd 1f 3f
       1.3926153 0.05856833 2.6422267 0.62398815
000090 ba 58 ea be 14 5b b1 bf 95 64 07 bf 56 02 de 3d
       -0.45770818 -1.385592 -0.5288785 0.10840289
0000a0 a4 28 9e bf 83 a1 44 bf 89 99 8a 3e c8 c2 0e 40
       -1.2356153 -0.7680895 0.27070263 2.2306385
0000b0 58 75 9f bf 2d 0f d4 bf c8 c9 29 bf 3a 4b 33 3d
       -1.2457685 -1.6567131 -0.6632352 0.043772914
0000c0 8d 39 4d 3f 96 f4 b3 be b4 b5 8d 3e a6 c6 08 bf
       0.8016594 -0.35147542 0.2767769 -0.53428113
0000d0 ae d8 04 3f ff 04 db 3f cb 9d 93 3e 39 34 86 3f
       0.51893127 1.71109 0.28831324 1.0484687
0000e0 6d 2e 08 3e b5 12 44 bd 6c a3 42 3f 6f 73 e9 be
       0.1329896 -0.047869403 0.7603061 -0.4559588
0000f0 9d d2 55 3d a3 9c 4d bf cc bc 30 3f
       0.05220281 -0.80317134 0.6903808

dnets.2.std f4 [63]
000000 cd 65 e7 3f 94 73 05 40 83 56 83 3e 0a 50 48 40
       1.8077942 2.0851793 0.2565194 3.1298852
000010 1e 65 b9 3f 5a 63 de 3f 8c af 3a 3f 42 d3 09 3f
       1.4483984 1.737407 0.72924113 0.5383798
000020 45 64 cf 3f d5 41 aa 3f 1a 8f 9e 3f 05 7e d7 3f
       1.6202475 1.330134 1.2387421 1.6835333
000030 3c af 8d 3e ae aa 84 3f 84 3a 29 40 83 9f 90 3f
       0.27672756 1.0364587 2.6441965 1.1298679
000040 50 ed 90 3f 3e df 77 3f 8d fa 61 3f 3d 1e 5d 3e
       1.1322422 0.96825016 0.88272935 0.21593566
000050 3c cc 07 3e af 40 9b 3f 6f c8 8e 3f 3e f4 9a 3f
       0.13261503 1.2129115 1.1154917 1.2105787
000060 83 53 f2 bd 8c 5c 00 3f d2 77 14 40 34 64 e6 be
       -0.11832335 0.50141215 2.3198133 -0.44998324
000070 e4 db bc 3f 0d e6 fb 3e 83 c3 06 40 df 38 51 bf
       1.4754605 0.49198952 2.105683 -0.81727403
000080 7e 9f 5a 3f b8 8a 55 40 40 81 ba 3f 17 2e dc 3e
       0.85399616 3.3365917 1.4570694 0.43003914
000090 e8 4a b8 3f 3e e4 cd 3e a4 07 27 40 7f a3 8c 3f
       1.439786 0.40213197 2.6098413 1.0987395
0000a0 6d 11 1b 3f 9e e1 85 3f 0b 53 67 3e f8 12 33 3f
       0.60573465 1.0459478 0.22590272 0.6995082
0000b0 c3 6f 96 3f 79 1d 0a bf 17 9c cf 3e c9 5e e7 3e
       1.1752857 -0.5395122 0.40548775 0.45189503
0000c0 fd 4c f1 3f 17 35 9b be ba a8 de 3f ce d6 20 40
       1.885162 -0.30313942 1.7395241 2.5131106
0000d0 b4 9e 75 3e 77 98 e6 3e 3f ba 0d be 23 71 29 be
       0.23986322 0.45038196 -0.13840578 -0.16547064
0000e0 98 99 01 3e a1 1d 1f bf 9a 6e b1 3f 7d 85 18 3f
       0.12656248 -0.62154585 1.3861878 0.59578687
0000f0 fc b8 f8 3f c2 a7 1b 3f 3b 1a cf 3f
       1.9431453 0.60802853 1.617988

dnets.2.weights_rbf f4 [48, 63]
000000 fb 58 b4 ba d8 c6 e6 39 da 24 8b 3b 3b 17 9a ba
       -0.0013759428 0.0004401717 0.0042463364 -0.0011756191
000010 82 93 25 3b 09 a1 2e 3b 9e f0 98 3c 7f 69 86 3c
       0.0025264923 0.0026646277 0.018669423 0.016407726
000020 09 5b c3 ba d7 2a 6a bb 6c 42 0b ba b3 3a 38 3c
       -0.001490445 -0.00357311 -0.0005312327 0.011244464
000030 70 71 9a 3c ab e4 a5 3a 07 e6 19 bb b6 06 01 ba
       0.01885292 0.0012656649 -0.0023483054 -0.00049219595
000040 b1 bc 1e bb 67 9a 5d bb 27 59 cc 3b b4 02 e1 bc
       -0.0024221356 -0.0033813955 0.0062362137 -0.02746711
000050 67 70 59 3b 4a 68 49 bb 77 e7 4d ba 26 01 cf 3b
       0.003317857 -0.0030732327 -0.00078546203 0.0063172756
000060 21 08 82 3c a5 ea 01 3c b7 e3 e0 ba c3 2e ec 3c
       0.015873017 0.007929479 -0.0017157708 0.028830891
000070 fe 60 6b 3a 02 38 c1 3a bc 03 de 38 fd c2 e1 bb
       0.00089789915 0.0014741423 0.000105864805 -0.0068896995
000080 39 9b cf 3b 9c fd 19 bb 79 5f 01 3c b0 ef 15 3c
       0.0063356427 -0.002349711 0.007896298 0.009151384
000090 aa 7c 13 bb c1 b5 57 3c 38 91 1d bb f7 e0 46 ba
       -0.0022504725 0.013165892 -0.0024042856 -0.0007586623
0000a0 ba 07 0e bc cd 3e 2d bb b9 43 13 3c a4 23 64 3c
       -0.008668834 -0.0026435137 0.008988314 0.013924513
0000b0 da de 57 bb 8f 2b fe 3b 25 5a 75 bc 75 16 2d 3b
       -0.0032939226 0.0077566574 -0.014975105 0.002641109
0000c0 1f 70 ab ba dd 51 f8 3b e3 25 de ba 48 ad 1d bb
       -0.0013079679 0.0075781182 -0.0016948547 -0.0024059583
0000d0 5f f4 4a 3c 83 c3 de 3c 15 25 2a bd 23 71 be 3c
       0.012387364 0.027192837 -0.04153927 0.023247307
0000e0 ee 71 b5 3c 23 64 86 3a 5a 8e 9c b9 b1 87 ec b8
       0.022149052 0.0010253232 -0.000298607 -0.000112786314
0000f0 b7 6b ff ba 1a 3c a1 bb 97 26 91 ba 22 95 33 3b
       -0.0019487058 -0.0049204947 -0.0011074123 0.0027402123
000100 95 aa 19 3c c2 69 16 3c b3 36 85 3b f1 5f 83 3c
       0.009379049 0.009180488 0.0040653585 0.01603696
000110 9c 40 86 3c 2a ac 82 3d f0 d6 8a 3d e1 39 f6 3a
       0.01638823 0.06380494 0.06779277 0.001878556
000120 b0 7d 9f bc 80 f3 97 3b 59 d7 1a 3d 38 e3 31 3d
       -0.019469112 0.0046371818 0.037803028 0.043429583
000130 de 67 27 3c b3 88 c1 ba db d3 8b 3b 4c 5c 2b bc
       0.010217635 -0.0014765471 0.0042671985 -0.010459017
000140 2d 8d d3 bc 8d 56 df 3c 82 3b 99 3d 0f 91 fa ba
       -0.025824154 0.02726295 0.07482053 -0.0019116717
000150 2e 2f 67 bc 9f cc 56 3a 23 f7 dd 3c f4 bb 97 3c
       -0.01411037 0.0008193943 0.027095383 0.01852224
000160 4d 74 e0 3c 82 dd f4 3a 3d 98 7b 3d 4e 1a 2b 3c
       0.027399207 0.0018681737 0.061424483 0.010443283
000170 c6 37 b6 3b 76 72 07 3c 34 ee f0 bd 29 71 e1 3c
       0.005560848 0.008267036 -0.11764184 0.02751978
000180 52 30 1b ba 9b 8d ef 3c 97 9c f7 3c c4 a0 b7 bb
       -0.0005919981 0.029242327 0.030226035 -0.0056038816
000190 9d fc 41 3a 54 f8 f3 ba 34 11 3f 3a ae fb 04 be
       0.0007400008 -0.0018613436 0.0007288635 -0.12986633
0001a0 05 d5 64 bc a0 a7 9a 3c 0f 75 a0 3d ec 52 96 bc
       -0.013966803 0.018878758 0.07834827 -0.018350087
0001b0 c1 0e 2d be e6 ab 13 be fb 49 6d 3a 37 23 4a 3b
       -0.1690016 -0.14421043 0.00090518565 0.0030843744
0001c0 fa c3 4d bd c0 c0 34 3a 18 4a 03 bb 60 5e 42 3d
       -0.050235726 0.0006895177 -0.0020033177 0.047453284
0001d0 c6 4b 80 3d 13 1b 15 3d 64 5e 3a 3d 23 e4 36 3d
       0.06264453 0.036402773 0.045500174 0.044651162
0001e0 7e cf 29 bb c8 52 c3 3b 26 56 ad bc a0 0c e4 b9
       -0.0025911028 0.005960796 -0.021159243 -0.00043496955
0001f0 bd 26 4a bd af f5 63 3b ad 5c e7 3a c6 33 db 3b
       -0.04935335 0.003478389 0.0017651521 0.0066895215
000200 3e 0c 16 3b 6e c3 37 3b 49 2f 3d 3c 50 be 42 3c
       0.002289548 0.002804007 0.011546918 0.011886194
000210 ee ac 61 3d d9 21 76 3d 70 72 94 3a ca 25 47 bc
       0.05509656 0.060090873 0.0011325609 -0.012155006
000220 22 38 47 3b 29 22 fb 3c 76 df 24 3d 9b 45 e7 3b
       0.0030398448 0.030655937 0.04025217 0.007057858
000230 21 18 99 ba 6f eb 32 3b f4 8a d6 bb d7 90 82 bc
       -0.0011680165 0.0027300974 -0.006547326 -0.015938206
000240 9e 60 a3 3c 87 ee 2c 3d 48 e1 2f bc aa a1 11 bc
       0.019943532 0.042219665 -0.010734864 -0.008888641
000250 ce 49 e8 39 f0 fb a4 3c d1 a8 85 3c 50 13 a1 3c
       0.00044305477 0.020139664 0.01631585 0.01966253
000260 3f 5f 98 3a 75 14 9d 3d f2 5b f2 3b 15 7a 2c 3b
       0.0011625065 0.076699175 0.0073962146 0.0026317884
000270 ba 2a c0 3b 0d ec 96 bd fb d8 a4 3c d5 88 16 ba
       0.0058644684 -0.07369242 0.020122996 -0.00057424355
000280 0c dd b9 3c ca a8 b3 3c b6 44 60 bb 78 a7 91 3c
       0.022688411 0.02193107 -0.0034220642 0.01778005
000290 c1 c5 bb ba ce f9 c7 39 df b2 ae bd 2c 3b 0f bc
       -0.0014325903 0.00038142357 -0.08530211 -0.008742135
0002a0 97 e5 1c 3c 49 83 9c 3d 89 81 3b bc 4f 0a 5a bd
       0.009576223 0.07642228 -0.011444458 -0.053232487
0002b0 94 04 cd bd d0 21 49 b8 06 89 04 3b b6 ab e2 bc
       -0.10010639 -4.7953625e-05 0.0020223274 -0.027669769
0002c0 48 9d af 39 79 76 c8 ba 54 9e 18 3d fc 55 a6 3d
       0.00033495785 -0.0015294097 0.03726037 0.08121869
0002d0 db d8 90 3a d6 cc 20 3d 38 23 fb 3c a2 3c f6 ba
       0.0011050956 0.039257847 0.030656442 -0.001878638
0002e0 c6 d9 84 3b a9 96 4e bc b4 ac e2 b9 a0 35 00 bd
       0.004054281 -0.012609162 -0.00043234753 -0.03130114
0002f0 2e 7d 15 3b a1 a9 b4 b9 ae 33 4e 3b ee f5 cf 3b
       0.0022810209 -0.0003445866 0.003146391 0.006346456
000300 47 ab 1f 39 00 65 dd 3b bb 1b dc 3b b6 d0 1f 3d
       0.00015227227 0.006756425 0.006717173 0.0390174
000310 5b ee 29 3d df 5b 3e ba c7 f7 15 bc d8 25 83 3a
       0.04148708 -0.00072616147 -0.009153313 0.0010005785
000320 53 72 ad 3c 45 f5 21 3d d7 9a 8b 3b d7 46 31 bb
       0.021172678 0.039540548 0.0042604017 -0.002705028
000330 e0 71 6c 3a 6b b2 ae bb c1 bf 30 bc 9c 5a 4e 3c
       0.0009019654 -0.0053313277 -0.010787905 0.012594845
000340 d8 cd 29 bc b1 b7 4c 3b e1 e5 e6 bb 35 f2 df b9
       -0.010364018 0.0031237418 -0.0070464467 -0.00042714333
000350 e2 06 48 3c 00 27 82 3c a5 a1 6e 3c cb 5c 7a ba
       0.012208672 0.015887737 0.014564906 -0.00095505704
000360 19 3c aa 3d 38 63 82 3b 57 10 42 3b 25 e9 27 3b
       0.08312244 0.003979113 0.002961179 0.0025621143
000370 e0 99 7e bd bf 1e 51 3c ca 7a 1c bb 66 e3 6e 3c
       -0.062158465 0.012763678 -0.00238769 0.014580583
000380 9a a9 84 3c 1e 4f 6e bb 10 7a 85 bd 96 79 3d bb
       0.016194154 -0.0036363075 -0.06517422 -0.0028911582
000390 6c 44 e1 b9 f3 1f 89 bd ac 60 d8 bb 49 f5 42 3c
       -0.00042966323 -0.06695547 -0.006603321 0.011899301
0003a0 21 bb 59 3d 66 ee 0a bc 4c dc b8 bd 47 9f 94 bd
       0.053156976 -0.00847969 -0.09026393 -0.07256942
0003b0 ff 71 22 3b 37 ad 3b b9 59 b2 01 bc 40 c7 ab ba
       0.0024787185 -0.00017898237 -0.007916057 -0.0013105646
0003c0 c5 70 40 bb ae ac c6 3c 59 46 a5 3d b6 4b 65 bd
       -0.002936409 0.024252262 0.080700584 -0.055980407
0003d0 af de 1f 3d b2 7a 17 3d b1 ab e3 38 1f 6c d5 3a
       0.039030727 0.036982246 0.000108561835 0.0016282833
0003e0 03 51 d2 bb 12 f6 fc ba 66 d7 a7 bc 39 0a 0f 39
       -0.0064183488 -0.0019299409 -0.020488452 0.00013641351
0003f0 0e d0 87 3a c5 32 c3 3b dd 65 9a 3c c8 f8 b4 3a
       0.0010361688 0.00595698 0.0188474 0.0013807053
