models/SnP_joint5.pth (torch, 115607 bytes, 32 tensors)

dnets.0.means f4 [63]
0	0x3fa8bb8e	1.3182237
1	0x3f0b522a	0.5442225
2	0x3f5e42a1	0.8682042
3	0x3f343043	0.7038614
4	0xbebe26b7	-0.37138912
5	0xbfae78d7	-1.3630627
6	0x3f4d83d9	0.8027931
7	0xbf1d6cd3	-0.6149418
8	0x3f9b956b	1.2154974
9	0xbf45d607	-0.77279705
10	0x3fa4bd9a	1.2870362
11	0xbfd14c6f	-1.6351451
12	0xbdd8bc34	-0.10582772
13	0xbf77f5f4	-0.9685967
14	0x3fad05c7	1.3517388
15	0xbf5e0e6f	-0.86740774
16	0xbe87259d	-0.26395884
17	0x3fdaf317	1.7105435
18	0x3e938646	0.2881338
19	0x3fe5e761	1.7961236
20	0xbfee02d0	-1.8594608
21	0xbf5dddbc	-0.86666465
22	0x3f34caf2	0.7062217
23	0x3eb93415	0.36172548
24	0x3f5cb0db	0.8620736
25	0x3dc01f3f	0.0938096
26	0xc02de1c9	-2.7169058
27	0x3fdff2e4	1.7495999
28	0x3f516d9a	0.81807864
29	0xbfde543d	-1.7369457
30	0x3f108184	0.56447625
31	0x3e635a74	0.22202474
32	0xbf904748	-1.1271753
33	0x3f0a7ff0	0.5410147
34	0xbf88b058	-1.0678816
35	0xbfe37824	-1.7771039
36	0xbfd18be5	-1.6370817
37	0xbf387d3b	-0.72066087
38	0xbf769c54	-0.9633229
39	0x3e5c451d	0.2151074
40	0xbe30449f	-0.17213677
41	0xbdeb63ed	-0.11493669
42	0x3d53a9cf	0.051675614
43	0x3fa19921	1.2624856
44	0xbf84be04	-1.0370488
45	0xbf99c5a3	-1.2013439
46	0x3f8d1cf3	1.102446
47	0xbf32e7a2	-0.69884694
48	0x3f209127	0.62721485
49	0xbf081161	-0.5315152
50	0x3d874c40	0.066063404
51	0xbeabffed	-0.33593693
52	0xbf1189db	-0.56850976
53	0x3fbf657a	1.4952843
54	0x400c2860	2.1899643
55	0x3f88ee1d	1.0697666
56	0xbfd34d1b	-1.6507906
57	0x3e67c09b	0.22632067
58	0x3eacf772	0.33782536
59	0x3eb040ed	0.34424534
60	0xbedd0455	-0.43167368
61	0xbec9d943	-0.3942357
62	0xbf2df7b9	-0.6795612

dnets.0.std f4 [63]
0	0x3fa488ac	1.2854209
1	0xbe1c95a5	-0.1529146
2	0x3f36f24d	0.7146347
3	0xbed67001	-0.41882327
4	0x3f32686e	0.696906
5	0x3fa8525a	1.3150132
6	0xbe10ade8	-0.1412884
7	0x3fb36c4a	1.4017422
8	0x3f4d3159	0.80153424
9	0x3f63bcb6	0.88959825
10	0x3e03317a	0.12811843
11	0x3fb22093	1.3916191
12	0x3f9721db	1.1807207
13	0x3db05340	0.08609629
14	0x3fae391c	1.3611178
15	0x3fc7fc0f	1.5623797
16	0x3ed416d5	0.4142367
17	0x3f820d88	1.016038
18	0xbe4e92f6	-0.20173249
19	0x4027d180	2.6221619
20	0xbfdede0e	-1.7411516
21	0xbeead94a	-0.45868903
22	0x3f82768c	1.0192428
23	0x4031863d	2.7738183
24	0x3f0bdb37	0.5463137
25	0x3dd21010	0.1025697
26	0xbcc06790	-0.023486882
27	0x3f2de48d	0.67926866
28	0x3eced1d9	0.40394476
29	0x3fc0e1a3	1.5068859
30	0xbeb7cdbf	-0.3589916
31	0x3fa7ef29	1.3119861
32	0x3f8f55c2	1.1198046
33	0x3ea8ac1b	0.32943806
34	0xbe66f283	-0.22553448
35	0xbec79c62	-0.38986498
36	0xbed86626	-0.42265433
37	0x3e73eb7e	0.23820302
38	0x3f412741	0.7545052
39	0x3f96b22e	1.1773126
40	0x3f90a9db	1.1301836
41	0xbdf7a2c1	-0.1209159
42	0x3ff196a0	1.8874092
43	0x3fa5acee	1.2943399
44	0x3f08dc9a	0.5346161
45	0x3f1ce235	0.61282665
46	0x3f2db694	0.6785672
47	0x3f424058	0.7587943
48	0x3e8a689c	0.27032936
49	0x3fba3f57	1.455058
50	0x3f377066	0.7165588
51	0xbeb29be0	-0.34884548
52	0x3ef682d5	0.48146692
53	0x3f8606ab	1.0470785
54	0x40055a92	2.083653
55	0x3f241e91	0.6410914
56	0x3ff76a63	1.9329342
57	0x3e6db0e3	0.23212008
58	0x3e1d6e3f	0.15374087
59	0x3f5d45bb	0.86434525
60	0x401c19e7	2.439081
61	0xbe8d5373	-0.2760273
62	0xbfd9d76b	-1.7018865

dnets.0.weights_rbf f4 [24, 63]
0	0x3c715767	0.014730311
1	0x3cb5cad8	0.02219145
2	0x3cb47297	0.022027297
3	0x3cf9fbf3	0.030515647
4	0xbc34ac8a	-0.011027465
5	0xbc694c59	-0.014239394
6	0x3db1083c	0.08644149
7	0xbc14a75d	-0.009073106
8	0x3cdb2b83	0.026754146
9	0xbc71e763	-0.01476464
10	0x3ddb1ee4	0.10699251
11	0xbc8370ea	-0.016045053
12	0xbb971015	-0.0046100714
13	0xbdb34318	-0.087530315
14	0x3c617e4e	0.013763024
15	0xbc1d0cda	-0.009585584
16	0xbc3132ea	-0.0108153615
17	0x3d004d23	0.031323563
18	0x3cd5605f	0.02604693
19	0x3b9d57d8	0.0048017316
20	0xbc575779	-0.013143414
21	0xbdc47346	-0.09592299
22	0x3c1afee4	0.009460185
23	0xbaed0d14	-0.0018085563
24	0x3cfd9e51	0.03095928
25	0x3bed5570	0.007242851
26	0x3c820821	0.015873017
27	0x3d701574	0.05861421
28	0x3d006505	0.03134634
29	0xbc794903	-0.015215161
30	0x3d0001f1	0.03125185
31	0x38d82907	0.000103073246
32	0xbc74ebba	-0.01494878
33	0x3cffab4f	0.031209616
34	0xbe37bfae	-0.17944214
35	0x3c484e06	0.0122256335
36	0xbd6b076e	-0.057380132
37	0xbe6c8ec4	-0.23101336
38	0xbccfcf14	-0.025367297
39	0x3a0c58e2	0.0005353821
40	0xbbbd66a5	-0.0057800584
41	0xbaa9b414	-0.0012947344
42	0xbb23ff2d	-0.0025023923
43	0x3c6184bb	0.013764556
44	0xbda87f87	-0.08227449
45	0xbd919ca8	-0.07109958
46	0x3cfac5f9	0.030611979
47	0xbc843354	-0.016137756
48	0x3cef702d	0.029228294
49	0xbc0664e1	-0.008202762
50	0xba99f650	-0.001174638
51	0xbc81da8c	-0.015851282
52	0xbcff564b	-0.031169077
53	0x3cc465ed	0.023974383
54	0x3c4049de	0.011736361
55	0x3cff146f	0.031137673
56	0xbc2ab1f1	-0.010418401
57	0x3c57357e	0.013135312
58	0x3cbff55f	0.023432432
59	0x3b99856d	0.004685095
60	0xbb9c55f8	-0.0047709905
61	0xbda4890d	-0.08033953
62	0xbc028b6a	-0.007967809
63	0x3c4c23c5	0.0124597
64	0xbdf5c51e	-0.12000488
65	0x3c16204f	0.009162976
66	0xbc80c963	-0.015721029
67	0x3c554466	0.013016796
68	0x3c7c43f0	0.015397057
69	0xbbb9198d	-0.005648798
70	0x3c651678	0.013982408
71	0x3c057b14	0.00814702
72	0x3c5c46ca	0.013444612
73	0x3c82083a	0.015873063
74	0x3c837e0f	0.01605132
75	0x3c5b7e62	0.013396831
76	0x3c361bff	0.011115073
77	0x3c4e0657	0.012574754
78	0x3c6bb471	0.014386282
79	0x3c847f52	0.016173992
80	0x3c1a1085	0.009403353
81	0xbce84141	-0.028351428
82	0x3c5e6eaf	0.013576194
83	0x3c81c2a4	0.015839882
84	0x3b91d45e	0.004450365
85	0x3c4ef722	0.012632163
86	0x3c676036	0.01412206
87	0xbb1abe22	-0.0023611863
88	0xbc855e35	-0.016280273
89	0x3c820821	0.015873017
90	0xbcdce893	-0.026966369
91	0xbd07406a	-0.033020414
92	0x3c837c04	0.016050346
93	0xbc90c150	-0.017670304
94	0x3c5aa100	0.013344049
95	0x3c72f4c9	0.014828869
96	0xbcc965f3	-0.024584746
97	0x3d524609	0.051336322
98	0x3e47a2c3	0.19495682
99	0x3e4e0e39	0.20122613
100	0xbc3721cd	-0.011177492
101	0x3c53ff29	0.012939253
102	0x3c59907a	0.013279075
103	0x3c5b0100	0.013366938
104	0x3cdd0d33	0.026983833
105	0x3c63223a	0.013863141
106	0x3c4d4b09	0.012530097
107	0x3c415598	0.011800192
108	0x3c8c504c	0.017128132
109	0x3b63870e	0.003471795
110	0x3c516131	0.01277952
111	0xbd9e9f9c	-0.07745287
112	0x3c6474e6	0.013943886
113	0x3c64a230	0.013954684
114	0x3c817486	0.015802633
115	0x3c017ac0	0.007902801
116	0x3c341b5b	0.01099285
117	0x3c55859c	0.013032343
118	0x3a8318ab	0.0010001858
119	0x3c7abb7b	0.015303488
120	0xbc23744f	-0.009976461
121	0xbdc42a56	-0.095783874
122	0x3c57dc51	0.013175086
123	0x3c6b0fe6	0.014347052
124	0x3b9965ec	0.0046813395
125	0x3c699a28	0.014257945
126	0x3cb46241	0.022019507
127	0x3d317247	0.043321874
128	0x3ceed958	0.029156372
129	0x3d194416	0.037418447
130	0xbc6dc4cf	-0.014512255
131	0xbc965f10	-0.018355876
132	0x3e2b4588	0.16725743
133	0xbc03d833	-0.008047151
134	0x3d15d157	0.036576595
135	0xbcaa1d6a	-0.020765979
136	0x3e3f4d36	0.18681797
137	0xbcb34aad	-0.021886194
138	0xba728f38	-0.00092529086
139	0xbe4affb4	-0.19824106
140	0x3cabd0cb	0.020973584
141	0xbc10a5e8	-0.008828618
142	0xbc8b1e8d	-0.016982341
143	0x3d2e9189	0.042619262
144	0x3cae74c1	0.021295907
145	0x3c38ae21	0.011271984
146	0xbc7fe182	-0.01561773
147	0xbdfe8000	-0.12426758
148	0x3c8803aa	0.01660331
149	0x3b6bda93	0.0035988435
150	0x3d1f2919	0.038857553
151	0x3c2ecccd	0.0106689455
152	0x3c820821	0.015873017
153	0x3e0e0479	0.13868894
154	0x3d612efc	0.05497645
155	0xbca3f75c	-0.020015411
156	0x3cfb101a	0.030647326
157	0x3bb9def8	0.005672332
158	0xbca59947	-0.02021469
159	0x3cfcd463	0.030862993
160	0xbe80d785	-0.25164428
161	0x3a039039	0.0005018744
162	0xbe2e2e89	-0.17009939
163	0xbe50e2c9	-0.20399012
164	0xbd2aef75	-0.04173227
165	0x3bc99eac	0.0061529484
166	0xbb398d99	-0.0028313159
167	0x39def0dd	0.00042522597
168	0x3b22a3ac	0.0024816794
169	0x3cac029a	0.020997334
170	0xbde3b6b5	-0.11118833
171	0xbdcd0c2c	-0.10012087
172	0x3d286320	0.041110158
173	0xbcc83e36	-0.024443727
174	0x3d482054	0.048858956
175	0xbbd29ba4	-0.006427245
176	0x3b6507a2	0.0034947176
177	0xbcdad926	-0.026714873
178	0xbd4af156	-0.049546562
179	0x3d06329a	0.0327631
180	0x3c97fbb5	0.01855264
181	0x3d307589	0.04308084
182	0xbc2803a9	-0.010254779
183	0x3c590944	0.013246838
184	0x3cebb95b	0.028774908
185	0x3c371d45	0.011176412
186	0xba0ad22b	-0.00052955997
187	0xbda926c1	-0.08259345
188	0xbbbeda99	-0.0058243987
189	0xbc1d8d69	-0.009616234
190	0xbca223df	-0.019792495
191	0xbc57289e	-0.0131322425
192	0xbc821e33	-0.01588354
193	0x3bddeb7e	0.0067724576
194	0x3c283955	0.010267575
195	0x3bb37d62	0.0054775933
196	0x3bb65093	0.0055638044
197	0xbc6a3411	-0.01429464
198	0x3c2000ee	0.009765847
199	0x3cf6c484	0.030123003
200	0x3c2f7522	0.010709079
201	0x3ab1fd57	0.001357953
202	0x3ba57fe4	0.005050646
203	0xbc164fe4	-0.009174321
204	0x3bcefa7d	0.0063164816
205	0x3baa39e4	0.0051948894
206	0xbc5f324c	-0.013622832
207	0xbb6770ed	-0.0035315112
208	0xbb96a177	-0.004596885
209	0x3c19407b	0.009353752
210	0x3bc8e1ee	0.0061304485
211	0xbc0bc37d	-0.008530495
212	0xba42bdbf	-0.0007428787
213	0xbc84c02c	-0.016204916
214	0xbbeded8d	-0.0072609843
215	0x3c820821	0.015873017
216	0xbcbba282	-0.022904638
217	0xbc90050f	-0.017580537
218	0x3c28d6a7	0.010305083
219	0xbc737685	-0.0148598
220	0xbb22f0f4	-0.0024862858
221	0x3c2be910	0.010492578
222	0xbc6c06b6	-0.014405897
223	0x3d06d320	0.03291619
224	0x3c7e6de0	0.015529126
225	0x3d3cebe2	0.046123393
226	0x3cad0f79	0.021125542
227	0x3c3ec29f	0.011643081
228	0xbb424494	-0.0029642927
229	0x3b1a1142	0.0023508822
230	0xbbc42504	-0.005985858
231	0xb8d97c90	-0.00010370568
232	0xbc189478	-0.009312741
233	0x3c0767d6	0.0082645025
234	0x3c17f211	0.009274022
235	0xbc810a30	-0.015751928
236	0x3c25d9c4	0.01012272
237	0xbc9d8ca1	-0.019232096
238	0x3b9b4aac	0.004739126
239	0xbb3ca948	-0.0028787423
240	0x3bd1408c	0.0063858684
241	0x3bf68d5c	0.0075241756
242	0xbc4c187e	-0.012457011
243	0xbbf3a8f3	-0.007435912
244	0xbc84aeb7	-0.016196592
245	0x3bfd2e59	0.0077264723
246	0xbc052797	-0.008127115
247	0xbbd645a6	-0.0065390645
248	0xbbd6851c	-0.0065466296
249	0x3af49279	0.0018659375
250	0xbb8d08db	-0.004304034
251	0x3b9a37a7	0.0047063413
252	0x3bd0ff01	0.006378055
253	0x3d0508ed	0.032479215
254	0x3bd95063	0.0066318973
255	0x3c6588d2	0.014009671

dnets.0.conv.weight f4 [24, 3, 5, 5]
0	0x3c7d7cc1	0.015471638
1	0xbd30be37	-0.043150153
2	0x3d80b48b	0.06284436
3	0xbca8c203	-0.020600324
4	0x3cf8df77	0.030379994
5	0x3d117074	0.035507634
6	0x3d2c2e3e	0.042036287
7	0xbd320d28	-0.043469578
8	0xbd3c4c6d	-0.045971323
9	0x3ccc73e9	0.024957614
10	0xbd70dd6d	-0.058804918
11	0xbd882240	-0.06647158
12	0x3e57ad1a	0.21062127
13	0xbdc2543f	-0.09488725
14	0xbd3c6d38	-0.046002597
15	0xbdc66671	-0.09687508
16	0x3d1223b4	0.03567858
17	0x3e2d5bdb	0.16929571
18	0x3cf60946	0.030033719
19	0xbcb7e158	-0.02244632
20	0xbbb47424	-0.005507009
21	0xbb84775d	-0.0040425495
22	0xbd1c6eee	-0.03819173
23	0x3cc67c63	0.024229234
24	0xbcf3a404	-0.029741295
25	0x3cdedcc3	0.027204877
26	0x39f5657a	0.00046805647
27	0xbd2c5671	-0.042074624
28	0xbcdb6993	-0.02678374
29	0xbd56cae9	-0.052439604
30	0x3b4ac07f	0.003093749
31	0xbd0ac552	-0.033879586
32	0x3db744bb	0.08948656
33	0x3b650529	0.0034945703
34	0x3b556a6b	0.003256465
35	0xbc6c38ca	-0.014417836
36	0x3d49774d	0.04918604
37	0x3d7b4344	0.061343446
38	0x3dbddf7e	0.092711434
39	0xbcc007fb	-0.023441305
40	0x3c9cc4e7	0.01913686
41	0x3d67c34b	0.05658273
42	0x3d4e1ff1	0.05032343
43	0x3d20c300	0.039248466
44	0x3c8ebe4c	0.017424725
45	0xbca936cd	-0.020656014
46	0xbbc49324	-0.005998986
47	0xbdb46859	-0.08808965
48	0xbd15ea3b	-0.036600333
49	0xbca6a16f	-0.02034065
50	0x3cf43e2d	0.029814804
51	0xbbc66834	-0.0060549024
52	0x3d4ed7ac	0.05049865
53	0x3d70a61e	0.05875217
54	0x3c8f4216	0.017487567
55	0xbd44948e	-0.047993235
56	0xbd34c3cb	-0.044132035
57	0x3ca662ba	0.020310748
58	0xbc0a5beb	-0.0084447665
59	0x3bc1d3bc	0.0059151333
60	0xbd2ce3dd	-0.042209495
61	0xbd45dc0f	-0.048305567
62	0x3e5a33f0	0.21308875
63	0xbcb1a056	-0.0216829
64	0x3e1df342	0.15424827
65	0x3c0bd9f4	0.008535851
66	0xbcfea6c3	-0.031085378
67	0xbdbffd76	-0.09374516
68	0xbd93318f	-0.07187187
69	0x3c273ba9	0.010207095
70	0xbc122a57	-0.008921227
71	0xbba655dc	-0.005076153
72	0xbafdf4e9	-0.0019375357
73	0xbdc45627	-0.09586745
74	0x3bdfabcf	0.006825901
75	0xbdb8d32e	-0.09024654
76	0x3d56ed3c	0.052472338
77	0xbda6a3f3	-0.081367396
78	0xbda215fc	-0.079143494
79	0xbd2dec4f	-0.04246169
80	0xbdb2fc30	-0.08739507
81	0xbd61843e	-0.055057757
82	0xbd95aa10	-0.073078275
83	0x3c8da861	0.017292203
84	0xbd88444a	-0.0665365
85	0xbb28321b	-0.002566463
86	0xbcb7ae3f	-0.022421954
87	0xbd888ab7	-0.06667083
88	0xbdc6ddc6	-0.09710269
89	0xbbefef65	-0.007322239
90	0x3ccad4f3	0.024759745
91	0xbcb00e9c	-0.021491341
92	0x3dcd5888	0.100266516
93	0xbdde38d1	-0.108506806
94	0xbd3ba979	-0.04581592
95	0xbd54b234	-0.05192776
96	0xbc80530e	-0.015664604
97	0x3d11dcc1	0.035610918
98	0xbaebdd42	-0.0017995017
99	0x3d1319db	0.03591333
100	0x3dace701	0.08442498
101	0x3bce59f8	0.006297346
102	0xbdbf83ed	-0.09351335
103	0xbdd32c95	-0.10311238
104	0x3d8229a6	0.063556
105	0x3d9f20a0	0.077698946
106	0xbddba8d9	-0.107255645
107	0x3d81e748	0.063429415
108	0xbdccc24b	-0.09997996
109	0x3db95d78	0.09051031
110	0xbde05b51	-0.10954917
111	0xbdad5763	-0.08463933
112	0xbde9ba81	-0.11412526
113	0xbd63d3bd	-0.05562185
114	0xbd42f687	-0.047598388
115	0xbdb0b8f8	-0.0862903
116	0x3cd05372	0.025430415
117	0x3d882e31	0.06649435
118	0x3daa7286	0.08322625
119	0x3d1f7bc3	0.038936388
120	0x3ddc0ba7	0.1074441
121	0xbd41590a	-0.047204055
122	0xbd42bd1d	-0.047543634
123	0xbdb9a773	-0.090651415
124	0xba1fe77f	-0.0006099864
125	0x3bc59219	0.006029379
126	0x3dddf95d	0.10838578
127	0xbdba232c	-0.0908874
128	0xbd2143e0	-0.03937137
129	0x3d3ee8c7	0.046608713
130	0x3c3cd013	0.011524218
131	0xbdca2deb	-0.098720394
132	0x3c716a79	0.014734858
133	0x3b7ade99	0.0038279651
134	0xbdd09400	-0.10184479
135	0xbdec6ff4	-0.11544791
136	0x3dbf112b	0.093294464
137	0xbb4e185f	-0.0031447632
138	0xbd5dcbc8	-0.05414942
139	0xbc84b045	-0.016197333
140	0x3d0ec299	0.03485355
141	0x3da665a4	0.08124855
142	0x3be7d2a0	0.007074669
143	0x3aee8995	0.0018198962
144	0xbcfd4eae	-0.030921306
145	0xbdb7b345	-0.0896974
146	0xbd8a8e86	-0.067654654
147	0xbd960d05	-0.07326702
148	0x3ddab625	0.106792726
149	0xbde9bf90	-0.11413491
150	0xb90fb2eb	-0.00013704195
151	0xbcccaa6e	-0.024983611
152	0xbdbb7843	-0.091537975
153	0xbc95b442	-0.01827443
154	0xbcc81897	-0.024425788
155	0xbc3d5ef3	-0.011558282
156	0x3b8065c2	0.0039183805
157	0x3d3eac40	0.04655099
158	0xbd772a36	-0.06034299
159	0xbd689447	-0.056782033
160	0xbd580193	-0.052735876
161	0x3e24b846	0.1608592
162	0x3e8daca0	0.27670765
163	0xbd7d4cc9	-0.061840806
164	0x3d7ad1c1	0.061235193
165	0x3d2ec037	0.04266378
166	0xbc9d6ed5	-0.019217888
167	0xbd8b71e4	-0.06808832
168	0xbd4814f2	-0.0488481
169	0xbcf6873b	-0.03009378
170	0x3b4144a5	0.0029490378
171	0x3c46ba1a	0.012129331
172	0x3d078967	0.03309002
173	0xbc0a6f70	-0.00844942
174	0xb96799f3	-0.00022087227
175	0x3c71a42d	0.014748615
176	0x3b0f6c3e	0.0021884586
177	0x3d03dd5c	0.032193527
178	0x3ca19877	0.019726021
179	0x3d0c035e	0.0341829
180	0xbd8bbc82	-0.068230644
181	0xbb85d304	-0.004083993
182	0x3e22bb3b	0.15891735
183	0xbd6491c6	-0.055803083
184	0xbb933965	-0.004492926
185	0x3c09af6c	0.00840364
186	0x3e04efbe	0.1298208
187	0xbe82c38c	-0.25539815
188	0x3e4007fe	0.18753049
189	0x3d444cf7	0.047924962
190	0x3b9cef6c	0.0047892835
191	0xbca0b7ba	-0.019618858
192	0xbde1db1a	-0.110281184
193	0xbad4131d	-0.0016180013
194	0x3b21b427	0.002467403
195	0xbc231666	-0.009954071
196	0xbd1451a6	-0.03621068
197	0xbda45130	-0.08023298
198	0x3d08fbca	0.03344325
199	0xbcc6cd7d	-0.024267906
200	0xbd24911d	-0.040177453
201	0x3d4d69fb	0.0501499
202	0x3ba1f1d4	0.0049421582
203	0x3bffb229	0.007803221
204	0x3c5bcf1c	0.013416078
205	0xbc41c4f9	-0.011826747
206	0xbcf97bb8	-0.030454502
207	0x3c3830d1	0.0112421075
208	0x3c72c66a	0.014817813
209	0x3c883680	0.01662755
210	0x3d8ce585	0.06879715
211	0xbda6ca67	-0.08144074
212	0xbce63e86	-0.028105985
213	0xbd8855b3	-0.06656971
214	0x36761ba1	3.6672939e-06
215	0x3d0a02be	0.03369402
216	0xbd38daf1	-0.045130674
217	0xbd9008c7	-0.07032924
218	0x3d138759	0.03601775
219	0x3c8f6402	0.017503742
220	0xbd045a94	-0.032312945
221	0x3b511e6a	0.0031908997
222	0x3d6c82e7	0.057742026
223	0x3d24d2e4	0.040240183
224	0x3d4ae396	0.04953345
225	0x3d41786c	0.047233984
226	0xbc1e1903	-0.009649518
227	0xbc6a0651	-0.0142837325
228	0xbdb9066a	-0.090344265
229	0xbcb0fc6f	-0.021604745
230	0xbd84b740	-0.06480265
231	0x3dc75d2c	0.09734568
232	0xbd9dbb14	-0.07701698
233	0xbdd1db00	-0.10246849
234	0xbc9efcab	-0.01940759
235	0xbc878193	-0.016541278
236	0x3da29886	0.07939248
237	0xbcc519dd	-0.024060184
238	0xbcd63612	-0.02614883
239	0xbdcc092a	-0.099626854
240	0x3de09d4e	0.109675035
241	0x3d5388d2	0.051644154
242	0xbd6d86e6	-0.057989977
243	0x3d4c84db	0.04993139
244	0xbd153b83	-0.036433708
245	0x3dd64a0c	0.10463342
246	0xbcedcc5a	-0.029028106
247	0xbd3e4817	-0.04645547
248	0x3d95400b	0.07287606
249	0x3e02ac07	0.12760936
250	0xbdfc5c83	-0.12322333
251	0xbd35a1bb	-0.04434369
252	0x3d80708b	0.06271466
253	0x3bdca776	0.00673383
254	0xbd6a1fed	-0.057159353
255	0x3c8b69a3	0.017018145

dnets.1.means f4 [63]
0	0x3fa8bb8e	1.3182237
1	0x3f0b522a	0.5442225
2	0x3f5e42a1	0.8682042
3	0x3f343043	0.7038614
4	0xbebe26b7	-0.37138912
5	0xbfae78d7	-1.3630627
6	0x3f4d83d9	0.8027931
7	0xbf1d6cd3	-0.6149418
8	0x3f9b956b	1.2154974
9	0xbf45d607	-0.77279705
10	0x3fa4bd9a	1.2870362
11	0xbfd14c6f	-1.6351451
12	0xbdd8bc34	-0.10582772
13	0xbf77f5f4	-0.9685967
14	0x3fad05c7	1.3517388
15	0xbf5e0e6f	-0.86740774
16	0xbe87259d	-0.26395884
17	0x3fdaf317	1.7105435
18	0x3e938646	0.2881338
19	0x3fe5e761	1.7961236
20	0xbfee02d0	-1.8594608
21	0xbf5dddbc	-0.86666465
22	0x3f34caf2	0.7062217
23	0x3eb93415	0.36172548
24	0x3f5cb0db	0.8620736
25	0x3dc01f3f	0.0938096
26	0xc02de1c9	-2.7169058
27	0x3fdff2e4	1.7495999
28	0x3f516d9a	0.81807864
29	0xbfde543d	-1.7369457
30	0x3f108184	0.56447625
31	0x3e635a74	0.22202474
32	0xbf904748	-1.1271753
33	0x3f0a7ff0	0.5410147
34	0xbf88b058	-1.0678816
35	0xbfe37824	-1.7771039
36	0xbfd18be5	-1.6370817
37	0xbf387d3b	-0.72066087
38	0xbf769c54	-0.9633229
39	0x3e5c451d	0.2151074
40	0xbe30449f	-0.17213677
41	0xbdeb63ed	-0.11493669
42	0x3d53a9cf	0.051675614
43	0x3fa19921	1.2624856
44	0xbf84be04	-1.0370488
45	0xbf99c5a3	-1.2013439
46	0x3f8d1cf3	1.102446
47	0xbf32e7a2	-0.69884694
48	0x3f209127	0.62721485
49	0xbf081161	-0.5315152
50	0x3d874c40	0.066063404
51	0xbeabffed	-0.33593693
52	0xbf1189db	-0.56850976
53	0x3fbf657a	1.4952843
54	0x400c2860	2.1899643
55	0x3f88ee1d	1.0697666
56	0xbfd34d1b	-1.6507906
57	0x3e67c09b	0.22632067
58	0x3eacf772	0.33782536
59	0x3eb040ed	0.34424534
60	0xbedd0455	-0.43167368
61	0xbec9d943	-0.3942357
62	0xbf2df7b9	-0.6795612

dnets.1.std f4 [63]
0	0x3fa488ac	1.2854209
1	0xbe1c95a5	-0.1529146
2	0x3f36f24d	0.7146347
3	0xbed67001	-0.41882327
4	0x3f32686e	0.696906
5	0x3fa8525a	1.3150132
6	0xbe10ade8	-0.1412884
7	0x3fb36c4a	1.4017422
8	0x3f4d3159	0.80153424
9	0x3f63bcb6	0.88959825
10	0x3e03317a	0.12811843
11	0x3fb22093	1.3916191
12	0x3f9721db	1.1807207
13	0x3db05340	0.08609629
14	0x3fae391c	1.3611178
15	0x3fc7fc0f	1.5623797
16	0x3ed416d5	0.4142367
17	0x3f820d88	1.016038
18	0xbe4e92f6	-0.20173249
19	0x4027d180	2.6221619
20	0xbfdede0e	-1.7411516
21	0xbeead94a	-0.45868903
22	0x3f82768c	1.0192428
23	0x4031863d	2.7738183
24	0x3f0bdb37	0.5463137
25	0x3dd21010	0.1025697
26	0xbcc06790	-0.023486882
27	0x3f2de48d	0.67926866
28	0x3eced1d9	0.40394476
29	0x3fc0e1a3	1.5068859
30	0xbeb7cdbf	-0.3589916
31	0x3fa7ef29	1.3119861
32	0x3f8f55c2	1.1198046
33	0x3ea8ac1b	0.32943806
34	0xbe66f283	-0.22553448
35	0xbec79c62	-0.38986498
36	0xbed86626	-0.42265433
37	0x3e73eb7e	0.23820302
38	0x3f412741	0.7545052
39	0x3f96b22e	1.1773126
40	0x3f90a9db	1.1301836
41	0xbdf7a2c1	-0.1209159
42	0x3ff196a0	1.8874092
43	0x3fa5acee	1.2943399
44	0x3f08dc9a	0.5346161
45	0x3f1ce235	0.61282665
46	0x3f2db694	0.6785672
47	0x3f424058	0.7587943
48	0x3e8a689c	0.27032936
49	0x3fba3f57	1.455058
50	0x3f377066	0.7165588
51	0xbeb29be0	-0.34884548
52	0x3ef682d5	0.48146692
53	0x3f8606ab	1.0470785
54	0x40055a92	2.083653
55	0x3f241e91	0.6410914
56	0x3ff76a63	1.9329342
57	0x3e6db0e3	0.23212008
58	0x3e1d6e3f	0.15374087
59	0x3f5d45bb	0.86434525
60	0x401c19e7	2.439081
61	0xbe8d5373	-0.2760273
62	0xbfd9d76b	-1.7018865

dnets.1.weights_rbf f4 [24, 63]
0	0x3bb184c1	0.005417437
1	0x3e0ead2b	0.13933246
2	0x3c27c3a0	0.010239512
3	0x3c9879f3	0.018612837
4	0xbba8fea4	-0.0051573087
5	0xbb91fb89	-0.004455034
6	0x3ca43487	0.020044578
7	0xbafc0df3	-0.0019230231
8	0x3c3fb422	0.011700662
9	0xbbc42fe8	-0.005987156
10	0x3c820821	0.015873017
11	0xbba19da4	-0.0049321223
12	0xba12726c	-0.0005586508
13	0x3c761cbf	0.015021502
14	0x3ba4a3b1	0.0050243963
15	0xbb05bc96	-0.0020406595
16	0xbc268c00	-0.010165215
17	0x3c3b243e	0.011422215
18	0x3ae8537b	0.0017725074
19	0x3b10398a	0.0022006952
20	0xbb5a998b	-0.003335568
21	0xbcd7145e	-0.026254829
22	0x3b8aef01	0.0042399173
23	0x3a2daec7	0.000662547
24	0x3c830ddc	0.01599782
25	0xbc19b06e	-0.009380443
26	0x3c820821	0.015873017
27	0x3cf2bf5b	0.029632261
28	0x3cceefcd	0.02526083
29	0xbb8ff79c	-0.004393531
30	0x3c924a55	0.01785771
31	0x3a721480	0.0009234622
32	0xbbab8052	-0.005233803
33	0x3c9acce9	0.018896537
34	0xbc181f5e	-0.009284822
35	0x3c8207b2	0.01587281
36	0x3c75e46c	0.015008073
37	0xbdce5340	-0.100744724
38	0xbc3dbdd5	-0.011580904
39	0x3a8394eb	0.0010038888
40	0xba823a3f	-0.0009935572
41	0xbc8a98b4	-0.016918518
42	0x39b43736	0.0003437341
43	0x3ba7558b	0.005106633
44	0xbcbf4d69	-0.023352342
45	0xbcae6e7d	-0.02129292
46	0x3c6c8560	0.014436096
47	0xbbfca91b	-0.0077105886
48	0x3d6143be	0.054996245
49	0xbac8f3f8	-0.0015331497
50	0x38ad5876	8.26576e-05
51	0xbca2a26c	-0.01985284
52	0xbc90e083	-0.01768518
53	0x3c1551b9	0.0091137225
54	0x3b82b321	0.003988639
55	0x3c7eace4	0.01554415
56	0xbb123203	-0.0022307641
57	0x3c1f1c7d	0.009711382
58	0x3e104a00	0.14090729
59	0x3b29039e	0.002578951
60	0xb91d9b58	-0.00015030557
61	0xbd6a3fa7	-0.05718961
62	0xbaacdff5	-0.0013189303
63	0x3b61fe33	0.003448379
64	0xbda43119	-0.08017177
65	0x3bec0924	0.007203238
66	0x3ca00982	0.019535784
67	0xbb841545	-0.004030856
68	0xbb88a34c	-0.004169857
69	0x3c8d9867	0.017284585
70	0xbb2a50f1	-0.0025988186
71	0x3c0da102	0.008644344
72	0xbba1f3c7	-0.0049423906
73	0x3c820821	0.015873017
74	0xbb921ee9	-0.004459251
75	0xbaab6d9e	-0.0013078933
76	0x3c7709db	0.015078033
77	0x3b4ba04e	0.003107089
78	0xbb34c15f	-0.0027581078
79	0xbbd0abfc	-0.0063681584
80	0x3c1e767b	0.009671803
81	0x3d197b8d	0.037471343
82	0x39feb118	0.000485786
83	0xbb6aac4c	-0.0035808263
84	0xbc7c797c	-0.0154098235
85	0x3b2a972c	0.0026030047
86	0xba714a69	-0.00092045084
87	0x3c5c23de	0.013436286
88	0x3d184e23	0.037183892
89	0x3c820821	0.015873017
90	0x3ccfc149	0.02536072
91	0x3cd7341b	0.026269963
92	0xbb889a65	-0.004168796
93	0x3c6bdd56	0.014396032
94	0xb9600532	-0.0002136424
95	0xbb962d17	-0.004583012
96	0x3c8ebe13	0.017424619
97	0x3c0b91f2	0.008518683
98	0x3c8205bc	0.015871875
99	0x3c38cd5c	0.01127943
100	0xbca88ad1	-0.020574005
101	0xbc03d781	-0.008046986
102	0xb63ea63a	-2.8408963e-06
103	0xbad3280b	-0.0016109956
104	0xbcd6c8b9	-0.026218759
105	0xba83da03	-0.0010059479
106	0x3b515d87	0.0031946616
107	0xbc62f12a	-0.013851443
108	0xbc4f3f84	-0.012649421
109	0x3c3870a4	0.011257324
110	0xbbbd8689	-0.00578386
111	0x3c22b504	0.009930853
112	0xbb192612	-0.002336864
113	0x39888013	0.00026035364
114	0xbc3fa437	-0.011696867
115	0xbc466d2f	-0.012110992
116	0x3bd53ddc	0.0065076184
117	0x3b09e42e	0.0021040547
118	0x3c52b4ec	0.012860518
119	0xbb4106b1	-0.0029453451
120	0x3c79bfab	0.015243451
121	0x3c32db8b	0.010916601
122	0x3ad7a504	0.0016452377
123	0xbacb31a1	-0.0015502461
124	0xbcb743ac	-0.022371136
125	0xbb15a631	-0.0022834654
126	0x3c13f3d2	0.009030299
127	0xbe1517cf	-0.14559864
128	0x3c7dd549	0.015492746
129	0x3d3eaffb	0.046554547
130	0xbbff9453	-0.007799664
131	0xbbbb9393	-0.0057243793
132	0x3cb77e48	0.022399083
133	0xbb4509c4	-0.0030065635
134	0x3ca7f083	0.020500427
135	0xbc01d981	-0.007925392
136	0x3c820681	0.015872242
137	0xbbd0b943	-0.006369741
138	0xba9a8457	-0.0011788708
139	0x3c740ba6	0.014895355
140	0x3c0a324a	0.008434841
141	0xbb46b196	-0.0030318252
142	0xbc6ad7ae	-0.014333649
143	0x3cc84fd5	0.02445213
144	0x3da60b26	0.08107595
145	0x3b81d141	0.0039617126
146	0xbb934759	-0.0044945893
147	0xbbcf9010	-0.0063343123
148	0x3bcf8189	0.0063325805
149	0x3a981ae0	0.0011604689
150	0x3d048351	0.032351796
151	0x3bb1f397	0.0054306495
152	0x3c820821	0.015873017
153	0x3d8fb10b	0.0701619
154	0x3d98a354	0.07453027
155	0xbbbcf8af	-0.00576695
156	0x3d0dcb91	0.034617964
157	0x3ac0342c	0.0014663986
158	0xbbdb0f59	-0.006685179
159	0x3d2fcaf9	0.04291818
160	0x3c7c45ba	0.0153974835
161	0x3c81fa33	0.015866375
162	0x3c7eb2d5	0.015545567
163	0xbc251b52	-0.010077314
164	0xbc64a168	-0.013954498
165	0x3ac889e4	0.0015299884
166	0xbafbf7a3	-0.0019223582
167	0xbd7749a1	-0.060372952
168	0x3a1e32cb	0.00060347904
169	0x3c0afbc6	0.008482879
170	0xbc2b278d	-0.010446441
171	0xbc4dad88	-0.01255358
172	0x3ce1a34f	0.027543692
173	0xbc21c8c5	-0.009874527
174	0x3d9f134d	0.07767353
175	0xbb220b50	-0.002472598
176	0xba308610	-0.0006733844
177	0xbcceeb73	-0.025258755
178	0xbcb24421	-0.021761002
179	0x3c82b6ae	0.01595625
180	0x3be778d3	0.007063964
181	0x3d017567	0.031606104
182	0xbb49797d	-0.0030742579
183	0x3c4e62ca	0.012596795
184	0x3dce9721	0.10087419
185	0x3b690b24	0.003555962
186	0xb968ad6c	-0.00022189849
187	0x3baf29d7	0.005345564
188	0xbb074077	-0.002063779
189	0x3b999815	0.004687319
190	0x3bee66ea	0.007275452
191	0x3c25e74e	0.010125948
192	0x3c605608	0.013692386
193	0xbaaa911a	-0.0013013214
194	0xbbc9a1b2	-0.006153309
195	0x3c81f810	0.015865356
196	0xbb3b91a6	-0.0028620749
197	0x3c35912b	0.011081974
198	0xbba97348	-0.0051712133
199	0x3c820821	0.015873017
200	0xbbe7b2af	-0.0070708613
201	0xb9eae430	-0.0004480197
202	0xbe0bfa6a	-0.13669744
203	0x3b891015	0.0041828253
204	0xbb623fc5	-0.0034522873
205	0x3a7b3073	0.00095821096
206	0x3c2d83c3	0.0105904965
207	0xb9058ecb	-0.00012737063
208	0x39828504	0.00024894637
209	0xbbbbf8a8	-0.0057364292
210	0xbcc38fe9	-0.023872333
211	0x3b8a26d4	0.0042160545
212	0xbac82ab8	-0.001527152
213	0x3c600aa9	0.013674417
214	0x3c12757c	0.008939143
215	0x3c820821	0.015873017
216	0x3c0af799	0.008481883
217	0x3c135e8a	0.008994708
218	0xbbda95c5	-0.006670686
219	0x3c54aa95	0.012980123
220	0x3a017ba6	0.00049393845
221	0xbbcc0248	-0.006225858
222	0x3c4aa8d1	0.0123693505
223	0xbd58ebec	-0.052959368
224	0x3c2239f0	0.009901509
225	0xbdb78e5c	-0.089627
226	0xbd09c1ad	-0.03363197
227	0xbc2b26d3	-0.010446268
228	0x3a8b4b8a	0.0010627371
229	0xba2e0cbd	-0.00066394714
230	0xbaf2297c	-0.0018475498
231	0xbaa10aac	-0.0012286506
232	0x3b8f4476	0.004372175
233	0xbcc31ccc	-0.023817442
234	0xbcbac277	-0.022797806
235	0x3c5732d9	0.013134682
236	0xbbb6e3d2	-0.0055813575
237	0x3c1aed1e	0.009455947
238	0xbb27ad5d	-0.002558551
239	0x3b5f2c98	0.003405368
240	0xbb2d6a2c	-0.0026460988
241	0xbc154662	-0.009111019
242	0x3c0bea6f	0.00853978
243	0x3b1d0e20	0.0023964718
244	0x3c62b6f9	0.013837569
245	0xbb932ab7	-0.004491176
246	0x3c52deba	0.012870485
247	0x3db2bf49	0.08727891
248	0x3b796785	0.0038056087
249	0xbb1523e0	-0.002275698
250	0xbc3e1b2e	-0.01160316
251	0xbb3bd402	-0.0028660302
252	0x3c00b30e	0.00785519
253	0x3d9fc5d0	0.078014016
254	0x3c1bd1fe	0.009510515
255	0x3ca8540c	0.02054789

dnets.1.conv.weight f4 [24, 3, 5, 5]
0	0xbdc39ec8	-0.095517695
1	0xbcee92ec	-0.029122792
2	0xbd6b9932	-0.057519145
3	0xbd2a8200	-0.041627884
4	0x3da3cf92	0.07998575
5	0x3d4628e4	0.04837884
6	0xbd84a080	-0.064759254
7	0xbd7abf55	-0.061217625
8	0x3c361a6a	0.011114696
9	0x3d89c944	0.067278415
10	0x3d68f3f7	0.056873288
11	0x3de0a449	0.10968835
12	0x3d351c54	0.04421647
13	0x3dd9dec5	0.10638193
14	0xbcdb6237	-0.02678023
15	0xbd9b8923	-0.07594516
16	0xbc981674	-0.018565394
17	0x3dc88928	0.097917855
18	0xbd4878b9	-0.048943255
19	0xbd96bee5	-0.07360629
20	0x3db442d8	0.08801812
21	0xbd4780b7	-0.048706736
22	0xbd0faea3	-0.035078656
23	0x3d67f319	0.05662832
24	0xbd2a0655	-0.041509945
25	0xbdb1759a	-0.08665009
26	0xbd0f5f08	-0.03500274
27	0xbdc19a16	-0.09453218
28	0x3ccbb55b	0.02486675
29	0x3d715625	0.058920044
30	0xbca9417a	-0.020661104
31	0xbd6b317c	-0.05742024
32	0x3d76d684	0.06026317
33	0x3c90690f	0.01762822
34	0xbddf4528	-0.109018624
35	0x3dde200e	0.10845958
36	0x3d87d322	0.06632067
37	0x3d43e8cd	0.047829438
38	0x3dde1fdc	0.108459204
39	0x3d45fc67	0.048336413
40	0xbe08425d	-0.13306566
41	0x3d2b0850	0.041755974
42	0xbd8f2ca6	-0.06990938
43	0xbc51ced9	-0.012805664
44	0x3cbfece8	0.023428395
45	0xb99348a1	-0.00028092138
46	0xbdcf4fc7	-0.10122638
47	0x3e04d51a	0.12971917
48	0x3b86808f	0.004104681
49	0xbba0474b	-0.0048913113
50	0x3e09427d	0.1340427
51	0xbd004b75	-0.03132196
52	0x3dd95420	0.10611749
53	0xbd0e664d	-0.03476553
54	0xbcead7b3	-0.028667307
55	0x3deaaab9	0.11458344
56	0xbb9e48fe	-0.0048304787
57	0xbd921c5c	-0.07134315
58	0xbd1efc22	-0.03881467
59	0x3c8c9383	0.017160183
60	0xbbfa96e2	-0.007647381
61	0xbd90dc78	-0.07073301
62	0x3dfe15c6	0.12406497
63	0xba7c0288	-0.00096134143
64	0x3c3ea716	0.011636516
65	0x3d768af9	0.06019113
66	0xbc0bc6cc	-0.008531284
67	0xbd9a1f01	-0.07525445
68	0xbce1c111	-0.027557882
69	0xbd627462	-0.055286773
70	0x3cfda26e	0.030961242
71	0xbda0e669	-0.07856447
72	0x3d617af9	0.055048916
73	0x3ac34b0f	0.0014899689
74	0xbdc62bf0	-0.09676349
75	0xbdfbbc47	-0.122917704
76	0x3da7b766	0.08189277
77	0x3d39a09d	0.04531919
78	0x3cbc55ce	0.022990134
79	0x3d21286c	0.03934519
80	0xbe031033	-0.12799148
81	0xbd33ff6a	-0.043944754
82	0xbd6d998a	-0.058007754
83	0xbd94e885	-0.07270912
84	0xbd03f582	-0.032216556
85	0xbc9e35dc	-0.019312792
86	0x3c353ff6	0.011062613
87	0x3d3fabdc	0.046794757
88	0xbd030927	-0.03199115
89	0x3d9c8d73	0.07644167
90	0xbd1e949e	-0.03871595
91	0xbdb4a469	-0.08820421
92	0x3d324afb	0.04352854
93	0x3dde6bda	0.10860415
94	0xbdc9412d	-0.098268844
95	0x3db3bf10	0.08776677
96	0xbd99000e	-0.074707136
97	0x3dcb6681	0.099316604
98	0xbbba8ac8	-0.0056928135
99	0x3e0ae4c1	0.13563825
100	0xbd0d736d	-0.034533907
101	0x3d57c3d5	0.052676994
102	0x3cdbccc5	0.02683104
103	0xbca88997	-0.02057342
104	0x3da72049	0.08160455
105	0x3db5df5f	0.08880495
106	0xbcb960ae	-0.022629108
107	0x3bed0813	0.0072336285
108	0xbd0966ab	-0.033545177
109	0xbdb0d75b	-0.08634826
110	0xbceddd96	-0.029036324
111	0xbd3ff335	-0.0468628
112	0x3df1fb59	0.11815519
113	0x3d76e7d8	0.060279697
114	0xbd536c38	-0.051616877
115	0x3d9711a3	0.07376411
116	0xbc15f382	-0.009152295
117	0x3dc2f9e5	0.0952032
118	0x3d80142b	0.06253847
119	0xbd87810f	-0.06616413
120	0xbdde2d70	-0.1084851
121	0xbd7c7040	-0.061630487
122	0xbcef33b5	-0.02919946
123	0xbd193d57	-0.037412014
124	0x3c5f6bac	0.013636511
125	0xbd51e2e9	-0.05124179
126	0x3d7501e5	0.05981626
127	0xbd47b37b	-0.04875515
128	0x3dd0b934	0.10191575
129	0x3d59ec74	0.053204015
130	0xbd886278	-0.066594064
131	0x3bb63368	0.0055603273
132	0x3da464e6	0.08027057
133	0x3d994012	0.074829236
134	0xbdb522c3	-0.08844521
135	0xbc8e6a68	-0.017384723
136	0xbd763341	-0.060107473
137	0x3984fe0a	0.00025366276
138	0x3c210389	0.009827503
139	0x3dc4c907	0.096086554
140	0x3ca435ed	0.020045245
141	0xbd1de661	-0.038549785
142	0xbd50f075	-0.051010568
143	0xbd5e5df4	-0.05428882
144	0x3c0afabd	0.008482632
145	0xbdb72998	-0.0894348
146	0x3dc8b8cb	0.098008715
147	0x3b8f4a45	0.0043728673
148	0xbb68ba22	-0.0035511334
149	0xbd6f250f	-0.05838495
150	0xbba30b5e	-0.0049757203
151	0x3d9b3171	0.075777896
152	0xbe03e954	-0.12881976
153	0x3cd0f039	0.025505172
154	0x3d21905d	0.039444316
155	0xbde8a8a8	-0.113602936
156	0xbcb22325	-0.021745274
157	0xbdb9773d	-0.09055946
158	0xbd813ba3	-0.06310203
159	0xbd802b57	-0.062582664
160	0xbe0c07a3	-0.13674788
161	0x3d06dcc5	0.032925386
162	0xbce8ce5b	-0.02841871
163	0x3daf8d05	0.08571819
164	0xbabea4db	-0.001454498
165	0xbd1ad835	-0.037803847
166	0x3d760c74	0.06007047
167	0x3d0cd257	0.034380283
168	0x3db5d30c	0.088781446
169	0x3caaade1	0.020834865
170	0x3d8a1017	0.0674135
171	0xbce86375	-0.028367737
172	0xbd302b76	-0.043010198
173	0x3d792df5	0.060834844
174	0x3d83c25b	0.06433555
175	0x3d2947ac	0.041328117
176	0x3c899696	0.016795438
177	0x3db335e9	0.08750517
178	0x3d827f8b	0.06371983
179	0x3c9fcf76	0.019508105
180	0x3d8788d5	0.066178955
181	0xbc7fb141	-0.0156062255
182	0x3dc3727b	0.0954332
183	0xbdb2874b	-0.08717211
184	0xbcaacf64	-0.020850845
185	0x3c99b60d	0.018763566
186	0xbbb9a0c4	-0.0056649167
187	0xbc13dacb	-0.009024332
188	0x3cbd371a	0.023097564
189	0xbd77b648	-0.06047657
190	0x3d7821f6	0.060579263
191	0xbd6167a4	-0.05503048
192	0x3de3957c	0.11112496
193	0xbda74c4f	-0.081688516
194	0xbd900128	-0.070314705
195	0xbac63470	-0.0015121829
196	0xbdb3f4c9	-0.087869234
197	0x3da61d05	0.08111004
198	0xbdd961eb	-0.106143795
199	0x3dbe1ff1	0.09283436
200	0x3d83f0fb	0.06442448
201	0xbdb8fc6d	-0.090325214
202	0x3cabc0b7	0.020965917
203	0xbdbd3c21	-0.09239984
204	0x3cbd51f0	0.02311036
205	0xbd058480	-0.032597065
206	0x3d8e70d6	0.069551155
207	0x3e028078	0.1274432
208	0x3d19bcbb	0.037533503
209	0x3e042ea3	0.12908415
210	0xbd8e30ab	-0.069428764
211	0x3ce20386	0.02758957
212	0xbd93bb16	-0.07213418
213	0xbcbf5f6c	-0.02336093
214	0xbdd9e091	-0.10638536
215	0xbc36b32d	-0.011151117
216	0x3db2b958	0.08726758
217	0x3dda2bde	0.10652898
218	0xbd97d878	-0.07414335
219	0xbd226fbe	-0.039657347
220	0xbd9b8894	-0.075944096
221	0x3daad818	0.08341998
222	0xbd99a5d5	-0.07502333
223	0xbc97fa65	-0.018552015
224	0xbdaf3814	-0.08555618
225	0xbcafd7a9	-0.02146514
226	0xbd9c869c	-0.07642862
227	0x3de9c79a	0.11415024
228	0xbc9f6d0a	-0.019461174
229	0x3dd575c6	0.10422854
230	0xbd3f75c8	-0.046743184
231	0xbd77a69a	-0.060461618
232	0x3e0c09cb	0.1367561
233	0xbd7bb563	-0.06145228
234	0xbd0d0086	-0.034424327
235	0x3d903ceb	0.07042869
236	0xbbd64182	-0.006538571
237	0xbcc543c4	-0.024080165
238	0x3b8fae35	0.004384781
239	0x3b765219	0.0037585555
240	0xbd96e06d	-0.073670246
241	0x3bb54956	0.005532424
242	0x3dae9df4	0.08526221
243	0x3dd50ad2	0.104024544
244	0xbd67f217	-0.05662736
245	0xbd05ffab	-0.032714527
246	0xbd3204eb	-0.04346172
247	0xbd2d6494	-0.042332247
248	0x3dabc8d5	0.08387915
249	0xbda0bd8e	-0.07848655
250	0xbc869494	-0.01642827
251	0x3e01b936	0.12668309
252	0x3dd70b53	0.10500207
253	0xbd86f965	-0.06590537
254	0xbdc6b8a0	-0.09703183
255	0x3d3b5bd3	0.045741867

dnets.2.means f4 [63]
0	0x3fa8bb8e	1.3182237
1	0x3f0b522a	0.5442225
2	0x3f5e42a1	0.8682042
3	0x3f343043	0.7038614
4	0xbebe26b7	-0.37138912
5	0xbfae78d7	-1.3630627
6	0x3f4d83d9	0.8027931
7	0xbf1d6cd3	-0.6149418
8	0x3f9b956b	1.2154974
9	0xbf45d607	-0.77279705
10	0x3fa4bd9a	1.2870362
11	0xbfd14c6f	-1.6351451
12	0xbdd8bc34	-0.10582772
13	0xbf77f5f4	-0.9685967
14	0x3fad05c7	1.3517388
15	0xbf5e0e6f	-0.86740774
16	0xbe87259d	-0.26395884
17	0x3fdaf317	1.7105435
18	0x3e938646	0.2881338
19	0x3fe5e761	1.7961236
20	0xbfee02d0	-1.8594608
21	0xbf5dddbc	-0.86666465
22	0x3f34caf2	0.7062217
23	0x3eb93415	0.36172548
24	0x3f5cb0db	0.8620736
25	0x3dc01f3f	0.0938096
26	0xc02de1c9	-2.7169058
27	0x3fdff2e4	1.7495999
28	0x3f516d9a	0.81807864
29	0xbfde543d	-1.7369457
30	0x3f108184	0.56447625
31	0x3e635a74	0.22202474
32	0xbf904748	-1.1271753
33	0x3f0a7ff0	0.5410147
34	0xbf88b058	-1.0678816
35	0xbfe37824	-1.7771039
36	0xbfd18be5	-1.6370817
37	0xbf387d3b	-0.72066087
38	0xbf769c54	-0.9633229
39	0x3e5c451d	0.2151074
40	0xbe30449f	-0.17213677
41	0xbdeb63ed	-0.11493669
42	0x3d53a9cf	0.051675614
43	0x3fa19921	1.2624856
44	0xbf84be04	-1.0370488
45	0xbf99c5a3	-1.2013439
46	0x3f8d1cf3	1.102446
47	0xbf32e7a2	-0.69884694
48	0x3f209127	0.62721485
49	0xbf081161	-0.5315152
50	0x3d874c40	0.066063404
51	0xbeabffed	-0.33593693
52	0xbf1189db	-0.56850976
53	0x3fbf657a	1.4952843
54	0x400c2860	2.1899643
55	0x3f88ee1d	1.0697666
56	0xbfd34d1b	-1.6507906
57	0x3e67c09b	0.22632067
58	0x3eacf772	0.33782536
59	0x3eb040ed	0.34424534
60	0xbedd0455	-0.43167368
61	0xbec9d943	-0.3942357
62	0xbf2df7b9	-0.6795612

dnets.2.std f4 [63]
0	0x3fa488ac	1.2854209
1	0xbe1c95a5	-0.1529146
2	0x3f36f24d	0.7146347
3	0xbed67001	-0.41882327
4	0x3f32686e	0.696906
5	0x3fa8525a	1.3150132
6	0xbe10ade8	-0.1412884
7	0x3fb36c4a	1.4017422
8	0x3f4d3159	0.80153424
9	0x3f63bcb6	0.88959825
10	0x3e03317a	0.12811843
11	0x3fb22093	1.3916191
12	0x3f9721db	1.1807207
13	0x3db05340	0.08609629
14	0x3fae391c	1.3611178
15	0x3fc7fc0f	1.5623797
16	0x3ed416d5	0.4142367
17	0x3f820d88	1.016038
18	0xbe4e92f6	-0.20173249
19	0x4027d180	2.6221619
20	0xbfdede0e	-1.7411516
21	0xbeead94a	-0.45868903
22	0x3f82768c	1.0192428
23	0x4031863d	2.7738183
24	0x3f0bdb37	0.5463137
25	0x3dd21010	0.1025697
26	0xbcc06790	-0.023486882
27	0x3f2de48d	0.67926866
28	0x3eced1d9	0.40394476
29	0x3fc0e1a3	1.5068859
30	0xbeb7cdbf	-0.3589916
31	0x3fa7ef29	1.3119861
32	0x3f8f55c2	1.1198046
33	0x3ea8ac1b	0.32943806
34	0xbe66f283	-0.22553448
35	0xbec79c62	-0.38986498
36	0xbed86626	-0.42265433
37	0x3e73eb7e	0.23820302
38	0x3f412741	0.7545052
39	0x3f96b22e	1.1773126
40	0x3f90a9db	1.1301836
41	0xbdf7a2c1	-0.1209159
42	0x3ff196a0	1.8874092
43	0x3fa5acee	1.2943399
44	0x3f08dc9a	0.5346161
45	0x3f1ce235	0.61282665
46	0x3f2db694	0.6785672
47	0x3f424058	0.7587943
48	0x3e8a689c	0.27032936
49	0x3fba3f57	1.455058
50	0x3f377066	0.7165588
51	0xbeb29be0	-0.34884548
52	0x3ef682d5	0.48146692
53	0x3f8606ab	1.0470785
54	0x40055a92	2.083653
55	0x3f241e91	0.6410914
56	0x3ff76a63	1.9329342
57	0x3e6db0e3	0.23212008
58	0x3e1d6e3f	0.15374087
59	0x3f5d45bb	0.86434525
60	0x401c19e7	2.439081
61	0xbe8d5373	-0.2760273
62	0xbfd9d76b	-1.7018865

dnets.2.weights_rbf f4 [24, 63]
0	0xbafecf95	-0.0019440526
1	0x3bb40b9e	0.005494549
2	0xba0f3bfa	-0.00054639543
3	0x3af7bfee	0.0018901804
4	0x3b276c35	0.0025546674
5	0x3bea6b3a	0.0071538957
6	0x3d586142	0.052827127
7	0x3b76451f	0.003757782
8	0x3af59073	0.0018735066
9	0x3bc255da	0.0059306445
10	0x3c875249	0.016518729
11	0x3bd5a698	0.0065201037
12	0xb981d650	-0.00024764473
13	0xbcab63ef	-0.020921675
14	0xbb0bcea4	-0.0021332884
15	0x3b9a234f	0.004703916
16	0xbac57da5	-0.0015067352
17	0x3bb060e9	0.0053826463
18	0x3c1745f0	0.009232983
19	0xbb164111	-0.0022926966
20	0x3bd821b2	0.0065958137
21	0xbcb06aa8	-0.021535233
22	0xbb82731b	-0.003981007
23	0xba09932d	-0.0005248066
24	0x3b3f2b59	0.0029170124
25	0x3d6b854a	0.05750016
26	0x3c820821	0.015873017
27	0xbb7c2e5e	-0.0038479785
28	0xbbb73994	-0.0055915806
29	0x3bd45ac9	0.006480549
30	0xba1eaf73	-0.00060533657
31	0xbb3392f8	-0.0027400833
32	0x3be6d6a0	0.0070446283
33	0xba9f62bf	-0.0012160166
34	0xbde268d0	-0.11055148
35	0x3c9bec63	0.019033616
36	0x3c917f5e	0.017760929
37	0x3cc550f5	0.024086455
38	0x3b4661fe	0.003027081
39	0xbb5b9a24	-0.0033508623
40	0x39e4315e	0.0004352433
41	0xbd469fec	-0.048492357
42	0xb98c9f4c	-0.00026821566
43	0xbb1299ed	-0.002236958
44	0xbc704181	-0.014664055
45	0xbc33feba	-0.0109860245
46	0x3b425bc3	0.0029656745
47	0x3bbc34a8	0.005743582
48	0xbd25466f	-0.040350374
49	0x3b516178	0.0031948965
50	0xbbcb263e	-0.006199627
51	0xba8ffb0c	-0.0010984852
52	0xbb95ff3c	-0.0045775454
53	0x3ab0a2ef	0.0013476292
54	0xbae6cd1c	-0.0017608735
55	0x3b6543fa	0.0034983144
56	0x3bcf1681	0.0063198213
57	0x3bedd3fe	0.0072579375
58	0xbd86d693	-0.065838955
59	0xbba9882c	-0.0051737037
60	0x3ae70843	0.0017626364
61	0xbd591889	-0.053001914
62	0x3b6a7109	0.003577294
63	0x3caa6051	0.02079788
64	0x3d929d51	0.07158912
65	0x3cce6175	0.025192956
66	0x3ced53bf	0.028970597
67	0xbc372583	-0.011178377
68	0xbc163d09	-0.009169825
69	0x3d872a29	0.06599838
70	0xbb81670e	-0.0039490527
71	0x3cfd84ad	0.030947054
72	0xbc4a029e	-0.012329726
73	0x3c9c8ec9	0.019111054
74	0xbc4497e8	-0.011999108
75	0x3a49d938	0.00076999096
76	0x3b7fe865	0.003904843
77	0x3ca463e8	0.02006717
78	0xbb7bc57d	-0.0038417273
79	0xbc863d6f	-0.016386716
80	0x3d1797d9	0.037010048
81	0x3c4c3b9d	0.012465385
82	0x3c544376	0.012955537
83	0xbbf5750a	-0.007490759
84	0xbdc0afc6	-0.09408526
85	0x3c796282	0.01522124
86	0x3bce9562	0.006304429
87	0x3d02f238	0.03196928
88	0x3c345716	0.011007091
89	0x3c820821	0.015873017
90	0x3d2e3030	0.042526424
91	0x3cd4c0b6	0.025970798
92	0xbc2f9f79	-0.010719174
93	0x3cbc2497	0.022966666
94	0x3bec2ae6	0.0072072623
95	0xbc2ef3ca	-0.010678241
96	0x3cb0e5d7	0.021593971
97	0xbdc221bd	-0.09479091
98	0x3c8209ef	0.015873877
99	0x3c6b1e92	0.01435055
100	0x3d263f18	0.040587515
101	0xbcfa265b	-0.030535867
102	0x3bf08a3a	0.0073406966
103	0xba8d4c38	-0.0010780161
104	0xbce2f0be	-0.027702685
105	0x3ba5fb11	0.00506533
106	0x3ca323ab	0.019914469
107	0xbda7a58b	-0.08185872
108	0xbd97b382	-0.07407285
109	0x3d070f3f	0.032973524
110	0xbc79467e	-0.015214561
111	0xbc52e5ca	-0.012872169
112	0xbb359794	-0.0027708756
113	0x3b0281c7	0.001991378
114	0xbce6f016	-0.028190654
115	0xbd3da39b	-0.046298604
116	0x3cf15744	0.029460557
117	0x3c9e0450	0.019289166
118	0x3d0a3c40	0.033748865
119	0xbb6b0ca9	-0.00358657
120	0x3b47ced9	0.003048828
121	0xbd710cc6	-0.058850072
122	0x3c29709f	0.010341792
123	0x3b3a9276	0.0028468645
124	0xbe07e64c	-0.13271445
125	0xbae97e0f	-0.0017814058
126	0xba9abe63	-0.0011806007
127	0xbbbd14ba	-0.005770293
128	0xbb741225	-0.003724226
129	0xbb93b62b	-0.0045078
130	0x3ac3fc15	0.0014952446
131	0x3bb05c16	0.0053820712
132	0x3d0a1165	0.033707995
133	0x3b324eb8	0.0027207565
134	0xbb1fa505	-0.0024359834
135	0x3b88d763	0.0041760667
136	0x3ccc5f23	0.024947708
137	0x3bb08302	0.005386711
138	0x3a9fa35e	0.0012179425
139	0x3c6614e7	0.014043069
140	0xba72fe03	-0.0009269418
141	0x3b58cc1d	0.0033080645
142	0xba89590a	-0.0010478806
143	0xb8cf955b	-9.898349e-05
144	0xbb34b6ed	-0.0027574853
145	0x3ab25f7c	0.0013608779
146	0x3ba5b470	0.00505691
147	0xbc4a3fa3	-0.012344274
148	0xbae9f109	-0.0017848323
149	0x3b082352	0.0020773006
150	0xbb4e2eb7	-0.003146095
151	0x3d044763	0.032294642
152	0x3c820821	0.015873017
153	0xb9a88b3e	-0.000321472
154	0xbbe7fc0c	-0.007079607
155	0x3bacfa56	0.005278866
156	0xbbea5088	-0.0071507134
157	0x3a7a53f0	0.0009549251
158	0x3bac0f5c	0.0052508544
159	0xbbf9f6c8	-0.0076282956
160	0xbd6ba616	-0.05753144
161	0x3c8366ca	0.016040225
162	0x3c9e513d	0.019325847
163	0x3da17bd0	0.078849435
164	0x3b27313d	0.0025511526
165	0x3a1d5a46	0.00060025265
166	0x3aa24b6b	0.0012382095
167	0xbd367b27	-0.04455104
168	0x3afd35f3	0.0019318446
169	0xba93b9a5	-0.0011270536
170	0xbbe0bb94	-0.0068582986
171	0xbb985ee0	-0.004649982
172	0xbb25e103	-0.002531112
173	0x3b7c7981	0.003852457
174	0xbd1afc14	-0.037838057
175	0x3b232964	0.0024896497
176	0xbab4ff7e	-0.0013809053
177	0xbb5a98c3	-0.0033355213
178	0xbb85cb69	-0.0040830863
179	0xbac3b8b3	-0.0014932364
180	0x3a21c867	0.0006171525
181	0xbb1d1ba6	-0.0023972779
182	0x3b91e77e	0.004452645
183	0xbbbf5d44	-0.0058399756
184	0xbd85b95a	-0.06529494
185	0xbac40668	-0.0014955522
186	0x3b233449	0.002490299
187	0xbd5ca09b	-0.053864103
188	0x3b37175d	0.002793751
189	0xbb69407f	-0.0035591421
190	0x3dbd11cf	0.09231912
191	0xbbb82e1e	-0.005620732
192	0x3b0f1287	0.0021831112
193	0x3b9309d6	0.0044872565
194	0x3bb73fe8	0.005592335
195	0x3db3074c	0.08741626
196	0x3a5c9a99	0.0008415371
197	0xbb2bb784	-0.0026201913
198	0x3bd4a3f7	0.0064892727
199	0x3c82082a	0.015873034
200	0x3bb9ba44	0.0056679565
201	0xba3828f7	-0.0007025147
202	0x3c8251b2	0.015908096
203	0xbb5c1f94	-0.0033588158
204	0x3aafdf99	0.0013418078
205	0x3c16666b	0.009179692
206	0x3af02744	0.0018322249
207	0x3bf5ecb0	0.007505022
208	0xbadebcc8	-0.0016993517
209	0x3b81f910	0.003966458
210	0x3b82bc9c	0.003989769
211	0xbb99a7bd	-0.0046891854
212	0xbaae5226	-0.0013299629
213	0xb91eb855	-0.00015136723
214	0x3b5ff1d2	0.0034171236
215	0x3c820821	0.015873017
216	0x3c435436	0.011921933
217	0x3bc2f431	0.00594952
218	0x3ba5f031	0.0050640334
219	0xbb41ff3f	-0.0029601601
220	0xbad8075c	-0.0016481685
221	0x3bd04e6e	0.006357006
222	0xba97e8e1	-0.0011589789
223	0x3c41ea13	0.011835593
224	0x3c7a3c4a	0.015273163
225	0x3c6e706f	0.014553173
226	0x3dc307d4	0.095229775
227	0x3bfe4a56	0.0077603264
228	0xbaed3c45	-0.0018099627
229	0xb9db7ce2	-0.0004186398
230	0xba97d399	-0.0011583447
231	0xba8f8baa	-0.0010951657
232	0xbb6a9669	-0.0035795218
233	0x3be0e31b	0.0068630106
234	0x3c01c09b	0.007919456
235	0xba443a26	-0.00074854714
236	0x3c027e79	0.007964724
237	0xbc477af5	-0.012175311
238	0x39b257b6	0.00034016155
239	0xbb13e3cb	-0.0022566195
240	0x3c2ae4d2	0.010430532
241	0x3b4c5336	0.0031177527
242	0xbb2805b5	-0.0025638167
243	0xbafdb5d1	-0.0019356554
244	0x3a0a2773	0.00052701606
245	0x3b25a705	0.0025276553
246	0xbc5a7b86	-0.013335114
247	0xbd210a97	-0.03931674
248	0xbb867202	-0.0041029463
249	0xba41018f	-0.0007362598
250	0xbcb37cbc	-0.021910064
251	0x399aa88c	0.00029498746
252	0x3bca002c	0.0061645713
253	0xbd08cf35	-0.033400733
254	0x3ba3b713	0.0049961894
255	0x3bd4c187	0.006492797
