models/SnP_greedy5.pth (torch, 115607 bytes, 32 tensors)

dnets.0.means f4 [63]
0	0x3fa7a6db	1.3097795
1	0x3f0f9922	0.5609304
2	0x3f5dc34e	0.86626136
3	0x3f341c7d	0.7035597
4	0xbebc8672	-0.36821324
5	0xbfadb8f4	-1.3572068
6	0x3f4e5836	0.8060335
7	0xbf1b7778	-0.6072917
8	0x3f9afda6	1.2108657
9	0xbf4324e4	-0.76228166
10	0x3fa33398	1.275012
11	0xbfd0c2ac	-1.6309409
12	0xbdd57128	-0.104219735
13	0xbf76a644	-0.9634745
14	0x3fabfcc0	1.3436508
15	0xbf59c287	-0.8506245
16	0xbe8771b7	-0.26453945
17	0x3fdaaab2	1.7083342
18	0x3e8fa791	0.2805753
19	0x3fe5506d	1.7915169
20	0xbfed44cb	-1.8536619
21	0xbf5c9be6	-0.8617538
22	0x3f344051	0.7041064
23	0x3eb8747a	0.36026365
24	0x3f5ccc44	0.86249185
25	0x3de0b025	0.10971097
26	0xc02de1c9	-2.7169058
27	0x3fdffe5d	1.74995
28	0x3f52e267	0.8237671
29	0xbfddbfc6	-1.732415
30	0x3f0ee4bb	0.55817765
31	0x3e63708a	0.22210899
32	0xbf8f71af	-1.1206568
33	0x3f088087	0.5332112
34	0xbf885899	-1.0652038
35	0xbfe8c7f9	-1.8186027
36	0xbfd4261a	-1.6574128
37	0xbf393840	-0.72351456
38	0xbf754534	-0.9580872
39	0x3e5c60cc	0.215213
40	0xbe2e4071	-0.1701677
41	0xbe02d999	-0.1277832
42	0x3d58840d	0.05286031
43	0x3fa09369	1.2544986
44	0xbf842b3a	-1.0325692
45	0xbf9958b1	-1.1980191
46	0x3f8cbc50	1.0994968
47	0xbf309cc8	-0.6898923
48	0x3f229f81	0.63524634
49	0xbf06919a	-0.5256592
50	0x3d87036a	0.06592448
51	0xbeae31e8	-0.3402245
52	0xbf10edb8	-0.5661273
53	0x3fbe4c4e	1.4867036
54	0x400bf0bc	2.1865683
55	0x3f889f2e	1.0673578
56	0xbfd1f3fe	-1.6402586
57	0x3e6005e8	0.21877253
58	0x3ea85d9b	0.32883915
59	0x3eb0207b	0.3439978
60	0xbed94d08	-0.42441583
61	0xbec7d8c7	-0.39032575
62	0xbf2bc275	-0.6709359

dnets.0.std f4 [63]
0	0x3fa56842	1.2922442
1	0xbe0f7304	-0.14008719
2	0x3f38402b	0.7197291
3	0xbedc173d	-0.4298648
4	0x3f3377e2	0.701048
5	0x3faa172c	1.3288321
6	0xbe0a0811	-0.1347964
7	0x3fb3ded2	1.4052374
8	0x3f4fa07d	0.8110426
9	0x3f658c1a	0.89666903
10	0x3e05dfc0	0.13073635
11	0x3fb330bf	1.3999251
12	0x3f977e09	1.1835338
13	0x3da73f99	0.08166427
14	0x3faf0a89	1.367509
15	0x3fc8a3cf	1.567499
16	0x3ed812f0	0.42201948
17	0x3f825430	1.0181942
18	0xbe557c06	-0.20848092
19	0x4028159d	2.6263192
20	0xbfe0a2c9	-1.7549678
21	0xbeebfee5	-0.46092907
22	0x3f8387a4	1.0275769
23	0x4031a34c	2.7755919
24	0x3f0cfcc4	0.5507319
25	0x3e001889	0.1250936
26	0xbcc06790	-0.023486882
27	0x3f2cc99a	0.6749512
28	0x3ed1b0c7	0.40955183
29	0x3fc21361	1.5162164
30	0xbebf02ff	-0.37306973
31	0x3fa88ed8	1.3168592
32	0x3f910208	1.1328745
33	0x3eafa755	0.34307352
34	0xbe6a0e39	-0.22856988
35	0xbeb55470	-0.35415983
36	0xbed185ba	-0.40922338
37	0x3e6688c0	0.22513103
38	0x3f425c55	0.7592214
39	0x3f9755e6	1.1823089
40	0x3f9106d1	1.1330205
41	0xbe09841f	-0.13429306
42	0x3ff20a34	1.8909364
43	0x3fa6888c	1.3010421
44	0x3f0986f3	0.5372154
45	0x3f1da45e	0.6157893
46	0x3f2e695a	0.68129504
47	0x3f439658	0.7640128
48	0x3e8b0cef	0.27158305
49	0x3fbaa44d	1.4581391
50	0x3f394e13	0.72384757
51	0xbeb4c0b2	-0.35303265
52	0x3ef6fc68	0.48239446
53	0x3f86eec1	1.0541612
54	0x40059b69	2.0876105
55	0x3f2481e1	0.6426068
56	0x3ffb879f	1.9650763
57	0x3e73c473	0.23805408
58	0x3e2880a5	0.16455324
59	0x3f5fcbe1	0.8742047
60	0x401c5ccc	2.4431639
61	0xbe8e321c	-0.27772605
62	0xbfda51e7	-1.7056245

dnets.0.weights_rbf f4 [24, 63]
0	0x3c8030eb	0.015648326
1	0x3d0f9311	0.035052363
2	0x3cbd4f63	0.023109144
3	0x3d07bdb4	0.0331399
4	0xbc1f8006	-0.009735113
5	0xbc4d0e3b	-0.0125156
6	0x3e09b4f9	0.13447942
7	0xbc027611	-0.00796272
8	0x3cecd164	0.028908439
9	0xbc540ff1	-0.012943254
10	0x3de6e42a	0.112739876
11	0xbc688962	-0.014192911
12	0xbb78870c	-0.003792229
13	0xbda6eb6f	-0.08150374
14	0x3c704cff	0.014666795
15	0xbc0988d6	-0.008394441
16	0xbc161f4e	-0.009162737
17	0x3d09cd60	0.033643126
18	0x3ca97b41	0.020688655
19	0x3bbc4ce5	0.005746471
20	0xbc3e2286	-0.011604911
21	0xbdb10707	-0.086439185
22	0x3c249432	0.010045098
23	0xba56611c	-0.00081779226
24	0x3d09b208	0.03361705
25	0x3c082f8b	0.008312116
26	0x3c820821	0.015873017
27	0x3d919679	0.071087785
28	0x3d1ce2cc	0.038302228
29	0xbc5cc0c1	-0.0134736905
30	0x3d01e022	0.03170789
31	0x3a604743	0.00085555407
32	0xbc56d4c0	-0.013112247
33	0x3d00a621	0.031408433
34	0xbe0f80a9	-0.14013924
35	0x3c8076e8	0.015681699
36	0xbca82057	-0.020523233
37	0xbe408c3d	-0.18803497
38	0xbcb60656	-0.022219818
39	0x3a9fdcb3	0.0012196511
40	0xbba1c394	-0.004936645
41	0x3a292cde	0.0006453524
42	0xbacd9822	-0.0015685598
43	0x3c6ff73e	0.0146463495
44	0xbd962815	-0.07331864
45	0xbd812f96	-0.063079044
46	0x3d09808b	0.033569854
47	0xbc6608c0	-0.014040172
48	0x3d14f3f6	0.03636547
49	0xbbea1788	-0.0071439184
50	0xba5bae27	-0.0008380138
51	0xbc5ce3c2	-0.013482036
52	0xbce1e786	-0.02757622
53	0x3cd12850	0.025531918
54	0x3c501a87	0.012701637
55	0x3d0d30b4	0.034470275
56	0xbc14e812	-0.009088533
57	0x3c24a0fb	0.010048146
58	0x3c84060c	0.016116165
59	0x3ba59b39	0.0050539044
60	0xbb74ea8a	-0.0037371241
61	0xbd9dd4f0	-0.0770663
62	0xbbe15ca0	-0.006877497
63	0x3c450b10	0.012026563
64	0xbd6575d6	-0.05602058
65	0x3c297e5b	0.010345067
66	0x3b4e64fd	0.00314933
67	0x3c561de1	0.013068647
68	0x3c813c77	0.015775902
69	0x3c290ea9	0.010318437
70	0x3c6925c6	0.014230197
71	0x3c27295a	0.01020273
72	0x3c6a124c	0.014286589
73	0x3c82083a	0.015873063
74	0x3c859c54	0.016309895
75	0x3c5b0300	0.0133674145
76	0x3be13a78	0.006873425
77	0x3c474a56	0.012163719
78	0x3c6fbfa9	0.014633098
79	0x3c5cfb64	0.013487671
80	0x3c2dc90e	0.010607017
81	0x3bb8da00	0.005641222
82	0x3c5d5d45	0.013511007
83	0x3c83195e	0.016003307
84	0x3c094008	0.008377083
85	0x3c435dc7	0.011924214
86	0x3c67eee7	0.01415608
87	0x3bdfe8d7	0.0068331766
88	0x3c1e6f31	0.009670065
89	0x3c820821	0.015873017
90	0xbc02d07e	-0.007984279
91	0xbb5fce25	-0.0034149971
92	0x3c8531ce	0.0162591
93	0x3b629bee	0.0034577805
94	0x3c57e7bb	0.013177807
95	0x3c7c70e9	0.015407779
96	0x3aa0b58d	0.0012261138
97	0x3d383431	0.04497165
98	0x3e202016	0.1563724
99	0x3e3594cd	0.17732544
100	0xbac794e7	-0.0015226871
101	0x3c6b81fc	0.014374252
102	0x3c54f6ea	0.012998322
103	0x3c5b0f1a	0.0133703
104	0x3c9ddc98	0.019270226
105	0x3c63d4a8	0.013905682
106	0x3c4608a0	0.012087017
107	0x3c67413f	0.014114677
108	0x3c93cddb	0.018042495
109	0x3c0e3127	0.008678711
110	0x3c632630	0.013864085
111	0xbcbd125c	-0.023080043
112	0x3c67d371	0.014149533
113	0x3c4f61c4	0.0126575865
114	0x3c578a11	0.013155476
115	0x3c1eaf01	0.009685279
116	0x3c37cae2	0.011217805
117	0x3c523507	0.0128300255
118	0x3c004258	0.007828318
119	0x3c7d71f4	0.015469063
120	0x3c0261be	0.007957874
121	0xbd315355	-0.043292362
122	0x3c47bd88	0.012191184
123	0x3c6c68c6	0.014429277
124	0x3b12e122	0.0022412022
125	0x3c6c93d9	0.0144395465
126	0x3cb33629	0.021876412
127	0x3d48860b	0.04895596
128	0x3ced15ac	0.028940998
129	0x3d1bfbb5	0.038081843
130	0xbc6115cd	-0.013738108
131	0xbc8a6a5a	-0.016896416
132	0x3e401451	0.1875775
133	0xbbf2cbe0	-0.0074095577
134	0x3d1674f4	0.03673263
135	0xbc9dbbfd	-0.019254679
136	0x3e3c2e81	0.18377115
137	0xbca5eea8	-0.020255402
138	0xba2d507b	-0.0006611419
139	0xbe38320c	-0.17987841
140	0x3caacee8	0.020850614
141	0xbc048d6d	-0.008090359
142	0xbc84eb17	-0.01622538
143	0x3d2f63ee	0.04281991
144	0x3c9d814d	0.019226694
145	0x3c3b4036	0.011428883
146	0xbc6bce95	-0.014392515
147	0xbdea5306	-0.11441617
148	0x3c860020	0.016357481
149	0x3b80f9c7	0.003936026
150	0x3d210e32	0.03932018
151	0x3c1f3eb4	0.009719539
152	0x3c820821	0.015873017
153	0x3e11f8b4	0.14255029
154	0x3d6add34	0.057339862
155	0xbc97bfb3	-0.018524026
156	0x3cfab3af	0.030603258
157	0x3bbd97a0	0.0057858974
158	0xbc989bc4	-0.018628962
159	0x3cfc6563	0.030810064
160	0xbe534f4b	-0.20635717
161	0x3c3bdff5	0.01146697
162	0xbe00af93	-0.12566976
163	0xbe3060e7	-0.17224465
164	0xbd1e290c	-0.038613364
165	0x3bcb47b0	0.006203614
166	0xbb255314	-0.002522652
167	0xba076e04	-0.0005166235
168	0x3b375588	0.0027974565
169	0x3caad9aa	0.020855743
170	0xbdd0214b	-0.101626
171	0xbdbb2939	-0.09138722
172	0x3d2a5564	0.04158534
173	0xbcb983d0	-0.02264586
174	0x3d53bda5	0.05169453
175	0xbbc02099	-0.005863261
176	0x3b55da72	0.0032631424
177	0xbccbdcfe	-0.02488565
178	0xbd3d083f	-0.046150442
179	0x3d060944	0.03272368
180	0x3c9817bb	0.018566003
181	0x3d330d5b	0.04371391
182	0xbc18c9f9	-0.009325498
183	0x3c3c755b	0.011502589
184	0x3cd8d747	0.02646984
185	0x3c327b74	0.010893691
186	0xb8a52fea	-7.876738e-05
187	0xbda1512e	-0.07876812
188	0xbbab892b	-0.0052348576
189	0xbb116a95	-0.0022188772
190	0xbb742fde	-0.0037259976
191	0xbb9f5e24	-0.0048635174
192	0xbbb4cad6	-0.005517344
193	0x3adace36	0.0016693536
194	0x3b95d7cf	0.0045728455
195	0x3cfe1d6b	0.031019887
196	0x3b01e561	0.0019820558
197	0xbb985662	-0.0046489695
198	0x3b848981	0.004044712
199	0x3cfe4a5a	0.031041313
200	0x3b9ff527	0.0048815194
201	0x3a1a5684	0.00058875256
202	0x3c22ca6b	0.0099359555
203	0xbb012fe9	-0.0019712395
204	0x3b1c51e6	0.0023852526
205	0x3a1e774b	0.0006044998
206	0xbb70af1a	-0.0036725462
207	0xba611357	-0.00085859507
208	0x388638c9	6.400195e-05
209	0x3b843cdc	0.0040355753
210	0xb98ba14d	-0.00026632324
211	0xbb168917	-0.0022969896
212	0x3a6d0a14	0.0009042334
213	0xbbc3ab30	-0.005971335
214	0xbc1d4bca	-0.009600589
215	0x3c820821	0.015873017
216	0xbbb53a30	-0.005530618
217	0xbb8492a4	-0.0040458012
218	0x3b96d07f	0.0046024914
219	0xbbcd600d	-0.0062675537
220	0xb8354f26	-4.3227476e-05
221	0x3b99bbe7	0.004691589
222	0xbbbf7101	-0.0058423285
223	0x3ce77e0c	0.028258346
224	0x3c8f517e	0.017494913
225	0x3d291431	0.04127902
226	0x3c2d1c4e	0.01056583
227	0x3bbba0bc	0.005725948
228	0xb9b04141	-0.00033617954
229	0x3a3f383e	0.00072944525
230	0xbc1d3bdf	-0.009596794
231	0x3a5dbe1b	0.0008458809
232	0xbb09be2d	-0.0021017895
233	0x3adf0b5a	0.0017016933
234	0x3b31a6ac	0.00271074
235	0xbbad0dd8	-0.0052811913
236	0x3b8fe1ac	0.004390916
237	0xbbb546dd	-0.005532129
238	0x3ae3fedd	0.0017394681
239	0xbadc1ad8	-0.0016792668
240	0x3b1928df	0.0023370308
241	0x3b1e05c7	0.002411233
242	0xbb6a7f38	-0.0035781395
243	0xba69a2fc	-0.0008912531
244	0xbbb059e3	-0.005381809
245	0x3b51cfbe	0.0032014693
246	0xbbdf347f	-0.006811678
247	0xbb246a8d	-0.0025087923
248	0xbb06f7f9	-0.002059458
249	0x3ab4a44b	0.0013781873
250	0xbbfea7fc	-0.00777149
251	0x3af6aa08	0.0018818984
252	0x3bedb177	0.0072538215
253	0x3d02196b	0.03176252
254	0x3c0a6eed	0.008449298
255	0x3c83931b	0.016061356

dnets.0.conv.weight f4 [24, 3, 5, 5]
0	0x3c72a5ed	0.014810068
1	0xbd231d42	-0.039822824
2	0x3d710f1b	0.058852296
3	0xbcbe8eb3	-0.023261404
4	0x3ceb8ae3	0.02875275
5	0x3d1407fe	0.036140434
6	0x3d36e1b8	0.044648856
7	0xbd3e60ee	-0.046479158
8	0xbd3546c7	-0.04425695
9	0x3ceda0b9	0.029007303
10	0xbd5bd666	-0.053671263
11	0xbd86b335	-0.0657715
12	0x3e5161f2	0.2044752
13	0xbdc11c4e	-0.09429227
14	0xbd2d7bd3	-0.042354416
15	0xbdc02541	-0.093821056
16	0x3d006736	0.03134843
17	0x3e236b4b	0.15958898
18	0x3ce5872a	0.028018553
19	0xbc9b05aa	-0.0189236
20	0xbb9faea5	-0.004873114
21	0xbbd92d90	-0.006627746
22	0xbd281d97	-0.041043844
23	0x3cc309b3	0.023808336
24	0xbcf1ef8f	-0.029533176
25	0x3cfd4d35	0.030920604
26	0x3c219822	0.009862931
27	0xbd196cf9	-0.03745744
28	0xbc8a67fe	-0.01689529
29	0xbd48e4a4	-0.049046174
30	0x3bf01cdd	0.0073276595
31	0xbcc91673	-0.024546837
32	0x3dbc9ec4	0.0920997
33	0x3c43a2c9	0.0119406665
34	0x3c0217cb	0.007940243
35	0xbc98b54f	-0.018641142
36	0x3d4027ca	0.046912946
37	0x3d6b0911	0.057381693
38	0x3dbeccb5	0.093163885
39	0xbcd47214	-0.025933303
40	0x3c29ca89	0.01036323
41	0x3d3c7f3c	0.046019778
42	0x3d268f53	0.04066403
43	0x3d0c243d	0.034214247
44	0x3c4a5025	0.0123482095
45	0xbce560ae	-0.028000202
46	0xbc6c44ad	-0.01442067
47	0xbdbd0632	-0.09229697
48	0xbd215f8d	-0.039397765
49	0xbce1b472	-0.027551863
50	0x3d17fc6e	0.03710597
51	0x3b659ad7	0.0035034919
52	0x3d74665b	0.059667926
53	0x3d920558	0.071299255
54	0x3ce57668	0.028010562
55	0xbd357f8e	-0.0443111
56	0xbd1a6553	-0.037694287
57	0x3cd44411	0.025911363
58	0x3b60c4b4	0.0034296932
59	0x3c586920	0.0132086575
60	0xbd515186	-0.051103137
61	0xbd57a7ca	-0.05265025
62	0x3e567306	0.20942315
63	0xbcaca5cb	-0.02107515
64	0x3e1bd40a	0.15217605
65	0xbc203653	-0.009778577
66	0xbd294487	-0.04132512
67	0xbdcdf667	-0.10056763
68	0xbd9be729	-0.0761245
69	0x3b82f492	0.00399644
70	0xbcc74b8e	-0.02432802
71	0xbc595b72	-0.013266431
72	0xbb4c4150	-0.003116686
73	0xbdc9a8f3	-0.09846678
74	0x3b610c6b	0.0034339677
75	0xbdb82672	-0.08991708
76	0x3d56d06f	0.05244487
77	0xbda646e4	-0.0811899
78	0xbda17547	-0.07883697
79	0xbd2d2f46	-0.04228141
80	0xbdb24f8d	-0.08706579
81	0xbd605e0a	-0.054777183
82	0xbd954685	-0.07288841
83	0x3c8da32d	0.017289722
84	0xbd87a381	-0.06622983
85	0xbb2096a2	-0.0024503847
86	0xbcb620ef	-0.0222325
87	0xbd87fd31	-0.06640089
88	0xbdc65987	-0.09685045
89	0xbbef6595	-0.0073058107
90	0x3ccc3bec	0.024930917
91	0xbcacf3c5	-0.021112332
92	0x3dccc188	0.09997851
93	0xbddd70e6	-0.10812549
94	0xbd3a5711	-0.04549319
95	0xbd533671	-0.05156559
96	0xbc7c61e9	-0.015404203
97	0x3d1287f5	0.03577419
98	0xbacdcff8	-0.0015702238
99	0x3d13e094	0.036102846
100	0x3daeaa21	0.08528543
101	0x3bf2d9ba	0.007411209
102	0xbdbc391c	-0.0919058
103	0xbdd060b0	-0.10174692
104	0x3d8397dc	0.06425449
105	0x3da0bedd	0.07848904
106	0xbdd890eb	-0.10574516
107	0x3d82c15b	0.06384536
108	0xbdc947f9	-0.09828181
109	0x3dba8c77	0.09108823
110	0xbddd933f	-0.108191006
111	0xbdab3208	-0.08359152
112	0xbde7a044	-0.11309865
113	0xbd600a11	-0.0546971
114	0xbd3dec48	-0.046367913
115	0xbdadf7f4	-0.08494559
116	0x3cd63636	0.026148897
117	0x3d8939dc	0.06700489
118	0x3dabb1ef	0.083835475
119	0x3d23eb99	0.040019605
120	0x3ddc8a77	0.107685976
121	0xbd3c17cc	-0.045921132
122	0xbd3e5c76	-0.046474896
123	0xbdb6bfc2	-0.08923294
124	0x39c68bd0	0.0003786967
125	0x3bdc514c	0.0067235585
126	0x3ddf023c	0.10889098
127	0xbdb86842	-0.090042606
128	0xbd1dfbcd	-0.038570214
129	0x3d4130af	0.04716557
130	0x3c47cc04	0.012194637
131	0xbdc836ea	-0.09776099
132	0x3c7a59fa	0.015280241
133	0x3b9162b2	0.004436814
134	0xbdceed3b	-0.10103842
135	0xbdead737	-0.1146683
136	0x3dbfecc7	0.093713336
137	0xbb287973	-0.0025707155
138	0xbd5a1e03	-0.053251278
139	0xbc7edea9	-0.015556016
140	0x3d112973	0.03543992
141	0x3da7b648	0.08189064
142	0x3bff0eee	0.007783762
143	0x3b28a417	0.002573257
144	0xbcf74b93	-0.030187404
145	0xbdb67bb4	-0.08910313
146	0xbd88fac2	-0.06688453
147	0xbd94a911	-0.07258809
148	0x3ddb9927	0.10722571
149	0xbde82224	-0.11334637
150	0x3c121b98	0.008917712
151	0xbc8b20af	-0.016983358
152	0xbdb8e9ee	-0.090289935
153	0xbc8cdcfa	-0.017195214
154	0xbcba2eb3	-0.022727346
155	0xbb4175ff	-0.0029519794
156	0x3c0b1d00	0.008490801
157	0x3d3ca7c6	0.04605844
158	0xbd6b72ee	-0.057482652
159	0xbd5cb72e	-0.05388563
160	0xbd459487	-0.04823735
161	0x3e22ef59	0.15911616
162	0x3e8afbdb	0.27145275
163	0xbd843418	-0.064552486
164	0x3d79b0fc	0.0609598
165	0x3d4eacb6	0.05045768
166	0xbc6afbe0	-0.014342278
167	0xbd8aeac7	-0.067830615
168	0xbd48d188	-0.04902795
169	0xbcdbfb56	-0.026853245
170	0x3c1ae908	0.009454973
171	0x3c8fc49f	0.01754981
172	0x3d0da1a5	0.034577984
173	0xbc13883d	-0.00900465
174	0x3b20d0df	0.002453856
175	0x3ca0d6c4	0.019633658
176	0x3be60813	0.0070200055
177	0x3d03995c	0.032128677
178	0x3cc86412	0.02446178
179	0x3d0be522	0.034154065
180	0xbd7e4810	-0.062080443
181	0x3797bb7e	1.808791e-05
182	0x3e24abdd	0.16081186
183	0xbd4e9bfd	-0.05044173
184	0xbb8071ac	-0.0039198007
185	0x3c7bc9a4	0.015367899
186	0x3e05e367	0.13075028
187	0xbe818d79	-0.25303248
188	0x3e413e00	0.18871307
189	0x3d419cb2	0.047268577
190	0x3bd5bd92	0.0065228427
191	0xbcb85e38	-0.022505865
192	0xbde24883	-0.11048987
193	0xbacbe61f	-0.0015556252
194	0xb9109c4d	-0.00013791137
195	0xbc6dae3e	-0.014506875
196	0xbd26cb58	-0.040721267
197	0xbdb2ced8	-0.087308586
198	0x3ccfadee	0.02535149
199	0xbceca372	-0.02888653
200	0xbd46874c	-0.048468873
201	0x3d2e98d6	0.042626224
202	0x3a99e5f0	0.00117415
203	0x3bc4ddd4	0.0060078893
204	0x3c044ba0	0.008074671
205	0xbc523ae2	-0.012831422
206	0xbcf995bd	-0.030466909
207	0x3c672ea6	0.014110243
208	0x3c98b0c5	0.018638978
209	0x3c83d263	0.016091531
210	0x3d8bcf87	0.06826692
211	0xbda16603	-0.07880785
212	0xbcc0f4d1	-0.023554238
213	0xbd79f7e0	-0.061027408
214	0x3b940b16	0.004517923
215	0x3cf15a2c	0.029461943
216	0xbd4dcbdb	-0.05024324
217	0xbd8a0e1e	-0.06740974
218	0x3d0ce65b	0.03439937
219	0x3c81cf1e	0.015845831
220	0xbd469581	-0.04848242
221	0xbc649143	-0.013950649
222	0x3d491ca3	0.049099576
223	0x3cf6dd51	0.030134829
224	0x3d36c7c8	0.04462412
225	0x3d6f1bd9	0.058376167
226	0xbbddb521	-0.006765977
227	0xbc7e1a20	-0.015509158
228	0xbda8f4d7	-0.082498245
229	0xba7fe0ab	-0.0009760956
230	0xbd58ff8e	-0.05297809
231	0x3deaff7a	0.114745095
232	0xbd913885	-0.07090858
233	0xbdb0ba94	-0.08629337
234	0x3c0be57d	0.008538601
235	0xbcb14d94	-0.021643437
236	0x3d9ef8b4	0.0776228
237	0xbcee1c06	-0.029066097
238	0xbcf94f86	-0.030433428
239	0xbdc037e1	-0.09385658
240	0x3dc9067b	0.09815689
241	0x3d0d8135	0.03454705
242	0xbd93e12f	-0.07220685
243	0x3d3400e3	0.04394616
244	0xbd1db940	-0.038506746
245	0x3db5a56c	0.08869442
246	0xbd510e5d	-0.05103909
247	0xbd74d9a7	-0.059777882
248	0x3d8648d8	0.065568626
249	0x3e03790f	0.12839149
250	0xbdded944	-0.10881284
251	0xbcd79e24	-0.026320525
252	0x3da19313	0.0788938
253	0x3cdaac28	0.026693419
254	0xbd350a52	-0.044199295
255	0x3d3bbea3	0.045836102

dnets.1.means f4 [63]
0	0x3fa7a6db	1.3097795
1	0x3f0f9922	0.5609304
2	0x3f5dc34e	0.86626136
3	0x3f341c7d	0.7035597
4	0xbebc8672	-0.36821324
5	0xbfadb8f4	-1.3572068
6	0x3f4e5836	0.8060335
7	0xbf1b7778	-0.6072917
8	0x3f9afda6	1.2108657
9	0xbf4324e4	-0.76228166
10	0x3fa33398	1.275012
11	0xbfd0c2ac	-1.6309409
12	0xbdd57128	-0.104219735
13	0xbf76a644	-0.9634745
14	0x3fabfcc0	1.3436508
15	0xbf59c287	-0.8506245
16	0xbe8771b7	-0.26453945
17	0x3fdaaab2	1.7083342
18	0x3e8fa791	0.2805753
19	0x3fe5506d	1.7915169
20	0xbfed44cb	-1.8536619
21	0xbf5c9be6	-0.8617538
22	0x3f344051	0.7041064
23	0x3eb8747a	0.36026365
24	0x3f5ccc44	0.86249185
25	0x3de0b025	0.10971097
26	0xc02de1c9	-2.7169058
27	0x3fdffe5d	1.74995
28	0x3f52e267	0.8237671
29	0xbfddbfc6	-1.732415
30	0x3f0ee4bb	0.55817765
31	0x3e63708a	0.22210899
32	0xbf8f71af	-1.1206568
33	0x3f088087	0.5332112
34	0xbf885899	-1.0652038
35	0xbfe8c7f9	-1.8186027
36	0xbfd4261a	-1.6574128
37	0xbf393840	-0.72351456
38	0xbf754534	-0.9580872
39	0x3e5c60cc	0.215213
40	0xbe2e4071	-0.1701677
41	0xbe02d999	-0.1277832
42	0x3d58840d	0.05286031
43	0x3fa09369	1.2544986
44	0xbf842b3a	-1.0325692
45	0xbf9958b1	-1.1980191
46	0x3f8cbc50	1.0994968
47	0xbf309cc8	-0.6898923
48	0x3f229f81	0.63524634
49	0xbf06919a	-0.5256592
50	0x3d87036a	0.06592448
51	0xbeae31e8	-0.3402245
52	0xbf10edb8	-0.5661273
53	0x3fbe4c4e	1.4867036
54	0x400bf0bc	2.1865683
55	0x3f889f2e	1.0673578
56	0xbfd1f3fe	-1.6402586
57	0x3e6005e8	0.21877253
58	0x3ea85d9b	0.32883915
59	0x3eb0207b	0.3439978
60	0xbed94d08	-0.42441583
61	0xbec7d8c7	-0.39032575
62	0xbf2bc275	-0.6709359

dnets.1.std f4 [63]
0	0x3fa56842	1.2922442
1	0xbe0f7304	-0.14008719
2	0x3f38402b	0.7197291
3	0xbedc173d	-0.4298648
4	0x3f3377e2	0.701048
5	0x3faa172c	1.3288321
6	0xbe0a0811	-0.1347964
7	0x3fb3ded2	1.4052374
8	0x3f4fa07d	0.8110426
9	0x3f658c1a	0.89666903
10	0x3e05dfc0	0.13073635
11	0x3fb330bf	1.3999251
12	0x3f977e09	1.1835338
13	0x3da73f99	0.08166427
14	0x3faf0a89	1.367509
15	0x3fc8a3cf	1.567499
16	0x3ed812f0	0.42201948
17	0x3f825430	1.0181942
18	0xbe557c06	-0.20848092
19	0x4028159d	2.6263192
20	0xbfe0a2c9	-1.7549678
21	0xbeebfee5	-0.46092907
22	0x3f8387a4	1.0275769
23	0x4031a34c	2.7755919
24	0x3f0cfcc4	0.5507319
25	0x3e001889	0.1250936
26	0xbcc06790	-0.023486882
27	0x3f2cc99a	0.6749512
28	0x3ed1b0c7	0.40955183
29	0x3fc21361	1.5162164
30	0xbebf02ff	-0.37306973
31	0x3fa88ed8	1.3168592
32	0x3f910208	1.1328745
33	0x3eafa755	0.34307352
34	0xbe6a0e39	-0.22856988
35	0xbeb55470	-0.35415983
36	0xbed185ba	-0.40922338
37	0x3e6688c0	0.22513103
38	0x3f425c55	0.7592214
39	0x3f9755e6	1.1823089
40	0x3f9106d1	1.1330205
41	0xbe09841f	-0.13429306
42	0x3ff20a34	1.8909364
43	0x3fa6888c	1.3010421
44	0x3f0986f3	0.5372154
45	0x3f1da45e	0.6157893
46	0x3f2e695a	0.68129504
47	0x3f439658	0.7640128
48	0x3e8b0cef	0.27158305
49	0x3fbaa44d	1.4581391
50	0x3f394e13	0.72384757
51	0xbeb4c0b2	-0.35303265
52	0x3ef6fc68	0.48239446
53	0x3f86eec1	1.0541612
54	0x40059b69	2.0876105
55	0x3f2481e1	0.6426068
56	0x3ffb879f	1.9650763
57	0x3e73c473	0.23805408
58	0x3e2880a5	0.16455324
59	0x3f5fcbe1	0.8742047
60	0x401c5ccc	2.4431639
61	0xbe8e321c	-0.27772605
62	0xbfda51e7	-1.7056245

dnets.1.weights_rbf f4 [24, 63]
0	0x3ba606e2	0.0050667385
1	0x3e01250a	0.12611786
2	0x3c1fdd88	0.009757407
3	0x3c8fd02f	0.017555324
4	0xbbabbd92	-0.0052411044
5	0xbb95b6a2	-0.0045688907
6	0x3cb06c03	0.021535879
7	0xbb080e06	-0.0020760312
8	0x3c3696f8	0.011144392
9	0xbbc69eb0	-0.0060613975
10	0x3c820821	0.015873017
11	0xbba557bf	-0.0050458605
12	0xba43bbff	-0.0007466673
13	0x3c761cbf	0.015021502
14	0x3b998c00	0.0046858788
15	0xbb0f602b	-0.002187739
16	0xbc271336	-0.010197451
17	0x3c31e2f1	0.01085733
18	0x3a9aa1b5	0.001179746
19	0x3afedf1a	0.0019445152
20	0xbb638733	-0.0034718036
21	0xbcd29c60	-0.025709331
22	0x3b80c021	0.0039291536
23	0x39e93e7a	0.00044487772
24	0x3c797db8	0.015227728
25	0xbc03bb02	-0.008040192
26	0x3c820821	0.015873017
27	0x3ce622f4	0.028092839
28	0x3cc10065	0.023559758
29	0xbb93f2e5	-0.0045150393
30	0x3c8a00c6	0.016846072
31	0x3a37d449	0.0007012529
32	0xbbaeb415	-0.005331526
33	0x3c911962	0.017712299
34	0xbc1849c4	-0.009294931
35	0x3c820821	0.015873017
36	0x3c76ec8a	0.015071044
37	0xbdc6bd9b	-0.09704133
38	0xbc3e0f1c	-0.011600282
39	0x3a4c8975	0.0007802465
40	0xba9990ae	-0.0011716092
41	0xbc822e58	-0.015891239
42	0x390cc8be	0.00013426223
43	0x3b9c26e2	0.0047653774
44	0xbcbc811e	-0.023010787
45	0xbcacab67	-0.021077825
46	0x3c618aec	0.013766032
47	0xbbfe439f	-0.007759526
48	0x3d4fc3f4	0.050723985
49	0xbade618b	-0.0016966326
50	0xb8f41c69	-0.000116401185
51	0xbca1a791	-0.019733222
52	0xbc8f8dc9	-0.017523663
53	0x3c0d993c	0.008642491
54	0x3b718d01	0.0036857727
55	0x3c72c076	0.014816394
56	0xbb1bcf38	-0.0023774635
57	0x3c1d3b81	0.009596706
58	0x3e0c0d1c	0.13676876
59	0x3b1814f6	0.0023205853
60	0xb9b62a4e	-0.00034745265
61	0xbd664857	-0.056221332
62	0xbac2d65d	-0.0014864911
63	0x3ac37abe	0.0014913899
64	0xbd83dfa2	-0.06439139
65	0x3b87fa49	0.0041497094
66	0x3c86b7df	0.016445098
67	0xbb3b0f6c	-0.0028543128
68	0xbb41060a	-0.0029453062
69	0x3c90b38b	0.017663738
70	0xbb1c096f	-0.0023809334
71	0x3bb0b03b	0.005392102
72	0xbb5a5a79	-0.0033318086
73	0x3c820821	0.015873017
74	0xbb4bb433	-0.003108275
75	0xbad49a47	-0.0016220295
76	0x3c7709db	0.015078033
77	0x3aa53386	0.0012603856
78	0xbb2051f7	-0.0024462917
79	0xbb6f4694	-0.0036510574
80	0x3bdd64d2	0.0067564035
81	0x3d0a8b45	0.033824224
82	0xba02c57d	-0.00049885345
83	0xbb3223be	-0.0027181949
84	0xbc270cc6	-0.0101959165
85	0x3a5243b5	0.00080209534
86	0xbac03388	-0.0014663795
87	0x3c238660	0.009980768
88	0x3cc7959b	0.02436333
89	0x3c820821	0.015873017
90	0x3cbbceca	0.022925753
91	0x3cc7abf7	0.024373991
92	0xbb4381e4	-0.002983206
93	0x3c372bee	0.011179907
94	0xba7abbe2	-0.000956474
95	0xbb4d62d2	-0.003133942
96	0x3c6eb1b3	0.014568734
97	0x3c0b819e	0.00851479
98	0x3c82069e	0.015872296
99	0x3c3b1f73	0.011421072
100	0xbc8ebf98	-0.017425343
101	0xbba7d2d3	-0.0051215678
102	0xba53d2ce	-0.00080804236
103	0xbaebd428	-0.0017992305
104	0xbc9060a5	-0.017624209
105	0xbac38970	-0.0014918279
106	0x3aab3033	0.0013060629
107	0xbc1206a1	-0.008912713
108	0xbc0317f6	-0.008001318
109	0x3c00eb9f	0.007868676
110	0xbb72b536	-0.003703428
111	0x3c4e3652	0.012586193
112	0xbb13bb6a	-0.0022542127
113	0xba118881	-0.00055516517
114	0xbbe9e520	-0.0071379095
115	0xbc030e85	-0.007999067
116	0x3b7b220c	0.0038319854
117	0x3a2bac9d	0.00065488537
118	0x3c1b3aa9	0.009474435
119	0xbb20eddd	-0.002455584
120	0x3c1cb327	0.009564198
121	0x3c71e198	0.014763258
122	0x3956194b	0.00020418053
123	0xbaf1b749	-0.0018441464
124	0xbc8712dc	-0.016488485
125	0xbb124810	-0.0022320785
126	0x3be85862	0.007090614
127	0xbe13a4f1	-0.14418389
128	0x3c2dc6e3	0.0106065
129	0x3d129e34	0.035795406
130	0xbb96708d	-0.004591054
131	0xbb33ca87	-0.0027433948
132	0x3cb51e25	0.0221091
133	0xbaaba838	-0.0013096398
134	0x3c757e3f	0.014983713
135	0xbb8f5c8e	-0.004375047
136	0x3c820681	0.015872242
137	0xbb54c058	-0.0032463279
138	0xb92e1de4	-0.00016605068
139	0x3c740ba6	0.014895355
140	0x3bdc21e9	0.0067179096
141	0xbaa2070c	-0.0012361719
142	0xbc1128a6	-0.008859789
143	0x3c9fc922	0.019505087
144	0x3d884159	0.06653089
145	0x3b7727d7	0.0037712955
146	0xbb030ad2	-0.0019995463
147	0xba52e38a	-0.000804477
148	0x3b9f61b5	0.0048639425
149	0x3adb851b	0.0016748043
150	0x3cc34e58	0.023841068
151	0xba2f603b	-0.00066900597
152	0x3c820821	0.015873017
153	0x3d71e78a	0.059058703
154	0x3d7cf5cc	0.061757848
155	0xbb3b13ae	-0.0028545666
156	0x3cc11b67	0.023572637
157	0x3aeb5a5a	0.0017956004
158	0xbb5ef74e	-0.0034021917
159	0x3cfda518	0.030962512
160	0x3c79aaf0	0.015238509
161	0x3c81fdda	0.015868116
162	0x3c75c209	0.014999875
163	0xbcd3f5fd	-0.025874132
164	0xbc128788	-0.008943446
165	0x3aebb391	0.0017982592
166	0xba3b219c	-0.0007138492
167	0xbd42833c	-0.047488436
168	0x3aa3d8ba	0.0012500503
169	0x3bdb5f9f	0.0066947485
170	0xbb9a3bf9	-0.0047068563
171	0xbbdba2f8	-0.006702777
172	0x3ca6dacf	0.020368008
173	0xbbbb7652	-0.005720892
174	0x3d840b0f	0.06447422
175	0xba7d0c85	-0.00096530496
176	0xb8db3c65	-0.00010453983
177	0xbc9164ce	-0.017748263
178	0xbc7ad951	-0.015310601
179	0x3c465a36	0.012106469
180	0x3bc686e2	0.0060585598
181	0x3cc2d39d	0.023782546
182	0xba8d00fc	-0.001075774
183	0x3b5f438f	0.0034067368
184	0x3dae5f57	0.085142784
185	0x3b3ed70b	0.0029119875
186	0x3a325f21	0.00068043364
187	0x3c537ff2	0.0129089225
188	0xba25360e	-0.0006302305
189	0x3b2b6b8b	0.002615663
190	0x3c6495d2	0.013951736
191	0x3bd7166a	0.0065639513
192	0x3c039307	0.0080306595
193	0xb88d1253	-6.726817e-05
194	0xbb9c0546	-0.004761371
195	0x3c8205ba	0.015871871
196	0xbb2a3023	-0.0025968633
197	0x3bef2796	0.00729842
198	0xbb5c0fbd	-0.0033578717
199	0x3c820821	0.015873017
200	0xbbb4fad4	-0.005523065
201	0xba42c547	-0.00074299093
202	0xbe0bfa6a	-0.13669744
203	0x3b12b39d	0.002238489
204	0xbb4a1572	-0.0030835536
205	0x3b77b238	0.0037795436
206	0x3be80b7b	0.0070814467
207	0xbbdf1ae9	-0.006808628
208	0xba44430a	-0.0007486796
209	0xbb9bbda3	-0.004752831
210	0xbc54df0b	-0.012992631
211	0x3b19ed6c	0.0023487462
212	0xbb06f79e	-0.0020594369
213	0x3c0eff2f	0.008727833
214	0x3b9b6f7a	0.0047435137
215	0x3c820821	0.015873017
216	0x3b352810	0.0027642287
217	0x3b377008	0.002799036
218	0xbbae3ce1	-0.005317316
219	0x3bec366c	0.007208636
220	0xb98007f0	-0.00024419976
221	0xbb95f28e	-0.004576034
222	0x3bd108f7	0.0063792425
223	0xbd590158	-0.052979797
224	0x3c223daa	0.009902397
225	0xbdb6ebe4	-0.08931711
226	0xbc949b6b	-0.018140515
227	0xbbdd3de9	-0.006751765
228	0x398873fb	0.00026026354
229	0xba5994ba	-0.0008300055
230	0x3c0bb80e	0.008527769
231	0xbade94f4	-0.0016981647
232	0x3b1c1541	0.002381638
233	0xbc6c04d5	-0.014405449
234	0xbc700d84	-0.01465166
235	0x3c0e9722	0.008703025
236	0xbb514b87	-0.0031935887
237	0x3b442d29	0.0029934144
238	0xbb1f9a1f	-0.0024353338
239	0x3b29d499	0.0025914072
240	0x3b5e21e5	0.0033894714
241	0xbb5edeb1	-0.0034007246
242	0x3bb47a17	0.0055077183
243	0x3a6a4600	0.00089368224
244	0x3c1638b0	0.009168789
245	0xbb8081ff	-0.0039217467
246	0x3beb9b2a	0.007190128
247	0x3da3be2f	0.07995259
248	0x3b19ca91	0.0023466686
249	0xbb26a3cf	-0.0025427227
250	0x3abc02d1	0.0014344101
251	0xbb35b527	-0.0027726383
252	0x3c3821ba	0.01123851
253	0x3da438e8	0.080186665
254	0x3c7c9258	0.01541575
255	0x3ce3156b	0.027720174

dnets.1.conv.weight f4 [24, 3, 5, 5]
0	0xbdc27b48	-0.0949617
1	0xbcf14683	-0.029452568
2	0xbd6c70df	-0.05772483
3	0xbd299601	-0.04140282
4	0x3dac1520	0.08402467
5	0x3d4f17d9	0.050559852
6	0xbd82f477	-0.06394284
7	0xbd7594ac	-0.059956238
8	0x3c4ebe09	0.01261855
9	0x3d9378b7	0.07200759
10	0x3d6c8ec9	0.057753358
11	0x3ddd4679	0.10804457
12	0x3d2dc947	0.04242828
13	0x3dd6a9ac	0.10481581
14	0xbcd4056e	-0.025881495
15	0xbd94abb1	-0.0725931
16	0xbc912173	-0.017716145
17	0x3dc8c048	0.098023
18	0xbd4940f7	-0.04913422
19	0xbd91f0bc	-0.071259946
20	0x3db8874a	0.09010179
21	0xbd4a922f	-0.049455818
22	0xbd13f3ed	-0.036121298
23	0x3d61be68	0.055113226
24	0xbd288c1f	-0.041149255
25	0xbdadab9d	-0.08479998
26	0xbd0ae650	-0.03391105
27	0xbdc20662	-0.09473874
28	0x3cd2b697	0.025721831
29	0x3d7c8008	0.061645538
30	0xbc8f0291	-0.017457278
31	0xbd62aafa	-0.055338837
32	0x3d7b583b	0.06136344
33	0x3c9ec1c7	0.01937951
34	0xbdd89541	-0.10575343
35	0x3de26806	0.11054997
36	0x3d8a055f	0.06739306
37	0x3d439cf2	0.047757097
38	0x3dde2e98	0.10848731
39	0x3d4943ca	0.049136914
40	0xbe03f22e	-0.12885353
41	0x3d36853c	0.044560656
42	0xbd8ce3ab	-0.06879362
43	0xbc440032	-0.011962937
44	0x3cccde3c	0.025008313
45	0x3aaba334	0.0013094903
46	0xbdced09f	-0.10098385
47	0x3e02f29f	0.12787865
48	0x3b2441e1	0.002506368
49	0xbbd725bc	-0.0065657776
50	0x3e09d5c2	0.13460448
51	0xbcf8884c	-0.030338429
52	0x3dd7b2e9	0.10532171
53	0xbd0d698d	-0.03452449
54	0xbce653e5	-0.028116176
55	0x3deeaa09	0.116535254
56	0xbb33e385	-0.0027448845
57	0xbd924d83	-0.071436904
58	0xbd1ba355	-0.037997562
59	0x3c928699	0.017886447
60	0xbb8e9820	-0.004351631
61	0xbd8b1868	-0.067917645
62	0x3dfde779	0.123976655
63	0x357bf045	9.3854425e-07
64	0x3c42e08b	0.0118943555
65	0x3d816a97	0.063191585
66	0xbb9d5098	-0.0048008673
67	0xbd987426	-0.074440286
68	0xbcd8991b	-0.026440194
69	0xbd5f6825	-0.05454268
70	0x3d01bb0b	0.03167252
71	0xbd9d2a55	-0.0767409
72	0x3d5dc5c8	0.054143697
73	0xb8103cf8	-3.4389057e-05
74	0xbdc9da8c	-0.09856138
75	0xbdf23394	-0.11826244
76	0x3db4540e	0.08805095
77	0x3d32f04c	0.043686196
78	0x3cbfe6c2	0.023425464
79	0x3d0ece54	0.03486474
80	0xbdefc92a	-0.11708291
81	0xbcfca522	-0.03084046
82	0xbd53a046	-0.05166652
83	0xbd8662d1	-0.065618165
84	0xbcfa6a42	-0.030568246
85	0xbc8efd74	-0.01745484
86	0x3c72b585	0.014813785
87	0x3d26442b	0.040592354
88	0xbd18817d	-0.037232865
89	0x3d8a18dd	0.067430235
90	0xbd0fd88f	-0.035118636
91	0xbda6aecb	-0.08138808
92	0x3d3013d2	0.042987652
93	0x3dded2be	0.1088004
94	0xbdd55c01	-0.10417939
95	0x3dbbf8f1	0.09178341
96	0xbd8e7969	-0.06956751
97	0x3dc69150	0.09695685
98	0xbc021425	-0.007939373
99	0x3e047026	0.12933406
100	0xbd077c83	-0.033077728
101	0x3d6102c8	0.054934293
102	0x3ce3a1a8	0.027787045
103	0xbc98db21	-0.018659176
104	0x3dac31e4	0.084079534
105	0x3dbe145c	0.09281227
106	0xbc8cf143	-0.017204886
107	0x3c36ab3a	0.011149222
108	0xbcf91b92	-0.030408654
109	0xbdabd6cb	-0.08390578
110	0xbd0b6cdb	-0.03403936
111	0xbd53309e	-0.051560037
112	0x3de36132	0.11102523
113	0x3d5d9724	0.054099217
114	0xbd6ec0f4	-0.058289483
115	0x3d92fb98	0.07176894
116	0xbc15785a	-0.009122932
117	0x3dbe4249	0.09289987
118	0x3d728359	0.059207294
119	0xbd8d961e	-0.06913398
120	0xbde28821	-0.11061121
121	0xbd75a33a	-0.059970118
122	0xbcf6fbc2	-0.030149344
123	0xbd2502fa	-0.04028604
124	0x3c5adbdf	0.013358085
125	0xbd3343f5	-0.04376598
126	0x3d847575	0.06467716
127	0xbd337809	-0.043815646
128	0x3dd9040f	0.10596477
129	0x3d7f118c	0.062272593
130	0xbd82a881	-0.06379796
131	0x3bd0d880	0.006373465
132	0x3da93db9	0.08263726
133	0x3d98155e	0.074259505
134	0xbdad52c9	-0.08463056
135	0xbc82b8c2	-0.01595724
136	0xbd7d114d	-0.061784077
137	0xbaa4e2fc	-0.0012579854
138	0x3bbc1806	0.0057401685
139	0x3dc66f49	0.09689195
140	0x3cb0c6ca	0.021579165
141	0xbd2b1b5c	-0.04177414
142	0xbd597ae7	-0.053095724
143	0xbd734d28	-0.059399754
144	0x3bebba14	0.007193813
145	0xbda8d9e9	-0.08244688
146	0x3dce7ad2	0.1008202
147	0x3bed948d	0.0072503746
148	0xbb205a9b	-0.0024468068
149	0xbd62a626	-0.055334233
150	0xba9b0d94	-0.0011829608
151	0x3d9299f5	0.07158271
152	0xbe025589	-0.12727942
153	0x3cbf8602	0.02337933
154	0x3d10be30	0.035337627
155	0xbdc9917c	-0.09842202
156	0xbc742d94	-0.014903445
157	0xbda0c865	-0.07850722
158	0xbd6208a6	-0.05518403
159	0xbd6a4226	-0.05719199
160	0xbe095883	-0.13412671
161	0x3cc420d1	0.02394143
162	0xbcfbe6ad	-0.030749643
163	0x3d9c7a2d	0.07640491
164	0xbc202710	-0.009774938
165	0xbd063ac5	-0.03277089
166	0x3d5e9b06	0.05434706
167	0x3d0b21a9	0.033967648
168	0x3da3a318	0.07990092
169	0x3c639356	0.013890108
170	0x3d901639	0.07035489
171	0xbd18a2b9	-0.03726456
172	0xbd356ddb	-0.04429422
173	0x3d4bfaeb	0.04979984
174	0x3d5f8635	0.05457135
175	0x3d5f19da	0.054468013
176	0x3cd31e57	0.025771303
177	0x3dc37425	0.09543637
178	0x3d8f2ead	0.069913246
179	0x3c8bab41	0.017049434
180	0x3da1d3e8	0.07901746
181	0xbbe71973	-0.0070525943
182	0x3dd4a368	0.1038273
183	0xbda9957c	-0.08280465
184	0xbcd87ea3	-0.026427573
185	0x3c8e7fa1	0.017394843
186	0xbc3e222a	-0.011604825
187	0xbc920dca	-0.01782884
188	0x3c660ba1	0.0140408585
189	0xbd9f50b8	-0.07779068
190	0x3d822580	0.06354809
191	0xbd61bc4d	-0.05511122
192	0x3ddb1a1f	0.106983416
193	0xbdaef50e	-0.08542834
194	0xbda9fbd3	-0.08299985
195	0x3b884545	0.004158648
196	0xbdacf811	-0.084457524
197	0x3da6a489	0.08136851
198	0xbde0cc42	-0.10976459
199	0x3dac5f5a	0.08416624
200	0x3da4a099	0.08038444
201	0xbd9e0d08	-0.07717329
202	0x3ce88d47	0.028387679
203	0xbdad8aab	-0.084737144
204	0x3cde3a79	0.027127491
205	0xbd0aa3a4	-0.033847466
206	0x3d8c7b50	0.068594575
207	0x3df45ba1	0.11931539
208	0x3cfe9434	0.031076528
209	0x3df1f3a4	0.11814049
210	0xbd76d8f3	-0.060265493
211	0x3d0e51c7	0.034745958
212	0xbd8ed44d	-0.06974087
213	0xbca38417	-0.019960446
214	0xbdd989f5	-0.10622016
215	0xbc62b71c	-0.013837602
216	0x3dad00ee	0.08447443
217	0x3dc840fd	0.097780205
218	0xbdac665b	-0.0841796
219	0xbd579047	-0.052627828
220	0xbd87ed29	-0.066370316
221	0x3dc133f3	0.09433737
222	0xbd977af3	-0.073964976
223	0xbc89ca58	-0.016820118
224	0xbdb6aa2f	-0.08919179
225	0xbc56b306	-0.013104206
226	0xbd8ca505	-0.068674125
227	0x3df24de4	0.11831263
228	0xbc76dbaf	-0.015067025
229	0x3ddccd06	0.107812926
230	0xbd3e5573	-0.04646821
231	0xbd710b22	-0.058848508
232	0x3e096a23	0.13419394
233	0xbd85efb5	-0.06539861
234	0xbd1ee3fa	-0.038791634
235	0x3d8f0e40	0.0698514
236	0xbbfb8b56	-0.0076765222
237	0xbce33cbb	-0.02773892
238	0x3a2e1d26	0.00066419167
239	0xb967164c	-0.00022038183
240	0xbd9eeeb3	-0.07760372
241	0x3ba21624	0.004946487
242	0x3da33345	0.07968763
243	0x3dd0eb84	0.10201171
244	0xbd763cbb	-0.06011651
245	0xbd051d1c	-0.032498464
246	0xbd254bd8	-0.040355533
247	0xbd3e7e48	-0.04650715
248	0x3dac4f57	0.084135704
249	0xbda17fa3	-0.07885673
250	0xbc8dde81	-0.017318012
251	0x3e06b13a	0.13153544
252	0x3de26cb7	0.11055892
253	0xbd7a5118	-0.061112493
254	0xbdbdec4c	-0.09273586
255	0x3d36b778	0.044608563

dnets.2.means f4 [63]
0	0x3fa7a6db	1.3097795
1	0x3f0f9922	0.5609304
2	0x3f5dc34e	0.86626136
3	0x3f341c7d	0.7035597
4	0xbebc8672	-0.36821324
5	0xbfadb8f4	-1.3572068
6	0x3f4e5836	0.8060335
7	0xbf1b7778	-0.6072917
8	0x3f9afda6	1.2108657
9	0xbf4324e4	-0.76228166
10	0x3fa33398	1.275012
11	0xbfd0c2ac	-1.6309409
12	0xbdd57128	-0.104219735
13	0xbf76a644	-0.9634745
14	0x3fabfcc0	1.3436508
15	0xbf59c287	-0.8506245
16	0xbe8771b7	-0.26453945
17	0x3fdaaab2	1.7083342
18	0x3e8fa791	0.2805753
19	0x3fe5506d	1.7915169
20	0xbfed44cb	-1.8536619
21	0xbf5c9be6	-0.8617538
22	0x3f344051	0.7041064
23	0x3eb8747a	0.36026365
24	0x3f5ccc44	0.86249185
25	0x3de0b025	0.10971097
26	0xc02de1c9	-2.7169058
27	0x3fdffe5d	1.74995
28	0x3f52e267	0.8237671
29	0xbfddbfc6	-1.732415
30	0x3f0ee4bb	0.55817765
31	0x3e63708a	0.22210899
32	0xbf8f71af	-1.1206568
33	0x3f088087	0.5332112
34	0xbf885899	-1.0652038
35	0xbfe8c7f9	-1.8186027
36	0xbfd4261a	-1.6574128
37	0xbf393840	-0.72351456
38	0xbf754534	-0.9580872
39	0x3e5c60cc	0.215213
40	0xbe2e4071	-0.1701677
41	0xbe02d999	-0.1277832
42	0x3d58840d	0.05286031
43	0x3fa09369	1.2544986
44	0xbf842b3a	-1.0325692
45	0xbf9958b1	-1.1980191
46	0x3f8cbc50	1.0994968
47	0xbf309cc8	-0.6898923
48	0x3f229f81	0.63524634
49	0xbf06919a	-0.5256592
50	0x3d87036a	0.06592448
51	0xbeae31e8	-0.3402245
52	0xbf10edb8	-0.5661273
53	0x3fbe4c4e	1.4867036
54	0x400bf0bc	2.1865683
55	0x3f889f2e	1.0673578
56	0xbfd1f3fe	-1.6402586
57	0x3e6005e8	0.21877253
58	0x3ea85d9b	0.32883915
59	0x3eb0207b	0.3439978
60	0xbed94d08	-0.42441583
61	0xbec7d8c7	-0.39032575
62	0xbf2bc275	-0.6709359

dnets.2.std f4 [63]
0	0x3fa56842	1.2922442
1	0xbe0f7304	-0.14008719
2	0x3f38402b	0.7197291
3	0xbedc173d	-0.4298648
4	0x3f3377e2	0.701048
5	0x3faa172c	1.3288321
6	0xbe0a0811	-0.1347964
7	0x3fb3ded2	1.4052374
8	0x3f4fa07d	0.8110426
9	0x3f658c1a	0.89666903
10	0x3e05dfc0	0.13073635
11	0x3fb330bf	1.3999251
12	0x3f977e09	1.1835338
13	0x3da73f99	0.08166427
14	0x3faf0a89	1.367509
15	0x3fc8a3cf	1.567499
16	0x3ed812f0	0.42201948
17	0x3f825430	1.0181942
18	0xbe557c06	-0.20848092
19	0x4028159d	2.6263192
20	0xbfe0a2c9	-1.7549678
21	0xbeebfee5	-0.46092907
22	0x3f8387a4	1.0275769
23	0x4031a34c	2.7755919
24	0x3f0cfcc4	0.5507319
25	0x3e001889	0.1250936
26	0xbcc06790	-0.023486882
27	0x3f2cc99a	0.6749512
28	0x3ed1b0c7	0.40955183
29	0x3fc21361	1.5162164
30	0xbebf02ff	-0.37306973
31	0x3fa88ed8	1.3168592
32	0x3f910208	1.1328745
33	0x3eafa755	0.34307352
34	0xbe6a0e39	-0.22856988
35	0xbeb55470	-0.35415983
36	0xbed185ba	-0.40922338
37	0x3e6688c0	0.22513103
38	0x3f425c55	0.7592214
39	0x3f9755e6	1.1823089
40	0x3f9106d1	1.1330205
41	0xbe09841f	-0.13429306
42	0x3ff20a34	1.8909364
43	0x3fa6888c	1.3010421
44	0x3f0986f3	0.5372154
45	0x3f1da45e	0.6157893
46	0x3f2e695a	0.68129504
47	0x3f439658	0.7640128
48	0x3e8b0cef	0.27158305
49	0x3fbaa44d	1.4581391
50	0x3f394e13	0.72384757
51	0xbeb4c0b2	-0.35303265
52	0x3ef6fc68	0.48239446
53	0x3f86eec1	1.0541612
54	0x40059b69	2.0876105
55	0x3f2481e1	0.6426068
56	0x3ffb879f	1.9650763
57	0x3e73c473	0.23805408
58	0x3e2880a5	0.16455324
59	0x3f5fcbe1	0.8742047
60	0x401c5ccc	2.4431639
61	0xbe8e321c	-0.27772605
62	0xbfda51e7	-1.7056245

dnets.2.weights_rbf f4 [24, 63]
0	0x3bbb539f	0.0057167555
1	0x3d5d75e3	0.054067504
2	0x3bd5f0f7	0.0065289694
3	0x3c53fc02	0.012938501
4	0xbac8afd1	-0.0015311186
5	0xbad89c95	-0.0016526157
6	0x3d43f992	0.04784543
7	0xba99d493	-0.0011736326
8	0x3c248198	0.010040663
9	0xbb000459	-0.0019533841
10	0x3c875142	0.016518239
11	0xbb3a6954	-0.0028444128
12	0x390f6d2c	0.00013678212
13	0xbcb7e118	-0.0224462
14	0x3bb4e81b	0.005520833
15	0xba920a7e	-0.0011142043
16	0xba85d515	-0.0010210598
17	0x3c63be58	0.013900362
18	0x3c31d2ee	0.010853512
19	0x3b66f34c	0.003524023
20	0xbaf2b59f	-0.0018517262
21	0xbd38074c	-0.044928834
22	0x3b59ce73	0.0033234626
23	0x3aa8d837	0.001288182
24	0x3c446560	0.01198706
25	0x3c711ec8	0.0147168115
26	0x3c820821	0.015873017
27	0x3c51005a	0.0127564315
28	0x3c435acc	0.011923503
29	0xbb2c495b	-0.002628884
30	0x3c110b38	0.008852772
31	0x3ae0e9ab	0.0017159482
32	0xbae7ae23	-0.0017675798
33	0x3c1f2aae	0.0097147655
34	0xbdf4646e	-0.11933218
35	0x3c820821	0.015873017
36	0xbafbe2d3	-0.0019217379
37	0xbcf43a30	-0.029812902
38	0xbc035a21	-0.008017094
39	0x3ae49088	0.0017438093
40	0xb9a8b50f	-0.00032178356
41	0xbc46a336	-0.012123873
42	0x3a8da7e5	0.0010807483
43	0x3bb0b774	0.005392963
44	0xbd161906	-0.036644958
45	0xbd004cfe	-0.031323425
46	0x3c42ee21	0.011897595
47	0xbb136f74	-0.002249685
48	0xbc0ba195	-0.008522411
49	0xba796566	-0.0009513706
50	0x39ab5b92	0.00032683887
51	0xbb8ca329	-0.004291911
52	0xbc6e63a7	-0.014550126
53	0x3c182a5a	0.009287441
54	0x3bb97098	0.005659174
55	0x3c530a14	0.012880821
56	0xba6d42d7	-0.00090507924
57	0xba229eb6	-0.00062034593
58	0xbd1baf9a	-0.038009264
59	0x3af97d6f	0.0019034575
60	0x39a83616	0.00032083754
61	0xbd8a0289	-0.06738765
62	0xba495731	-0.0007680534
63	0x3cae81ff	0.021302221
64	0x3dbd5122	0.092439905
65	0x3ccf6ba1	0.025319876
66	0x3ceff333	0.029290771
67	0xbc229c5e	-0.009924976
68	0xbc07a2da	-0.008278573
69	0x3d87287c	0.06599519
70	0xbb4dcbbf	-0.003140196
71	0x3cfea128	0.031082705
72	0xbc3a58e3	-0.011373731
73	0x3c9c8ec9	0.019111054
74	0xbc36c336	-0.01115494
75	0x3ad17662	0.0015980715
76	0x3b7fe865	0.003904843
77	0x3ca8bcf2	0.020597909
78	0xbb4831e0	-0.0030547306
79	0xbc6ec4af	-0.01457326
80	0x3d188c8f	0.037243422
81	0x3c4ace53	0.012378293
82	0x3c5f5bba	0.013632709
83	0xbbd7aafe	-0.006581663
84	0xbdc734b7	-0.097268514
85	0x3c814fd9	0.015785145
86	0x3be6574e	0.0070294505
87	0x3d03256c	0.03201811
88	0xbaaf6049	-0.0013380136
89	0x3c820821	0.015873017
90	0x3d32bfc3	0.04363991
91	0x3ce20f9c	0.027595334
92	0xbc21638f	-0.009850397
93	0x3cbd48de	0.023106035
94	0x3c029116	0.0079691615
95	0xbc207633	-0.009793806
96	0x3cb51216	0.02210335
97	0xbdc22d15	-0.09481255
98	0x3c820821	0.015873017
99	0x3c64b553	0.013959247
100	0x3c35b584	0.01109064
101	0xbcf6cfcb	-0.03012838
102	0x3c04e27b	0.008110638
103	0xb971f7f1	-0.00023075916
104	0xbc9ca68f	-0.01912239
105	0x3bbe945d	0.005816026
106	0x3ca76bad	0.020437086
107	0xbdacbde0	-0.08434653
108	0xbd9b830d	-0.07593355
109	0x3d076fa0	0.03306544
110	0xbc6a5ddc	-0.014304604
111	0xbb97bfd7	-0.0046310234
112	0xbb00e61d	-0.0019668408
113	0x3b3ead24	0.00290949
114	0xbcded028	-0.027198866
115	0xbd3d17ef	-0.046165403
116	0x3cf3be26	0.029753756
117	0x3ca2f806	0.019893657
118	0x3d0aac86	0.033855937
119	0xbb3a2d37	-0.0028408298
120	0x3a03f3c0	0.0005033575
121	0xbd34fcbc	-0.04418634
122	0x3c34c954	0.0110343285
123	0x3b6b7b76	0.0035931743
124	0xbe0aa85c	-0.13540787
125	0xba82fd7c	-0.0009993757
126	0x3b94262f	0.0045211534
127	0x3befd692	0.00731928
128	0x3b9ff466	0.0048814295
129	0x3c19d2bf	0.009388625
130	0xbb1b0ab8	-0.0023657512
131	0x3a6ce6b9	0.0009037066
132	0x3cbaa2ca	0.022782702
133	0x3a411deb	0.0007366824
134	0x3be2759f	0.006910994
135	0xba41c8f4	-0.000739231
136	0x3ccc5f23	0.024947708
137	0x3a23aea5	0.00062439806
138	0x3a7b8d28	0.0009595924
139	0x3c65e57d	0.014031765
140	0x3b91be7e	0.0044477573
141	0x3a87df72	0.0010366275
142	0xbbb41bc8	-0.005496476
143	0x3c122d43	0.008921924
144	0x3c68cdd3	0.014209229
145	0x3b76a1df	0.0037633104
146	0x3aa8356a	0.0012833301
147	0xbcc32d0a	-0.023825187
148	0x3b4e9f6a	0.0031528124
149	0x3b33e79a	0.0027451278
150	0x3c0adac5	0.00847501
151	0x3cc17276	0.02361415
152	0x3c820821	0.015873017
153	0x3c71dd08	0.014762171
154	0x3c28f4ad	0.0103122415
155	0x3a57b9ea	0.00082293025
156	0x3bdefc7b	0.0068050004
157	0x3b158203	0.0022813089
158	0x39de04db	0.00042346757
159	0x3bfe4f79	0.0077609387
160	0xbd8293a0	-0.063758135
161	0x3c820821	0.015873017
162	0x3c541cb4	0.0129462965
163	0x3d2abbda	0.041683055
164	0xbb89e98a	-0.004208748
165	0x3b0b01dc	0.0021210825
166	0x3a0fda8e	0.0005487584
167	0xbd065e78	-0.032804936
168	0x3b19b67a	0.0023454712
169	0x3b8e8f3d	0.0043505714
170	0xbc9106dc	-0.017703466
171	0xbc72b8ad	-0.014814538
172	0x3c056bce	0.008143378
173	0xbad39e62	-0.0016145224
174	0xbc1ff537	-0.009763054
175	0x3a7002eb	0.0009155708
176	0xb946ada3	-0.00018947436
177	0xbc0e6d03	-0.008692983
178	0xbc36b4bd	-0.01115149
179	0x3bd379bb	0.0064537204
180	0x3b9c5bab	0.00477167
181	0x3c10694d	0.008814168
182	0x3ad69046	0.0016369901
183	0x3a9f5fbd	0.001215927
184	0xbcdfd36a	-0.02732249
185	0x3b04c94b	0.0020261582
186	0x3b100d44	0.0021980563
187	0xbd7e145f	-0.062031146
188	0x3aabcb01	0.0013106765
189	0x3b6f50d5	0.0036516686
190	0x3db3f628	0.08787185
191	0x3b9fa081	0.0048714285
192	0x3c65c85a	0.014024818
193	0xba4c6ce5	-0.0007798209
194	0xb9fb60ae	-0.00047946483
195	0x3db2fda9	0.08739788
196	0xba9ee16e	-0.0012121627
197	0x3c04a370	0.008095607
198	0xba22b864	-0.0006207286
199	0x3c82082a	0.015873034
200	0xba682be0	-0.00088566355
201	0xb9cfb0c1	-0.0003961381
202	0x3c8251b2	0.015908096
203	0x3b623a90	0.003451977
204	0xba94ee2e	-0.0011362487
205	0x3a325b97	0.0006803809
206	0x3c47c5a9	0.012193122
207	0x3c9cf124	0.019157954
208	0x3acb0fd2	0.0015492386
209	0xba5bcc0b	-0.0008384592
210	0xbc54aadd	-0.01298019
211	0x3afa8792	0.001911389
212	0xb89059b4	-6.8831636e-05
213	0x3c3d8b6a	0.011568883
214	0x3c23f64f	0.010007455
215	0x3c820821	0.015873017
216	0x3cc45001	0.02396393
217	0x3c943989	0.018093841
218	0xba720426	-0.00092321855
219	0x3c0f4514	0.008744497
220	0x3a105ef9	0.0005507316
221	0xb9dba8da	-0.0004189674
222	0x3c2c7af9	0.010527366
223	0x3c41804c	0.0118103735
224	0x3c7a32d6	0.015270909
225	0x3c60c9c0	0.013719976
226	0x3d8459a4	0.0646241
227	0xbb4d1ed8	-0.0031298902
228	0x3a31dc84	0.00067848735
229	0xba2b7726	-0.0006540887
230	0xbc2b282a	-0.010446588
231	0xb8b8827b	-8.7981076e-05
232	0x3b5d97a5	0.003381231
233	0xbc17ffd1	-0.0092773
234	0xbbf27a4d	-0.0073998333
235	0x3c2e3e18	0.0106349215
236	0xb9ec867b	-0.00045113623
237	0x3a7328d8	0.00092758005
238	0xba95df3b	-0.0011434326
239	0x39d2d935	0.00040216153
240	0xbaf84a84	-0.0018943106
241	0xbc1d491e	-0.009599952
242	0x3be5329c	0.0069945585
243	0x3b59a78f	0.0033211445
244	0x3c46137e	0.012089608
245	0xba49e5b0	-0.00077017676
246	0xbb011358	-0.0019695368
247	0xbccfdf2f	-0.025374977
248	0x3a8fd629	0.0010973859
249	0xba217a76	-0.00061599107
250	0xbd1fbf2b	-0.03900067
251	0xba8de752	-0.0010826385
252	0x3c1510ca	0.009098241
253	0xbc731fbe	-0.014839111
254	0x3c148087	0.009063846
255	0x3c4ea5c7	0.012612767
