models/speckle_joint5.pth (torch, 115607 bytes, 32 tensors)

dnets.0.means f4 [63]
00000000: 5b97 29bf 3d24 683f 4f10 cebe 5ef1 f3bf
00000010: 2b6c 4bbe 1733 36bf 3b2b 4bbf 476f 69bf
00000020: 31f0 95bf fa6f c83f 63e4 1e3f adbb 353f
00000030: da78 49be 48d8 92be 284f 16bd 096a d8bf
00000040: 2a51 b33f 0c17 8ebe 8365 b03f 1c5c 413f
00000050: cb4f e4bf 990b b03d d67c 97bf 6c0f b53f
00000060: a3b4 9fbf 2d8e 1a3f 4ec3 0ebd f824 efbe
00000070: 6902 a33e d162 f43f f214 113f 4b13 e33f
00000080: 6109 243e a693 4fbf c0b4 8a3f 13d6 f03f
00000090: 5751 d73e c1a9 553f 3493 d7be e508 18c0
000000a0: 104b 86bf 1979 c0bf f25b b33e 472d ba3c
000000b0: 8dc3 dabe f037 2cbf bb69 9b3f 0f6e c93e
000000c0: b11b f03f 94bf ae3d e229 723f 2705 e8bf
000000d0: 1233 973d 9d20 bf3e 2072 ab3d 2b7b 6a3f
000000e0: c3c2 613f 2cf6 b83f 3d1b 713f 4aa0 82bf
000000f0: de3b 503f 4381 193e 0f47 3d3f
-0.66246575 0.90680295 -0.40246817 -1.9058034 -0.19865482 -0.71171707 -0.7936284 -0.9118542
-1.1713926 1.5659173 0.6206724 0.70989496 -0.19675007 -0.28680634 -0.036696583 -1.6907359
1.4009144 -0.27751958 1.3780979 0.7553117 -1.7836851 0.08595962 -1.1834972 1.4145331
-1.2477001 0.60373193 -0.034854226 -0.46707892 0.31837776 1.9092656 0.56672585 1.7740263
0.16019203 -0.8108467 1.083641 1.881533 0.42054245 0.8346215 -0.42104495 -2.3755429
-1.0491657 -1.5036956 0.35031086 0.022726668 -0.42727318 -0.67272854 1.2141641 0.3934178
1.8758451 0.085326344 0.9459516 -1.8126572 0.07382788 0.3732957 0.08371377 0.9159419
0.8818781 1.4450126 0.9418219 -1.0205166 0.8134135 0.14990716 0.7393655

dnets.0.std f4 [63]
00000000: f62d 4e40 3b71 28be 684a 2940 f68a ab3f
00000010: a186 3040 21bb 653f d0b7 dd3e 5bcd 3d3e
00000020: 29ee 253f ce41 763e 165e 933e 67cf 863d
00000030: 45fc 27be 669e 903f 06ff 643f a9d5 1040
00000040: 1363 6d3f 41a3 323e 05be 293d d4b3 c23e
00000050: 8709 5e40 1fdb 8a3f 5a58 0a40 aee2 4bbe
00000060: 89be 2d3f dd1e 4640 d4fc af3d e953 3e3f
00000070: 6ecb 983f 1f0a 5f3e 1642 b63f 1459 863f
00000080: b9d9 f93d 9597 093f 2f0e fd3f 6df8 89bf
00000090: 7434 b73e b62b a83f 5f19 16be 9018 b6bd
000000a0: 902a 2b3f 1a12 9e3e 7b9e a23f 5a0c 0d3d
000000b0: a908 c63f 26c5 7ebe d34d 2c3f 2aeb 5a3e
000000c0: 9223 1540 7280 c33f 1c72 cf3f fed5 cc3f
000000d0: 7fe7 4d3f e8eb 503e e5bd ce3d 82dd d83e
000000e0: c6ba e83e f0f3 9a3f c283 f93e 4a36 913f
000000f0: a348 e93e bab7 983e 7315 1740
3.2215552 -0.16449444 2.6451664 1.3401783 2.758217 0.8973866 0.433043 0.18535368
0.6481653 0.2404854 0.2878272 0.065825276 -0.16404827 1.1298339 0.89451635 2.2630408
0.927293 0.17445089 0.041440982 0.38027823 3.4693315 1.084812 2.1616426 -0.1991069
0.6786886 3.0956337 0.08593145 0.74346787 1.1937082 0.21781205 1.4238918 1.0495934
0.121997304 0.5374692 1.9769953 -1.0778939 0.35782206 1.313834 -0.14658116 -0.08891404
0.6686182 0.30873185 1.2704614 0.034435607 1.5471393 -0.24879894 0.6730625 0.2137877
2.330296 1.5273573 1.6206698 1.6002805 0.8043136 0.20402491 0.10094813 0.42356497
0.45454997 1.2105694 0.48733336 1.1344693 0.4556323 0.29827672 2.3606842

dnets.0.weights_rbf f4 [24, 63]
00000000: 32a0 2cba 197c 92bd 7e76 39ba cae1 4f3b
00000010: be29 4bba d6b3 a73a ffc6 2e3c 1d57 b13d
00000020: d7e9 033c d770 ec3b 0b29 6b3c 0938 c9bd
00000030: 8da9 453d e97d 09ba 54cc 8cba 7eae bf39
00000040: 9b20 42bb a414 023c 8f03 823c c06f a83b
00000050: a5e7 aab9 70d1 87ba 7b5f aab8 96f9 b1ba
00000060: ddb1 0b3c 2b54 6fba 380f 313c 6cdd 853a
00000070: ded8 acba dbf3 813c c97c b5ba f5b5 15bb
00000080: 36c2 71bc a876 5c3b cd53 a5ba 7811 dbba
00000090: 1b85 8cbb f0f2 d4ba 25a6 8f3d 2108 823c
000000a0: 6f54 8b3b 73a9 8d3c 1ebe abba 6c24 a93b
000000b0: 7701 04ba e03f 7d3d 0a00 0cbb 3dc1 a8ba
000000c0: 2773 a7ba 9c3f 78ba 9bcd b9ba f7ee 053b
000000d0: 852c 90ba f6ba 4abb 2b65 dd3b 91e5 9d3c
000000e0: 8323 373b af99 12bb 99a4 013b 3d37 c83a
000000f0: 8e73 9aba e4c1 e2bb 99fc 89ba 438d 9fbb
00000100: 4ad9 6a3d 54d2 93bb f128 91bc 6b7b 4dbb
00000110: b893 63bc b87b 0fbd 4f74 33be 7e75 03bd
00000120: 1a08 823c 51b8 aa3d 8876 a03c 0541 35bd
00000130: 9b37 0abc 83cc c2ba c09f 2bbc 3de4 b43c
00000140: 6ff6 5cbc 2108 823c b46e 693d 5fcf edbb
00000150: 69e2 1c3b fb74 1dbc 1208 823c 385f 07bd
00000160: f8a8 9c3a ac1c c33b 954c 59bc ea9b 043c
00000170: 2108 823c 8af6 283c 6a89 cc3c b3d4 9c3b
00000180: bf63 b2bc bf28 263c 4db3 e03c 1a78 bf3c
00000190: 0e77 733c 85a8 04be 2108 823c aa7b c1bc
000001a0: d751 823c c122 033c 58fc d0bc 840b 03bc
000001b0: 0a63 d4bd 4352 013d f4d8 673d 0e1f 3c3c
000001c0: ce7d b239 8136 4b3c 8399 59bc f289 8f3b
000001d0: 73a2 673d a81f 87bc 8328 a63d 9aa3 4c3d
000001e0: d4c3 993c 9845 423d fe65 61bc 3565 093d
000001f0: 8e3f 1b3c 7f1a 9a3b 7e03 b8bb 233f 4a3d
00000200: 04a2 aabb b394 ffbc efa5 50bb da92 cfbc
00000210: 6460 70bd dde1 cfbd c7fb 54bd a2a5 863c
00000220: 1ca2 963d 033a 873c c6b3 02bd d3c4 58bc
00000230: efb6 47bb 9c2d 80bc 1518 093d 3adc 3fbd
00000240: 2108 823c 530c 683d 74fd 1cbc 2507 573b
00000250: 3175 64bc 5662 933c 87fd 57bd 5de7 3c3b
00000260: 2814 de3b c254 cebc 5c33 3d3c 2108 823c
00000270: 532f 763c e01d 153d 60f3 373c 3396 26bd
00000280: 8979 753c af2f 1f3d bbe8 043d c3b0 b63c
00000290: 4b1f ddbd 2108 823c e7f6 2bbd 1606 823c
000002a0: 4fe5 3b3c c271 90bc 7055 3ebc 373c dfbd
000002b0: f4dd 273d b4f3 463d 2842 8c3c 6a65 923a
000002c0: cd9c 963c 59e2 b6bc 0563 ac3b cab8 453d
000002d0: 93df cebb 3093 a63d e4c2 593d af77 ee3c
000002e0: b73d 543d 9421 c4bc 630c 273d 06d1 a63c
000002f0: a180 f23b 814e 0dbb 55a7 b8bc 85ea 02bb
00000300: 42ec d8bb 4be7 c1ba 9fca bcbb 6fb8 44bc
00000310: 7b48 87bd b237 3abc 728e 833c 9042 883c
00000320: 6a17 dabb 3501 e1bc d69f 5fbb 1b1f c6b9
00000330: 6f35 90bb 061f 123c 7322 d3bb 2108 823c
00000340: cb84 4d3c 20af 51bb e522 953a 5aae 84bb
00000350: 3c78 873c 7b0e 3ebc 4e41 c938 50ea 603c
00000360: 6874 b5bb f425 493b 2108 823c 20d2 673b
00000370: 3af2 1d3c 5741 043c 0078 0cbc f6e8 553b
00000380: 9d35 253c 6533 493c a53b ae3b b241 6ebd
00000390: 2108 823c 7dad 12bc 6b38 823c c60b 403b
000003a0: 669d 37bc 2094 59bb 7561 32bd e011 313c
000003b0: f0d5 8a3c 3f00 7b3b dcf7 1138 56e3 883b
000003c0: 70af aebb c06c 203b 8dac 913c e8e1 dcbb
000003d0: da17 a13c 84fa 483c 1d54 ea3b 58ef 463c
000003e0: d72c b8bb 46fa 313c 23b0 303c a8bd b03a
000003f0: a48f 77bb 76c6 053c b556 65bb 1fb6 36bc
-0.000658515 -0.07152576 -0.00070748467 0.0031720274 -0.00077500555 0.0012794684 0.010667562 0.08659194
0.008051357 0.0072156 0.014353047 -0.09825141 0.0482574 -0.00052448973 -0.0010742047 0.00036560366
-0.0029621485 0.007939491 0.015870837 0.0051402748 -0.00032597515 -0.00103621 -8.124016e-05 -0.0013578411
0.008526293 -0.00091296685 0.010806851 0.0010213084 -0.001318719 0.01586335 -0.0013846393 -0.002284405
-0.014755776 0.003364006 -0.0012613476 -0.001671358 -0.0042883283 -0.0016246717 0.070141114 0.015873017
0.0042520086 0.017292714 -0.0013102924 0.0051618125 -0.00050356187 0.061828494 -0.0021362328 -0.0012874972
-0.0012775407 -0.0009469928 -0.0014175655 0.0020436624 -0.0010999596 -0.0030934191 0.006756445 0.019274505
0.002794475 -0.0022369435 0.0019781946 0.0015275251 -0.0011783706 -0.006920086 -0.001052755 -0.0048691346
0.05733613 -0.004511157 -0.017719718 -0.003135408 -0.013890199 -0.035030097 -0.17524837 -0.03209447
0.015873004 0.08335937 0.01958777 -0.04425146 -0.008436109 -0.0014861975 -0.010475099 0.022081489
-0.013486489 0.015873017 0.05699034 -0.0072573866 0.0023938662 -0.00961041 0.015872989 -0.033049792
0.0011952212 0.0059543457 -0.0132628875 0.008093813 0.015873017 0.010312686 0.024967868 0.004786098
-0.021776078 0.010141551 0.027429247 0.023372699 0.014859928 -0.1295491 0.015873017 -0.023618538
0.015908165 0.008003891 -0.025510952 -0.007998351 -0.10370453 0.03157259 0.056603387 0.011482013
0.00034044537 0.012403131 -0.013281229 0.004380458 0.056551408 -0.016494587 0.08113196 0.04996071
0.018770136 0.04742965 -0.013757227 0.033543784 0.009475602 0.0047028656 -0.0056156507 0.049376618
-0.005207302 -0.031198835 -0.0031837185 -0.025338579 -0.058685675 -0.10150502 -0.051997926 0.016436402
0.07355139 0.016507154 -0.031909727 -0.01323052 -0.0030474027 -0.015646748 0.033470232 -0.046840884
0.015873017 0.05665238 -0.009581912 0.0032810655 -0.013943956 0.017991226 -0.052732017 0.0028824427
0.006777305 -0.0251869 0.01154789 0.015873017 0.015025931 0.036405444 0.011227459 -0.040670585
0.0149825895 0.038863834 0.03244851 0.022301083 -0.10796984 0.015873017 -0.04198351 0.015872043
0.011468246 -0.017632369 -0.01161705 -0.10900157 0.040983155 0.048572257 0.01712139 0.001116914
0.018385315 -0.022324728 0.0052608275 0.04827193 -0.006313273 0.081335425 0.053164378 0.029109804
0.05181667 -0.023941793 0.040783297 0.020363342 0.0074005877 -0.0021561685 -0.022540728 -0.001997621
-0.006619961 -0.0014793662 -0.005761459 -0.012006863 -0.066056214 -0.011365818 0.016059134 0.016633302
-0.006655623 -0.027466396 -0.003412237 -0.00037788678 -0.004400901 0.008918529 -0.0064433157 0.015873017
0.012543867 -0.0031995252 0.0011378197 -0.0040491046 0.016536824 -0.011600132 9.596591e-05 0.013727739
-0.0055375583 0.0030692788 0.015873017 0.0035373047 0.009640271 0.008072219 -0.008573532 0.0032640076
0.010083583 0.01228032 0.005317169 -0.05816812 0.015873017 -0.008952496 0.015896043 0.0029303893
-0.01120696 -0.0033199862 -0.043549974 0.010807484 0.016947716 0.0038299707 3.480153e-05 0.004177491
-0.0053309724 0.0024478883 0.017782474 -0.0067407973 0.019664694 0.012266759 0.0071511404 0.012142025
-0.0056205797 0.0108628925 0.010784182 0.0013484256 -0.0037774825 0.008164993 -0.0034994308 -0.0111518195

dnets.0.conv.weight f4 [24, 3, 5, 5]
00000000: 4c83 abbc 1ba6 cc3a fc73 aebd 406c 97bc
00000010: 0ff4 b63d 71b0 843d c67e f53d 8a64 5ebd
00000020: 4a60 8e3a 84ca 1cbc 427c 8ebd 4fcb 39bb
00000030: b6d5 d7bd 96af 6fbc c532 3bbd 97fc bebd
00000040: 3a89 763d d1fd e8bc c777 e13c ac2e c5bc
00000050: a508 143c 7e25 ae3d 1774 883d f6a8 0d3e
00000060: 732b aa3d 7cb5 56bd cb95 403d b762 12bd
00000070: 4104 39bd 9583 ae3d 2ed5 b03d b637 d1bc
00000080: cf52 ef3c 8d48 fd3c 0358 95bd e1be e93c
00000090: 7cd4 543d dc0d a2bd cc0a 0dbd 1fb4 efbd
000000a0: ecca 0dbe 4ff2 113d a30d a93d 4915 c63b
000000b0: aca0 793d bc88 a9bd 4c1f d33c 30de a93d
000000c0: dbbe 7d3d 7756 af3d fb08 933b 3a8e 8bbd
000000d0: fa06 dc3c 0766 90bd aacf c1bc 71e0 c23d
000000e0: ee89 aa3c bc5c 6d3d 796c 603d c447 8e3d
000000f0: 00af e7bd 2dcb 84bd fabb d5bd d0ba 19bd
00000100: 253b b4bd edca 98bd c2af 53bd 3cf7 bcbc
00000110: 9576 8b3d 61fd 9a3d e796 a23d d5aa bc3d
00000120: 3f05 c53c 64f9 c23d e632 323d 1d3c 003d
00000130: 64d3 3e3c aa40 39bd 951c e2bd 2a5e 7a3d
00000140: 0463 103d a5b8 b5bd e328 3436 da3c 88bb
00000150: 069a cbbc 0b92 063d 8cf7 123c dc96 c63c
00000160: da84 a33d 6eb2 293b 7e8e 963d cd9b 54bc
00000170: 8892 323d 82d1 79bd b506 273c 50f9 32bd
00000180: 22c1 b5bb 2798 6dbd b39a 803c b13a d03c
00000190: d485 a4bc be67 13bd 9ff8 31be 1cb6 c2bb
000001a0: 75af 23bc 00d9 36bd 3fa6 4d3e 6e18 b53d
000001b0: 5f99 b9bd c079 963d 4756 263d bda5 0ebe
000001c0: a030 0bbe 79e1 61be 7cf1 ac3d 0c4e 0cbb
000001d0: cedb d43d 4263 2f3e a7a8 d2bd 2342 3c3c
000001e0: d689 663d faa8 093d 1644 293d 95b6 9e3d
000001f0: 63f7 14bc f554 be38 cbc5 963d b8bd e63c
00000200: ce02 ff3d 98ec bcbc a0fa 403d ff7e 05be
00000210: f38b 343d 6d0f 193b 7735 33bd cd24 71bc
00000220: fddc a4bd ba5b b13b 428e c93d 9107 113d
00000230: 737f 6a3c b9a6 fbbd 4272 823d 619e 043c
00000240: dc31 a2bc efd9 1abc d2b1 a3bd 2716 093d
00000250: 36f3 8dbd 1f47 923c b9b7 693c 8f48 0e3d
00000260: 4550 c63c 4640 28bd 5615 b93c c2ae c63a
00000270: b536 ddbd b57b 1f3e 33d4 493d 1b4a b63d
00000280: 3011 c039 69e9 e8bd 2921 33bc d413 2dbe
00000290: 301c da3d e0c0 36bc e430 94bb 4496 9dbd
000002a0: 48f6 d9bc 6ca5 733d f4c5 53bd ebf8 0a3d
000002b0: 6d1b 083c 1acb f33b f3b7 783b e5ac 9a3d
000002c0: 58c8 90bd bf13 013e c468 bb3c c757 293c
000002d0: a9be 91bd 13ed aa3d 9dd1 e9bb fa96 bf3d
000002e0: 8aaf 99bd 6f53 9d3d 0783 d1bc d4f6 ae3d
000002f0: a5a3 4cbe 61b3 92bd 7a32 b13c 2569 1e3c
00000300: 23dc c1bd 4589 7fbd 7146 28bd 87e4 573b
00000310: 6210 cfbc d9f7 2d3d a4c5 ca3d 8c05 d0bb
00000320: 8e2b 1ebc bcbf 3cbd 5265 eb3c cd91 8cbd
00000330: 9b33 7dbd 4103 30bc 686a d73c 0d61 2dbe
00000340: 263b 6b3c f3b9 bf3c f7f8 21bd 8fc9 7a3d
00000350: 5bdc 1f3e 2fde 033e cb5c acbd 66b2 813d
00000360: e1fc 9f3b 913f 4bbc d9ca c03d 83bc 873c
00000370: 0f5d 54bc 1dcb 453c ff0d 60bd 30e8 a2bd
00000380: c635 9c3c 9c0a ab3c b27b ed3b 3be9 183c
00000390: c625 10bc 5df0 893d 1e08 563d ca1c 383c
000003a0: c048 cd3d 5826 c1bd e7f0 843d 747e bb3d
000003b0: ace5 23be 1ff9 6a3d 7acc 3d3d 8f05 66bc
000003c0: c2db e1bd d828 82bd d3aa 14bd 5585 31bd
000003d0: 370d 6c3d ba32 b9bc c227 dfbc a0af 993d
000003e0: 0a88 91bd 0f63 4fbc efac 80bd b0e7 87bd
000003f0: 0599 0dbe 736a cfbc 6665 ecbd 1425 adbd
-0.02093663 0.0015613468 -0.08518216 -0.018484235 0.08933269 0.06478966 0.11987071 -0.0542951
0.0010862437 -0.009569768 -0.06957294 -0.002834994 -0.10538809 -0.014629265 -0.045702714 -0.093255214
0.060189463 -0.028441342 0.027522935 -0.024070106 0.009035264 0.08503245 0.066627674 0.13833985
0.083090685 -0.05241917 0.047017854 -0.035738673 -0.045170072 0.08521191 0.08634411 -0.02553926
0.02921429 0.030918384 -0.072921775 0.028533401 0.051960453 -0.079128 -0.034434125 -0.11704277
-0.1384694 0.035631474 0.08254554 0.006045018 0.060944244 -0.08278033 0.02577176 0.08294332
0.061949592 0.08561414 0.0044871545 -0.06814237 0.026858795 -0.0705071 -0.023658592 0.09515465
0.020817723 0.057949767 0.054790948 0.06947282 -0.113126755 -0.06484065 -0.10436244 -0.037531674
-0.088003434 -0.0746058 -0.051681288 -0.02306711 0.06809727 0.075678594 0.079389386 0.09212271
0.024050353 0.09520224 0.04350557 0.03130733 0.011647079 -0.045227684 -0.11040608 0.061124958
0.03525068 -0.08873109 2.684589e-06 -0.0041576447 -0.024853718 0.03285412 0.008970153 0.024241857
0.07984324 0.0025893706 0.07351397 -0.012976599 0.043596774 -0.060990818 0.01019447 -0.043694794
-0.005546705 -0.058006432 0.015698766 0.025418611 -0.020083345 -0.035987608 -0.17379998 -0.0059421193
-0.009990563 -0.04464054 0.20082949 0.0884255 -0.09062456 0.07347441 0.040609624 -0.13930412
-0.13592768 -0.22058667 0.08444497 -0.0021408824 0.10393487 0.17127708 -0.10286074 0.011490378
0.056283794 0.033608414 0.041324697 0.077496685 -0.009092185 9.0757305e-05 0.07361945 0.028166637
0.12451707 -0.023062035 0.047114015 -0.13036726 0.04407878 0.0023355142 -0.04375216 -0.014718247
-0.08049963 0.005412546 0.09841587 0.035407607 0.014312613 -0.12287659 0.06369449 0.008094401
-0.019799165 -0.0094513735 -0.07992901 0.03346839 -0.069311544 0.017856179 0.014264994 0.034737166
0.024208197 -0.04107692 0.022593182 0.0015158283 -0.1080145 0.15574534 0.049274635 0.08900853
0.000366339 -0.113726445 -0.010933199 -0.16902095 0.106499076 -0.011154383 -0.00452243 -0.076946765
-0.026606694 0.05948393 -0.051702455 0.033928793 0.00830732 0.007439983 0.003795144 0.07552508
-0.070694625 0.12605189 0.022877105 0.010335869 -0.07116444 0.083459996 -0.0071355836 0.09354968
-0.075041845 0.07681929 -0.025575174 0.085431725 -0.199843 -0.0716312 0.021630514 0.009668623
-0.09465816 -0.06238677 -0.041082803 0.003294261 -0.025276367 0.042472694 0.09900978 -0.0063483175
-0.009653939 -0.04608129 0.028734837 -0.06863747 -0.061816793 -0.010742963 0.026295856 -0.16931553
0.014357364 0.023404097 -0.039544072 0.061227378 0.15611403 0.12877725 -0.08416136 0.06332855
0.0048824404 -0.012405292 0.0941369 0.016569382 -0.01296164 0.012072352 -0.054700848 -0.079544425
0.01906861 0.020879082 0.0072474116 0.00933295 -0.008798068 0.06735299 0.052253835 0.011237333
0.100236416 -0.094311416 0.06491261 0.091549784 -0.16005582 0.057366487 0.046337582 -0.014039411
-0.110282436 -0.063554466 -0.036295723 -0.043340046 0.05762979 -0.022607196 -0.027240638 0.07504201
-0.071060255 -0.012657895 -0.062829845 -0.06635988 -0.13827904 -0.025319314 -0.11542778 -0.08454338

dnets.1.means f4 [63]
00000000: 5b97 29bf 3d24 683f 4f10 cebe 5ef1 f3bf
00000010: 2b6c 4bbe 1733 36bf 3b2b 4bbf 476f 69bf
00000020: 31f0 95bf fa6f c83f 63e4 1e3f adbb 353f
00000030: da78 49be 48d8 92be 284f 16bd 096a d8bf
00000040: 2a51 b33f 0c17 8ebe 8365 b03f 1c5c 413f
00000050: cb4f e4bf 990b b03d d67c 97bf 6c0f b53f
00000060: a3b4 9fbf 2d8e 1a3f 4ec3 0ebd f824 efbe
00000070: 6902 a33e d162 f43f f214 113f 4b13 e33f
00000080: 6109 243e a693 4fbf c0b4 8a3f 13d6 f03f
00000090: 5751 d73e c1a9 553f 3493 d7be e508 18c0
000000a0: 104b 86bf 1979 c0bf f25b b33e 472d ba3c
000000b0: 8dc3 dabe f037 2cbf bb69 9b3f 0f6e c93e
000000c0: b11b f03f 94bf ae3d e229 723f 2705 e8bf
000000d0: 1233 973d 9d20 bf3e 2072 ab3d 2b7b 6a3f
000000e0: c3c2 613f 2cf6 b83f 3d1b 713f 4aa0 82bf
000000f0: de3b 503f 4381 193e 0f47 3d3f
-0.66246575 0.90680295 -0.40246817 -1.9058034 -0.19865482 -0.71171707 -0.7936284 -0.9118542
-1.1713926 1.5659173 0.6206724 0.70989496 -0.19675007 -0.28680634 -0.036696583 -1.6907359
1.4009144 -0.27751958 1.3780979 0.7553117 -1.7836851 0.08595962 -1.1834972 1.4145331
-1.2477001 0.60373193 -0.034854226 -0.46707892 0.31837776 1.9092656 0.56672585 1.7740263
0.16019203 -0.8108467 1.083641 1.881533 0.42054245 0.8346215 -0.42104495 -2.3755429
-1.0491657 -1.5036956 0.35031086 0.022726668 -0.42727318 -0.67272854 1.2141641 0.3934178
1.8758451 0.085326344 0.9459516 -1.8126572 0.07382788 0.3732957 0.08371377 0.9159419
0.8818781 1.4450126 0.9418219 -1.0205166 0.8134135 0.14990716 0.7393655

dnets.1.std f4 [63]
00000000: f62d 4e40 3b71 28be 684a 2940 f68a ab3f
00000010: a186 3040 21bb 653f d0b7 dd3e 5bcd 3d3e
00000020: 29ee 253f ce41 763e 165e 933e 67cf 863d
00000030: 45fc 27be 669e 903f 06ff 643f a9d5 1040
00000040: 1363 6d3f 41a3 323e 05be 293d d4b3 c23e
00000050: 8709 5e40 1fdb 8a3f 5a58 0a40 aee2 4bbe
00000060: 89be 2d3f dd1e 4640 d4fc af3d e953 3e3f
00000070: 6ecb 983f 1f0a 5f3e 1642 b63f 1459 863f
00000080: b9d9 f93d 9597 093f 2f0e fd3f 6df8 89bf
00000090: 7434 b73e b62b a83f 5f19 16be 9018 b6bd
000000a0: 902a 2b3f 1a12 9e3e 7b9e a23f 5a0c 0d3d
000000b0: a908 c63f 26c5 7ebe d34d 2c3f 2aeb 5a3e
000000c0: 9223 1540 7280 c33f 1c72 cf3f fed5 cc3f
000000d0: 7fe7 4d3f e8eb 503e e5bd ce3d 82dd d83e
000000e0: c6ba e83e f0f3 9a3f c283 f93e 4a36 913f
000000f0: a348 e93e bab7 983e 7315 1740
3.2215552 -0.16449444 2.6451664 1.3401783 2.758217 0.8973866 0.433043 0.18535368
0.6481653 0.2404854 0.2878272 0.065825276 -0.16404827 1.1298339 0.89451635 2.2630408
0.927293 0.17445089 0.041440982 0.38027823 3.4693315 1.084812 2.1616426 -0.1991069
0.6786886 3.0956337 0.08593145 0.74346787 1.1937082 0.21781205 1.4238918 1.0495934
0.121997304 0.5374692 1.9769953 -1.0778939 0.35782206 1.313834 -0.14658116 -0.08891404
0.6686182 0.30873185 1.2704614 0.034435607 1.5471393 -0.24879894 0.6730625 0.2137877
2.330296 1.5273573 1.6206698 1.6002805 0.8043136 0.20402491 0.10094813 0.42356497
0.45454997 1.2105694 0.48733336 1.1344693 0.4556323 0.29827672 2.3606842

dnets.1.weights_rbf f4 [24, 63]
00000000: 01de 1fba 6dd0 42bd 25fd 07ba 415b 1fba
00000010: 041f 17ba f4d9 d3b9 8db2 823b 2101 823c
00000020: e920 9d3a c6f8 0d3d d9ef 5a3c 6772 10bd
00000030: a918 7abc e47e 4b39 9f54 d739 780e e9b9
00000040: 84d2 8e3a 93df 243b 2091 893c 5bb1 b53b
00000050: 9e27 1aba a2d7 0039 1a14 c9b9 b83f 223d
00000060: 0487 923a be53 46ba a0ed 67bb 09c3 1fba
00000070: 148e ce38 acc9 873c 21f5 0cb9 4be4 2bb8
00000080: 96f9 9d3b 0c5c 883a b978 16ba b518 70ba
00000090: f622 823b e3b9 3cb7 d631 5abc 2108 823c
000000a0: c02e 3239 1a08 823c 109e cf37 3b7a b0b9
000000b0: 40d2 8db8 50b5 4ebb d65a 8c3a f42c 203b
000000c0: 3032 23ba acb1 60b9 b791 bab9 db82 12ba
000000d0: 5e19 8e39 aacd 8fba c78c 943b daae 8cbb
000000e0: 3d3e 093b 4130 d339 0332 923a a61a c2b9
000000f0: 2f94 b43b 41b7 8abb 6db2 2cba 469f a63a
00000100: 7a4d 743c 0d67 a83a b425 353b 5edc a23a
00000110: 2902 283b 647a 073b 2090 64bb c15e c13a
00000120: 0012 863c 7451 87bc f401 873c f040 14bd
00000130: e264 e63a dcf2 d83a 1ddd da3a b109 2eba
00000140: 62c2 a63b 2108 823c b82f 04bc dea3 b53a
00000150: 28e9 a83a a09e cc3a 49f7 863c 4572 5e3a
00000160: bfef 923a 67d7 393c 6dcb 323b c4ed 843a
00000170: 2108 823c ce94 6d3a c793 2cba c557 65ba
00000180: c53e ae3b 00da 643a cfc8 73ba 73e4 d5ba
00000190: 6b4b 1a3a 5b65 603b 2108 823c 5f86 883b
000001a0: 611c 823c 3633 853a 0594 ecbc de0f cb3a
000001b0: ea38 9fbc 9c8d 00bb 49f4 42bc 629a 543a
000001c0: 7c23 a43a f957 483a 9883 163b 5e24 ae3a
000001d0: 4f1b 45bc c5bc 3abd d65d 5fbc 11a9 c5bb
000001e0: 2e3b 18b8 9408 b1bb b88e 193b 8923 03bb
000001f0: 3520 243a fc6f 8a3a 1d77 84bb 2066 453c
00000200: 8854 85bb eaf1 f6bb ea11 59bb 9ad6 0bbc
00000210: 37fa 6c3a e3b0 173d 020c 38bb 5f87 983c
00000220: 909d cb3b 4b84 5e3c 128c b43d f7fa febb
00000230: 5121 a3bb 5db8 ffbb 08bc 693b 3c22 56bb
00000240: 2108 823c 8960 863b 4ddf bebb 24b3 05bb
00000250: 9fca f2bb 8a28 b33c ff4f 36bb 0ea6 24bb
00000260: 4312 ccbb bb4b 10bc 5a21 533a 2c08 823c
00000270: c523 d33a f48c 6e3b fc6e 65ba fa26 a7bb
00000280: 29ee c73a 76a9 7a3b e230 de3b d241 4b3b
00000290: 25ac 8a3d 2108 823c 5b9c abbb 18cf 9a3a
000002a0: 1512 403a 60f8 133d 7a37 e1bb 5a8a 403d
000002b0: 5b80 263b 4c4e 373c 20d8 0b3b 2d05 15bb
000002c0: 497c 193b 3a1f 07bc f7ab 0cbb d0f9 4a3c
000002d0: e093 4d3d be67 063c fc62 753b 86ed 783b
000002e0: 16c1 673b 0a0d 0bbc ff5a 293b e3a3 113b
000002f0: a70c 7fba 1b77 14bb ee06 823c 5595 0cbb
00000300: 8ece 27bc a1b0 e4ba ed5a 09bc 1e00 ddbc
00000310: 7b9a 573c d6c7 c0bc 2108 823c 33a9 623d
00000320: 2108 823c 74a3 9abd 521b 6cbb a582 9dba
00000330: 33a2 9abb dc79 423c 61a8 c1bc 2108 823c
00000340: 106b 263d a23a 4ebb 8043 53b9 cf95 87bb
00000350: 2108 823c e639 c5bc d3a4 18ba 7da5 52bc
00000360: 56f8 04bc 3cdf be3a 2108 823c 40bc 133b
00000370: d5db 5b3c d7d9 bf3c f506 7fbc ba36 0b3b
00000380: b890 743c 4fc2 993c 7b6f 923b 82ab ba3c
00000390: 2108 823c 0c83 88bc 2108 823c 4f91 ba3a
000003a0: ba74 0fbc b252 5dbb 0182 3cbd 3a0c a63c
000003b0: 0ebb 4f3d f75c 303b 6855 47ba 0789 4b3b
000003c0: b50a ebbb 7c59 ad39 b892 533d 8c9b 473d
000003d0: b7b8 5a3d 61df 0f3d 103c 033c 1724 073d
000003e0: 49f5 01bc df2b cd3c fa44 253c ee2d c339
000003f0: 2467 2dba 7771 20bc 0116 c3b9 ce8c 1c3b
-0.000609845 -0.04756205 -0.0005187563 -0.00060789665 -0.00057648146 -0.00040407444 0.00398857 0.015869679
0.0011987957 0.034661077 0.013362848 -0.035265353 -0.0152646685 0.00019406859 0.00041071043 -0.00044452003
0.0010896479 0.0025157675 0.016792834 0.005544824 -0.0005880537 0.00012287361 -0.00038352684 0.03961155
0.0011179154 -0.0007565579 -0.0035389438 -0.0006094431 9.8493096e-05 0.016575657 -0.00013442758 -4.098219e-05
0.0048210127 0.0010403409 -0.0005740035 -0.0009158955 0.003971453 -1.1248953e-05 -0.013317546 0.015873017
0.00016992819 0.015873004 2.4749927e-05 -0.00033660405 -6.762566e-05 -0.0031541176 0.0010708224 0.0024440857
-0.0006225435 -0.00021428493 -0.0003558525 -0.0005588957 0.0002710325 -0.0010971327 0.0045333835 -0.004293305
0.0020941638 0.00040281008 0.0011153821 -0.00037022418 0.005510829 -0.0042332713 -0.0006587867 0.0012712262
0.01491105 0.0012848094 0.002764088 0.0012425294 0.0025636053 0.0020672316 -0.0034875944 0.001475297
0.016366005 -0.016518332 0.016480424 -0.03619474 0.0017577673 0.001655187 0.0016697977 -0.00066390174
0.00508909 0.015873017 -0.008068018 0.001385804 0.0012886869 0.0015611239 0.016475337 0.00084856554
0.0011210366 0.01134286 0.0027281896 0.001014166 0.015873017 0.0009063006 -0.00065833 -0.00087487354
0.0053175413 0.00087299943 -0.0009299637 -0.0016318694 0.0005885872 0.00342401 0.015873017 0.004166409
0.015882673 0.0010162357 -0.028879175 0.00154924 -0.019436318 -0.0019615656 -0.011899062 0.0008110163
0.0012522782 0.00076425035 0.002296662 0.0013285985 -0.012030437 -0.04559018 -0.013633212 -0.006032117
-3.629474e-05 -0.005402634 0.0023431014 -0.0020010194 0.0006260903 0.0010561938 -0.0040425197 0.012048274
-0.004068915 -0.0075361626 -0.003312225 -0.008535052 0.00090399705 0.037033927 -0.002808333 0.018619237
0.0062138513 0.013581346 0.08815779 -0.007781382 -0.004978337 -0.0078039602 0.0035665054 -0.0032674214
0.015873017 0.0041008634 -0.0058249594 -0.0020400966 -0.007409408 0.021869916 -0.0027818677 -0.002512339
-0.006227763 -0.008807118 0.0008053981 0.015873037 0.0016108683 0.0036399933 -0.00087521947 -0.005101082
0.0015253472 0.003824798 0.0067807296 0.0031014574 0.06771115 0.015873017 -0.005237145 0.0011810986
0.0007326913 0.03612554 -0.0068730684 0.047006942 0.0025406096 0.011188101 0.0021338537 -0.002273868
0.0023420027 -0.008247191 -0.0021464804 0.0123886615 0.050189853 0.008203445 0.0037443032 0.0037983372
0.003536289 -0.0084869955 0.0025841591 0.0022222928 -0.00097293634 -0.0022654 0.015872445 -0.0021451314
-0.010242118 -0.0017447659 -0.008383495 -0.026977595 0.01315939 -0.02353279 0.015873017 0.055337142
0.015873017 -0.075507075 -0.0036027026 -0.0012017085 -0.0047190427 0.011869874 -0.02363986 0.015873017
0.040629447 -0.0031468053 -0.00020147674 -0.0041377316 0.015873017 -0.02407546 -0.00058229006 -0.012856838
-0.0081158485 0.0014562379 0.015873017 0.0022542626 0.013419111 0.023419304 -0.0155656235 0.0021242336
0.014927082 0.018769411 0.004468856 0.02278686 0.015873017 -0.01666405 0.015873017 0.0014233979
-0.008755857 -0.0033771214 -0.04602242 0.020269502 0.0507155 0.002691088 -0.0007603974 0.0031057016
-0.0071729072 0.00033063802 0.051653594 0.048732325 0.053398814 0.03512514 0.0080099255 0.032993402
-0.007932016 0.025045333 0.010087246 0.0003722752 -0.00066147954 -0.009792677 -0.00037209693 0.0023887637

dnets.1.conv.weight f4 [24, 3, 5, 5]
00000000: 4fe5 273d 8108 1c3d beea d13d 217d ab3d
00000010: 209c 08bd 7846 a1bd 4702 9c3c 2e2f a23d
00000020: c2e2 d23d b67c 8c3c 7fc3 a93c 3d0f 893d
00000030: 71a6 c73c 03db 6cbd 9bf4 15bd c0cd 9c3d
00000040: f5d6 e53d f96a a03d ce08 5c3d 99cd a33d
00000050: 8f1d 703d 0c2f babd 544e 22bd 1007 82bd
00000060: ea3d 553d a303 1e3d be5c 7abd a7de 6fbc
00000070: 8853 8b3d fd34 903c 3118 733d 6bae b3bd
00000080: 042e c23d 90a8 60bd 4453 c63d ec74 bbbc
00000090: d3b8 bc3d d70f 9fbd dbca 0e3c 2193 1a3d
000000a0: 406b 853d 8fdf 4abd 917f 603d 3680 89bd
000000b0: 577c 9dbd bfe2 563b ce53 be3d 4c32 863d
000000c0: 45fb 94bd d369 093d 4404 63bd 2c78 9b3d
000000d0: 7f99 90bd 180e 1c3d 68dc 0d3a 25ed 1c3c
000000e0: a0bd 1dbd fb35 8cb9 4cb3 80ba 60e5 d2bd
000000f0: f074 d5bd 0504 8a3d 13f1 233d 747b bbbb
00000100: 2885 b6bc 15fc 10bb 5c45 bf3d 9f73 afbd
00000110: 9d42 2e3d d520 c0bd 632a 3e3c e57e cf3d
00000120: 1a5b 473a ce9f ec3b 7b98 c4bd 5057 29bd
00000130: dfe8 2cbb b673 ebbc 06a7 3ebd dc83 b0bd
00000140: cbfb 8cbd 82cc 823d c504 ccbd d5b9 b6bd
00000150: 09e4 afbb c0dc d43d 4e03 1ebd 8a9a c7bd
00000160: 0c02 943d 271b 95bc 4e0c cfbd c2de 043e
00000170: 869f 323d cd32 eb3c d2ee 4bbc 7e5f 673d
00000180: ac92 ca3d e936 393d 0255 30bd df54 b03d
00000190: 4b6c cbbd 7b9b 8e3d 0288 9bbc 1537 22bd
000001a0: 62c3 b03c 8bd3 cc3c c348 123d 07be 0cbc
000001b0: 8578 fdbd 9573 ef3c b1d1 843b ca25 93bc
000001c0: f0d2 b43d 2695 983d 698e 7c3d 74ed 8cbd
000001d0: 98fa e43d e47f 933c 6434 dcbd 7966 213d
000001e0: edc8 e2bc 060b 9cbd b855 32bd 4b57 543d
000001f0: 3eaa 12bc d32d 18bd 6502 83bd b270 50bc
00000200: 8ad2 bcbb 261e 813a bda6 08bd d6e0 c83c
00000210: 208d 593a ed8e f1bb 590e 923d 39eb 0ebd
00000220: 9672 9cbd 2bd4 003e cb29 cd3d 820d 883d
00000230: 5586 343d 75ca 053c 4bc5 7e3d d7d1 8dbd
00000240: 6945 abbb 6d5c 87bd df0b 8dbd 558e b3bd
00000250: 5837 54bb 8631 a2bb 4bfc 023d b505 723d
00000260: 7656 24bd c28a bd3d 6ae8 963d 2064 a0bd
00000270: 5ce4 f43d f8a7 fa3d 5611 2b3d 2d33 69bd
00000280: 76cb babd 781e b03d 6507 193d 8da5 f93d
00000290: 39e1 c3bd e21a ccbd fecc ac3d cc2d a5bd
000002a0: 6924 aabd fc60 8cbd f86d 453d 7059 283d
000002b0: 5739 e4bd 06a5 0abe f65e afbc f849 e6bc
000002c0: b992 0dbb eb28 c4bb 4955 133d 6632 813d
000002d0: 666c b4bb 915d 9c3d b8e8 263e 9b61 573d
000002e0: e670 92bc 0f71 8bbc e0fc a5bd 0492 86bd
000002f0: 2814 8d3c 2632 c93d 83a5 a23c 9e8c d1bc
00000300: 6d98 75bc a2b7 e4ba 253a e9bd 16b1 21bd
00000310: 7601 e33c 831c e1bd c70b 97bd bec7 3f3d
00000320: 4f70 383d e1ee 8b3d 0e98 d43a 5f5e 28bb
00000330: ffce 573d be9d 73bc cfba c53d e42c dc3d
00000340: 5094 19bd 8122 81bb be94 16bd a96e 68bd
00000350: aa7f f5bb 0286 7f3d 6eb6 6c3d da5d 0d3d
00000360: fa9e a8bd 588b 84bc 0edd 8e3a 4a99 7b3c
00000370: b9e1 6bbd d61d 2cbc 0c60 33bd f8d8 07be
00000380: 1dfe 32bd b3c0 353d 47b5 43bd b32a f23d
00000390: d95b 34bd a9ff 8f3c b81b a43d 9466 f73d
000003a0: a42a 00be 1b78 cabd 3378 1bbd cde4 63bd
000003b0: 9f98 2dbc 611c a6bc e08e 0c3d 081d 8bbd
000003c0: 7737 edbc 27a0 073e 6482 5abc a5e6 6fbd
000003d0: 7792 333d 143c 10bd c635 6dbc 53be b53d
000003e0: 895e 9fbc 0c38 c03b 3535 a2bc 6df6 1b3c
000003f0: 467e d6bd 70c8 953d fcb0 58bb 23b5 46bc
0.04099017 0.038094047 0.10249852 0.08373476 -0.033352017 -0.07874769 0.019044055 0.07919155
0.10297157 0.01714931 0.020723103 0.066923596 0.024371358 -0.057826053 -0.036610227 0.07656431
0.112226404 0.078329034 0.053719334 0.07998199 0.05862194 -0.09091005 -0.03962548 -0.06349003
0.052061 0.038577687 -0.061123602 -0.014640487 0.06803042 0.017603392 0.059349243 -0.08773502
0.09481433 -0.054848254 0.096838504 -0.022882901 0.0921494 -0.07766693 0.008715357 0.03773797
0.06514597 -0.04952961 0.054809157 -0.067139074 -0.076897316 0.003278896 0.09293328 0.06552562
-0.07274488 0.033548187 -0.05542399 0.0759128 -0.07060527 0.03809938 0.0005411566 0.009578024
-0.03851092 -0.000267431 -0.000981906 -0.10297656 -0.10422695 0.06739048 0.04002483 -0.005721504
-0.02228029 -0.002212291 0.09339401 -0.08566975 0.042543996 -0.09381262 0.0116067855 0.10131625
0.0007604823 0.0072211986 -0.09599396 -0.041343033 -0.002638392 -0.028741699 -0.046546005 -0.086189
-0.06883963 0.06386663 -0.09961847 -0.089221634 -0.00536776 0.10393667 -0.03857737 -0.09746273
0.07226953 -0.018201424 -0.10109769 0.129756 0.043609165 0.028710747 -0.012447076 0.056487553
0.09891257 0.045218382 -0.04304982 0.08609938 -0.099327646 0.06963249 -0.018985752 -0.03960331
0.02157754 0.025003215 0.035713922 -0.008590228 -0.12376503 0.029229918 0.0040533175 -0.017962355
0.08829296 0.07450323 0.06165925 -0.06881228 0.111806095 0.018005319 -0.1075218 0.039404366
-0.0276837 -0.0761929 -0.04353878 0.05184106 -0.008951722 -0.037153076 -0.06396941 -0.012722181
-0.005762403 0.0009850904 -0.03336214 0.024521273 0.00082989223 -0.0073717744 0.07131643 -0.034892295
-0.07639043 0.12580936 0.10017737 0.066432014 0.04407342 0.008165945 0.062199872 -0.069247894
-0.00522678 -0.06609426 -0.0688703 -0.08767382 -0.003238162 -0.0049497513 0.031978887 0.059087474
-0.040121518 0.092549816 0.07368548 -0.07831597 0.119576186 0.12239069 0.04176458 -0.05693357
-0.09120838 0.085995615 0.037360568 0.121897794 -0.09564442 -0.09966065 0.08437537 -0.08065376
-0.08307726 -0.06854436 0.048200577 0.04110092 -0.11143749 -0.13539514 -0.021407586 -0.028111443
-0.0021602346 -0.005986323 0.035970006 0.06308441 -0.005506086 0.07635034 0.16299713 0.05258332
-0.0178761 -0.017021684 -0.08104873 -0.06570819 0.017221525 0.09824018 0.019854313 -0.025579747
-0.014989954 -0.0017449746 -0.11388043 -0.039475523 0.027710658 -0.10991766 -0.07375293 0.04682135
0.04502898 0.06832672 0.0016219632 -0.0025691015 0.05268764 -0.014869152 0.096547715 0.1075075
-0.037494957 -0.0039408808 -0.036762945 -0.05674616 -0.0074920254 0.06238366 0.057791166 0.034513332
-0.082334474 -0.016179726 0.001089962 0.015356371 -0.057588313 -0.01050516 -0.04379277 -0.13266361
-0.043699373 0.044373225 -0.0477803 0.118245505 -0.044032905 0.017577963 0.080130994 0.12080112
-0.12516266 -0.098861896 -0.037956428 -0.055638123 -0.01059547 -0.020277204 0.034315944 -0.06792647
-0.028957112 0.13244687 -0.013336752 -0.05856957 0.04384085 -0.035213545 -0.014478153 0.08874192
-0.019454258 0.0058660563 -0.019800762 0.009519202 -0.104733035 0.07313621 -0.0033064475 -0.012128147

dnets.2.means f4 [63]
00000000: 5b97 29bf 3d24 683f 4f10 cebe 5ef1 f3bf
00000010: 2b6c 4bbe 1733 36bf 3b2b 4bbf 476f 69bf
00000020: 31f0 95bf fa6f c83f 63e4 1e3f adbb 353f
00000030: da78 49be 48d8 92be 284f 16bd 096a d8bf
00000040: 2a51 b33f 0c17 8ebe 8365 b03f 1c5c 413f
00000050: cb4f e4bf 990b b03d d67c 97bf 6c0f b53f
00000060: a3b4 9fbf 2d8e 1a3f 4ec3 0ebd f824 efbe
00000070: 6902 a33e d162 f43f f214 113f 4b13 e33f
00000080: 6109 243e a693 4fbf c0b4 8a3f 13d6 f03f
00000090: 5751 d73e c1a9 553f 3493 d7be e508 18c0
000000a0: 104b 86bf 1979 c0bf f25b b33e 472d ba3c
000000b0: 8dc3 dabe f037 2cbf bb69 9b3f 0f6e c93e
000000c0: b11b f03f 94bf ae3d e229 723f 2705 e8bf
000000d0: 1233 973d 9d20 bf3e 2072 ab3d 2b7b 6a3f
000000e0: c3c2 613f 2cf6 b83f 3d1b 713f 4aa0 82bf
000000f0: de3b 503f 4381 193e 0f47 3d3f
-0.66246575 0.90680295 -0.40246817 -1.9058034 -0.19865482 -0.71171707 -0.7936284 -0.9118542
-1.1713926 1.5659173 0.6206724 0.70989496 -0.19675007 -0.28680634 -0.036696583 -1.6907359
1.4009144 -0.27751958 1.3780979 0.7553117 -1.7836851 0.08595962 -1.1834972 1.4145331
-1.2477001 0.60373193 -0.034854226 -0.46707892 0.31837776 1.9092656 0.56672585 1.7740263
0.16019203 -0.8108467 1.083641 1.881533 0.42054245 0.8346215 -0.42104495 -2.3755429
-1.0491657 -1.5036956 0.35031086 0.022726668 -0.42727318 -0.67272854 1.2141641 0.3934178
1.8758451 0.085326344 0.9459516 -1.8126572 0.07382788 0.3732957 0.08371377 0.9159419
0.8818781 1.4450126 0.9418219 -1.0205166 0.8134135 0.14990716 0.7393655

dnets.2.std f4 [63]
00000000: f62d 4e40 3b71 28be 684a 2940 f68a ab3f
00000010: a186 3040 21bb 653f d0b7 dd3e 5bcd 3d3e
00000020: 29ee 253f ce41 763e 165e 933e 67cf 863d
00000030: 45fc 27be 669e 903f 06ff 643f a9d5 1040
00000040: 1363 6d3f 41a3 323e 05be 293d d4b3 c23e
00000050: 8709 5e40 1fdb 8a3f 5a58 0a40 aee2 4bbe
00000060: 89be 2d3f dd1e 4640 d4fc af3d e953 3e3f
00000070: 6ecb 983f 1f0a 5f3e 1642 b63f 1459 863f
00000080: b9d9 f93d 9597 093f 2f0e fd3f 6df8 89bf
00000090: 7434 b73e b62b a83f 5f19 16be 9018 b6bd
000000a0: 902a 2b3f 1a12 9e3e 7b9e a23f 5a0c 0d3d
000000b0: a908 c63f 26c5 7ebe d34d 2c3f 2aeb 5a3e
000000c0: 9223 1540 7280 c33f 1c72 cf3f fed5 cc3f
000000d0: 7fe7 4d3f e8eb 503e e5bd ce3d 82dd d83e
000000e0: c6ba e83e f0f3 9a3f c283 f93e 4a36 913f
000000f0: a348 e93e bab7 983e 7315 1740
3.2215552 -0.16449444 2.6451664 1.3401783 2.758217 0.8973866 0.433043 0.18535368
0.6481653 0.2404854 0.2878272 0.065825276 -0.16404827 1.1298339 0.89451635 2.2630408
0.927293 0.17445089 0.041440982 0.38027823 3.4693315 1.084812 2.1616426 -0.1991069
0.6786886 3.0956337 0.08593145 0.74346787 1.1937082 0.21781205 1.4238918 1.0495934
0.121997304 0.5374692 1.9769953 -1.0778939 0.35782206 1.313834 -0.14658116 -0.08891404
0.6686182 0.30873185 1.2704614 0.034435607 1.5471393 -0.24879894 0.6730625 0.2137877
2.330296 1.5273573 1.6206698 1.6002805 0.8043136 0.20402491 0.10094813 0.42356497
0.45454997 1.2105694 0.48733336 1.1344693 0.4556323 0.29827672 2.3606842

dnets.2.weights_rbf f4 [24, 63]
00000000: 55dd 3d3a 2b2c 9f3c 97a2 383a 02fc 2f39
00000010: 9354 583a 887c ad3a 19bb a8bc 2d70 3c3c
00000020: 0efb 78bc 7e21 823c 8a29 ed3c 2108 823c
00000030: ab86 3ebd 4bc3 7db7 0fb1 3739 1f5a ae3a
00000040: df70 16bb eadd 9fbc 2108 823c 8971 a43c
00000050: b1d2 5c3a 72fe d339 ed72 3f3a 9169 823c
00000060: fa19 82bc 9a3b 983a 1e7d a7ba b142 0d3a
00000070: bfec a739 2108 823c f221 503a ba8b 853a
00000080: 9238 b5ba ce13 3abb f55f 833a 380a 6a3b
00000090: 68dc c8ba 76c0 9139 8a78 d4bc 2108 823c
000000a0: 987a b7bb 2108 823c 0ea7 043a ed8c af3b
000000b0: 5e03 8439 432c 14bd b9e3 9d3b a4a6 bb3c
000000c0: 1bf5 053a 0c1e 503a 090f 403a 00fc 3e3b
000000d0: 5261 b8b9 d706 be3c a335 bd3c 0444 dd3c
000000e0: a814 8a3c 5513 05bb b005 803c e1d9 073b
000000f0: d9ab b53b 1ead 1fbc 6fc3 9f3a 6ded 3fbb
00000100: 4492 0f3c 60f0 2cbb 9aa4 04bc 7165 24bb
00000110: e1b7 0abb f132 cabc b186 e0bd ebc7 c6bc
00000120: e207 823c c866 533c cef9 163c 3a7b e03a
00000130: 3b85 24ba eafc 043b 7358 6abb 1b72 c63b
00000140: 4dad 363c 2108 823c e6da a43c 0f8d 5bbb
00000150: d3dd da39 a0ba 58bb 1808 823c ba2a d3bc
00000160: fd06 11bb 385e 113c 2ead 75b9 9432 4639
00000170: 2108 823c a480 b3b8 e5d5 e13b 66c4 e83c
00000180: 503b 12bc 2168 85ba 42a8 003c 939b 8a3c
00000190: 928b 553a db8a 1ebd 2108 823c 05f8 52bc
000001a0: c862 853c d1d6 7b37 6e6d 583c 53e1 04bb
000001b0: 76ea 9cbd 8bf4 573c ff6f ca3c 6731 a9ba
000001c0: ef8a 83ba 6069 9fb9 0335 8bbb e1e7 0b3b
000001d0: 3485 cf3c 6ca6 cdbc 8ebc 433c 1bb7 9e3c
000001e0: 9edc 293b 148c 993c 3b5f 56bb cc5e 9b3c
000001f0: d5e0 623c ee42 d5ba 6110 2cbb e05b cd3b
00000200: a9bb 2abb 9d8b b0bb 7cc4 1cbb ef39 a8bb
00000210: a651 82bc 93ef b63c 8bf2 59bc 7506 823c
00000220: 8a47 4d3c 890d 773c 4afb 773d bfdd 62bb
00000230: cfaa 32bb ce65 5fbb ceb8 d53a ac85 a1bc
00000240: 2108 823c 52a6 1e3c f469 42bb 14b3 06bb
00000250: 43aa 55bb 63ea 813c b366 5bbc 4bcf f1ba
00000260: 1350 35bc be1f afbb 376e d4ba 2108 823c
00000270: 374d a7ba 9512 333b 75b2 b93a 758f 19bc
00000280: c0aa 9bba ea08 733b 5787 2f3b 3d13 13ba
00000290: 77a1 d73d 2108 823c fa7f 1cbc 5acb 813c
000002a0: 079e d0ba a483 203d 14cd 4fbb 8a8f 123d
000002b0: b68f 8b3b 74da 343c d02b 84ba 3959 08bb
000002c0: 5fa0 77ba 5ba5 80bb da41 0cbb ad05 3d3c
000002d0: 8fb2 3e3d de31 5f3c f5a2 113c 0067 0c3a
000002e0: 0887 0b3c 3be0 98bb c528 8b3b 5134 3eba
000002f0: ed97 d3ba b472 ec3b 2108 823c e911 e53b
00000300: 9c8f 093c 109f e23b 324a ad3b a55c b03b
00000310: 60a4 123d fbc5 2f3c 2108 823c 3658 e0bb
00000320: 2108 823c e6c1 263c 1360 af3b d7ce 8f3b
00000330: f177 f73b d89a 993b d1d5 c53b 2108 823c
00000340: 9658 42b9 f599 f73b 7f66 aa3b e9f8 ef3b
00000350: 2108 823c 8903 403c 7bbc db3b bf10 fd3a
00000360: 4e8b 893b ba2e a93b 2108 823c 2e2a ab3b
00000370: bf66 a13b 5df9 4bbc 428c 9e3b 806a bc3b
00000380: 3251 983b 9936 ca3a 12ed 9f3b 38fd 573b
00000390: 2108 823c 0634 ed3b 2f2d 2fbc 1892 ab3b
000003a0: a8ee 31bc d845 d03b e7b7 9a39 13b5 833b
000003b0: 5994 12bc 838f c33b 3bca c23b 3f0f af3b
000003c0: d192 f73b ae85 943b 2bb7 22bc 83b6 65bc
000003d0: e63f 16bb 83c8 e23a df94 a03b d688 133b
000003e0: dd2a d23b 5c03 053b 3eed 5a3b d785 cc3b
000003f0: 01c2 393b 5e9c 373b 38b0 3c3b e3fa 6e3b
0.0007242759 0.01943024 0.0007043271 0.00016783181 0.00082523486 0.0013235966 -0.020597028 0.011501354
-0.015196575 0.015885111 0.028950471 0.015873017 -0.046515148 -1.5125445e-05 0.000175182 0.0013302005
-0.002295546 -0.019514997 0.015873017 0.020073669 0.00084237295 0.00040434633 0.0007303197 0.015919479
-0.015881527 0.0011614442 -0.0012778377 0.0005388661 0.00032029112 0.015873017 0.00079396286 0.0010188736
-0.0013826063 -0.0028393152 0.0010023104 0.0035711657 -0.0015324475 0.0002779995 -0.025936384 0.015873017
-0.005599331 0.015873017 0.00050602935 0.005357376 0.0002517951 -0.036175024 0.0048184064 0.022906609
0.0005110071 0.00079390476 0.0007326459 0.0029141903 -0.00035167724 0.02319662 0.023096865 0.027009971
0.016855553 -0.0020305712 0.015627712 0.0020729231 0.0055441675 -0.009745864 0.0012188981 -0.0029285804
0.0087629 -0.0026388392 -0.008095885 -0.0025084878 -0.002116673 -0.024682494 -0.1096319 -0.02426525
0.0158729 0.012902923 0.0092148315 0.0017126568 -0.00062759564 0.002029235 -0.0035758286 0.006056083
0.011149717 0.015873017 0.02012391 -0.0033500826 0.00041745472 -0.0033070222 0.015873 -0.02577721
-0.002212941 0.008872561 -0.00023429535 0.00018901593 0.015873017 -8.559346e-05 0.0068919533 0.028413963
-0.008925274 -0.0010178128 0.007852616 0.016919887 0.0008146103 -0.03870664 0.015873017 -0.012876515
0.016282454 1.5010782e-05 0.013209684 -0.0020275905 -0.076619074 0.013180862 0.024711607 -0.00129084
-0.0010035912 -0.00030405354 -0.004248263 0.0021347927 0.02533207 -0.02510377 0.01194681 0.01937442
0.0025918852 0.018743552 -0.003271057 0.018966101 0.013847549 -0.0016270557 -0.002625488 0.006267056
-0.0026051796 -0.005387737 -0.0023920825 -0.0051338593 -0.015908074 0.022331035 -0.013302456 0.01587222
0.012529263 0.015078911 0.060542382 -0.0034617034 -0.0027262454 -0.003408778 0.0016305686 -0.01971706
0.015873017 0.009683209 -0.0029665204 -0.0020553516 -0.0032602705 0.015858835 -0.013391185 -0.0018448619
-0.011066454 -0.00534436 -0.0016207163 0.015873017 -0.0012764101 0.0027324308 0.0014167564 -0.009372582
-0.0011876449 0.003708417 0.002678355 -0.00056104717 0.10528844 0.015873017 -0.009551996 0.015844036
-0.0015916236 0.039188042 -0.003170793 0.03578142 0.004259075 0.011038411 -0.0010083858 -0.0020805134
-0.00094461994 -0.003925962 -0.0021401555 0.011536998 0.046557005 0.013622729 0.00888895 0.00053559244
0.008516081 -0.004665402 0.0042468035 -0.00072557206 -0.00161433 0.007215822 0.015873017 0.0069906604
0.008396056 0.0069159344 0.005288386 0.005382138 0.03580129 0.010728355 0.015873017 -0.006846453
0.015873017 0.010178065 0.005352029 0.004388671 0.00755214 0.0046876483 0.006037452 0.015873017
-0.00018534283 0.007556195 0.005200207 0.0073233736 0.015873017 0.011719593 0.006705818 0.0019307359
0.0041975146 0.005163041 0.015873017 0.005223534 0.0049255784 -0.01244959 0.0048384974 0.0057500005
0.004648351 0.0015427648 0.004880556 0.0032957327 0.015873017 0.0072388677 -0.010691925 0.0052359216
-0.010860123 0.0063559823 0.00029510187 0.0040193885 -0.008946502 0.0059680357 0.005944518 0.0053423936
0.0075553437 0.0045325374 -0.009931366 -0.014020565 -0.002292627 0.0017302189 0.0049005593 0.002251198
0.006413801 0.0020296192 0.0033405568 0.006241541 0.0028344395 0.0028016786 0.0028791558 0.0036465458

dnets.2.conv.weight f4 [24, 3, 5, 5]
00000000: 0c13 3bbc 3018 123e c9ed 1e3b bf35 f1bc
00000010: 0f7b 153b 7156 b53d 0c6e 0d3d 7555 b5bd
00000020: 9270 aabd 4578 46bd 7667 00be 27a1 fc3d
00000030: b2d0 d53d b949 18bd 4a04 99bd 051b b4bd
00000040: 6d43 bebd 56af b43d 59d5 9d3c 97b9 103d
00000050: 77cb 2d3d 890a 123d b5e0 20bc 45c0 5cbc
00000060: bee2 cdbc b5f1 05bc 9821 7abd ae11 5abd
00000070: a7a6 983d 817b 2cbd dadd 6cbd cc5c 8abd
00000080: 0050 81bd 1e69 0b3e 55f4 a0bd 998c 3e3e
00000090: 9b05 eebd e574 d6bd 4c97 a93d cb31 8dbc
000000a0: 4698 64bd bddb 203e 2a12 c53b 789f 9bbc
000000b0: bae1 b63c f1ff 623d 8df1 afbd 16a6 a43d
000000c0: 3fc6 533d 2eaf b8bc c0a6 6fbd 78c8 4f3d
000000d0: bc63 c33d 0d87 213d 9886 553c 88c8 84bb
000000e0: 92f5 6f3d 1fa4 eebd b47b b83c c899 223d
000000f0: 8333 9d3c 8ff9 debd efdf 1e3e 1b7e 6cbc
00000100: cd66 303c 7160 6e3d dc24 843d 5a53 3dbe
00000110: 5b57 ebbc dd9b ea3c c1ec 16bd 61a5 8b3c
00000120: b262 a9bd 4fa6 8cbd 1f5b a83c 0d8b d73d
00000130: cddf acbd f82b 1abd a574 acbd da7a ccbd
00000140: 4926 a4bd 66d9 6b3d 0574 b13d 6ffe ec3c
00000150: 2121 0dbc 9fc0 a43d bd92 c83d d306 ad3d
00000160: 7a98 03bd 0b87 b43a 8e3e f9bd 783b 653c
00000170: 4785 cf3d 49ce 703c e839 163d 580f 6f3d
00000180: 16aa 8dbd 6184 f23c 609c 85bd b1aa d4bd
00000190: a0e2 d1bd cba6 143c f813 f0bd 3df6 e2bc
000001a0: ad62 16bd 4f1e 6fbd a537 243d 309f aa3d
000001b0: e82e 0b3d 436f 2f3d c8a8 e13d 3985 fa3b
000001c0: 644f 0a3d d829 cebc 4100 9cbd bfc4 033c
000001d0: 6fba 9e3d 48a6 c6bc 6039 a2bc e088 e63d
000001e0: bee7 44bd c14f cb3c 2e4c e9bd 1254 0bbd
000001f0: 0063 be3d a59b 6cbd 75be ec3d a941 02bd
00000200: 1135 12bd faf4 913d 2dd0 473b 45a1 98bd
00000210: 0ac5 bdbc 5224 7fbd 6625 943d a6b4 033e
00000220: 62dc 5fbd 2635 dcbb 80e0 fd3d b361 8fbd
00000230: f30d b63d 0b0b e6bc c5ce 9cbd 54d3 6d3c
00000240: 26d2 9dbd 2ab3 0d3e 56bf 8cbd 75a3 87bc
00000250: 0cd8 94bc eec0 8abd 3701 2dbd 4e1a 4c3d
00000260: 0363 f7bd 1d65 383d c81b 033e 90c8 063d
00000270: ad60 b1bd 75a6 40bd 00e2 f73d 4191 01be
00000280: 8ad0 d63b d91a 3dbd 61f1 b43d 02e0 3dbc
00000290: a524 553d 0434 03bd 6094 f93c a850 a03c
000002a0: 5049 94bd b61a fabb 4e9e b23b 8175 62bb
000002b0: 05ab cd3d 034d d93c 182b e0bd 0d97 3d3c
000002c0: 11fc ce3c 7961 d6bd 3cb6 c4bd 2871 a7bd
000002d0: d167 743b 1f00 12bd 7217 d43d dce6 583d
000002e0: e810 f03d a24f bcbd 3b11 013c 20f9 62bd
000002f0: be4a 9f3d 4bd7 8bbc 37e8 1e3d ccf7 433d
00000300: 7e19 8bbc 3d50 ad3c a9f2 e6bd 0e4c e83b
00000310: 593a cc3a 600c 9a3d a123 b3bd bb11 ca3d
00000320: 603d 493d ad39 a53d 2700 0bbe 5565 abbb
00000330: 4457 ba3c c1b1 e0bd 5cc9 06bd 8eab 7ebd
00000340: ef44 ae3d 5382 0fbd b0ea e0bc 7e2d 003c
00000350: 7613 f03c 5d53 e83c 22da 013d 029d 7bbb
00000360: 4fdf 13bd 6e2a af3d aa94 a03d 4d7a d43c
00000370: c4ca 82bb 7240 bcbc 62ec 313c 0df9 77bd
00000380: 7e93 d7bb e877 93bc 04bb aa3d 08a2 58bd
00000390: 9e4f 0ebd 099d e1bd 1e44 d9bd f69b 5dbd
000003a0: 25c9 46bd 86e2 a63a 9924 e73c 7332 d2bd
000003b0: 53c2 a6bd 1d7e 113d 33ee 91bb cc86 8b3d
000003c0: 9755 e33d e7bc 1ebd 9bcd 833d e945 883a
000003d0: 7bb2 05bb dbaa ea3d c619 b03a 3cf2 17bc
000003e0: 7498 a43d 3d23 9c3d e6d2 f03c 8aee 5bbc
000003f0: c669 51bc fff0 b1bd d04a 563d 7fe8 c4bd
-0.011418115 0.1426704 0.0024250618 -0.029444573 0.0022808944 0.08854378 0.034528777 -0.0885419
-0.08322252 -0.04845454 -0.12539467 0.12335425 0.10440196 -0.037179682 -0.07471521 -0.08794216
-0.09290204 0.08822505 0.019266771 0.035333242 0.042430367 0.03565458 -0.009819199 -0.013473575
-0.025132533 -0.008175303 -0.061067194 -0.053239517 0.074536614 -0.04210997 -0.05782876 -0.06755981
-0.06314087 0.13614318 -0.07859103 0.18608321 -0.11622163 -0.104715146 0.08280811 -0.017235657
-0.05580928 0.15708824 0.006014128 -0.018996939 0.022324432 0.055419866 -0.08590994 0.08039491
0.051702734 -0.02254447 -0.058508635 0.05072829 0.09540507 0.039435435 0.013032578 -0.0040522255
0.058583803 -0.11652397 0.022519924 0.03969744 0.019189602 -0.10887443 0.15515111 -0.014434363
0.010766697 0.058197442 0.06452343 -0.18488827 -0.028728178 0.028638775 -0.03684688 0.017046632
-0.08270778 -0.06867658 0.020551262 0.10524569 -0.08441124 -0.037639588 -0.08420686 -0.099843696
-0.08015115 0.057580374 0.08664707 0.028929917 -0.008613856 0.08044552 0.09793613 0.08448567
-0.032127835 0.0013773156 -0.121701345 0.013991229 0.101328425 0.01469762 0.036676317 0.058364242
-0.06917207 0.029604139 -0.06523967 -0.10384119 -0.102483034 0.00907297 -0.11722559 -0.027705306
-0.0367152 -0.058378514 0.04009213 0.08331144 0.03398028 0.042830717 0.110185206 0.007645276
0.03376712 -0.025166437 -0.07617236 0.008042513 0.07750403 -0.024249211 -0.01980275 0.112565756
-0.04807257 0.024818303 -0.11391483 -0.034015723 0.092962265 -0.05776562 0.11559764 -0.0318009
-0.03569514 0.07126804 0.0030489073 -0.07452635 -0.023165245 -0.062290497 0.07233696 0.1286188
-0.054653533 -0.006720203 0.123963356 -0.070010565 0.08889379 -0.028081438 -0.07656626 0.014515717
-0.07706098 0.13837877 -0.06872432 -0.016557435 -0.018169425 -0.0677508 -0.042237487 0.049829774
-0.12079432 0.045018304 0.12803566 0.032906115 -0.086610176 -0.047033746 0.12103653 -0.12653066
0.0065556215 -0.046168182 0.08835102 -0.011589052 0.0520369 -0.032032028 0.030466259 0.01956971
-0.07240546 -0.0076325787 0.0054510003 -0.00345549 0.10042385 0.02652598 -0.109457195 0.011571658
0.025266679 -0.1046781 -0.09605071 -0.0817588 0.0037293325 -0.035644647 0.10356034 0.05295454
0.117219746 -0.09194876 0.007877643 -0.055413365 0.07777928 -0.017070433 0.038795676 0.04784374
-0.016979929 0.021156425 -0.112767525 0.0070891446 0.0015581354 0.075218916 -0.0874703 0.09866663
0.049130797 0.080676414 -0.13574277 -0.0052305856 0.02274669 -0.10971404 -0.032906875 -0.062175326
0.08509242 -0.035036396 -0.027455658 0.007823346 0.029306155 0.028360063 0.03170217 -0.0038393144
-0.036101636 0.08553015 0.078408554 0.025937224 -0.0039914567 -0.022979949 0.010859581 -0.060540248
-0.0065788617 -0.018001512 0.08336452 -0.0528889 -0.034743898 -0.1101628 -0.106086954 -0.054103814
-0.04853167 0.0012732304 0.028215693 -0.10263529 -0.08142533 0.03552066 -0.0044534444 0.0681282
0.11100309 -0.03875437 0.064357005 0.0010396811 -0.0020400572 0.11458369 0.0013435415 -0.009274062
0.080368906 0.07623909 0.02939744 -0.013423571 -0.012781566 -0.086885445 0.05231744 -0.096146576

dnets.3.means f4 [63]
00000000: 5b97 29bf 3d24 683f 4f10 cebe 5ef1 f3bf
00000010: 2b6c 4bbe 1733 36bf 3b2b 4bbf 476f 69bf
00000020: 31f0 95bf fa6f c83f 63e4 1e3f adbb 353f
00000030: da78 49be 48d8 92be 284f 16bd 096a d8bf
00000040: 2a51 b33f 0c17 8ebe 8365 b03f 1c5c 413f
00000050: cb4f e4bf 990b b03d d67c 97bf 6c0f b53f
00000060: a3b4 9fbf 2d8e 1a3f 4ec3 0ebd f824 efbe
00000070: 6902 a33e d162 f43f f214 113f 4b13 e33f
00000080: 6109 243e a693 4fbf c0b4 8a3f 13d6 f03f
00000090: 5751 d73e c1a9 553f 3493 d7be e508 18c0
000000a0: 104b 86bf 1979 c0bf f25b b33e 472d ba3c
000000b0: 8dc3 dabe f037 2cbf bb69 9b3f 0f6e c93e
000000c0: b11b f03f 94bf ae3d e229 723f 2705 e8bf
000000d0: 1233 973d 9d20 bf3e 2072 ab3d 2b7b 6a3f
000000e0: c3c2 613f 2cf6 b83f 3d1b 713f 4aa0 82bf
000000f0: de3b 503f 4381 193e 0f47 3d3f
-0.66246575 0.90680295 -0.40246817 -1.9058034 -0.19865482 -0.71171707 -0.7936284 -0.9118542
-1.1713926 1.5659173 0.6206724 0.70989496 -0.19675007 -0.28680634 -0.036696583 -1.6907359
1.4009144 -0.27751958 1.3780979 0.7553117 -1.7836851 0.08595962 -1.1834972 1.4145331
-1.2477001 0.60373193 -0.034854226 -0.46707892 0.31837776 1.9092656 0.56672585 1.7740263
0.16019203 -0.8108467 1.083641 1.881533 0.42054245 0.8346215 -0.42104495 -2.3755429
-1.0491657 -1.5036956 0.35031086 0.022726668 -0.42727318 -0.67272854 1.2141641 0.3934178
1.8758451 0.085326344 0.9459516 -1.8126572 0.07382788 0.3732957 0.08371377 0.9159419
0.8818781 1.4450126 0.9418219 -1.0205166 0.8134135 0.14990716 0.7393655

dnets.3.std f4 [63]
00000000: f62d 4e40 3b71 28be 684a 2940 f68a ab3f
00000010: a186 3040 21bb 653f d0b7 dd3e 5bcd 3d3e
00000020: 29ee 253f ce41 763e 165e 933e 67cf 863d
00000030: 45fc 27be 669e 903f 06ff 643f a9d5 1040
00000040: 1363 6d3f 41a3 323e 05be 293d d4b3 c23e
00000050: 8709 5e40 1fdb 8a3f 5a58 0a40 aee2 4bbe
00000060: 89be 2d3f dd1e 4640 d4fc af3d e953 3e3f
00000070: 6ecb 983f 1f0a 5f3e 1642 b63f 1459 863f
00000080: b9d9 f93d 9597 093f 2f0e fd3f 6df8 89bf
00000090: 7434 b73e b62b a83f 5f19 16be 9018 b6bd
000000a0: 902a 2b3f 1a12 9e3e 7b9e a23f 5a0c 0d3d
000000b0: a908 c63f 26c5 7ebe d34d 2c3f 2aeb 5a3e
000000c0: 9223 1540 7280 c33f 1c72 cf3f fed5 cc3f
000000d0: 7fe7 4d3f e8eb 503e e5bd ce3d 82dd d83e
000000e0: c6ba e83e f0f3 9a3f c283 f93e 4a36 913f
000000f0: a348 e93e bab7 983e 7315 1740
3.2215552 -0.16449444 2.6451664 1.3401783 2.758217 0.8973866 0.433043 0.18535368
0.6481653 0.2404854 0.2878272 0.065825276 -0.16404827 1.1298339 0.89451635 2.2630408
0.927293 0.17445089 0.041440982 0.38027823 3.4693315 1.084812 2.1616426 -0.1991069
0.6786886 3.0956337 0.08593145 0.74346787 1.1937082 0.21781205 1.4238918 1.0495934
0.121997304 0.5374692 1.9769953 -1.0778939 0.35782206 1.313834 -0.14658116 -0.08891404
0.6686182 0.30873185 1.2704614 0.034435607 1.5471393 -0.24879894 0.6730625 0.2137877
2.330296 1.5273573 1.6206698 1.6002805 0.8043136 0.20402491 0.10094813 0.42356497
0.45454997 1.2105694 0.48733336 1.1344693 0.4556323 0.29827672 2.3606842
