models/speckle_joint7.pth (torch, 332311 bytes, 32 tensors)

dnets.0.means f4 [63]
000000 d5 2d cb 3e ee d0 98 bf 3c d6 c7 3f c9 a0 29 40
       0.39683405 -1.193876 1.5612254 2.6504385
000010 6b bc c0 bf 3e ce 0a 40 71 d2 37 bf b5 eb a6 bf
       -1.5057501 2.168838 -0.71805483 -1.3040682
000020 d4 bf 8d 3f f9 f4 5b 3f 18 05 8d bf e8 b1 b0 be
       1.1074166 0.85920674 -1.101718 -0.34510732
000030 1e 02 8b bf e0 fc 7c be 41 e1 a0 3f 7d 47 9f bf
       -1.0860021 -0.24705839 1.2568742 -1.2443691
000040 c2 2b f0 bf b6 a1 33 40 96 0d de bf d7 fe 68 3f
       -1.8763354 2.806745 -1.7347896 0.91013855
000050 4d 3f 39 bf 0a 31 3b bf 02 eb 91 3f 8f b8 f9 3f
       -0.72362214 -0.731217 1.1399844 1.9509448
000060 c2 47 0e 40 5d 81 e0 3e aa 8d c4 3c e7 33 a6 be
       2.2231297 0.43848696 0.023993332 -0.32461473
000070 48 f3 9c 3d 56 6f b7 3f 8f b4 ee bf 95 11 a3 3e
       0.0766359 1.4330852 -1.8648852 0.31849352
000080 38 7e 3e 3f b3 b2 01 40 6e 12 f6 be 84 e8 26 3f
       0.74411345 2.026532 -0.48060936 0.6519854
000090 c1 9a bb 3e 91 87 d1 3e 0a d2 6e 3f ed d6 de 3f
       0.36641505 0.4092374 0.93289244 1.740934
0000a0 16 f9 a0 3e a9 5f f5 3f 37 0d 94 bf 2a 99 93 bf
       0.31440037 1.9169818 -1.1566533 -1.1531117
0000b0 7f 94 45 bf be c1 ec bf 7f 05 c8 3f 39 a2 bd 3c
       -0.7717971 -1.8496625 1.5626677 0.023148643
0000c0 26 68 1a c0 66 62 a5 3f 6c ea 9b bf 8b 77 4a bf
       -2.4126067 1.2920654 -1.2180915 -0.7908866
0000d0 2f 39 94 bd 54 b8 b1 3f 44 3c c3 bf 63 93 2b bf
       -0.072374694 1.3884377 -1.5252767 -0.6702177
0000e0 87 21 a6 bf 01 d9 0f c0 d0 c1 48 3f 3b 19 0b 40
       -1.2978982 -2.2476199 0.78420734 2.173415
0000f0 3d f9 5d 3f ba 5d 24 3f a6 ab 90 3e
       0.8670843 0.64205515 0.28255957

dnets.0.std f4 [63]
000000 c5 78 db 3f 25 a2 cb 3e e9 61 37 3f 4a 4b 84 3f
       1.7146231 0.39772144 0.71633774 1.0335476
000010 99 04 16 3f c6 8d 77 bf 99 a3 bd be 55 e6 1f 3f
       0.58600765 -0.96700704 -0.37038878 0.62460834
000020 5c f4 a9 3f ac 6f 04 40 d3 a1 24 3d f6 e9 05 3f
       1.3277698 2.069316 0.04019339 0.5231012
000030 b5 bc cb 3f 91 29 9e 3f b4 60 c7 3f be 86 19 3f
       1.5916964 1.2356435 1.5576386 0.59971225
000040 11 7a 67 bf 59 19 00 3f e1 9f 31 3f 27 52 e8 3f
       -0.90420634 0.5003868 0.6938458 1.8150071
000050 84 79 b5 3e 6d 3c 0b 40 40 12 e0 3f f9 f0 17 be
       0.35444272 2.175563 1.750557 -0.14838018
000060 93 5f 88 3f 3a 91 af be 6c 82 ed 3c ab 77 0c 3e
       1.0654167 -0.34290487 0.028992854 0.13717525
000070 20 f1 01 3f 14 1f 18 3f ab d2 6d 3f 59 cc 15 3f
       0.5075855 0.5942242 0.9289958 0.58514935
000080 4a d4 1b 40 63 42 69 3f 70 87 8b 3f 23 36 82 3f
       2.434832 0.91116923 1.0900707 1.0172771
000090 71 a3 2d 3f 53 9f 40 3f dc 78 8f 3f db f9 db be
       0.67827517 0.7524311 1.1208758 -0.42964062
0000a0 fc a8 0a 3f 65 a9 9c 3e 33 ab b8 3e b3 ed 01 40
       0.541641 0.30597988 0.36068115 2.030133
0000b0 33 48 5e be f4 e1 6b 3f 90 08 bc 3f 64 ce f7 3f
       -0.2170723 0.9214165 1.4690113 1.935986
0000c0 63 77 c2 3f 84 81 0e 3f c0 3a 06 3f 3a 8f cd 3e
       1.5192684 0.55666375 0.52433395 0.40148336
0000d0 6a d6 06 be 9c 35 b5 3d 77 84 40 3f 57 7c 91 3f
       -0.1316773 0.08848116 0.75202125 1.136607
0000e0 66 aa dc 3e ab fe 91 3f 0c 56 4c 3f 16 4a 82 3f
       0.43098754 1.1405843 0.798188 1.0178859
0000f0 4e c6 28 3f 6c a0 b1 3f a7 b4 0f be
       0.6592759 1.3877082 -0.14033757

dnets.0.weights_rbf f4 [48, 63]
000000 4a de 6d b9 c6 15 bf bc e0 db a2 3c 0b 84 04 3d
       -0.0002268489 -0.023325812 0.019880235 0.03235249
000010 9b 49 8c bc 69 0f cb 3c d8 57 fe bb b0 ae f6 bb
       -0.017124942 0.024787622 -0.0077619366 -0.0075281486
000020 3a cd 98 3b a8 15 70 3a 21 08 82 3c 6b 5e eb bb
       0.004663137 0.00091585005 0.015873017 -0.0071828864
000030 26 10 a6 bb 33 55 ed ba 6b c6 89 3b e7 23 0b bc
       -0.005067843 -0.0018107056 0.0042045615 -0.0084924465
000040 d4 84 37 bc 21 08 82 3c bd 5e 82 bc b0 d1 cb 3a
       -0.011201102 0.015873017 -0.015914315 0.0015550163
000050 04 7e 82 bc 97 4e 2c bb 02 f4 39 3b 21 08 82 3c
       -0.01592923 -0.002629196 0.00283742 0.015873017
000060 1c a1 84 3c 07 60 e2 3b 8f ec 90 bc 7c c0 52 bc
       0.016190104 0.00690842 -0.017690925 -0.012863275
000070 40 83 0e ba 37 e1 22 3d 15 2f 0c bc 68 94 c9 39
       -0.0005436428 0.039765563 -0.008556147 0.0003844828
000080 f3 0a 49 39 c9 f8 c9 3c db d4 86 bb 63 80 38 3b
       0.00019172933 0.024654763 -0.00411473 0.0028152696
000090 b0 e9 9b 38 21 75 ad 39 95 ec a0 3b 54 26 9b 3c
       7.434504e-05 0.000330844 0.0049110153 0.018939175
0000a0 fa f9 fe 3a 1f 08 82 3c 53 df da bc c1 b2 84 bb
       0.0019453161 0.015873013 -0.026717817 -0.0040496294
0000b0 83 a6 7c bc aa 10 0e bc 1f 6d c5 3b c6 db 69 ba
       -0.015420559 -0.008670965 0.006024971 -0.00089209934
0000c0 8e a8 e6 bb d1 ce f0 3c 5b 79 7e bc 1c 9c f4 bb
       -0.0070391363 0.029395493 -0.015531863 -0.0074648988
0000d0 60 77 8b 3c 21 08 82 3c 52 ec e6 bb 1a 02 a8 bb
       0.017024696 0.015873017 -0.0070472145 -0.0051272037
0000e0 7f 20 c3 bc 80 f3 0c bc 78 41 dd 3b c7 8e 9b 3c
       -0.023819206 -0.008602977 0.0067521892 0.01898898
0000f0 a1 06 24 3c 34 44 81 3a 14 a8 aa 3b 04 c5 4a ba
       0.010011346 0.0009862245 0.0052080248 -0.0007735046
000100 7a b1 05 3b 85 bb 96 bc 0b fd d7 bc d7 29 cf 3b
       0.0020399974 -0.018399963 -0.026365777 0.0063221264
000110 bc 4e 8b bc 2f f9 3e 3c be 3c 35 3c 97 4c 80 bb
       -0.017005317 0.01165609 0.011061845 -0.00391538
000120 b7 dc e4 ba b8 1f a4 3c ab b6 97 bb 57 ad 4d 3b
       -0.0017460798 0.020034656 -0.00462993 0.0031383836
000130 92 73 d1 3a 81 71 80 bb 1c bd 31 3c 24 fc ec 3b
       0.0015979877 -0.0039197807 0.01084831 0.007232206
000140 83 34 82 3c 47 a3 d0 3b e8 4b 0f bb f9 c3 0f 3c
       0.01589418 0.0063671204 -0.0021865312 0.008774751
000150 64 82 dd 3a bc 93 49 bb 21 08 82 3c 90 79 4e bc
       0.0016899821 -0.0030758223 0.015873017 -0.012602225
000160 71 1b 77 3c af 94 7d ba 88 59 cb bb 28 19 6a bb
       0.015082226 -0.00096733397 -0.0062057413 -0.003572056
000170 d5 ca 25 bd 1a 1b 0d 3c a5 4f 84 3a 8e 6f 9e ba
       -0.04047664 0.008612419 0.0010094537 -0.0012087689
000180 ca aa 8e bc 5a ef ec 3a 83 d3 13 bb db a0 19 ba
       -0.017415423 0.0018076703 -0.002255649 -0.0005860456
000190 d6 75 84 ba 6c 53 67 bb 6b a4 99 3c 89 1d 7c 3b
       -0.0010105919 -0.0035297526 0.018755158 0.0038469753
0001a0 8b ee aa 3c f2 59 b6 bb a0 a9 25 3b 29 23 3b 3d
       0.0208657 -0.0055649215 0.0025278106 0.04568783
0001b0 ed 5b 0c 3c 28 dc a6 bb 09 59 a0 39 97 39 dd 3b
       0.008566839 -0.0050921626 0.00030583914 0.00675125
0001c0 7a 07 e1 bc 54 26 0b 3c aa 00 48 3c 72 d4 15 bd
       -0.027469385 0.008493025 0.01220719 -0.036579557
0001d0 0f 54 a8 3c 3c 2f 24 3c b6 03 26 3b 9c 93 82 ba
       0.020547895 0.010021027 0.0025331802 -0.0009962204
0001e0 02 ce 00 3c 2b 0a 1c bb 12 e2 61 bc b7 f0 4f bb
       0.007861616 -0.0023809772 -0.0137868095 -0.003172917
0001f0 34 3b ea ba 66 09 22 3d cf 62 e1 ba d6 11 4b bd
       -0.0017870427 0.039559744 -0.0017195585 -0.049577557
000200 85 6f cc 3d b9 c9 06 3e 60 63 60 bd 16 dd d8 3d
       0.09982208 0.13162889 -0.05478227 0.10589044
000210 39 91 1a bd 33 58 28 bd 64 b9 af 3c 68 61 1b 3b
       -0.03773615 -0.04109974 0.021450706 0.0023709182
000220 21 08 82 3c 60 f4 29 bd 66 47 b3 bc 3d a5 39 bc
       0.015873017 -0.04149282 -0.021884631 -0.0113309
000230 49 11 92 3c a2 eb 2f bd 70 f4 4d bd 21 08 82 3c
       0.017830508 -0.042949326 -0.050281942 0.015873017
000240 44 a1 65 bd f4 a5 af 3b 6d 12 53 bd 57 cc 43 bc
       -0.056061998 0.0053603593 -0.051531244 -0.011950574
000250 f8 a1 30 3c 21 08 82 3c 6f 7f a1 3d ba 70 63 3d
       0.010780804 0.015873017 0.07885634 0.055527426
000260 09 ca a5 bc df 7c 79 bc 01 35 7e bb b5 38 2e 3e
       -0.02023794 -0.0152275255 -0.0038788917 0.1701382
000270 5c 08 37 bd d9 89 69 3c 1a c2 2b ba f9 cd da 3d
       -0.044685706 0.014254057 -0.0006552056 0.106838174
000280 f5 ce a5 bc 2d 24 80 3c 34 fd 32 3c c5 ae 28 3c
       -0.020240286 0.01564225 0.010924626 0.010295575
000290 87 79 c7 3c f2 84 eb 3c 45 1c ad 3c 21 08 82 3c
       0.024349941 0.028749917 0.021131644 0.015873017
0002a0 ea 0f 55 bd 90 d8 8b bc d7 23 14 bd 51 1e 38 bd
       -0.05201713 -0.017071038 -0.036166992 -0.044950787
0002b0 6e fe e4 3c e4 6b b7 bb bc 48 11 bd 72 b8 0a 3e
       0.027953353 -0.0055975784 -0.035469756 0.13546923
0002c0 b9 58 57 bd 9e 95 19 bd f9 16 b7 bc 21 08 82 3c
       -0.052574847 -0.0374962 -0.022349821 0.015873017
0002d0 58 ad 28 bd 7a b3 c3 bc 74 18 5b bd c8 e5 33 bd
       -0.04118094 -0.023889292 -0.053490117 -0.04392031
0002e0 16 5e 1c 3d ea 0c b4 3d 65 2c 6e 3d ed d1 9e 3b
       0.038175665 0.08791526 0.058147807 0.0048468024
0002f0 47 41 3c 3d 7b 3e 04 ba 78 24 d2 bc 18 5d de 3c
       0.04596069 -0.00050447107 -0.025652155 0.027144
000300 b5 e9 1d 3d 9d df af bc 02 1e fd 3c 03 0e 49 bc
       0.03855296 -0.021468932 0.030898098 -0.012271407
000310 97 d4 4d bc 19 44 ca 3b d6 8e 6e 3a 21 08 82 3c
       -0.012562892 0.0061726687 0.00091002637 0.015873017
000320 0f 9f 28 bc 8d 37 fc bb 80 b0 49 bb 72 10 b1 3b
       -0.010291829 -0.007697052 -0.0030775368 0.0054035718
000330 ac 87 5d bc dc e2 84 bc 21 08 82 3c 48 c0 a8 bc
       -0.013521116 -0.016221456 0.015873017 -0.0205995
000340 d5 14 f2 3a 76 c6 a4 bc 75 ab 8a bb 6e 4d 67 3b
       0.0018469343 -0.020114165 -0.004231865 0.0035293954
000350 21 08 82 3c ac 8a b2 3c c8 c5 4e 3c 6b 0d 56 bc
       0.015873017 0.02179464 0.012620397 -0.0130647225
000360 00 b3 50 bc 64 d4 3c 3a a1 aa 43 3d 0f 42 5e bc
       -0.012737989 0.00072032795 0.047770146 -0.013565554
000370 87 94 23 3b 27 ac 0c b9 6e 7d fd 3c bb 52 ce bb
       0.0024960355 -0.00013415572 0.030943599 -0.0062964833
000380 77 29 8a 3b 2a 01 e8 3a cb 38 f0 3a 55 d3 db 3b
       0.004216369 0.0017700542 0.0018327472 0.0067085424
000390 b1 00 b2 3c ac 45 97 3b 21 08 82 3c f2 a0 e3 bc
       0.021728845 0.00461646 0.015873017 -0.027786706
0003a0 a1 5e cc bb 15 8c 8f bc 89 34 60 bc 68 79 01 3c
       -0.0062368666 -0.017522851 -0.0136844 0.007902481
0003b0 9a 7f db ba b7 8f 36 bc 82 40 18 3d 56 8b a4 bc
       -0.0016746402 -0.011142663 0.037170894 -0.020085972
0003c0 fb d0 45 bc e1 8f 3b 3c 21 08 82 3c 73 33 46 bc
       -0.012073751 0.011447878 0.015873017 -0.012097227
0003d0 12 d9 fd bb 51 bd d5 bc 98 3f 5c bc b2 42 1f 3c
       -0.007746824 -0.02609125 -0.013442896 0.009720491
0003e0 d0 e7 cb 3c 78 54 6f 3c b5 88 ba 3a 0f 80 0e 3c
       0.02489081 0.014607541 0.0014231416 0.008697524
0003f0 f2 90 9a 39 03 4a d2 ba f9 24 06 3c a6 5f 53 3c
       0.00029481162 -0.0016043786 0.008187526 0.012901222

dnets.0.conv.weight f4 [48, 3, 7, 7]
000000 9e 81 31 bd 33 4b 3d 3d 22 3d 48 3d d8 ad 95 3d
       -0.043336503 0.046214294 0.048886426 0.07308549
000010 0d 84 43 3b 79 06 6f bd 99 d3 fb 3b 1d 65 30 3d
       0.0029833347 -0.058355782 0.0076851365 0.04306518
000020 7c 09 22 bd af ea 41 3c 5c 73 ab bd 19 1c 87 bc
       -0.039559826 0.011835738 -0.083716124 -0.01649289
000030 70 25 0e 3b fc 1b 06 3d f8 91 89 3c c0 8a 8e bd
       0.0021689795 0.03274153 0.016793236 -0.06960058
000040 30 22 80 3d a5 28 1e 3c 87 98 18 3d c8 10 19 bc
       0.06256521 0.009653245 0.037254836 -0.00934238
000050 c8 30 29 3d eb bc 97 bd 99 33 86 3c 77 d9 50 bd
       0.041306287 -0.0740908 0.016382026 -0.05098864
000060 01 84 f9 3d 7c 1b 0f bd 5c 92 05 bd 34 df 29 bc
       0.12183381 -0.03493832 -0.032610282 -0.010368157
000070 be 6c 81 bd 04 ae 14 3d 8d 56 35 3c 16 bb 63 bc
       -0.06319569 0.036298767 0.011067999 -0.013899585
000080 44 1b 22 3d 47 e1 dc bc 3d 2a 10 3c 1c ec 27 3d
       0.039576784 -0.02696289 0.008799133 0.040996656
000090 64 87 24 bd 28 5b 04 bd 9d c5 54 bd da 49 88 ba
       -0.04016818 -0.032313496 -0.05194627 -0.0010397986
0000a0 32 a2 95 3b 11 16 55 3c 8a 2a 9a bc 0d 2e 82 3b
       0.0045664543 0.013005749 -0.018819112 0.003972775
0000b0 b0 73 38 3d 5d a9 b7 bd e4 ed 07 bd ab 51 1c 3d
       0.045032203 -0.0896785 -0.033185855 0.038163822
0000c0 bf d3 54 3d 44 43 12 3c 0f 37 12 bd 7a 44 4f bd
       0.05195975 0.00892717 -0.03569704 -0.050602414
0000d0 5b dd a1 bd 5a 1d 15 bc 03 98 21 3c 70 a4 1f 3d
       -0.07903548 -0.009101236 0.009862903 0.03897518
0000e0 af 17 a2 bc b6 65 63 3b 39 b5 f9 bc 4b c8 31 bd
       -0.019786684 0.0034698076 -0.030481922 -0.043403905
0000f0 82 9c 77 bc d7 14 0a 3d 6e 05 1d bc 7a bd 75 3d
       -0.015112998 0.03371128 -0.009583814 0.059995152
000100 6f 3e 13 bd 6b 87 7a 3b f5 75 ab 3c 02 a2 06 bd
       -0.035948213 0.0038227688 0.02093027 -0.032869346
000110 d5 a4 c1 bc e5 9c 6d 3d cd b2 9f 3d dd a4 ec 3c
       -0.023638168 0.058010954 0.077977754 0.028887207
000120 2b c0 c9 bd 2a 5b f6 bd 0d d0 f7 3c 0a e3 54 3d
       -0.09851106 -0.12029107 0.030250574 0.051974334
000130 05 b7 a9 3d de 13 4f bd 71 f1 23 bd b2 78 2e 3d
       0.08286861 -0.050556056 -0.04002518 0.042595573
000140 00 64 8b 3d de 4e 95 3d 6a 48 73 bd 05 9b 1f 3d
       0.06806183 0.07290433 -0.05939523 0.038966198
000150 56 87 78 bc 16 e9 c8 3c 37 62 d7 bc b7 07 02 bd
       -0.015168985 0.024525207 -0.02629195 -0.03174564
000160 80 0d 03 bd 99 49 ee bc d4 7f 81 3d 49 63 a2 3b
       -0.031995296 -0.029087828 0.063232094 0.0049556834
000170 f5 7a c1 3c e7 d5 30 bc cd 24 98 3d f3 ec da 3c
       0.0236182 -0.010793186 0.07428894 0.026724314
000180 66 5d 13 bd 22 f0 33 bd 1d d1 bd bc f8 20 91 3d
       -0.035977744 -0.04393018 -0.023171002 0.070863664
000190 13 05 0d 3c fd f7 01 3e a6 c9 70 3d 71 fa 56 3d
       0.008607167 0.12692256 0.058786057 0.052484933
0001a0 e7 f6 c9 bc d8 9a 23 bd c1 f9 07 bc c7 6b 52 3d
       -0.024653865 -0.039942592 -0.008299292 0.051372316
0001b0 b1 30 14 bd 31 c9 17 bd 7f bd 91 3d dd 91 83 bd
       -0.03617925 -0.037057105 0.07116222 -0.064243056
0001c0 d4 25 99 3d 87 16 f6 bc ac 5c 9b bd a7 2a 58 3b
       0.07477918 -0.030040039 -0.07586035 0.0032984407
0001d0 e7 df 85 bd de 70 ca bc 09 fa 14 bd 12 fa 09 3d
       -0.065368466 -0.024712022 -0.036371265 0.03368575
0001e0 ae 15 8d 3d fc 00 80 bd a3 ed 9a 3d 08 ce dc bc
       0.06888901 -0.06250188 0.07564857 -0.026953712
0001f0 30 52 81 3c 3b c1 88 bd 3a 0d 75 bd 9d ea 83 3d
       0.01578626 -0.06677481 -0.059827067 0.06441233
000200 c9 e8 5f bd af 8e d2 3d 62 62 c0 bc 38 33 b0 bc
       -0.05466536 0.10281121 -0.023484413 -0.021508798
000210 dd 47 ef bc 07 0e ba 3c 93 08 43 bd 87 8e b1 3c
       -0.029209072 0.022711767 -0.0476156 0.021674408
000220 33 8d b6 bc bc b7 5e 3c f1 91 0f 3d 4a 39 86 bd
       -0.022284126 0.01359361 0.03505129 -0.06553896
000230 95 d5 77 3d 28 99 5a bd cd 48 5f 3c 54 47 b8 bd
       0.060506422 -0.053368717 0.013628197 -0.0899798
000240 49 7d 91 bc 7c cc 39 3d 6f 1d 1a bc 48 22 a8 3c
       -0.017759936 0.045361027 -0.009406432 0.02052416
000250 31 3e ad bc 62 a3 d5 bc dd d7 13 bc 9d 62 88 3c
       -0.02114782 -0.026078884 -0.009023634 0.016648585
000260 8d 64 94 3c 34 a7 18 3c 1b 08 c6 3c f6 7d ef 3b
       0.018114353 0.009317208 0.024173787 0.007308717
000270 40 d5 83 bd e3 11 13 bd 5e 82 6c 3d 2b 54 0a 3d
       -0.064371586 -0.03590573 0.057741515 0.033771675
000280 ac 6c 50 bc f5 52 32 3d 6b c1 aa 3c 66 6d ad bc
       -0.012721222 0.043536145 0.020844182 -0.02117033
000290 19 40 9b bd c6 a1 14 3d 7b ac 9c 3b d5 3f c9 3c
       -0.07580585 0.03628709 0.0047813035 0.02456657
0002a0 36 19 da bb 0b 08 17 bd 39 d0 f9 3c bc 13 cb bd
       -0.0066558374 -0.036872905 0.030494796 -0.099158734
0002b0 dc 33 12 be 52 3d 60 bd 8b ae 47 bc 2d 6b a0 3c
       -0.14277595 -0.05474598 -0.01218761 0.019582355
0002c0 f7 25 4d 3d 37 bc 1c 3e 0c 4d d7 3d 61 b6 28 bd
       0.050085034 0.15306173 0.105127424 -0.041189555
0002d0 ac cc af bc c0 72 45 3c 32 b0 a5 bc 25 3c 01 bd
       -0.0214599 0.012051284 -0.020225618 -0.0315515
0002e0 be 8f b4 3c cc 21 b3 3d 0a 07 a7 3b b8 9c ac 3c
       0.022041198 0.087466806 0.0050972747 0.021070823
0002f0 8e c2 c2 bc 66 e7 b9 bb 3a ce c1 bc a5 c7 5c bb
       -0.023774412 -0.005673337 -0.023657907 -0.0033688333
000300 2c 6f 15 bc cb 40 63 3c 00 7d ff 3c 18 a6 4b 3a
       -0.009120744 0.013870428 0.031187534 0.00077685853
000310 76 df a7 3b 46 2f f2 bc d2 5e 1f bd 6a 16 2f 3c
       0.005123074 -0.029563557 -0.038908787 0.010686496
000320 97 a4 db 39 a3 97 d5 3c e3 ea aa 3c 1e a7 31 3b
       0.00041893564 0.026073283 0.020863956 0.0027107666
000330 65 30 70 3b df 7f 2e bd 6d da cf bc f5 46 44 3d
       0.003664994 -0.042602416 -0.025372708 0.047919232
000340 e2 e3 c8 3c 75 63 61 bc 0f 6d 7d 3c 56 9d 64 3d
       0.024522725 -0.013756623 0.015467896 0.05581411
000350 aa 29 11 bd 9f 10 9a bd c6 db 92 3c 9d 40 09 3b
       -0.035440125 -0.075227015 0.017927062 0.0020943054
000360 03 3d 98 3c c3 95 01 bd 26 ab ca bc a3 ea 87 3c
       0.01858378 -0.031636965 -0.024739813 0.016591376
000370 32 04 ce bd 51 74 16 be 32 22 2d bd 93 f2 9d bc
       -0.10059394 -0.14692809 -0.04226894 -0.019280707
000380 ba 17 bd 3c de 6c 31 3d 0f 6e 26 3e 6d 98 eb 3d
       0.023082603 0.043316714 0.16252922 0.11503682
000390 96 93 74 bd 8e 79 1f bc 40 05 8f 3a 6b fc c0 bb
       -0.05971106 -0.009733571 0.0010911599 -0.0058894656
0003a0 af ed 38 bd e1 82 4c 3d 00 10 83 3d 32 0f ac 3c
       -0.045148548 0.049929503 0.06399536 0.02100334
0003b0 6b a5 c7 3c d5 ff b2 bc d1 08 d9 bc 72 13 82 3b
       0.02437087 -0.021850506 -0.026493462 0.003969603
0003c0 7a e3 87 bc 24 e9 30 3c d7 4f d6 3c a9 92 e3 3c
       -0.016587961 0.010797773 0.026161117 0.027779894
0003d0 36 17 56 bb 5e 7d 1e 3b 5a 64 20 bc b1 a3 0a bd
       -0.0032667643 0.0024183611 -0.009789551 -0.033847515
0003e0 b9 5e 45 3b 59 f0 d3 3b d3 70 6a 3c bc 1e 93 3b
       0.0030116274 0.0064678607 0.014309126 0.004489748
0003f0 ef 22 ac 3b 93 87 5a 3c 00 c5 4c bd 0c 69 97 bc
       0.005253188 0.0133379875 -0.04999256 -0.018482707

dnets.1.means f4 [63]
000000 d5 2d cb 3e ee d0 98 bf 3c d6 c7 3f c9 a0 29 40
       0.39683405 -1.193876 1.5612254 2.6504385
000010 6b bc c0 bf 3e ce 0a 40 71 d2 37 bf b5 eb a6 bf
       -1.5057501 2.168838 -0.71805483 -1.3040682
000020 d4 bf 8d 3f f9 f4 5b 3f 18 05 8d bf e8 b1 b0 be
       1.1074166 0.85920674 -1.101718 -0.34510732
000030 1e 02 8b bf e0 fc 7c be 41 e1 a0 3f 7d 47 9f bf
       -1.0860021 -0.24705839 1.2568742 -1.2443691
000040 c2 2b f0 bf b6 a1 33 40 96 0d de bf d7 fe 68 3f
       -1.8763354 2.806745 -1.7347896 0.91013855
000050 4d 3f 39 bf 0a 31 3b bf 02 eb 91 3f 8f b8 f9 3f
       -0.72362214 -0.731217 1.1399844 1.9509448
000060 c2 47 0e 40 5d 81 e0 3e aa 8d c4 3c e7 33 a6 be
       2.2231297 0.43848696 0.023993332 -0.32461473
000070 48 f3 9c 3d 56 6f b7 3f 8f b4 ee bf 95 11 a3 3e
       0.0766359 1.4330852 -1.8648852 0.31849352
000080 38 7e 3e 3f b3 b2 01 40 6e 12 f6 be 84 e8 26 3f
       0.74411345 2.026532 -0.48060936 0.6519854
000090 c1 9a bb 3e 91 87 d1 3e 0a d2 6e 3f ed d6 de 3f
       0.36641505 0.4092374 0.93289244 1.740934
0000a0 16 f9 a0 3e a9 5f f5 3f 37 0d 94 bf 2a 99 93 bf
       0.31440037 1.9169818 -1.1566533 -1.1531117
0000b0 7f 94 45 bf be c1 ec bf 7f 05 c8 3f 39 a2 bd 3c
       -0.7717971 -1.8496625 1.5626677 0.023148643
0000c0 26 68 1a c0 66 62 a5 3f 6c ea 9b bf 8b 77 4a bf
       -2.4126067 1.2920654 -1.2180915 -0.7908866
0000d0 2f 39 94 bd 54 b8 b1 3f 44 3c c3 bf 63 93 2b bf
       -0.072374694 1.3884377 -1.5252767 -0.6702177
0000e0 87 21 a6 bf 01 d9 0f c0 d0 c1 48 3f 3b 19 0b 40
       -1.2978982 -2.2476199 0.78420734 2.173415
0000f0 3d f9 5d 3f ba 5d 24 3f a6 ab 90 3e
       0.8670843 0.64205515 0.28255957

dnets.1.std f4 [63]
000000 c5 78 db 3f 25 a2 cb 3e e9 61 37 3f 4a 4b 84 3f
       1.7146231 0.39772144 0.71633774 1.0335476
000010 99 04 16 3f c6 8d 77 bf 99 a3 bd be 55 e6 1f 3f
       0.58600765 -0.96700704 -0.37038878 0.62460834
000020 5c f4 a9 3f ac 6f 04 40 d3 a1 24 3d f6 e9 05 3f
       1.3277698 2.069316 0.04019339 0.5231012
000030 b5 bc cb 3f 91 29 9e 3f b4 60 c7 3f be 86 19 3f
       1.5916964 1.2356435 1.5576386 0.59971225
000040 11 7a 67 bf 59 19 00 3f e1 9f 31 3f 27 52 e8 3f
       -0.90420634 0.5003868 0.6938458 1.8150071
000050 84 79 b5 3e 6d 3c 0b 40 40 12 e0 3f f9 f0 17 be
       0.35444272 2.175563 1.750557 -0.14838018
000060 93 5f 88 3f 3a 91 af be 6c 82 ed 3c ab 77 0c 3e
       1.0654167 -0.34290487 0.028992854 0.13717525
000070 20 f1 01 3f 14 1f 18 3f ab d2 6d 3f 59 cc 15 3f
       0.5075855 0.5942242 0.9289958 0.58514935
000080 4a d4 1b 40 63 42 69 3f 70 87 8b 3f 23 36 82 3f
       2.434832 0.91116923 1.0900707 1.0172771
000090 71 a3 2d 3f 53 9f 40 3f dc 78 8f 3f db f9 db be
       0.67827517 0.7524311 1.1208758 -0.42964062
0000a0 fc a8 0a 3f 65 a9 9c 3e 33 ab b8 3e b3 ed 01 40
       0.541641 0.30597988 0.36068115 2.030133
0000b0 33 48 5e be f4 e1 6b 3f 90 08 bc 3f 64 ce f7 3f
       -0.2170723 0.9214165 1.4690113 1.935986
0000c0 63 77 c2 3f 84 81 0e 3f c0 3a 06 3f 3a 8f cd 3e
       1.5192684 0.55666375 0.52433395 0.40148336
0000d0 6a d6 06 be 9c 35 b5 3d 77 84 40 3f 57 7c 91 3f
       -0.1316773 0.08848116 0.75202125 1.136607
0000e0 66 aa dc 3e ab fe 91 3f 0c 56 4c 3f 16 4a 82 3f
       0.43098754 1.1405843 0.798188 1.0178859
0000f0 4e c6 28 3f 6c a0 b1 3f a7 b4 0f be
       0.6592759 1.3877082 -0.14033757

dnets.1.weights_rbf f4 [48, 63]
000000 49 65 ff b9 b7 ea 16 39 e4 a5 09 bc fb b0 00 bc
       -0.00048712853 0.00014392553 -0.008401368 -0.007854695
000010 6d cc 92 39 5e f8 dc bb 6d 31 02 b9 3e 51 e0 b9
       0.000279996 -0.006743475 -0.00012416179 -0.0004278514
000020 89 11 ad ba 7a 04 5a ba 21 08 82 3c 45 ec fd 39
       -0.0013204078 -0.0008316707 0.015873017 0.00048431955
000030 46 ac 4c b8 34 cb ec 39 03 73 b4 ba ea 34 22 b9
       -4.8797832e-05 0.00045164826 -0.0013767186 -0.00015469236
000040 8e 45 42 b9 6a 25 82 3c 0a 08 28 39 0c 5e 7d ba
       -0.00018527193 0.015886981 0.00016024723 -0.0009665198
000050 e9 07 10 3b b5 35 59 b8 0a 18 9f ba 21 08 82 3c
       0.002197737 -5.178685e-05 -0.0012137902 0.015873017
000060 46 38 ad bb e3 44 b3 3a 62 05 dc 3b b3 de 82 3c
       -0.0052862493 0.0013677146 0.006714509 0.015975332
000070 c7 df 8a 3a 8a 15 40 bc 1f 7e 83 b9 92 20 30 3a
       0.0010595255 -0.011723885 -0.00025080235 0.00067187205
000080 4e 79 2c ba a6 d8 e7 bb 57 89 dd 39 3c 06 3d ba
       -0.0006579355 -0.007075387 0.0004225473 -0.0007210707
000090 47 86 27 39 62 f4 cd b8 f4 9b 98 ba 34 6a 54 bc
       0.00015976383 -9.8206816e-05 -0.0011643157 -0.012964774
0000a0 55 d4 8e 3a b6 1b a7 3c 3a 3c 37 39 e3 74 41 b8
       0.001089702 0.020398956 0.00017474676 -4.6123645e-05
0000b0 db 99 75 3c 02 f3 80 b9 d3 0b d9 ba df 83 04 b9
       0.014990295 -0.00024595117 -0.001655931 -0.00012637627
0000c0 2b 67 e1 b9 11 6c 3f bc b3 4d f6 39 0a 88 b5 b9
       -0.0004299221 -0.01168348 0.00046978667 -0.00034624367
0000d0 25 18 78 ba 3d 2b 92 3c 7a ae 2a ba 78 b6 30 39
       -0.0009464047 0.017842883 -0.00065109844 0.00016852643
0000e0 27 21 8b 39 c7 9c 6c b9 09 82 8c ba 39 6e c1 bb
       0.00026536846 -0.00022565118 -0.0010719906 -0.005903032
0000f0 16 5b 11 bb 64 85 53 ba 26 c6 25 3c cb 2a 16 ba
       -0.0022179536 -0.0008068888 0.010118043 -0.00057284225
000100 5f cb 0c bb 64 a0 b0 3b 63 c2 f2 3b 22 8b e7 b9
       -0.0021483523 0.005390214 0.0074084266 -0.00044163415
000110 ac c4 9a 3b 60 29 12 ba 48 9b da b9 93 ef 98 b9
       0.004723152 -0.00055756234 -0.00041695894 -0.00029170196
000120 fb 16 14 ba a9 6e 61 3c e5 b5 82 3a 48 2f 18 ba
       -0.00056491763 0.013759294 0.0009972422 -0.00058053853
000130 cd 67 04 ba 73 e1 b2 b9 66 dc d4 b9 08 b0 04 b9
       -0.0005050868 -0.00034118778 -0.000406 -0.00012654078
000140 11 08 82 3c 8e 9b 77 b9 94 29 0d ba 98 1a 96 ba
       0.015872987 -0.00023613704 -0.0005384919 -0.0011452017
000150 8d b9 25 ba f5 13 f2 b9 21 08 82 3c 90 9f 40 3b
       -0.00063219 -0.00046172706 0.015873017 0.0029391982
000160 68 3b 35 3b 98 95 45 bc db 5d 24 3c f3 99 3e ba
       0.0027653817 -0.012059592 0.0100321425 -0.0007270865
000170 a9 67 5f 3c c5 d4 5a b9 24 94 2d ba 60 b6 1a ba
       0.013635554 -0.00020869363 -0.0006621501 -0.000590181
000180 fa 87 a1 3b bb ed f0 b9 ea 54 ef b9 1b 42 3e ba
       0.0049295397 -0.0004595349 -0.00045648898 -0.0007257775
000190 cc d1 30 ba cd 4c 83 b9 a4 00 9a 3c 0f 94 99 b9
       -0.00067451294 -0.00025043488 0.018799134 -0.00029292746
0001a0 2e 08 82 3c 18 11 66 bb 81 3c 23 ba b2 b6 67 bc
       0.015873041 -0.0035105404 -0.00062269723 -0.014142679
0001b0 e7 fb 56 b9 9b 35 a1 b8 32 ae 18 ba 29 1d 70 b9
       -0.00020502471 -7.687063e-05 -0.0005824297 -0.00022899047
0001c0 e7 26 13 3c 6f 86 e3 b9 12 d8 1c ba 5c 74 6d 3c
       0.008981443 -0.00043396975 -0.0005983125 0.014493074
0001d0 21 08 82 3c da 02 92 b9 85 2c f9 b9 b5 0d 00 bb
       0.015873017 -0.00027849415 -0.0004752615 -0.001953942
0001e0 e9 10 4f b9 4e 1b 1c 39 56 04 60 3b f7 7d a2 3a
       -0.00019747358 0.00014887491 0.0034182272 0.001239716
0001f0 8b 82 13 ba 13 5c 1c 3c 4d 5b 03 3a 59 b1 a8 3b
       -0.00056270574 0.009543437 0.00050108583 0.0051480946
000200 be 89 94 bb d5 20 a8 bb e5 24 b7 3b 7e f7 18 bb
       -0.0045330217 -0.005130867 0.005589115 -0.0023340876
000210 05 52 18 3c b0 8b f5 3b b6 c2 a8 ba 4f d7 81 39
       0.009296899 0.0074934587 -0.0012875411 0.00024765215
000220 21 08 82 3c 03 cd 16 3b 19 9d 14 3b 77 91 d0 3a
       0.015873017 0.002301038 0.0022676645 0.0015912493
000230 aa 66 81 ba 28 02 f5 3b 28 29 99 3b 4b 08 82 3c
       -0.0009872515 0.0074770637 0.0046740957 0.015873095
000240 00 4c a6 3b e1 e5 a8 b8 58 6d f3 3b c8 44 e2 3a
       0.005074978 -8.0536825e-05 0.0074288063 0.001726293
000250 56 0c 01 ba 21 08 82 3c 93 90 2b bb e7 76 9c bb
       -0.00049227977 0.015873017 -0.0026178702 -0.0047749165
000260 84 c3 87 3c 06 06 9a 3c be 14 eb ba 9b f3 18 bc
       0.016572721 0.0188017 -0.0017935259 -0.009335424
000270 32 67 b7 3b 8a 79 2a bb 15 eb 1d 3a 6f c7 29 bb
       0.0055970186 -0.0026012384 0.00060241047 -0.0025906225
000280 51 07 08 3b 9b 01 ac ba 16 80 f8 ba 9e 4e d3 ba
       0.0020756314 -0.0013123037 -0.0018959071 -0.0016121452
000290 6d bc cd ba 5f 89 a4 3c e9 73 4e bb f8 0c 82 3c
       -0.0015696414 0.020085035 -0.0031502193 0.015875325
0002a0 eb dd 32 3b 23 3b 05 3b 43 5b 7a 3b 21 93 b6 3b
       0.0027292918 0.0020329438 0.003820137 0.0055717384
0002b0 75 8d c2 ba 16 0d 97 3a 1d b4 7f 3b 96 3b ee bb
       -0.0014843183 0.0011524286 0.0039017268 -0.007270287
0002c0 09 a4 c8 3b 66 ed 13 3c 21 cb 4c bb 21 08 82 3c
       0.00612307 0.009028768 -0.0031249004 0.015873017
0002d0 51 9c d7 3b 9c 2f 14 3b 54 71 a1 3b 0d 23 a1 3b
       0.0065799137 0.0022611385 0.00492684 0.0049175085
0002e0 f6 bf 15 bb 6f e0 23 bb 5d 1b 4d bb 8f 4a 96 b9
       -0.0022850013 -0.00250056 -0.0031296827 -0.0002866578
0002f0 ab c2 c4 bb 55 58 75 b9 73 57 a4 3b 67 f8 47 bb
       -0.0060046515 -0.00023397927 0.0050153076 -0.003051305
000300 8d f7 5c 3b 90 cb 21 3a e8 ab a5 3a 1d 57 56 b7
       0.0033716888 0.0006171996 0.0012639733 -1.2775677e-05
000310 6b a3 0f 3a 6e 11 5a b9 d5 17 8c b9 62 3a 7a 3c
       0.0005479368 -0.00020796593 -0.00026720637 0.015272709
000320 ec 37 97 3a 06 b2 a6 b8 4d e7 5c 39 14 9f 7c b9
       0.0011537052 -7.948656e-05 0.00021067001 -0.00024091854
000330 c9 69 8e 39 d2 3d 0e ba 21 08 82 3c 7d 52 16 b8
       0.00027163167 -0.0005426082 0.015873017 -3.583961e-05
000340 38 6d 81 b9 dd 5f 25 bb eb 1d 46 b9 11 41 7c b9
       -0.00024686172 -0.002523414 -0.00018893897 -0.00024056832
000350 21 08 82 3c 0a ee b9 ba 06 6c af 3a 8c e3 cd bc
       0.015873017 -0.0014185321 0.0013383634 -0.025132917
000360 ff 1d a9 bb 89 72 9b 3a 56 a1 a3 3b 83 fe 63 38
       -0.0051610465 0.0011859696 0.004993598 5.435805e-05
000370 72 4d 97 39 79 60 99 b9 9c 3e 77 3a 56 4d a0 39
       0.00028858666 -0.00029254312 0.0009431632 0.00030575198
000380 4c fd 8a b8 b4 da 96 b7 ec ad cc b8 81 49 0f b9
       -6.627533e-05 -1.7983235e-05 -9.7598735e-05 -0.00013664925
000390 6f e2 4e 3c 78 59 62 3a 21 08 82 3c 17 63 0a 3c
       0.012627228 0.00086345477 0.015873017 0.008446476
0003a0 50 6a 3f b9 9f bb ab 3c 5b 88 c1 37 c1 70 b9 b9
       -0.00018254784 0.020963488 2.3070888e-05 -0.00035369958
0003b0 f5 f1 1d b9 1d a1 ab 39 4e 7e a1 b9 51 ed 4d b9
       -0.00015062823 0.000327357 -0.00030802417 -0.00019638731
0003c0 f9 7e a6 39 e5 37 6a 3b 21 08 82 3c 0f b4 0d 3a
       0.0003175659 0.0035738882 0.015873017 0.0005405554
0003d0 4c 64 4e 39 e7 08 a7 3b c4 5b 95 37 a8 fd 17 b8
       0.00019683054 0.005097497 1.7804916e-05 -3.623744e-05
0003e0 06 aa 3e ba 95 e7 32 ba 13 de 62 b9 c6 0f a7 3b
       -0.000727326 -0.00068246695 -0.00021635769 0.005098316
0003f0 ab 9f 05 39 cd 96 46 bd 67 f9 08 3d 55 d3 39 3d
       0.0001274335 -0.04848366 0.033440974 0.045367558

dnets.1.conv.weight f4 [48, 3, 7, 7]
000000 1a 7e 2b bd 79 02 39 bc b9 39 d4 bc c5 f6 dd 3c
       -0.041868307 -0.011292093 -0.02590643 0.027095208
000010 92 c4 d8 3c 5c 8a 9d bd 10 13 54 3c c5 59 7e 3d
       0.02646092 -0.076924056 0.012943998 0.06209733
000020 5a ab 7e 3d a3 8c d5 bc 96 c4 a0 3d 64 b7 75 3d
       0.062175132 -0.026068037 0.07849996 0.059989348
000030 6c 24 08 3c 1f 8b 1d 3d 7e 35 92 3d 0f 55 7c bd
       0.008309465 0.038462754 0.07139109 -0.061604556
000040 63 53 81 bc 20 c2 9a 3d d9 98 53 bd fb 14 a8 bd
       -0.015786832 0.07556558 -0.05165944 -0.08207127
000050 64 09 88 3d 9b 8e 81 3c 9e af 3c bd 6d 82 6d ba
       0.06642416 0.01581507 -0.04606592 -0.00090602675
000060 71 21 36 3d ec 0c 18 3c 7b f4 2d bd eb ab 72 3d
       0.044465486 0.009280425 -0.042469483 0.059245985
000070 ed 6b d4 3c 34 a5 6c 3d 35 91 9a bd 8c 48 02 bd
       0.02593037 0.057774737 -0.07547227 -0.031807467
000080 8e b5 c7 bb d2 71 3a bd da 1b 8f 3c fa 5b 2c bc
       -0.006094641 -0.045518704 0.017469335 -0.010519976
000090 01 21 46 bd 3a d2 80 bd c6 b4 8a 3d 7a 38 8f 3d
       -0.04837132 -0.062900975 0.06772761 0.06993194
0000a0 e7 cd 01 3d 7b b8 72 bd 4f 1e 1a bb 2e 63 25 bd
       0.031690504 -0.059257966 -0.00235166 -0.04037779
0000b0 26 57 35 bd c1 fb 2c 3d 7a 8c 18 bd 4b e6 db bc
       -0.044272564 0.04223228 -0.037243344 -0.02684321
0000c0 4d 49 04 3c 44 bf c8 3c ac a4 f7 bc 71 89 c0 3c
       0.008074117 0.024505265 -0.030229889 0.023503037
0000d0 32 b0 25 bd c9 8f e7 bc fa 30 53 3d cb f1 35 bc
       -0.040451236 -0.028266804 0.05156038 -0.011105011
0000e0 66 fb 49 bd b3 71 01 3d 18 24 0f 3d 8c 61 43 3d
       -0.049312018 0.031602573 0.03494653 0.04770045
0000f0 88 2a 03 bd bb 3c 64 3c bf f3 23 bc ff 12 af 3d
       -0.032022983 0.013930495 -0.010006844 0.08548545
000100 2b 7e a0 ba be 67 a8 bd e4 57 33 3d 73 02 ab 3c
       -0.0012244632 -0.08222912 0.04378499 0.020875191
000110 9d 08 06 bd 43 75 ee 3c 67 20 54 bd f0 ec 7b bc
       -0.032723058 0.02910865 -0.051788714 -0.0153763145
000120 7d e1 d9 3c e3 c0 8a 3d d4 ae e0 3b e3 ab fa bc
       0.026596779 0.067750715 0.0068567786 -0.03059954
000130 ab 16 d8 bc c9 83 4c 3d 2b 3c 8c bd 16 a3 69 3d
       -0.026377996 0.049930368 -0.06847414 0.057040296
000140 9c c0 8b 3d 22 a8 73 bd 8a be cb bc 92 71 eb 3b
       0.06823847 -0.059486516 -0.02487113 0.0071851695
000150 cd ac 5f 3d de 46 d0 bc 8f a1 92 bc 47 3f 4e bc
       0.054608155 -0.025424417 -0.017899303 -0.012588329
000160 70 c3 95 bb d4 c1 a2 bd a2 7d 85 bd 72 73 4e bd
       -0.004570417 -0.07947126 -0.06518103 -0.050403066
000170 f2 af e5 3c 6c fa 35 bb 25 6a 9b 3d 73 7b cd 3c
       0.028037999 -0.0027767671 0.07588605 0.02508328
000180 f7 cb 36 3d 92 9f 7f 3c 58 d7 81 bd 28 3e 90 bd
       0.04462811 0.015602009 -0.06339902 -0.07043105
000190 5e 37 73 3d 3f 54 a1 bd a3 59 1f 3c 11 4e 69 3c
       0.059378974 -0.07877397 0.009725961 0.014239804
0001a0 31 3b bf 3c 6c 3b 7d 3c f0 35 87 3d ca bf b0 bc
       0.023343654 0.015456062 0.06602085 -0.021575827
0001b0 2a 8a 1d bd a9 dd 81 3d 30 31 80 3c 84 b3 64 bd
       -0.03846184 0.063411064 0.015648454 -0.055835262
0001c0 02 30 76 bc 40 93 a4 3c 9c af 31 bc e0 55 77 3d
       -0.015026094 0.020089746 -0.010845091 0.06038463
0001d0 e5 c1 de 3c dd 4c 82 bd 8b e6 ad bd 5d e7 7c bb
       0.027192065 -0.06362317 -0.08491238 -0.0038590052
0001e0 e4 a5 51 3d 77 33 9e bd 0e 53 71 3c 4d ec 28 3d
       0.051183596 -0.0772466 0.014729274 0.04124098
0001f0 d1 8c d5 bd 28 32 da bc 20 2d 67 bc a8 2a 91 3d
       -0.10427249 -0.026635244 -0.01410988 0.07088214
000200 6a be 66 3d b5 c8 8c 3d 7c 16 2c 3d bf 3f c3 3c
       0.056333937 0.06874219 0.04201363 0.023834107
000210 4e 6b 11 3d eb 54 e7 bc bb 33 2e 3d 23 5c 02 3c
       0.035502724 -0.028238734 0.042529803 0.007956537
000220 ee bb a7 3d 2c bd 2a bd 9a 16 90 bd 68 a2 12 bc
       0.081901416 -0.041684315 -0.07035561 -0.0089498535
000230 85 8b 3a 3c a2 7a ca bc db 72 92 3d 4d ca ff 3c
       0.011385803 -0.024716679 0.07150813 0.031224394
000240 ed 44 86 3d 25 5d a9 bd e7 eb 40 bd f6 bc 32 3b
       0.06556115 -0.08269719 -0.047099974 0.0027273274
000250 e8 15 81 bd 14 3f 58 bd 3a 3e c9 3a 1b eb ff bb
       -0.063030064 -0.05279453 0.0015353628 -0.007810009
000260 e0 72 48 3b 79 9e 0d 3d 0f a1 e0 bc ff f6 b3 3d
       0.003058605 0.03457496 -0.027420549 0.08787345
000270 31 b2 b3 3a d2 88 ca bc e6 98 67 bc e9 a6 46 3d
       0.0013709721 -0.024723444 -0.014135575 0.04849902
000280 a5 8f 42 bd 58 3f c1 bb 6d ba 95 bc 60 5b b2 3d
       -0.04750027 -0.0058974437 -0.018277371 0.08708835
000290 d1 11 d0 3c 5e 84 93 3d 43 ee 2e bc e4 b6 f8 bc
       0.02539912 0.072029814 -0.010676923 -0.030360647
0002a0 48 0f ae 3d 13 49 67 3b 58 56 af 3d b1 b0 ef bc
       0.084990084 0.0035291358 0.08561391 -0.029259058
0002b0 54 1c bb 3d 18 e3 7d bb 3e 29 8b bd 82 4e 90 bd
       0.091362625 -0.0038740095 -0.06794976 -0.07046224
0002c0 ea f3 21 3d 6f 99 f9 bc 62 e9 70 bc 0b 29 47 bc
       0.039539255 -0.03046867 -0.01470408 -0.0121557815
0002d0 a5 52 6e bd b3 e0 76 bd d4 b4 11 bd cd 1c 76 bd
       -0.058184285 -0.060272884 -0.03557284 -0.06008606
0002e0 d4 49 76 bd 58 7b 25 bd ca 3b c1 3d 2b 1b 1e bd
       -0.060129 -0.040400833 0.09435232 -0.03860013
0002f0 db 45 f8 3b 29 b5 2e bd 05 48 af 3c 0a 9f fb bc
       0.007576687 -0.042653237 0.021396646 -0.030715484
000300 a8 e9 b1 3d a8 85 92 3d fd 6e ea ba e7 d8 46 3c
       0.086871445 0.07154399 -0.001788586 0.0121366745
000310 16 ee 1a bd 25 d5 8c bd f5 ed ae 3c 80 c3 2e bb
       -0.037824713 -0.068765916 0.021353701 -0.002666682
000320 33 83 e5 bb af 9c b4 bc 5e 3e c3 3c 6e 88 21 bd
       -0.0070041656 -0.022047369 0.02383345 -0.03943675
000330 8e 0f 11 3d 8c 7a c3 3c 32 77 42 bd bb 22 60 bd
       0.035415225 0.023862146 -0.047476955 -0.05472062
000340 76 15 14 bd 4d 1e 10 3d ec 35 0a bd 95 0b 25 3d
       -0.03615328 0.035185147 -0.03374283 0.04029425
000350 8a de 90 ba dd 5e ce bc b5 63 81 3c d8 94 88 3d
       -0.001105265 -0.025191719 0.015794614 0.06669015
000360 c3 98 0a bd 30 18 dc 3c 81 23 4c 3d 6c a8 29 3d
       -0.03383709 0.026867002 0.049838547 0.041420385
000370 07 30 ab 3d 4a 81 35 3d 88 5b 65 3d 1c 24 de bc
       0.0835877 0.044312753 0.055995494 -0.027116828
000380 f5 67 8d 3c 6b 62 0e bd c0 73 86 bc b0 78 57 bd
       0.017261485 -0.034761827 -0.016412616 -0.05260533
000390 3f 2b 32 3c 3a fe 8c bd 73 4b 95 3d 2a 9c 1c bd
       0.0108745685 -0.06884427 0.072897814 -0.038234867
0003a0 65 1b 41 3d 73 2e 22 bb 5e 8e 86 bd a1 f5 0f 3c
       0.047145266 -0.0024746924 -0.06570123 0.00878659
0003b0 32 ea 1a 3d 6c a6 84 bd d8 af b1 bc 21 de de bc
       0.037821002 -0.06477055 -0.021690294 -0.027205529
0003c0 1f 30 ec bb e5 bb 00 ba a5 6d 97 3d 9d 2b 87 bd
       -0.007207885 -0.0004910811 0.0739396 -0.066001154
0003d0 7f e0 8a 3d 8d 42 f5 bb c9 78 3c bd 53 d2 9f bd
       0.067811005 -0.00748474 -0.046013627 -0.07803788
0003e0 89 1d 3c bd c9 42 11 3c 27 8b 9f 3d 29 bb 8d 3d
       -0.045926604 0.0088660205 0.07790213 0.069204636
0003f0 45 d3 a6 bd 80 be 74 3d 46 d6 88 bd 6f ed 85 bd
       -0.08145765 0.059751987 -0.066814944 -0.065394275

dnets.2.means f4 [63]
000000 d5 2d cb 3e ee d0 98 bf 3c d6 c7 3f c9 a0 29 40
       0.39683405 -1.193876 1.5612254 2.6504385
000010 6b bc c0 bf 3e ce 0a 40 71 d2 37 bf b5 eb a6 bf
       -1.5057501 2.168838 -0.71805483 -1.3040682
000020 d4 bf 8d 3f f9 f4 5b 3f 18 05 8d bf e8 b1 b0 be
       1.1074166 0.85920674 -1.101718 -0.34510732
000030 1e 02 8b bf e0 fc 7c be 41 e1 a0 3f 7d 47 9f bf
       -1.0860021 -0.24705839 1.2568742 -1.2443691
000040 c2 2b f0 bf b6 a1 33 40 96 0d de bf d7 fe 68 3f
       -1.8763354 2.806745 -1.7347896 0.91013855
000050 4d 3f 39 bf 0a 31 3b bf 02 eb 91 3f 8f b8 f9 3f
       -0.72362214 -0.731217 1.1399844 1.9509448
000060 c2 47 0e 40 5d 81 e0 3e aa 8d c4 3c e7 33 a6 be
       2.2231297 0.43848696 0.023993332 -0.32461473
000070 48 f3 9c 3d 56 6f b7 3f 8f b4 ee bf 95 11 a3 3e
       0.0766359 1.4330852 -1.8648852 0.31849352
000080 38 7e 3e 3f b3 b2 01 40 6e 12 f6 be 84 e8 26 3f
       0.74411345 2.026532 -0.48060936 0.6519854
000090 c1 9a bb 3e 91 87 d1 3e 0a d2 6e 3f ed d6 de 3f
       0.36641505 0.4092374 0.93289244 1.740934
0000a0 16 f9 a0 3e a9 5f f5 3f 37 0d 94 bf 2a 99 93 bf
       0.31440037 1.9169818 -1.1566533 -1.1531117
0000b0 7f 94 45 bf be c1 ec bf 7f 05 c8 3f 39 a2 bd 3c
       -0.7717971 -1.8496625 1.5626677 0.023148643
0000c0 26 68 1a c0 66 62 a5 3f 6c ea 9b bf 8b 77 4a bf
       -2.4126067 1.2920654 -1.2180915 -0.7908866
0000d0 2f 39 94 bd 54 b8 b1 3f 44 3c c3 bf 63 93 2b bf
       -0.072374694 1.3884377 -1.5252767 -0.6702177
0000e0 87 21 a6 bf 01 d9 0f c0 d0 c1 48 3f 3b 19 0b 40
       -1.2978982 -2.2476199 0.78420734 2.173415
0000f0 3d f9 5d 3f ba 5d 24 3f a6 ab 90 3e
       0.8670843 0.64205515 0.28255957

dnets.2.std f4 [63]
000000 c5 78 db 3f 25 a2 cb 3e e9 61 37 3f 4a 4b 84 3f
       1.7146231 0.39772144 0.71633774 1.0335476
000010 99 04 16 3f c6 8d 77 bf 99 a3 bd be 55 e6 1f 3f
       0.58600765 -0.96700704 -0.37038878 0.62460834
000020 5c f4 a9 3f ac 6f 04 40 d3 a1 24 3d f6 e9 05 3f
       1.3277698 2.069316 0.04019339 0.5231012
000030 b5 bc cb 3f 91 29 9e 3f b4 60 c7 3f be 86 19 3f
       1.5916964 1.2356435 1.5576386 0.59971225
000040 11 7a 67 bf 59 19 00 3f e1 9f 31 3f 27 52 e8 3f
       -0.90420634 0.5003868 0.6938458 1.8150071
000050 84 79 b5 3e 6d 3c 0b 40 40 12 e0 3f f9 f0 17 be
       0.35444272 2.175563 1.750557 -0.14838018
000060 93 5f 88 3f 3a 91 af be 6c 82 ed 3c ab 77 0c 3e
       1.0654167 -0.34290487 0.028992854 0.13717525
000070 20 f1 01 3f 14 1f 18 3f ab d2 6d 3f 59 cc 15 3f
       0.5075855 0.5942242 0.9289958 0.58514935
000080 4a d4 1b 40 63 42 69 3f 70 87 8b 3f 23 36 82 3f
       2.434832 0.91116923 1.0900707 1.0172771
000090 71 a3 2d 3f 53 9f 40 3f dc 78 8f 3f db f9 db be
       0.67827517 0.7524311 1.1208758 -0.42964062
0000a0 fc a8 0a 3f 65 a9 9c 3e 33 ab b8 3e b3 ed 01 40
       0.541641 0.30597988 0.36068115 2.030133
0000b0 33 48 5e be f4 e1 6b 3f 90 08 bc 3f 64 ce f7 3f
       -0.2170723 0.9214165 1.4690113 1.935986
0000c0 63 77 c2 3f 84 81 0e 3f c0 3a 06 3f 3a 8f cd 3e
       1.5192684 0.55666375 0.52433395 0.40148336
0000d0 6a d6 06 be 9c 35 b5 3d 77 84 40 3f 57 7c 91 3f
       -0.1316773 0.08848116 0.75202125 1.136607
0000e0 66 aa dc 3e ab fe 91 3f 0c 56 4c 3f 16 4a 82 3f
       0.43098754 1.1405843 0.798188 1.0178859
0000f0 4e c6 28 3f 6c a0 b1 3f a7 b4 0f be
       0.6592759 1.3877082 -0.14033757

dnets.2.weights_rbf f4 [48, 63]
000000 1b 22 66 3b dc d1 7f bd 5d 2d 3d 3c b5 ae e8 3c
       0.0035115543 -0.062455997 0.01154646 0.02840362
000010 c9 b7 55 bd 82 81 ca 3c 1a dd fe bc ea fd bc bc
       -0.052177224 0.024719957 -0.031111289 -0.023070294
000020 ed 25 12 3c fc 1b a0 3b 21 08 82 3c e7 c0 49 bc
       0.008920175 0.0048861485 0.015873017 -0.012314058
000030 3c 10 46 ba cc 97 2f 3b d6 36 0b 3c 06 cc e3 bc
       -0.00075555197 0.002679336 0.008496961 -0.027807247
000040 79 59 02 bd 4f 26 82 3c 5c dc 46 bd 16 84 b3 3b
       -0.03182361 0.015887408 -0.048549995 0.0054783924
000050 c1 c4 63 bd 95 78 00 3b 1c 54 e4 3b 21 08 82 3c
       -0.05560756 0.0019603122 0.0069680344 0.015873017
000060 29 ab 87 3c 95 f9 f3 ba 82 1b b9 bb 11 44 94 bd
       0.016561108 -0.001861381 -0.005649031 -0.07239545
000070 d9 a1 df 3a 33 fb a3 3c 93 15 ae bc 15 aa 11 3b
       0.0017061784 0.020017242 -0.021250522 0.002222662
000080 60 e0 8a 3b d3 99 c1 3c df 4e ab 39 ce 2d c9 3b
       0.0042381734 0.02363292 0.00032674425 0.0061394935
000090 8a ae 06 3b 2f 7c 26 3b 09 0d 14 3c 6e cd 89 3c
       0.002055081 0.002540361 0.009036311 0.01682159
0000a0 c0 7a 8e 3b 90 1f 87 3c f4 7d 85 bd 0d 37 ff 39
       0.004348129 0.016494542 -0.06518164 0.00048678406
0000b0 e3 b6 a8 bc 67 cd b2 bc 52 5d 29 3c 3f fc 57 3b
       -0.02059502 -0.02182646 0.010337191 0.0032956747
0000c0 ee 93 cd bb d2 15 7b 3c 39 a5 4c bd c3 21 eb bc
       -0.006273738 0.015325027 -0.049962256 -0.028702622
0000d0 91 c8 83 bd fd f0 86 3c 57 30 8e bc a0 14 7e ba
       -0.064347394 0.016472334 -0.017357035 -0.00096924044
0000e0 8a 0f 7f bd a6 b0 97 bc 46 6e 2a 3c 0c 2f a0 3c
       -0.06227068 -0.01851685 0.010402268 0.019553684
0000f0 96 f0 2e 3c 60 b4 90 3b 8f 60 0f bd 64 88 88 3b
       0.010677477 0.0044160336 -0.035004195 0.0041666497
000100 0d b0 4c bd 87 29 32 3d bc 16 9e 3d da 12 38 bd
       -0.049972583 0.043496635 0.0771918 -0.044939853
000110 7f cd 74 3d 31 c5 2e bd 97 02 00 bd 74 42 4f 3c
       0.05976629 -0.042668525 -0.03125247 0.012650121
000120 38 30 c2 3b cb 91 78 3c 85 ae 97 bc 1f 99 e6 ba
       0.0059261583 0.0151714785 -0.018515835 -0.0017593241
000130 3b 3e 27 3b d3 1a 3f 3c da f5 0e bd 87 00 03 bd
       0.002551927 0.01166411 -0.03490243 -0.031982925
000140 21 08 82 3c 42 40 2b bd af 64 df 3b 24 0c 71 bd
       0.015873017 -0.041809328 0.0068174223 -0.05884947
000150 5f 33 f3 3a 7e 01 14 3c 21 08 82 3c 64 01 23 3d
       0.0018554738 0.009033559 0.015873017 0.039796248
000160 74 7a 87 3c e0 1c a0 bc 6a c2 8c bd 2b ba 2a 3b
       0.016537882 -0.019545019 -0.06873019 0.0026050906
000170 91 18 a7 3d 7b 96 d4 bc e4 30 b1 3b 1d 19 a4 3b
       0.081589825 -0.02595066 0.0054074395 0.0050078765
000180 cb 34 71 3d fd 8e 27 ba c3 d7 0e 3c ca 61 8a 3b
       0.058888238 -0.00063918513 0.008718434 0.004223083
000190 b8 e7 92 3b bd 36 59 3c d4 dd c9 3c d0 1d 1c 3c
       0.0044831894 0.0132576795 0.024641909 0.009528592
0001a0 91 23 82 3c a5 21 42 bd b7 fb 68 b8 96 f1 e1 bb
       0.0158861 -0.047395367 -5.5547538e-05 -0.0068952544
0001b0 97 05 d8 bc c4 88 7f 3c f5 4e 6f 3b 11 a3 26 bc
       -0.026369853 0.015596572 0.0036515568 -0.010170714
0001c0 6d f6 7a 3d 21 25 41 bd b7 8d 23 bd ec 24 ba bd
       0.061270166 -0.04715455 -0.03993007 -0.090890735
0001d0 21 08 82 3c ab 13 ce bc d0 34 14 bb 4f 32 41 bd
       0.015873017 -0.025155863 -0.0022614487 -0.04716712
0001e0 a3 c0 b6 bc bd f3 93 3c d3 88 40 3d 58 e8 ce 3c
       -0.022308653 0.01806056 0.047005486 0.025257275
0001f0 6c af b7 3b a0 d4 5d bc ba e9 ec 3a 36 55 a4 bc
       0.0056056287 -0.013539463 0.0018075027 -0.020060163
000200 a3 92 26 bb f2 9d 9a 3c 26 0e 5e bc 53 6a 28 3c
       -0.0025416992 0.018874142 -0.013553178 0.010279256
000210 c0 5d 8d bb 65 92 11 ba 1b b6 eb 3a 53 43 0b 3b
       -0.0043141544 -0.00055531255 0.0017983349 0.0021249845
000220 21 08 82 3c f3 0d 9c ba ee 98 0e 3b 9d 12 0d 3b
       0.015873017 -0.0011906013 0.0021758634 0.0021525987
000230 67 4b 0c 3b 63 00 2d bb 51 49 a8 bb 21 08 82 3c
       0.0021407248 -0.0026397936 -0.005135693 0.015873017
000240 ad be 42 bc 01 c1 03 3b cc 16 72 bc 0a cc 18 3b
       -0.011886281 0.0020104053 -0.014775943 0.0023314976
000250 3c 82 0e 3b 21 08 82 3c 3a b6 17 3b c9 73 44 bc
       0.0021745106 0.015873017 0.0023149387 -0.011990496
000260 fb 4a bd 3a 41 35 55 ba 18 72 5d ba 82 dd 7a 3c
       0.0014441902 -0.00081332406 -0.0008447482 0.015311601
000270 ad ff 3e ba 97 70 23 bb f0 74 11 3b 96 13 15 3c
       -0.00072860235 -0.0024938935 0.0022194944 0.009098908
000280 83 3d 02 3b cb 9f 01 3a 9e 6b d1 ba 6f 37 8e ba
       0.001987309 0.00049447705 -0.0015977507 -0.0010850261
000290 d8 d0 a8 3a a5 b8 c8 3c 22 cb 50 bb 53 62 82 3c
       0.0012879623 0.024502108 -0.0031859358 0.015916025
0002a0 6f e9 c0 bc 4f a7 12 3b 1f c4 87 3c 48 6f 7b ba
       -0.02354881 0.0022377556 0.01657301 -0.00095914723
0002b0 e5 fc 08 3b 0a 4c 0f 3b b6 0b 32 3b b2 d9 19 3b
       0.002090269 0.0021865391 0.0027167625 0.0023475704
0002c0 21 8a 49 bc df 23 4e bb 5a 0a a3 bc 21 08 82 3c
       -0.012300999 -0.0031454486 -0.019902397 0.015873017
0002d0 df cf be 3a 3e 9b 03 3b 89 e3 a7 bc 42 7b 9e b9
       0.00145578 0.0020081545 -0.02049424 -0.00030227943
0002e0 a0 cf 93 b8 ae 70 a2 3b 16 60 f4 ba 3e c4 a9 3a
       -7.0481794e-05 0.00495728 -0.0018644358 0.0012952161
0002f0 3e 45 2c bd fc 13 34 3a de 60 1b bd 35 23 07 3b
       -0.042058222 0.0006869433 -0.037934177 0.002062035
000300 b0 be 25 39 ae c4 b8 bc 28 c8 a8 3a e8 bd f2 bb
       0.00015806663 -0.022554722 0.0012877034 -0.0074078925
000310 5a e3 6c bb 8c 08 89 3a bd b0 58 3a 56 94 87 3c
       -0.0036146254 0.0010454818 0.0008266082 0.016550224
000320 d7 33 0b 3b 88 5d 9f 3a d3 1e 6d 3a 7e dd 8d 3a
       0.0021240616 0.0012158612 0.00090454257 0.0010823456
000330 3b 21 c0 bb ed e3 e0 bb ab 01 87 3c 67 de 97 bc
       -0.0058633364 -0.0068631084 0.016480288 -0.018538667
000340 0b 05 67 3a e8 81 9f bc 3e 55 91 3a 9b bd 83 3a
       0.0008812702 -0.019471124 0.0011088026 0.0010051014
000350 e0 f7 86 3c eb d4 c4 3a 90 d6 83 bb 94 e6 f6 3c
       0.016475618 0.0015017068 -0.0040233806 0.030139245
000360 4e 2c d6 bb a1 5b 20 bb 20 b8 53 b9 78 b2 e5 ba
       -0.0065360432 -0.0024468678 -0.0002019112 -0.0017524501
000370 b1 ca 55 ba 87 c3 48 3a 96 fa b3 3a f0 5f 7c 3a
       -0.00081555085 0.00076585304 0.0013731297 0.0009627333
000380 c9 df 3b 3a 9d 23 7a 38 34 c4 c4 39 a5 44 92 3a
       0.00071668305 5.9637812e-05 0.00037530216 0.0011159374
000390 c7 1e c3 3c 71 cb e7 ba 6c e5 87 3c c3 69 1f bd
       0.023818387 -0.0017684532 0.016588889 -0.03891922
0003a0 61 0a 9b 3a 6b db d5 3c af 78 04 bb 3e 6e ac 3a
       0.0011828655 0.026105603 -0.0020213535 0.0013155413
0003b0 62 af 4d 3a 7a 1f 20 3b 58 0b 2e 3b 6d ac 9c bc
       0.00078462635 0.0024432824 0.0026557054 -0.019125188
0003c0 bf 4c d9 bb 3a 2c 7a bc 94 3e 85 3c 19 14 e9 b9
       -0.0066314633 -0.0152693335 0.016265191 -0.00044456197
0003d0 f9 bd 8f 3a 14 9e 1c bd ca 0a 1a ba ee e9 05 3a
       0.001096665 -0.038236693 -0.00058762415 0.00051084056
0003e0 73 f2 cc 3a aa d2 cb b7 f4 c8 4b 3a e7 e1 d0 ba
       0.001563622 -2.4297584e-05 0.000777378 -0.0015936465
0003f0 a4 ce 9c ba cf bf 38 bc a5 ef 03 bc 52 2e fe bc
       -0.0011963439 -0.0112761995 -0.008052741 -0.031027947
