models/speckle_greedy5.pth (torch, 115607 bytes, 32 tensors)

dnets.0.means f4 [63]
0	0xbf2717fb	-0.65270966
1	0x3f693389	0.9109426
2	0xbecb84cf	-0.39749762
3	0xbff3399a	-1.9001954
4	0xbe48b8fc	-0.19601816
5	0xbf2dde19	-0.6791702
6	0xbf498311	-0.78715616
7	0xbf699862	-0.9124814
8	0xbf956d57	-1.1673993
9	0x3fc84b2d	1.5647942
10	0x3f1ec29d	0.62015706
11	0x3f374fa9	0.71605927
12	0xbe433406	-0.19062814
13	0xbe914e0c	-0.28379858
14	0xbd13fdd9	-0.03613076
15	0xbfd49b91	-1.6609975
16	0x3fb210b7	1.3911351
17	0xbe8c6e50	-0.27427912
18	0x3fb10a6a	1.3831303
19	0x3f415280	0.7551651
20	0xbfde82a2	-1.7383616
21	0x3dafb36b	0.08579143
22	0xbf917700	-1.1364441
23	0x3fb5602a	1.4169972
24	0xbf9f37ba	-1.2438881
25	0x3f19a40d	0.60015947
26	0xbc80b7fb	-0.015712729
27	0xbee86694	-0.4539076
28	0x3ea21b31	0.3166137
29	0x3ff423b5	1.9073397
30	0x3f101864	0.5628722
31	0x3fe1545b	1.7603868
32	0x3e1daf25	0.15398844
33	0xbf4e2e76	-0.80539644
34	0x3f89b40e	1.0758073
35	0x3fef59a8	1.8699236
36	0x3ed49179	0.41517237
37	0x3f53a582	0.8267442
38	0xbed8ce14	-0.42344725
39	0xc01808e5	-2.3755429
40	0xbf85b36d	-1.0445381
41	0xbfc1d6eb	-1.5143713
42	0x3eb256a8	0.34831738
43	0x3c4ab5c3	0.012372437
44	0xbed85993	-0.4225584
45	0xbf2ba9ff	-0.6705627
46	0x3f9a805e	1.2070425
47	0x3ecb5192	0.3971067
48	0x3fee8420	1.8634071
49	0x3daeb2f3	0.085302256
50	0x3f7028c8	0.9381223
51	0xbfe6dc62	-1.8036005
52	0x3d967167	0.073458485
53	0x3ec250c5	0.37952247
54	0x3dadaf5c	0.08480713
55	0x3f69cc22	0.91327107
56	0x3f617d25	0.8808158
57	0x3fb5cf22	1.4203837
58	0x3f708964	0.9395964
59	0xbf8049af	-1.0022486
60	0x3f501e6c	0.8129642
61	0x3e178467	0.14796601
62	0x3f3c18c9	0.7347532

dnets.0.std f4 [63]
0	0x404e7dc4	3.2264261
1	0xbe2edfbf	-0.1707754
2	0x40298539	2.6487563
3	0x3faca57e	1.3488004
4	0x4030c1c4	2.7618265
5	0x3f67ecd3	0.9059574
6	0x3ee11999	0.43964842
7	0x3e3e3f28	0.1857878
8	0x3f2738a3	0.65320796
9	0x3e759cb8	0.23985565
10	0x3e94eaa7	0.29085276
11	0x3d811ff4	0.06304923
12	0xbe271658	-0.16317117
13	0x3f90ef98	1.1323118
14	0x3f65c1ce	0.8974885
15	0x40126940	2.287674
16	0x3f718a7a	0.94351923
17	0x3e37fb7a	0.17967024
18	0x3d323c38	0.04351446
19	0x3ec44707	0.3833544
20	0x405f3d5c	3.48812
21	0x3f8bf7ac	1.0934958
22	0x400ae7fd	2.1704094
23	0xbe47cf45	-0.19512661
24	0x3f2ef6c6	0.68345296
25	0x40464fb4	3.0986147
26	0x3dc16471	0.09442986
27	0x3f3f8b32	0.7482177
28	0x3f997ec8	1.1991816
29	0x3e615417	0.22004734
30	0x3fb6c2b4	1.4278169
31	0x3f87e4ce	1.0616701
32	0x3e01c88e	0.12674162
33	0x3f0b6854	0.5445607
34	0x3ffdabfa	1.9818108
35	0xbf8b2a31	-1.0872251
36	0x3ebb19ab	0.3654302
37	0x3fa8d3ea	1.3189671
38	0xbe14d84b	-0.14535634
39	0xbdb61890	-0.08891404
40	0x3f2cca44	0.6749613
41	0x3e9a201d	0.30102625
42	0x3fa33c82	1.275284
43	0x3d068b86	0.032847904
44	0x3fc66d97	1.5502194
45	0xbe7f8404	-0.24952704
46	0x3f2e2b21	0.6803456
47	0x3e5a0c79	0.2129382
48	0x40159e63	2.3377922
49	0x3fc4f56a	1.5387394
50	0x3fd0105b	1.6254991
51	0x3fcfc2c4	1.6231313
52	0x3f4fb787	0.81139416
53	0x3e51418d	0.20435162
54	0x3dd135d9	0.10215349
55	0x3eda65f1	0.426559
56	0x3eea162f	0.4572005
57	0x3f9cf8a3	1.2263378
58	0x3efaf1e0	0.4901266
59	0x3f937779	1.1520835
60	0x3eeae120	0.45874882
61	0x3e997dda	0.2997883
62	0x40174d88	2.3641071

dnets.0.weights_rbf f4 [24, 63]
0	0xbaf73db2	-0.0018862991
1	0xbd5110a9	-0.05104128
2	0xbb00e787	-0.001966925
3	0x39f8959f	0.00047413722
4	0xbafe9942	-0.0019424336
5	0xbae27e3b	-0.0017280051
6	0x3c62d931	0.013845728
7	0x3da07c3d	0.078361966
8	0x3bfef5a8	0.0077807494
9	0x3c7b536d	0.0153397145
10	0x3c88bc3b	0.016691318
11	0xbdaaedec	-0.08346161
12	0x3d45ffaa	0.048339523
13	0xbb324668	-0.002720261
14	0xbb56c751	-0.003277261
15	0xbac83551	-0.0015274679
16	0xb9b12a8e	-0.00033791777
17	0x3c8fd11b	0.017555764
18	0x3c820ae2	0.01587433
19	0x3c0fac42	0.008769097
20	0xbae445d0	-0.0017415825
21	0xbb2cb43a	-0.002635254
22	0xbaf0c55e	-0.0018369367
23	0x3c04013c	0.008056935
24	0x3c050766	0.00811944
25	0xbaed8c6c	-0.0018123514
26	0xbb0bf9b5	-0.0021358554
27	0xbb15bc24	-0.0022847736
28	0xbb1c7a5c	-0.0023876643
29	0x3c820a07	0.015873922
30	0xbb088f0a	-0.002083721
31	0x3a20beac	0.0006131928
32	0xbc80cc68	-0.015722468
33	0x3b2eb903	0.0026660569
34	0xbae032eb	-0.0017105018
35	0x3aacba1d	0.0013178025
36	0xbb42d1ba	-0.0029727058
37	0xbaee3485	-0.0018173611
38	0x3db556d8	0.08854455
39	0x3c820821	0.015873017
40	0x3b3a53fc	0.0028431406
41	0x3c820441	0.015871169
42	0xbb17c264	-0.0023156637
43	0xbb2979a9	-0.0025859869
44	0xbb16fca2	-0.0023038764
45	0x3d8d08ef	0.068864696
46	0x3af2605f	0.0018491856
47	0x3a0bda7f	0.00053349877
48	0xbabce6ee	-0.0014412084
49	0xbb134a3d	-0.002247467
50	0xbae69f6c	-0.0017595119
51	0xb9fb4fa5	-0.0004793379
52	0xbb5002f7	-0.0031740048
53	0xba6e1cc8	-0.0009083268
54	0xbac475d0	-0.0014988724
55	0x3cc66032	0.024215791
56	0x3be48755	0.0069741406
57	0xba8bd586	-0.0010668493
58	0x3bce9236	0.006304051
59	0xbaa2a4cc	-0.0012408732
60	0x3b1d2aec	0.0023981882
61	0xbc2206ae	-0.009889288
62	0xbaf0daa2	-0.0018375705
63	0xbbb18f12	-0.0054186666
64	0x3d5a6975	0.053323228
65	0xbba40943	-0.005005987
66	0xbc9ef8b8	-0.019405708
67	0xbb6f61a7	-0.0036526711
68	0xbc75b7f8	-0.014997475
69	0xbd1e07ca	-0.038581647
70	0xbe39129e	-0.18073508
71	0xbd103d35	-0.03521462
72	0x3c82081a	0.015873004
73	0x3d95b472	0.07309808
74	0x3c9997ec	0.0187492
75	0xbd4d5082	-0.050125606
76	0xbc0bdcf4	-0.008536566
77	0xba3482d0	-0.00068859477
78	0xbc380774	-0.011232246
79	0x3cada1fa	0.0211954
80	0xbc8c92ee	-0.017159905
81	0x3c820821	0.015873017
82	0x3d4e9fc0	0.05044532
83	0xbc034bd9	-0.008013689
84	0x3b32c2d5	0.0027276773
85	0xbc286295	-0.01027741
86	0x3c820812	0.015872989
87	0xbd1400ee	-0.0361337
88	0x3a1d9b6e	0.00060122355
89	0x3ac095db	0.0014693098
90	0xbc670979	-0.01410138
91	0x3c05912f	0.00815229
92	0x3c820821	0.015873017
93	0x3c251e22	0.010077985
94	0x3cc40152	0.02392641
95	0x3c3f0ab3	0.011660266
96	0xbccbc766	-0.024875354
97	0x3c1d8a27	0.009615458
98	0x3cd7993b	0.026318183
99	0x3cbe4f57	0.023231192
100	0x3c6f4d00	0.014605761
101	0xbe0579d9	-0.13034762
102	0x3c820821	0.015873017
103	0xbcd8de78	-0.026473269
104	0x3c81f418	0.015863463
105	0x3c0286ae	0.00796668
106	0xbae1e15a	-0.0017233298
107	0xbc09dae2	-0.008414002
108	0xbddb168b	-0.10697659
109	0x3cefa935	0.029255489
110	0x3d4570d8	0.04820332
111	0x3c318db4	0.010837007
112	0x393175d7	0.00016923934
113	0x3c44604f	0.011985852
114	0xbc6ce73f	-0.01445943
115	0x3bb4fdf5	0.005523438
116	0x3d455e8e	0.048185878
117	0x3b6b4b97	0.003590321
118	0x3d97a4e1	0.07404495
119	0x3d381c1b	0.04494868
120	0x3c95e5fc	0.018298142
121	0x3d2fc0d3	0.0429085
122	0xbc7406d7	-0.014894209
123	0x3cf249ff	0.0295763
124	0x3c77c482	0.015122535
125	0x3b8874d1	0.004164316
126	0xbbae21de	-0.005314096
127	0x3d46a1f4	0.048494294
128	0xbba1b49a	-0.0049348595
129	0xbcf12eb8	-0.029441223
130	0xbb45046e	-0.0030062455
131	0xbcc3dcae	-0.02390894
132	0xbd635d85	-0.05550911
133	0xbdd0e384	-0.10199645
134	0xbd4a5917	-0.04940137
135	0x3c86a5a2	0.016436402
136	0x3d91f96c	0.071276516
137	0x3c7fee1c	0.015620735
138	0xbd03ad6a	-0.032147802
139	0xbc4ea7e6	-0.012613272
140	0xbb47313d	-0.0030394339
141	0xbc70411d	-0.014663962
142	0x3d0368fa	0.032082535
143	0xbd32fdb7	-0.043698993
144	0x3c820821	0.015873017
145	0x3d6189aa	0.055062927
146	0xbc13faae	-0.009031935
147	0x3b45266e	0.003008272
148	0xbc57694e	-0.013147665
149	0x3c936256	0.017991226
150	0xbd4d6659	-0.050146434
151	0x3b36af1a	0.0027875365
152	0xbb65263f	-0.0034965423
153	0xbcc3b2eb	-0.023889026
154	0x3c32aeab	0.010905902
155	0x3c820821	0.015873017
156	0x3c6a3937	0.014295868
157	0x3d0f7a22	0.035028584
158	0x3c5e0334	0.013550568
159	0xbd1cf875	-0.038322885
160	0x3c6a3c0b	0.014296542
161	0x3d198216	0.037477575
162	0x3d012029	0.03152481
163	0x3cade3c2	0.021226767
164	0xbdc6839f	-0.096930735
165	0x3c820821	0.015873017
166	0xbd2293dc	-0.03969179
167	0x3c81fcd9	0.015867637
168	0x3c31d865	0.010854815
169	0x3a1a028b	0.0005875013
170	0xbc350374	-0.011048187
171	0xbdcdcc1e	-0.10048698
172	0x3d22bc74	0.039730504
173	0x3d3bfdca	0.04589633
174	0x3c85a51a	0.016314078
175	0x3a87fc02	0.0010374787
176	0x3c8f872a	0.017520506
177	0xbcab65c2	-0.020922545
178	0x3b9b7008	0.00474358
179	0x3d3a506c	0.045486853
180	0x3b53afb4	0.0032300772
181	0x3da3495f	0.07972979
182	0x3d541690	0.05177933
183	0x3ce325ca	0.02772798
184	0x3d4ec95e	0.050485007
185	0xbcb86e08	-0.022513404
186	0x3d21c02f	0.03948992
187	0x3c9e9921	0.019360127
188	0x3be82954	0.007085005
189	0xbb2a5239	-0.002598895
190	0xbc243c70	-0.010024175
191	0xbb26c7f1	-0.0025448764
192	0xbba61658	-0.0050685816
193	0xbb0f52ad	-0.0021869347
194	0xbba005b8	-0.004883494
195	0xbbfb7340	-0.007673651
196	0xbd93260f	-0.071849935
197	0xbc044955	-0.008074124
198	0x3c838edd	0.016059333
199	0x3ca7c068	0.020477489
200	0x3a853e1f	0.0010165608
201	0xbcd35eba	-0.025802005
202	0xbb80a804	-0.003926279
203	0xbb27e106	-0.0025616302
204	0xbb7f5f32	-0.0038966653
205	0x3c0f1b96	0.008734604
206	0xba8222bc	-0.0009928565
207	0x3c820821	0.015873017
208	0x3c7af7d8	0.01531788
209	0xbb51438e	-0.0031931135
210	0xba8cf2f8	-0.0010753563
211	0xbb78b967	-0.0037952305
212	0x3c8778a4	0.016537018
213	0xbc08d354	-0.008351166
214	0xba86e491	-0.0010291507
215	0xba98e643	-0.0011665303
216	0xbba4abf3	-0.0050253808
217	0x3a51a56e	0.0007997368
218	0x3c820821	0.015873017
219	0x3ac40fdd	0.0014958341
220	0x3c1ce7cd	0.00957675
221	0x3c03623b	0.008019025
222	0xbbb5ce6e	-0.00554829
223	0x3ac2a332	0.0014849661
224	0x3c24c7b9	0.010057383
225	0x3c4402c5	0.011963551
226	0x3b5c6318	0.00336284
227	0xbd436294	-0.047701433
228	0x3c820821	0.015873017
229	0xbbcb04b9	-0.0061956313
230	0x3c821bb3	0.015882349
231	0x3a46fb25	0.0007590524
232	0xb9aceb3e	-0.00032981666
233	0xbb6c64da	-0.0036070854
234	0xbd134f02	-0.03596402
235	0x3c41ac3a	0.011820847
236	0x3c934411	0.017976793
237	0x3b0bb782	0.0021319096
238	0xbabcf737	-0.0014416937
239	0x3b15aac7	0.0022837387
240	0xbb8b2a06	-0.004246953
241	0xba47cc3f	-0.00076216826
242	0x3c979b49	0.018506663
243	0xbae82001	-0.0017709733
244	0x3cbc8724	0.023013659
245	0x3c6e5e56	0.014548859
246	0x3bc9484f	0.006142653
247	0x3c6978dd	0.014250007
248	0xbb97c186	-0.004631224
249	0x3c4e03ff	0.012574195
250	0x3bf17daa	0.0073697167
251	0xb90dd07a	-0.00013524471
252	0xbb90ed9d	-0.004422857
253	0x3bcbfac0	0.00622496
254	0xbb867f6e	-0.0041045463
255	0xbc52dbd3	-0.012869793

dnets.0.conv.weight f4 [24, 3, 5, 5]
0	0xbcbc6455	-0.02299706
1	0xb89f7885	-7.604159e-05
2	0xbdb30059	-0.08740301
3	0xbca35349	-0.019937174
4	0x3db4d8a8	0.088303864
5	0x3d808749	0.062758036
6	0x3df33b1f	0.11876511
7	0xbd6ea60e	-0.05826383
8	0xbb71f7a2	-0.0036921282
9	0xbc468240	-0.012116015
10	0xbd942c5f	-0.072350256
11	0xbbc3ef6d	-0.0059794695
12	0xbddbc02c	-0.10730013
13	0xbc863aff	-0.016385553
14	0xbd3b394e	-0.045708947
15	0xbdc4cd78	-0.096095026
16	0x3d6a78d1	0.057244126
17	0xbcfe3cad	-0.031034792
18	0x3ccb172b	0.02479132
19	0xbce0e2df	-0.02745193
20	0x3baa2c18	0.0051932447
21	0x3da711bb	0.08157679
22	0x3d85d806	0.06535344
23	0x3e0e48ff	0.13895033
24	0x3daa8b0c	0.08327302
25	0xbd4b0ddc	-0.049573764
26	0x3d501a5f	0.0508064
27	0xbd06bd3a	-0.032895304
28	0xbd2b276c	-0.041785643
29	0x3db5dfd3	0.08880582
30	0x3db6e736	0.08930819
31	0xbcc842a8	-0.024445847
32	0x3cfa195e	0.030529674
33	0x3cfeb2cc	0.031091116
34	0xbd938fc4	-0.072051555
35	0x3d0060bc	0.031342253
36	0x3d615eb7	0.055021968
37	0xbd9ac11f	-0.07556366
38	0xbd0431fa	-0.032274224
39	0xbde96674	-0.113964945
40	0xbe0c74a9	-0.13716377
41	0x3d1aafb4	0.03776522
42	0x3db51a63	0.088429235
43	0x3c15b5f5	0.00913762
44	0x3d850bb9	0.064963765
45	0xbdad0327	-0.08447867
46	0x3cc61f07	0.024184717
47	0x3db0a553	0.08625283
48	0x3d8144c4	0.06311944
49	0x3db7d5b2	0.08976306
50	0x3c0ab6c8	0.00846643
51	0xbd848fcd	-0.0647274
52	0x3cffac25	0.031210015
53	0xbd8aa210	-0.06769192
54	0xbcbc58ee	-0.022991624
55	0x3dc7cb65	0.09755591
56	0x3cb62648	0.02223505
57	0x3d7ce4fd	0.061741818
58	0x3d6a5259	0.05720744
59	0x3d95e945	0.07319883
60	0xbde0515e	-0.109530196
61	0xbd7d8f6a	-0.06190435
62	0xbdca8855	-0.098892845
63	0xbd055b93	-0.032558035
64	0xbda9471d	-0.08265517
65	0xbd8f5493	-0.06998553
66	0xbd4a79c9	-0.04943255
67	0xbca0cad2	-0.019627962
68	0x3d91c8f4	0.07118407
69	0x3da0fabb	0.07860323
70	0x3daa9d4b	0.083307825
71	0x3dbd0466	0.092293546
72	0x3cc67648	0.024226323
73	0x3dc0302b	0.09384187
74	0x3d307961	0.043084506
75	0x3cef4792	0.029208932
76	0x3ca200df	0.019775806
77	0xbd0eede5	-0.034894843
78	0xbdd8aa45	-0.10579351
79	0x3d4e0838	0.050300807
80	0x3d203671	0.03911442
81	0xbdb192a5	-0.08670548
82	0x3c422541	0.011849702
83	0x3b0d46af	0.0021557023
84	0xbd051589	-0.03249124
85	0x3cdeac0f	0.027181653
86	0x38c41c9d	9.351338e-05
87	0x3d172787	0.03690293
88	0x3da83ea6	0.08215074
89	0x3bebaeed	0.0071924836
90	0x3d9bf0e0	0.07614303
91	0xbcc669fa	-0.024220455
92	0x3d377430	0.04478854
93	0xbd85839b	-0.065192424
94	0x3c120005	0.0089111375
95	0xbd446fe4	-0.04795827
96	0xbc2cf58d	-0.010556591
97	0xbd52895f	-0.05140054
98	0x3c187a7f	0.009306549
99	0x3ce1436b	0.027497968
100	0xbcd16789	-0.025562065
101	0xbd1dc68c	-0.038519427
102	0xbe272a8e	-0.16324827
103	0xbb8fa055	-0.0043831267
104	0xbce5514b	-0.027992865
105	0xbd36957d	-0.044576157
106	0x3e38badd	0.18040033
107	0x3dae5af0	0.08513439
108	0xbdae1710	-0.085004926
109	0x3d506690	0.05087906
110	0x3d34e8fa	0.044167496
111	0xbe1058f9	-0.1409644
112	0xbddc6fe3	-0.10763528
113	0xbe3efaa8	-0.18650305
114	0x3db6fc67	0.08934861
115	0x3bb6a0ec	0.0055733826
116	0x3db44185	0.08801559
117	0x3e302b12	0.1720393
118	0xbdcf3b09	-0.10118682
119	0x3b57e02e	0.0032940018
120	0x3d5d680a	0.054054298
121	0x3c9f91ca	0.019478697
122	0x3d3a0cc3	0.045422327
123	0x3d924015	0.07141129
124	0xbc48f5ff	-0.012265681
125	0x3bfc098d	0.007691568
126	0x3dad6ae4	0.084676534
127	0x3d223843	0.039604437
128	0x3e0b53b7	0.13606153
129	0xbb812470	-0.0039411113
130	0x3d5f20d2	0.05447466
131	0xbdfe5450	-0.12418425
132	0x3d72d68e	0.059286647
133	0x3cd12a8d	0.025532985
134	0xbcce52ab	-0.025185904
135	0xbce2a8ae	-0.027668323
136	0xbdc7f6d6	-0.09763877
137	0x3c392d83	0.011302355
138	0x3de60f26	0.11233358
139	0x3d75b987	0.059991386
140	0xbb4bb544	-0.0031083385
141	0xbe138e78	-0.14409816
142	0x3d7e02cb	0.062014382
143	0xbc1dd1e5	-0.009632562
144	0xbcb3019a	-0.02185135
145	0xbd13b99f	-0.036065694
146	0xbde247f5	-0.11048881
147	0x3cf22a77	0.029561264
148	0xbdac0b15	-0.08400551
149	0x3ca38626	0.019961428
150	0x3c9696d1	0.018382462
151	0x3d0c532e	0.034259014
152	0x3cad100a	0.021125812
153	0xbd0b52cd	-0.03401451
154	0x3d034958	0.032052368
155	0xbc7b2bf4	-0.015330303
156	0xbdfb5b5a	-0.12273283
157	0x3e1894d9	0.14900531
158	0x3d62db3e	0.055384867
159	0x3dd684c4	0.10474542
160	0xbc5e5eb3	-0.013572383
161	0xbde5fc5e	-0.11229776
162	0xbad4f596	-0.0016247507
163	0xbe16936d	-0.14704676
164	0x3ddb6ff6	0.10714714
165	0xbcadb423	-0.02120406
166	0xbc0c28d6	-0.008554658
167	0xbd95ba44	-0.07310918
168	0xbc847b67	-0.016172124
169	0x3d7f2a8c	0.062296435
170	0xbd9206e1	-0.07130218
171	0x3c4acc5c	0.012377825
172	0xbbfb92b1	-0.007677399
173	0x3c8c1e83	0.017104393
174	0x3b507db7	0.0031813213
175	0x3dbb0fef	0.091338985
176	0xbd84187e	-0.06449984
177	0x3de69334	0.112585455
178	0x3bae64d9	0.0053220806
179	0xbb816dcd	-0.003949857
180	0xbd861d61	-0.06548572
181	0x3d9a4e9b	0.07534524
182	0xbc2dedc6	-0.010615772
183	0x3db2303b	0.087006055
184	0xbd96d702	-0.07365228
185	0x3d9b11a6	0.075717255
186	0xbc58545a	-0.013203705
187	0x3db419b9	0.08793969
188	0xbe40ff0a	-0.1884729
189	0xbda3aaa0	-0.079915285
190	0x3cd615f7	0.02613352
191	0x3c8ff7b4	0.017574169
192	0xbdb564ba	-0.08857103
193	0xbd6c6bc5	-0.057719965
194	0xbd3561b4	-0.04428263
195	0xbb186ad5	-0.0023257036
196	0xbcf2ae22	-0.029624049
197	0x3ccaa612	0.024737392
198	0x3dbe17a4	0.09281853
199	0xbc8d1828	-0.017223433
200	0xbb1d4ba7	-0.002400139
201	0xbd4d07be	-0.05005621
202	0x3cacd48b	0.021097442
203	0xbdb67219	-0.08908481
204	0xbdab0bb2	-0.0835184
205	0xbc99cf59	-0.018775629
206	0x3c1698db	0.009191717
207	0xbe255497	-0.1614555
208	0x3c2bcb26	0.010485446
209	0x3c8749b1	0.016514631
210	0xbd098ff5	-0.033584554
211	0x3d8474ef	0.06467616
212	0x3e1f3a2f	0.15549539
213	0x3dff8cee	0.12478052
214	0xbdc78f79	-0.09744162
215	0x3db0920d	0.08621607
216	0x3c8845f0	0.016634911
217	0xbac985d4	-0.0015374967
218	0x3dd76a97	0.10518377
219	0x3cc49979	0.023998963
220	0x3b6cc626	0.0036128848
221	0x3ccd720f	0.025078801
222	0xbd3940b5	-0.045227725
223	0xbd7d3aea	-0.061823763
224	0x3cf9531b	0.030435136
225	0x3ce853a4	0.028360195
226	0x3b872e38	0.0041253828
227	0x3c2ac76c	0.010423522
228	0xb941da71	-0.0001848729
229	0x3d92e853	0.071732186
230	0x3d68b2e8	0.056811243
231	0x3c8220c1	0.015884759
232	0x3dc7775c	0.09739563
233	0xbdb9440e	-0.090461835
234	0x3d896769	0.06709177
235	0x3db4dcb7	0.088311605
236	0xbe1b391a	-0.15158501
237	0x3d5c4a49	0.05378178
238	0x3d46ce87	0.048536804
239	0xbb6fa8e7	-0.003656918
240	0xbdea0d44	-0.114283115
241	0xbd7f48bc	-0.062325224
242	0xbd194930	-0.037423313
243	0xbd30ad11	-0.0431338
244	0x3d62c439	0.055362914
245	0xbce18d7e	-0.027533289
246	0xbc8dee05	-0.01732541
247	0x3d9df706	0.077131316
248	0xbd942490	-0.07233536
249	0xbc8a22b6	-0.016862255
250	0xbd7cb01c	-0.06169139
251	0xbd93c822	-0.07215907
252	0xbe013bb4	-0.12620431
253	0xbca0fe01	-0.019652369
254	0xbdd84d74	-0.10561648
255	0xbdab1986	-0.083544776

dnets.1.means f4 [63]
0	0xbf2717fb	-0.65270966
1	0x3f693389	0.9109426
2	0xbecb84cf	-0.39749762
3	0xbff3399a	-1.9001954
4	0xbe48b8fc	-0.19601816
5	0xbf2dde19	-0.6791702
6	0xbf498311	-0.78715616
7	0xbf699862	-0.9124814
8	0xbf956d57	-1.1673993
9	0x3fc84b2d	1.5647942
10	0x3f1ec29d	0.62015706
11	0x3f374fa9	0.71605927
12	0xbe433406	-0.19062814
13	0xbe914e0c	-0.28379858
14	0xbd13fdd9	-0.03613076
15	0xbfd49b91	-1.6609975
16	0x3fb210b7	1.3911351
17	0xbe8c6e50	-0.27427912
18	0x3fb10a6a	1.3831303
19	0x3f415280	0.7551651
20	0xbfde82a2	-1.7383616
21	0x3dafb36b	0.08579143
22	0xbf917700	-1.1364441
23	0x3fb5602a	1.4169972
24	0xbf9f37ba	-1.2438881
25	0x3f19a40d	0.60015947
26	0xbc80b7fb	-0.015712729
27	0xbee86694	-0.4539076
28	0x3ea21b31	0.3166137
29	0x3ff423b5	1.9073397
30	0x3f101864	0.5628722
31	0x3fe1545b	1.7603868
32	0x3e1daf25	0.15398844
33	0xbf4e2e76	-0.80539644
34	0x3f89b40e	1.0758073
35	0x3fef59a8	1.8699236
36	0x3ed49179	0.41517237
37	0x3f53a582	0.8267442
38	0xbed8ce14	-0.42344725
39	0xc01808e5	-2.3755429
40	0xbf85b36d	-1.0445381
41	0xbfc1d6eb	-1.5143713
42	0x3eb256a8	0.34831738
43	0x3c4ab5c3	0.012372437
44	0xbed85993	-0.4225584
45	0xbf2ba9ff	-0.6705627
46	0x3f9a805e	1.2070425
47	0x3ecb5192	0.3971067
48	0x3fee8420	1.8634071
49	0x3daeb2f3	0.085302256
50	0x3f7028c8	0.9381223
51	0xbfe6dc62	-1.8036005
52	0x3d967167	0.073458485
53	0x3ec250c5	0.37952247
54	0x3dadaf5c	0.08480713
55	0x3f69cc22	0.91327107
56	0x3f617d25	0.8808158
57	0x3fb5cf22	1.4203837
58	0x3f708964	0.9395964
59	0xbf8049af	-1.0022486
60	0x3f501e6c	0.8129642
61	0x3e178467	0.14796601
62	0x3f3c18c9	0.7347532

dnets.1.std f4 [63]
0	0x404e7dc4	3.2264261
1	0xbe2edfbf	-0.1707754
2	0x40298539	2.6487563
3	0x3faca57e	1.3488004
4	0x4030c1c4	2.7618265
5	0x3f67ecd3	0.9059574
6	0x3ee11999	0.43964842
7	0x3e3e3f28	0.1857878
8	0x3f2738a3	0.65320796
9	0x3e759cb8	0.23985565
10	0x3e94eaa7	0.29085276
11	0x3d811ff4	0.06304923
12	0xbe271658	-0.16317117
13	0x3f90ef98	1.1323118
14	0x3f65c1ce	0.8974885
15	0x40126940	2.287674
16	0x3f718a7a	0.94351923
17	0x3e37fb7a	0.17967024
18	0x3d323c38	0.04351446
19	0x3ec44707	0.3833544
20	0x405f3d5c	3.48812
21	0x3f8bf7ac	1.0934958
22	0x400ae7fd	2.1704094
23	0xbe47cf45	-0.19512661
24	0x3f2ef6c6	0.68345296
25	0x40464fb4	3.0986147
26	0x3dc16471	0.09442986
27	0x3f3f8b32	0.7482177
28	0x3f997ec8	1.1991816
29	0x3e615417	0.22004734
30	0x3fb6c2b4	1.4278169
31	0x3f87e4ce	1.0616701
32	0x3e01c88e	0.12674162
33	0x3f0b6854	0.5445607
34	0x3ffdabfa	1.9818108
35	0xbf8b2a31	-1.0872251
36	0x3ebb19ab	0.3654302
37	0x3fa8d3ea	1.3189671
38	0xbe14d84b	-0.14535634
39	0xbdb61890	-0.08891404
40	0x3f2cca44	0.6749613
41	0x3e9a201d	0.30102625
42	0x3fa33c82	1.275284
43	0x3d068b86	0.032847904
44	0x3fc66d97	1.5502194
45	0xbe7f8404	-0.24952704
46	0x3f2e2b21	0.6803456
47	0x3e5a0c79	0.2129382
48	0x40159e63	2.3377922
49	0x3fc4f56a	1.5387394
50	0x3fd0105b	1.6254991
51	0x3fcfc2c4	1.6231313
52	0x3f4fb787	0.81139416
53	0x3e51418d	0.20435162
54	0x3dd135d9	0.10215349
55	0x3eda65f1	0.426559
56	0x3eea162f	0.4572005
57	0x3f9cf8a3	1.2263378
58	0x3efaf1e0	0.4901266
59	0x3f937779	1.1520835
60	0x3eeae120	0.45874882
61	0x3e997dda	0.2997883
62	0x40174d88	2.3641071

dnets.1.weights_rbf f4 [24, 63]
0	0xb9c5439e	-0.00037625147
1	0xbd469ab4	-0.04848738
2	0xb98e5fa8	-0.0002715562
3	0xb909a046	-0.00013125045
4	0xb9b8187a	-0.0003511345
5	0x39778110	0.00023603835
6	0x3a84f8b5	0.0010144921
7	0x3c820243	0.01587022
8	0xb7218921	-9.628276e-06
9	0x3ccdce84	0.025122888
10	0x3c4c9363	0.012486312
11	0xbd06afad	-0.03288238
12	0xbcaf2fd1	-0.021385105
13	0x3a41330b	0.0007369972
14	0x3a876af6	0.001033156
15	0xb877f3b0	-5.911634e-05
16	0x3a1da07f	0.00060129905
17	0xbb891b6b	-0.0041841767
18	0x3c899120	0.016792834
19	0x3b9cf729	0.004790206
20	0xb9a6c9a8	-0.00031812233
21	0x3a1101dd	0.00055315887
22	0xb79a4020	-1.8388091e-05
23	0x3cc4f848	0.024044171
24	0x37b46d40	2.1508546e-05
25	0xba1baded	-0.0005938698
26	0xbb84bdd8	-0.0040509515
27	0x38ef7c6c	0.000114195835
28	0x39cac248	0.00038673193
29	0x3c87c9ab	0.016575655
30	0x3822c4fe	3.8807273e-05
31	0xba1e88e3	-0.00060476194
32	0x3b1d0cb1	0.0023963863
33	0xb98ca7b9	-0.00026827844
34	0xba009c2a	-0.0004906083
35	0xbac5f2d9	-0.0015102281
36	0x3b9db4b1	0.0048128
37	0x387014e8	5.723993e-05
38	0xbc91177b	-0.017711392
39	0x3c820821	0.015873017
40	0xba044a05	-0.000504643
41	0x3c820821	0.015873017
42	0x3995f527	0.00028602147
43	0x3bef60e2	0.0073052505
44	0x39b11ef5	0.00033783136
45	0xbc19a84c	-0.009378504
46	0x399bfbf6	0.0002975163
47	0x3ba975cf	0.0051715146
48	0xba20b3ea	-0.0006130325
49	0x38afc0d1	8.380565e-05
50	0xb992b70d	-0.00027983673
51	0xb8629417	-5.402052e-05
52	0x3a7143b0	0.00092035066
53	0x3b1a21c9	0.0023518673
54	0x3c09c3ea	0.008408526
55	0xbba8d4ec	-0.0051523354
56	0x3ab3ddf6	0.0013722766
57	0x392d3b70	0.00016520708
58	0x39d2dc3e	0.00040218415
59	0x3964a981	0.0002180692
60	0x3b9aa62a	0.0047195153
61	0xbb13fe38	-0.0022581946
62	0xba05ef27	-0.0005109184
63	0x3a98c43f	0.0011655166
64	0x3c878bbc	0.016546123
65	0x3a9b9864	0.0011870977
66	0x3ae19259	0.0017209753
67	0x3a9b307f	0.0011840014
68	0x3ae2c35c	0.0017300653
69	0xba15dfa9	-0.0005717227
70	0xbb21957c	-0.002465575
71	0xba36db47	-0.0006975424
72	0x3c861200	0.016366005
73	0xbbdb8aea	-0.0066999095
74	0x3c86f240	0.016472936
75	0xbd115eff	-0.035490986
76	0x3ac14b60	0.0014747195
77	0x3acdf8af	0.0015714372
78	0x3aa61470	0.0012670886
79	0x3aed8ab9	0.0018123008
80	0x3bb56c81	0.0055366163
81	0x3c820821	0.015873017
82	0xb91262ec	-0.00013960496
83	0x3a9aec2b	0.0011819651
84	0x3ab09c87	0.0013474383
85	0x3aa29aed	0.0012405791
86	0x3c86f749	0.016475337
87	0xbaaba6c1	-0.0013095961
88	0x3a9a598c	0.0011775955
89	0x3bd4c74e	0.0064934855
90	0x3afea0da	0.00194266
91	0x3aa66236	0.0012694064
92	0x3c820821	0.015873017
93	0x3aa3581b	0.001246217
94	0x3af8493d	0.0018942725
95	0x3b3ae54a	0.0028518015
96	0x3b5c85a0	0.0033648983
97	0x3a9fdaea	0.0012195979
98	0x3adc0289	0.0016785424
99	0x3b053332	0.0020324704
100	0x3a9f5e5d	0.001215886
101	0xbbd0dec3	-0.0063742115
102	0x3c820821	0.015873017
103	0x3b156e4f	0.0022801345
104	0x3c82046c	0.01587125
105	0x3aa5f0c5	0.0012660256
106	0xbc754b34	-0.014971543
107	0x3aabcc8a	0.0013107222
108	0xbcd96d9f	-0.02654153
109	0x3b1da0cf	0.0024052148
110	0xbb496cbd	-0.003073498
111	0x3aa525ff	0.0012599825
112	0x3aa6a803	0.0012714866
113	0x3aa0610b	0.0012235952
114	0x3aca3322	0.0015426616
115	0x3aba2e55	0.0014204482
116	0xbb57d0a7	-0.0032930763
117	0xbd283e2f	-0.041074928
118	0xbbb26199	-0.0054437635
119	0x3a4fbe2e	0.00079247623
120	0x3ab24a13	0.0013602398
121	0x3a868b01	0.0010264815
122	0x3ac9f473	0.0015407935
123	0x3b8513a9	0.0040611816
124	0x3acc7f95	0.0015601987
125	0x3a9de908	0.0012047598
126	0xbbbff7a4	-0.0058583785
127	0x3c95a557	0.018267317
128	0xbbb38d6e	-0.005479506
129	0xbc35fe13	-0.011107939
130	0xbb86986e	-0.0041075265
131	0xbc2f02ef	-0.010681852
132	0xbbc89880	-0.006121695
133	0x3d006b6a	0.031352438
134	0xbc0f11f0	-0.008732304
135	0x3c7d5cd9	0.015464031
136	0x3c5ea8a1	0.013590009
137	0x3ca49e22	0.020094935
138	0x3dbf206b	0.09332355
139	0xbc151dff	-0.00910139
140	0xbb5c1108	-0.0033579487
141	0xbc2d3a03	-0.010572913
142	0x3be2d521	0.0069223796
143	0xbb456825	-0.003012189
144	0x3c820821	0.015873017
145	0x3c335225	0.010944878
146	0xbc091389	-0.008366474
147	0x3a2a52c5	0.0006497319
148	0xbc236fda	-0.009975398
149	0x3c7e2045	0.015510623
150	0xbc0eb1d4	-0.00870939
151	0xba3df765	-0.00072466425
152	0x3b17c6a5	0.0023159173
153	0xbc2479d1	-0.010038809
154	0x3b712251	0.0036794136
155	0x3c820821	0.015873017
156	0x3b9485c6	0.0045325486
157	0x3bf11dbc	0.007358281
158	0xbb529131	-0.0032129998
159	0xbc1fdd7e	-0.009757398
160	0x3b972fa4	0.0046138335
161	0x3bfa7935	0.0076438435
162	0x3bbe53e7	0.005808342
163	0x3bbf826c	0.005844405
164	0x3d68c130	0.056824863
165	0x3c820821	0.015873017
166	0xbc23e425	-0.010003124
167	0x3be81a5d	0.007083221
168	0x3b6edb18	0.0036446508
169	0x3ca541d7	0.020172996
170	0xbc102b45	-0.008799379
171	0x3d12e754	0.035865143
172	0x3bf19805	0.0073728585
173	0x3c1f1ae6	0.009711003
174	0x3bacd92c	0.0052749123
175	0xba3e6df1	-0.00072643074
176	0x3badd4d1	0.0053049107
177	0xbc3a2226	-0.011360681
178	0x3a903ed0	0.0011005048
179	0x3c24dc43	0.01006228
180	0x3d357020	0.044296384
181	0x3c889c7f	0.016676186
182	0x3c280163	0.010254237
183	0x3bdb5079	0.0066929427
184	0x3c223521	0.009900362
185	0xbc36fd71	-0.011168824
186	0x3bfc9eff	0.0077093835
187	0xb7a4b3fb	-1.9634133e-05
188	0x3af7c833	0.0018904269
189	0xbb03cf84	-0.0020112703
190	0x3c820703	0.015872484
191	0xbafa53d3	-0.0019098468
192	0xbbe7aad6	-0.007069926
193	0xbad2d7c4	-0.0016086032
194	0xbbbb0a29	-0.0057079983
195	0xbca9ecc3	-0.02074278
196	0x3c57984f	0.013158872
197	0xbc91fe6f	-0.017821519
198	0x3c820821	0.015873017
199	0x3d49d4d5	0.049275238
200	0x3c820821	0.015873017
201	0xbd8cdd64	-0.068781644
202	0xbb396116	-0.0028286627
203	0xba80e5f4	-0.0009834156
204	0xbb6e776f	-0.0036387106
205	0x3c097366	0.00838933
206	0xbc8a6d40	-0.016897798
207	0x3c820821	0.015873017
208	0x3d0f440a	0.034976996
209	0xbb2c79a4	-0.002631762
210	0xb9bd6618	-0.00036124955
211	0xbb57fe43	-0.0032957948
212	0x3c820821	0.015873017
213	0xbc96e292	-0.018418584
214	0xba3e49eb	-0.00072589394
215	0xbc0cc65c	-0.008592214
216	0xbbb42c4d	-0.005498445
217	0x3a5ab892	0.0008343543
218	0x3c820821	0.015873017
219	0x3abf56c7	0.0014598005
220	0x3c23344a	0.009961197
221	0x3c8beea0	0.017081559
222	0xbc21aa88	-0.009867318
223	0x3aae7847	0.0013310992
224	0x3c3b44e9	0.011430004
225	0x3c624bdf	0.013812034
226	0x3b4aac3b	0.0030925411
227	0x3cf9f175	0.030510643
228	0x3c820821	0.015873017
229	0xbc39b761	-0.011335225
230	0x3c820821	0.015873017
231	0x3a56a006	0.00081872975
232	0x3a2f3219	0.00066831853
233	0xbb3489a3	-0.0027547858
234	0xbd1d2cb1	-0.0383727
235	0x3c80cbd3	0.015722191
236	0x3d358e32	0.04432506
237	0x3ade65d7	0.0016967606
238	0xba55aee3	-0.00081513653
239	0x3b07da53	0.0020729497
240	0xbba2b5c0	-0.004965514
241	0x38767f8a	5.876975e-05
242	0x3d392d3e	0.045209162
243	0x3d362c0b	0.044475596
244	0x3d43de07	0.047819164
245	0x3cf3b838	0.029750928
246	0x3bb24bcc	0.0054411646
247	0x3ce33cd7	0.027738972
248	0xbbb3d7b7	-0.0054883617
249	0x3ca215a9	0.019785719
250	0x3bdc212f	0.006717823
251	0x377277fe	1.4452262e-05
252	0x3ac05133	0.0014672637
253	0x3b30268e	0.002687845
254	0x3ae30135	0.0017319085
255	0x3b88f70c	0.004179841

dnets.1.conv.weight f4 [24, 3, 5, 5]
0	0x3d1fae88	0.038984805
1	0x3d12dcab	0.035854977
2	0x3dce3c7c	0.1007013
3	0x3da87289	0.08224971
4	0xbd11c009	-0.03558353
5	0xbda60949	-0.0810724
6	0x3c8b85c6	0.017031562
7	0x3d9f4dcd	0.07778511
8	0x3dcfc077	0.10144132
9	0x3c72f9ed	0.014830095
10	0x3c97d764	0.018535323
11	0x3d868ebc	0.06570193
12	0x3cbc8ae5	0.023015449
13	0xbd74dbb6	-0.059779845
14	0xbd1f43ba	-0.03888295
15	0x3d996d29	0.07491524
16	0x3de3f5ea	0.11130889
17	0x3d9d27e2	0.07673623
18	0x3d5373d2	0.051624127
19	0x3d9f7dc5	0.077876605
20	0x3d67f404	0.056629196
21	0xbdbdf43c	-0.092751
22	0xbd2b8290	-0.04187256
23	0xbd86cfdc	-0.06582615
24	0x3d4c8ad3	0.04993708
25	0x3d262b4b	0.04056863
26	0xbd7406a9	-0.059576664
27	0xbc4f9726	-0.012670314
28	0x3d90553d	0.07047508
29	0x3ca08bc0	0.019597888
30	0x3d7999bd	0.060937632
31	0xbdb040c8	-0.08606106
32	0x3dc6d819	0.09709186
33	0xbd576359	-0.05258498
34	0x3dca15ab	0.09867414
35	0xbcadc631	-0.02121267
36	0x3dc1ce6d	0.09463201
37	0xbd9a7503	-0.075418495
38	0x3c2df2d3	0.010616976
39	0x3d224ede	0.039625995
40	0x3d8a2bbf	0.06746625
41	0xbd3efd78	-0.046628445
42	0x3d69a980	0.057046413
43	0xbd8599b1	-0.06523455
44	0xbd99078c	-0.074721426
45	0x3bb7ceca	0.005609368
46	0x3dc356e6	0.09538059
47	0x3d8a4406	0.06751256
48	0xbd90c937	-0.07069629
49	0x3d13e8c4	0.036110654
50	0xbd677e66	-0.056517027
51	0x3d98459f	0.07435154
52	0xbd929b96	-0.07158582
53	0x3d1b4379	0.037906144
54	0xb99eb488	-0.00030270615
55	0x3c02e122	0.007988246
56	0xbd23de01	-0.04000664
57	0xba78b377	-0.00094871916
58	0xbac1bd95	-0.0014781231
59	0xbdd57d46	-0.10424285
60	0xbdd82932	-0.105547324
61	0x3d895b7b	0.06706902
62	0x3d21a03f	0.039459463
63	0xbbdc9548	-0.006731663
64	0xbcbf9ce2	-0.023390237
65	0xbb146c26	-0.002264747
66	0x3dc0c0b6	0.09411757
67	0xbdb05d91	-0.086115964
68	0x3d2af2f1	0.041735593
69	0xbdc13a42	-0.0943494
70	0x3c41ffcb	0.011840771
71	0x3dd016b7	0.101605825
72	0x392d9264	0.000165531
73	0x3bdfcd00	0.006829858
74	0xbdc44f03	-0.09585383
75	0xbd212723	-0.039343964
76	0xbb122723	-0.002230116
77	0xbce2fa42	-0.027707223
78	0xbd2d4c2c	-0.04230897
79	0xbdaca55f	-0.084299795
80	0xbd8d65a0	-0.06904149
81	0x3d81cce0	0.06337905
82	0xbdcc8638	-0.09986538
83	0xbdb2d671	-0.08732308
84	0xbb8e1529	-0.0043360186
85	0x3dd510aa	0.10403569
86	0xbd2248ce	-0.039620213
87	0xbdca0d89	-0.09865863
88	0x3d93fac7	0.07225566
89	0xbc94d0d8	-0.01816599
90	0xbdcf8b5d	-0.10134003
91	0x3e02dafc	0.12778848
92	0x3d2c9492	0.042133875
93	0x3cedf7ac	0.029048763
94	0xbc4ab95a	-0.012373293
95	0x3d65393c	0.055962786
96	0x3dc67c57	0.09691685
97	0x3d33194f	0.043725308
98	0xbd33879a	-0.04383049
99	0x3dabe80f	0.08393871
100	0xbdc90c36	-0.09816782
101	0x3d8e3144	0.069429904
102	0xbc987c25	-0.018613884
103	0xbd17bb2a	-0.037043728
104	0x3cb72ff1	0.022361727
105	0x3ccb8f4a	0.024848599
106	0x3d0bedc6	0.034162305
107	0xbc1eeb74	-0.009699691
108	0xbdfcf0ed	-0.123506404
109	0x3ceff2b8	0.029290542
110	0x3b6f952f	0.0036557426
111	0xbc9cb3ab	-0.019128641
112	0x3db2d8c8	0.08732754
113	0x3d9778a0	0.07396054
114	0x3d798d43	0.060925733
115	0xbd8cf095	-0.06881825
116	0x3de157f1	0.110031016
117	0x3c86b457	0.016443415
118	0xbddcf3df	-0.10788702
119	0x3d1e519f	0.03865206
120	0xbce8a7c4	-0.02840031
121	0xbda1779c	-0.07884142
122	0xbd3a320f	-0.045457896
123	0x3d4e332c	0.05034177
124	0xbc4bb25b	-0.01243266
125	0xbd03d274	-0.032183126
126	0xbd805c76	-0.062676355
127	0xbc19ad07	-0.009379632
128	0x38b53218	8.640083e-05
129	0x3b0822c0	0.0020772666
130	0xbcfaa539	-0.030596362
131	0x3cc6ef4c	0.024284028
132	0x3b051605	0.0020307314
133	0xbb9f27d1	-0.0048570414
134	0x3d9116b7	0.07084411
135	0xbd05464e	-0.03253775
136	0xbd9fdd15	-0.0780584
137	0x3dffd4f9	0.12491793
138	0x3dcc2d3e	0.09969567
139	0x3d840479	0.064461656
140	0x3d44d84e	0.048057847
141	0x3be2c374	0.0069202725
142	0x3d7dbeb7	0.061949458
143	0xbd8bf40d	-0.06833658
144	0xbbcc2a22	-0.0062306086
145	0xbd7fb91e	-0.0624324
146	0xbd8e0ef3	-0.06936445
147	0xbdb3c3b1	-0.087775595
148	0xbb718323	-0.0036851845
149	0xbc114649	-0.008866855
150	0x3ce1cc84	0.027563341
151	0x3d713f4d	0.05889826
152	0xbd3426ef	-0.043982442
153	0x3daf8171	0.08569611
154	0x3d8bb41b	0.06821462
155	0xbda0725c	-0.07834312
156	0x3e00d738	0.125821
157	0x3e005769	0.12533344
158	0x3d15f95a	0.036614753
159	0xbd7c672c	-0.06162183
160	0xbdbff14d	-0.09372196
161	0x3db12ead	0.08651481
162	0x3d1e5d3f	0.038663145
163	0x3df57d31	0.11986769
164	0xbdcb93ac	-0.099402755
165	0xbdcd1e41	-0.10015536
166	0x3db4be42	0.08825351
167	0xbda373e0	-0.07981086
168	0xbdb2af22	-0.0872481
169	0xbd96a4a4	-0.073556215
170	0x3d5d5d95	0.054044325
171	0x3d4c1ce5	0.049832243
172	0xbdd57d88	-0.10424334
173	0xbe099029	-0.13433899
174	0xbcae7ed2	-0.021300707
175	0xbd0f6795	-0.035010893
176	0xbb477f57	-0.003044089
177	0xbc11b516	-0.008893272
178	0x3cef1885	0.029186497
179	0x3d707319	0.058703516
180	0xbbd452f8	-0.006479617
181	0x3da80516	0.08204095
182	0x3e2aa936	0.16666111
183	0x3d47de1c	0.048795804
184	0xbca85cc9	-0.020552056
185	0xbca9cf56	-0.020728748
186	0xbda4dbb8	-0.080497205
187	0xbd85fdc8	-0.065425456
188	0x3c89cdd7	0.016821785
189	0x3dc89140	0.09793329
190	0x3c93c4e2	0.018038217
191	0xbcb9c19f	-0.022675334
192	0xbc5d0d52	-0.013491945
193	0xbb4f6173	-0.0031643778
194	0xbdf13d84	-0.11779311
195	0xbd1a9581	-0.037740234
196	0x3d163e93	0.03668077
197	0xbdd1e68c	-0.102490515
198	0xbd909863	-0.070603155
199	0x3d4991ac	0.04921119
200	0x3d2b1273	0.04176564
201	0x3d97e61a	0.07416935
202	0x3aed572c	0.0018107644
203	0xbc26cd09	-0.01018072
204	0x3d498fcf	0.049209412
205	0xbc6a793b	-0.01431113
206	0x3dddeba7	0.10835963
207	0x3ded6289	0.1159106
208	0xbd1f8446	-0.038944505
209	0xbb926039	-0.004467037
210	0xbd2db273	-0.04240651
211	0xbd5f8950	-0.05457431
212	0xbb6d5642	-0.0036214744
213	0x3d813ab8	0.06310028
214	0x3d6df938	0.058099
215	0x3cf0ba58	0.02938573
216	0xbda8310d	-0.08212481
217	0xbc8f8919	-0.017521428
218	0xbb6d6182	-0.003622145
219	0x3c2a040b	0.0103769405
220	0xbd71b0f5	-0.05900665
221	0xbb7c95e7	-0.0038541497
222	0xbd1df3f8	-0.038562745
223	0xbe09c0c4	-0.1345244
224	0xbd38ffa8	-0.045165688
225	0x3d286dda	0.041120388
226	0xbd337e17	-0.04382142
227	0x3de316d1	0.11088336
228	0xbd4d1a9c	-0.050074205
229	0x3b54f3e1	0.0032493996
230	0x3db42ea6	0.0879796
231	0x3e059b30	0.1304748
232	0xbdea75fe	-0.114482865
233	0xbdc4d346	-0.0961061
234	0xbd3ef428	-0.046619564
235	0xbd6adae6	-0.057337664
236	0xbc0c4712	-0.008561866
237	0xbc6ef4bf	-0.014584719
238	0x3d25dcfa	0.040493943
239	0xbd91b5c2	-0.07114746
240	0xbce0aac5	-0.02742518
241	0x3e09ad4c	0.13445014
242	0xbc63a2e5	-0.013893818
243	0xbd77bb34	-0.060481265
244	0x3d164a42	0.03669191
245	0xbcfc2c45	-0.030782828
246	0xbc4364f8	-0.011925928
247	0x3db35b31	0.08757628
248	0xbccf9aa7	-0.025342299
249	0x3bb5bb77	0.005546029
250	0xbd0fe8cb	-0.035134118
251	0x3c28dfc0	0.010307252
252	0xbdce1556	-0.10062663
253	0x3d94705d	0.07247994
254	0xbc1f1226	-0.009708917
255	0xbcaa4874	-0.020786501

dnets.2.means f4 [63]
0	0xbf2717fb	-0.65270966
1	0x3f693389	0.9109426
2	0xbecb84cf	-0.39749762
3	0xbff3399a	-1.9001954
4	0xbe48b8fc	-0.19601816
5	0xbf2dde19	-0.6791702
6	0xbf498311	-0.78715616
7	0xbf699862	-0.9124814
8	0xbf956d57	-1.1673993
9	0x3fc84b2d	1.5647942
10	0x3f1ec29d	0.62015706
11	0x3f374fa9	0.71605927
12	0xbe433406	-0.19062814
13	0xbe914e0c	-0.28379858
14	0xbd13fdd9	-0.03613076
15	0xbfd49b91	-1.6609975
16	0x3fb210b7	1.3911351
17	0xbe8c6e50	-0.27427912
18	0x3fb10a6a	1.3831303
19	0x3f415280	0.7551651
20	0xbfde82a2	-1.7383616
21	0x3dafb36b	0.08579143
22	0xbf917700	-1.1364441
23	0x3fb5602a	1.4169972
24	0xbf9f37ba	-1.2438881
25	0x3f19a40d	0.60015947
26	0xbc80b7fb	-0.015712729
27	0xbee86694	-0.4539076
28	0x3ea21b31	0.3166137
29	0x3ff423b5	1.9073397
30	0x3f101864	0.5628722
31	0x3fe1545b	1.7603868
32	0x3e1daf25	0.15398844
33	0xbf4e2e76	-0.80539644
34	0x3f89b40e	1.0758073
35	0x3fef59a8	1.8699236
36	0x3ed49179	0.41517237
37	0x3f53a582	0.8267442
38	0xbed8ce14	-0.42344725
39	0xc01808e5	-2.3755429
40	0xbf85b36d	-1.0445381
41	0xbfc1d6eb	-1.5143713
42	0x3eb256a8	0.34831738
43	0x3c4ab5c3	0.012372437
44	0xbed85993	-0.4225584
45	0xbf2ba9ff	-0.6705627
46	0x3f9a805e	1.2070425
47	0x3ecb5192	0.3971067
48	0x3fee8420	1.8634071
49	0x3daeb2f3	0.085302256
50	0x3f7028c8	0.9381223
51	0xbfe6dc62	-1.8036005
52	0x3d967167	0.073458485
53	0x3ec250c5	0.37952247
54	0x3dadaf5c	0.08480713
55	0x3f69cc22	0.91327107
56	0x3f617d25	0.8808158
57	0x3fb5cf22	1.4203837
58	0x3f708964	0.9395964
59	0xbf8049af	-1.0022486
60	0x3f501e6c	0.8129642
61	0x3e178467	0.14796601
62	0x3f3c18c9	0.7347532

dnets.2.std f4 [63]
0	0x404e7dc4	3.2264261
1	0xbe2edfbf	-0.1707754
2	0x40298539	2.6487563
3	0x3faca57e	1.3488004
4	0x4030c1c4	2.7618265
5	0x3f67ecd3	0.9059574
6	0x3ee11999	0.43964842
7	0x3e3e3f28	0.1857878
8	0x3f2738a3	0.65320796
9	0x3e759cb8	0.23985565
10	0x3e94eaa7	0.29085276
11	0x3d811ff4	0.06304923
12	0xbe271658	-0.16317117
13	0x3f90ef98	1.1323118
14	0x3f65c1ce	0.8974885
15	0x40126940	2.287674
16	0x3f718a7a	0.94351923
17	0x3e37fb7a	0.17967024
18	0x3d323c38	0.04351446
19	0x3ec44707	0.3833544
20	0x405f3d5c	3.48812
21	0x3f8bf7ac	1.0934958
22	0x400ae7fd	2.1704094
23	0xbe47cf45	-0.19512661
24	0x3f2ef6c6	0.68345296
25	0x40464fb4	3.0986147
26	0x3dc16471	0.09442986
27	0x3f3f8b32	0.7482177
28	0x3f997ec8	1.1991816
29	0x3e615417	0.22004734
30	0x3fb6c2b4	1.4278169
31	0x3f87e4ce	1.0616701
32	0x3e01c88e	0.12674162
33	0x3f0b6854	0.5445607
34	0x3ffdabfa	1.9818108
35	0xbf8b2a31	-1.0872251
36	0x3ebb19ab	0.3654302
37	0x3fa8d3ea	1.3189671
38	0xbe14d84b	-0.14535634
39	0xbdb61890	-0.08891404
40	0x3f2cca44	0.6749613
41	0x3e9a201d	0.30102625
42	0x3fa33c82	1.275284
43	0x3d068b86	0.032847904
44	0x3fc66d97	1.5502194
45	0xbe7f8404	-0.24952704
46	0x3f2e2b21	0.6803456
47	0x3e5a0c79	0.2129382
48	0x40159e63	2.3377922
49	0x3fc4f56a	1.5387394
50	0x3fd0105b	1.6254991
51	0x3fcfc2c4	1.6231313
52	0x3f4fb787	0.81139416
53	0x3e51418d	0.20435162
54	0x3dd135d9	0.10215349
55	0x3eda65f1	0.426559
56	0x3eea162f	0.4572005
57	0x3f9cf8a3	1.2263378
58	0x3efaf1e0	0.4901266
59	0x3f937779	1.1520835
60	0x3eeae120	0.45874882
61	0x3e997dda	0.2997883
62	0x40174d88	2.3641071

dnets.2.weights_rbf f4 [24, 63]
0	0xb6748ff0	-3.6442616e-06
1	0x3c9f2c2b	0.01943024
2	0x370d5cc6	8.425855e-06
3	0xbb80b16b	-0.0039274
4	0x39835a2d	0.00025053453
5	0xbafc41a7	-0.001924564
6	0xbcec2d12	-0.028830085
7	0x3c3c6e09	0.011500844
8	0xbcb61214	-0.022225417
9	0x3c82217e	0.015885111
10	0x3d09a6ae	0.033606224
11	0x3c820821	0.015873017
12	0xbd6387cf	-0.05554944
13	0xbaa345b8	-0.0012456691
14	0xb99572de	-0.00028505077
15	0xb9b97671	-0.00035374195
16	0x3b32f119	0.002730435
17	0xbcf310b1	-0.029671045
18	0x3c820821	0.015873017
19	0x3cd55b94	0.026044644
20	0xb9531eac	-0.00020133954
21	0x39b64c7b	0.00034770728
22	0xba300e95	-0.000671604
23	0x3c826991	0.015919479
24	0xbcbb043f	-0.022829173
25	0x3a759e7a	0.0009369623
26	0xb9b421bc	-0.0003435741
27	0xbb295223	-0.002583631
28	0x3a5e7d46	0.0008487295
29	0x3c820821	0.015873017
30	0x3ac6a6f0	0.0015155952
31	0x3bc530fa	0.0060178014
32	0x3b9b799b	0.004744721
33	0xbc2068bd	-0.009790597
34	0x3adb2f8e	0.0016722546
35	0x3c0cfce7	0.0086052185
36	0x3baefc1f	0.005340114
37	0x3af007dc	0.0018312889
38	0xbd171c1c	-0.03689204
39	0x3c820821	0.015873017
40	0xbc457afd	-0.0120532485
41	0x3c820821	0.015873017
42	0x3a826659	0.0009948715
43	0x3c8c5307	0.017129434
44	0xba628ae5	-0.0008641913
45	0xbd3e916f	-0.046525415
46	0x3c35f114	0.011104841
47	0x3ce09aac	0.027417503
48	0x3abd52f1	0.0014444274
49	0x3a07ff4c	0.00051878835
50	0x3ae69e07	0.0017594703
51	0x3781443f	1.5409778e-05
52	0xb9020383	-0.00012399074
53	0x3ce1ec8c	0.027578615
54	0x3d052d03	0.03251363
55	0x3d06c037	0.032898154
56	0x3cbdfb13	0.02319101
57	0x3aa973a0	0.0012928136
58	0x3cb484b8	0.022035941
59	0xba841b53	-0.0010078944
60	0x3c45114f	0.0120280525
61	0xbb51dc30	-0.003202211
62	0x3aa8ec2b	0.0012887766
63	0xbb645ea0	-0.003484644
64	0x3c819b6f	0.015821187
65	0xbb4f2e8d	-0.003161344
66	0xbc1c9b4b	-0.009558509
67	0xbb40c113	-0.0029411956
68	0xbb5f5168	-0.0034075622
69	0xbcdc7080	-0.026909113
70	0xbdf0da5c	-0.11760399
71	0xbcd72bbe	-0.026265975
72	0x3c820821	0.015873017
73	0x3c61af23	0.013774666
74	0x3c820802	0.015872959
75	0xbabe70f4	-0.0014529512
76	0xbaad4cee	-0.0013221779
77	0x3afc5bc6	0.0019253425
78	0xbb978e2d	-0.004625103
79	0x3be79702	0.007067562
80	0x3c24091a	0.010011936
81	0x3c820821	0.015873017
82	0x3cac0e20	0.02100283
83	0xbb870eb2	-0.004121625
84	0x3a09de16	0.00052592286
85	0xbb8ad38f	-0.0042366455
86	0x3c820821	0.015873017
87	0xbce38c34	-0.027776815
88	0xbb1ad4da	-0.0023625405
89	0x3c505f11	0.012717978
90	0xbab75ed1	-0.001399005
91	0x3a346b0f	0.0006882408
92	0x3c820821	0.015873017
93	0x3a049e04	0.00050589466
94	0x3c025eb9	0.007957154
95	0x3ce5fb04	0.028073795
96	0xbc2eef2f	-0.010677143
97	0xb9f7f60b	-0.00047294828
98	0x3c122e25	0.0089221345
99	0x3c8aae2b	0.016928753
100	0x3ae27c98	0.0017279563
101	0xbd1bd3a4	-0.038043633
102	0x3c820821	0.015873017
103	0xbc6f7bd6	-0.014616927
104	0x3c82085d	0.015873129
105	0x39fb44b8	0.0004792565
106	0x3c24a4de	0.010049073
107	0xbb34a3ff	-0.002756357
108	0xbda5e81c	-0.08100912
109	0x3c68ae77	0.014201752
110	0x3cb3e392	0.0219591
111	0xba1f2061	-0.00060701935
112	0xba95bdd4	-0.0011424371
113	0x39e19265	0.00043024417
114	0xbbbbccd6	-0.0057312055
115	0x3b29640e	0.002584699
116	0x3cb4a8f0	0.022053212
117	0xbc923ec5	-0.017852196
118	0x3c5aecbc	0.013362106
119	0x3ca6c988	0.02035977
120	0x3b6e9dcb	0.003640997
121	0x3ca1ecae	0.019766178
122	0xbb98ee8a	-0.004667108
123	0x3ca177a7	0.019710375
124	0x3c81fb7d	0.01586699
125	0xbac74879	-0.0015204094
126	0xbb0aca33	-0.002117765
127	0x3c33d229	0.010975399
128	0xbb09b655	-0.002101322
129	0xbbb336f4	-0.0054691974
130	0xbaf08f42	-0.0018353241
131	0xbba9b7a7	-0.005179364
132	0xbc87d324	-0.016580172
133	0x3cd42d79	0.02590059
134	0xbc5ed9b3	-0.013601708
135	0x3c820675	0.01587222
136	0x3c9e68b8	0.019337043
137	0x3c820815	0.015872994
138	0x3d7d3420	0.06181729
139	0xbb63a760	-0.0034737214
140	0xbb22e3ca	-0.002485501
141	0xbb5aec61	-0.0033405053
142	0x3b556ace	0.0032564881
143	0xbcaf6252	-0.021409187
144	0x3c820821	0.015873017
145	0x3c69b319	0.014263892
146	0xbb28a271	-0.0025731588
147	0xbacb3678	-0.0015503904
148	0xbb52048e	-0.0032046172
149	0x3c81ea63	0.015858835
150	0xbc601f43	-0.013679328
151	0xba906791	-0.0011017193
152	0xbb746ea1	-0.0037297385
153	0xbbb012ca	-0.0053733336
154	0xba483aff	-0.00076381856
155	0x3c820821	0.015873017
156	0xb96b2e60	-0.00022428622
157	0x3b929e9a	0.004474473
158	0xba3cab93	-0.00071971974
159	0xbc1d24c2	-0.009591283
160	0xb80772e5	-3.2293512e-05
161	0x3bb39371	0.005480223
162	0x3b5c4832	0.0033612368
163	0x3a3cc69c	0.0007201226
164	0x3dd32fb6	0.103118345
165	0x3c820821	0.015873017
166	0xbc1f8780	-0.009736896
167	0x3c8207f0	0.015872926
168	0xba3b1161	-0.00071360735
169	0x3cbff77c	0.02343344
170	0xbb49b39a	-0.0030777217
171	0x3d0fb855	0.035087902
172	0x3bd8458f	0.006600089
173	0x3c7ed9cd	0.015554857
174	0x399c340f	0.00029793425
175	0xbac56106	-0.0015058822
176	0x3997f6f0	0.00028984947
177	0xbb8197ab	-0.003954848
178	0xbae962a1	-0.0017805883
179	0x3c82642c	0.015916906
180	0x3d23621e	0.039888494
181	0x3c999441	0.01874745
182	0x3c4ee91b	0.012628819
183	0x3b02c9c6	0.0019956692
184	0x3c44b3d9	0.01200577
185	0xbb9a7622	-0.0047137896
186	0x3beef8c2	0.007292838
187	0xbb07d059	-0.002072355
188	0xba41d740	-0.00073944405
189	0x3bf5b6e6	0.00749861
190	0x3c820821	0.015873017
191	0x3bee613c	0.007274775
192	0x3c0cc00f	0.008590712
193	0x3bec32a6	0.007208186
194	0x3bb19db8	0.005420413
195	0x3bb03e76	0.0053785397
196	0x3d185ad1	0.037195984
197	0x3c329999	0.010900878
198	0x3c820821	0.015873017
199	0x3b8625a3	0.004093842
200	0x3c820821	0.015873017
201	0x3c071e25	0.008246933
202	0x3bb7637f	0.0055965777
203	0x3b99d244	0.004694255
204	0x3bff0ad5	0.0077832737
205	0x3bc718c4	0.0060759503
206	0x3b8edc46	0.0043597547
207	0x3c820821	0.015873017
208	0x3be0f232	0.0068648094
209	0x3c002521	0.007821352
210	0x3bb562d3	0.0055354624
211	0x3bf7d723	0.007563488
212	0x3c820821	0.015873017
213	0x3c4348aa	0.01191918
214	0x3be626a3	0.007023649
215	0x3b8521e1	0.0040628766
216	0x3b8dfa84	0.0043328423
217	0x3bb610f0	0.0055562183
218	0x3c820821	0.015873017
219	0x3bb89413	0.005632886
220	0x3bcf4fdc	0.0063266587
221	0x3b25e55a	0.0025313706
222	0x3ba066e4	0.004895078
223	0x3bc98248	0.006149564
224	0x3bc70cfd	0.0060745464
225	0x3bb59332	0.0055412287
226	0x3bb0a827	0.005391139
227	0x3b9ab7f0	0.004721634
228	0x3c820821	0.015873017
229	0x3bf128a4	0.007359581
230	0xbb3bfc5e	-0.0028684358
231	0x3bb84508	0.0056234635
232	0x3b1cb6b3	0.0023912608
233	0x3bd8985e	0.0066099605
234	0x349334c3	2.7419273e-07
235	0x3bde18fb	0.0067778802
236	0x3b9f2439	0.004856613
237	0x3bd18b2c	0.0063947644
238	0x3bcd0f00	0.0062578917
239	0x3bbd818d	0.005783266
240	0x3bfdf990	0.0077506974
241	0x3ba0a9e8	0.004903067
242	0x3b95ca43	0.0045712306
243	0xbb2b0fde	-0.0026101987
244	0x3b92c896	0.004479478
245	0x3bea282d	0.0071459026
246	0x3bbb48b3	0.0057154535
247	0x3be9d3b8	0.0071358345
248	0x3bd7638e	0.006573147
249	0x3be0c65a	0.006859583
250	0x3bb7f27e	0.005613624
251	0x3bd7b9de	0.0065834364
252	0x3b812cca	0.003942107
253	0x3c2b836c	0.010468345
254	0x3b82a2ca	0.003986691
255	0x3ba19e92	0.004932233
