models/speckle_greedy7.pth (torch, 332311 bytes, 32 tensors)

dnets.0.means f4 [63]
0.38952228 -1.1870972 1.5615225 2.6528912 -1.5012504 2.169793 -0.71044236 -1.2971531
1.0918868 0.82813925 -1.1163872 -0.3427839 -1.0660877 -0.23679155 1.2416987 -1.2380586
-1.8711852 2.8284838 -1.7303592 0.8772942 -0.71600354 -0.7135914 1.1198715 1.9813482
2.2227232 0.41802415 0.016037032 -0.32501665 0.08189705 1.4330919 -1.8583379 0.30696204
0.7250774 2.0273705 -0.46755618 0.62903243 0.3484651 0.38831878 0.9167647 1.732746
0.30683267 1.9187449 -1.1517076 -1.1271038 -0.7725814 -1.8432459 1.551078 0.025696367
-2.4020088 1.2870811 -1.2129452 -0.7833412 -0.077618144 1.3721128 -1.5174524 -0.6538817
-1.2922642 -2.2407928 0.77196467 2.173502 0.86149883 0.60528696 0.27466315
00000000: 776f c73e cdf2 97bf f8df c73f f8c8 2940
00000010: f928 c0bf e3dd 0a40 8ddf 35bf 1d09 a6bf
00000020: f2c2 8b3f ef00 543f c7e5 8ebf 5f81 afbe
00000030: 9075 88bf 7c79 72be fcef 9e3f b478 9ebf
00000040: ff82 efbf e105 3540 697c ddbf 5a96 603f
00000050: 024c 37bf edad 36bf f357 8f3f d19c fd3f
00000060: 1941 0e40 4307 d63e 1860 833c 9568 a6be
00000070: a4b9 a73d 8e6f b73f 04de edbf 212a 9d3e
00000080: ac9e 393f 70c0 0140 8663 efbe 4508 213f
00000090: 056a b23e b8d1 c63e 17b1 6a3f 9fca dd3f
000000a0: 2c19 9d3e 6f99 f53f 286b 93bf f044 90bf
000000b0: e5c7 45bf 7bef ebbf b989 c63f 3081 d23c
000000c0: 83ba 19c0 13bf a43f ca41 9bbf 0d89 48bf
000000d0: 43f6 9ebd 64a1 af3f e13b c2bf cb64 27bf
000000e0: ea68 a5bf 2669 0fc0 7a9f 453f a81a 0b40
000000f0: 308b 5c3f 16f4 1a3f a6a0 8c3e

dnets.0.std f4 [63]
1.7193838 0.40386614 0.7237376 1.0326358 0.5901308 -0.9683112 -0.3779757 0.63132006
1.3387558 2.0830975 0.025635244 0.51946956 1.6043164 1.2450149 1.5694977 0.6059477
-0.9092621 0.48031843 0.69802135 1.8350972 0.36112893 2.1837115 1.7672455 -0.1199521
1.0680133 -0.3466283 0.020793354 0.13669832 0.5140146 0.60038865 0.93551606 0.581114
2.44297 0.9129868 1.0955951 1.0276201 0.68032134 0.7597403 1.1308883 -0.42755276
0.53687674 0.31145254 0.36550868 2.0430226 -0.21544999 0.927795 1.4787537 1.9423671
1.5312401 0.5693984 0.52925915 0.40900022 -0.13156568 0.06986942 0.7597849 1.143355
0.43577456 1.1475466 0.81132746 1.0201147 0.6719892 1.4049163 -0.14422671
00000000: c514 dc3f 8bc7 ce3e de46 393f 692d 843f
00000010: d012 173f 3ee3 77bf 0886 c1be 319e 213f
00000020: 5a5c ab3f 7851 0540 0101 d23c f5fb 043f
00000030: 3d5a cd3f a65c 9f3f 4de5 c83f 631f 1b3f
00000040: 67c5 68bf 4cec f53e 87b1 323f 77e4 ea3f
00000050: e4e5 b83e eec1 0b40 1a35 e23f 72a9 f5bd
00000060: a9b4 883f 4479 b1be d356 aa3c a5fa 0b3e
00000070: 7696 033f 12b3 193f fb7d 6f3f e3c3 143f
00000080: 9f59 1c40 81b9 693f 763c 8c3f 0e89 833f
00000090: 8a29 2e3f 577e 423f f3c0 903f 32e8 dabe
000000a0: c170 093f b576 9f3e f423 bb3e e2c0 0240
000000b0: ec9e 5cbe f983 6d3f cd47 bd3f 7c9f f83f
000000c0: adff c33f 18c4 113f 877d 073f 7a68 d13e
000000d0: 27b9 06be b317 8f3d 4381 423f 7559 923f
000000e0: d81d df3e cfe2 923f 28b3 4f3f 1e93 823f
000000f0: 7c07 2c3f 4cd4 b33f 2bb0 13be

dnets.0.weights_rbf f4 [48, 63]
-0.00041832862 -0.018381758 0.022708712 0.035077572 -0.016251681 0.027659144 -0.007150465 -0.008272822
0.0061826687 0.0010060528 0.015873017 -0.010798951 -0.0071854647 -0.0032964575 0.0054306905 -0.00913578
-0.012876984 0.015873017 -0.016031655 0.0019282697 -0.014584177 -0.003974287 0.0035854636 0.015873017
0.019048829 0.010940878 0.00066021644 -0.004925565 -0.000355573 0.042028107 -0.010369655 0.002686809
-8.95321e-06 0.027536051 -0.0063389023 0.0043018255 0.0019950487 0.0020395478 0.00669461 0.018833822
0.004575275 0.015873013 -0.020058164 -0.00579011 -0.005801287 -0.010471156 0.007781574 -0.0016197334
-0.009480229 0.03171173 -0.014864902 -0.0070193056 0.0018634564 0.015873017 -0.008424313 -0.0075124246
-0.01941069 -0.010721092 0.009338603 0.021867301 0.013149942 0.0015200888 0.0049615595 -0.0016039053
0.0029851913 -0.018841397 -0.027082548 0.0054902215 -0.017257955 0.0097893085 0.009425042 -0.0036261592
-0.0023709082 0.019259945 -0.0069334866 0.0009169816 -0.0002892411 -0.0037957893 0.009218587 0.005380479
0.015876053 0.0051117833 -0.0025824374 0.0070568323 -0.00021816262 -0.0032244462 0.015873017 -0.01254484
0.016375659 -0.00018087588 -0.009329142 -0.0038592606 -0.041829035 0.006727299 0.0019057463 -0.0020929025
-0.017709235 -0.00037578944 -0.0018801702 0.00012727718 -0.00041953215 -0.00308801 0.0045873923 0.0048648394
0.01887118 -0.003936382 0.00037724312 0.04870437 0.006684151 -0.0047587985 -0.0010330775 0.0045331917
-0.028402673 0.007360724 0.010465347 -0.037433427 0.020650804 0.008237246 0.00033988865 -0.00017646074
0.005898698 -0.0015949843 -0.013824532 -0.0023222356 -0.0020183527 0.04135693 -0.002323585 -0.06127458
0.07914025 0.11325412 -0.058116667 0.088377565 -0.040282063 -0.04092169 0.016387073 0.0009810191
0.015873017 -0.034091543 -0.018557698 -0.009015217 0.013571927 -0.043006066 -0.04797856 0.015873017
-0.057309896 0.0033837415 -0.05535995 -0.0103954915 0.00785888 0.015873017 0.06346564 0.039031144
0.0011749037 -0.021678617 -0.00045233336 0.14439417 -0.04203284 0.010156811 -0.0014728396 0.08873018
-0.016345007 0.011361248 0.0070469435 0.0065110642 0.018600352 0.027224073 0.016372873 0.015873017
-0.066786714 -0.014686592 -0.06455559 -0.042333197 0.021736445 -0.0051857936 -0.031229537 0.11020029
-0.0553973 -0.039769977 -0.0069351476 0.015873017 -0.039626446 -0.019705048 -0.0641346 -0.04045879
0.02942825 0.07171145 0.044786252 0.0027443762 0.015027693 -0.0007591058 -0.021312173 0.026606305
0.0382239 -0.019739037 0.03071263 -0.0106964605 -0.011893658 0.0064616185 0.0007301822 0.015873017
-0.011556096 -0.00834252 -0.0036569862 0.0055902274 -0.012785273 -0.016157867 0.015873017 -0.019527236
0.0017656196 -0.018029321 -0.0047636335 0.0035662442 0.015873017 0.021885132 0.013287647 0.00057825126
-0.005323069 0.0011391563 0.04645001 -0.013591736 0.003472027 -0.00040735485 0.030700807 -0.007023216
0.0045889607 0.0025069737 0.0024337347 0.0070987246 0.021567296 0.0057419697 0.015873017 -0.02242955
-0.006828037 -0.011133908 -0.013701824 0.008211617 -0.002079014 -0.011657202 0.035906114 -0.018478045
-0.010612496 0.0011818213 0.015873017 -0.011840408 -0.008473799 -0.022117341 -0.0136741055 0.010333939
0.024853392 0.015150408 0.0014284482 0.0050375033 6.1993414e-05 0.0049614063 0.007985339 0.012841188
00000000: 1e53 dbb9 5795 96bc 9f07 ba3c 80ad 0f3d
00000010: 3f22 85bc 6e95 e23c 734e eabb bb8a 07bc
00000020: fc97 ca3b 88dd 833a 2108 823c 15ee 30bc
00000030: 0c74 ebbb 6109 58bb eff3 b13b 3dae 15bc
00000040: fcf9 52bc 2108 823c d154 83bc ffbd fc3a
00000050: 79f2 6ebc bc3a 82bb 19fa 6a3b 2108 823c
00000060: 4a0c 9c3c 5e41 333c 6012 2d3a a266 a1bb
00000070: 336c bab9 aa25 2c3d 7ce5 29bc 2d15 303b
00000080: bf35 16b7 4993 e13c 91b6 cfbb 54f6 8c3b
00000090: 5dbf 023b efa9 053b 765e db3b 6349 9a3c
000000a0: 30ec 953b 1f08 823c 0551 a4bc f7ba bdbb
000000b0: b918 bebb 368f 2bbc 93fc fe3b 3c4d d4ba
000000c0: f652 1bbc 29e4 013d eb8b 73bc 3402 e6bb
000000d0: 393f f43a 2108 823c 2106 0abc c92a f6bb
000000e0: 2b03 9fbc 85a7 2fbc f100 193c 0e23 b33c
000000f0: db72 573c b73d c73a 9494 a23b 223a d2ba
00000100: 33a3 433b 4659 9abc 38dc ddbc 51e7 b33b
00000110: 8e60 8dbc 5663 203c 7e6b 1a3c dba4 6dbb
00000120: 3d61 1bbb 08c7 9d3c 4d32 e3bb 9861 703a
00000130: 49a5 97b9 c7c2 78bb 8e09 173c bb4e b03b
00000140: 7f0e 823c bf80 a73b 1c3e 29bb 003d e73b
00000150: 95c2 64b9 3b51 53bb 2108 823c df88 4dbc
00000160: 3f26 863c 80a9 3db9 42d9 18bc a6eb 7cbb
00000170: ec54 2bbd ad70 dc3b 3cca f93a 1429 09bb
00000180: f512 91bc 9b05 c5b9 0b70 f6ba b575 0539
00000190: a7f4 dbb9 3660 4abb d651 963b 3b69 9f3b
000001a0: bc97 9a3c c4fc 80bb b7c8 c539 3c7e 473d
000001b0: b906 db3b b2ef 9bbb 5468 87ba 2b8b 943b
000001c0: b9ac e8bc 3a32 f13b d976 2b3c cb53 19bd
000001d0: e02b a93c 84f5 063c 1533 b239 5208 39b9
000001e0: dd49 c13b cb0e d1ba 4a80 62bc a630 18bb
000001f0: 5746 04bb e265 293d 4a47 18bb 0efb 7abd
00000200: 4914 a23d c7f1 e73d be0b 6ebd 4cff b43d
00000210: cefe 24bd 819d 27bd 2f3e 863c 8a95 803a
00000220: 2108 823c 93a3 0bbd 5006 98bc 90b4 13bc
00000230: ca5c 5e3c 2127 30bd 2b85 44bd 2108 823c
00000240: c8bd 6abd c3c1 5d3b 1dc1 62bd da51 2abc
00000250: 88c2 003c 2108 823c 46fa 813d 1fdf 1f3d
00000260: 3aff 993a 5b97 b1bc 2827 edb9 11dc 133e
00000270: a12a 2cbd c168 263c 4c0c c1ba 2bb8 b53d
00000280: f7e5 85bc 8724 3a3c 0cea e63b c45a d53b
00000290: c45f 983c 0505 df3c 6720 863c 2108 823c
000002a0: 79c7 88bd 08a0 70bc b935 84bd 9365 2dbd
000002b0: a110 b23c 97ed a9bb 16d5 ffbc b1b0 e13d
000002c0: 47e8 62bd d8e5 22bd 3c40 e3bb 2108 823c
000002d0: 574f 22bd 7b6c a1bc 0059 83bd 1eb8 25bd
000002e0: 8313 f13c 74dd 923d ca71 373d feda 333b
000002f0: b636 763c bafe 46ba de96 aebc 77f5 d93c
00000300: aa90 1c3d c3b3 a1bc 0e99 fb3c 3540 2fbc
00000310: 9edd 42bc fcbb d33b b369 3f3a 2108 823c
00000320: c855 3dbc 11af 08bc 0caa 6fbb 3a2e b73b
00000330: 5279 51bc 815d 84bc 2108 823c 95f7 9fbc
00000340: 5d6c e73a 3ab2 93bc 4118 9cbb a6b7 693b
00000350: 2108 823c 7348 b33c 6eb4 593c c995 173a
00000360: 246d aebb be4f 953a 5e42 3e3d dfaf 5ebc
00000370: f28a 633b 3e92 d5b9 4280 fb3c 0223 e6bb
00000380: fe5e 963b 0a4c 243b 4b7f 1f3b 6b9c e83b
00000390: e6ad b03c 2227 bc3b 2108 823c 2dbe b7bc
000003a0: babd dfbb ff6a 36bc 9d7d 60bc 058a 063c
000003b0: 1140 08bb d9fd 3ebc 4a12 133d 455f 97bc
000003c0: 09e0 2dbc 58e7 9a3a 2108 823c 45fe 41bc
000003d0: b0d5 0abc 6d2f b5bc 5b09 60bc af4f 293c
000003e0: 5799 cb3c 6b39 783c c53a bb3a a411 a53b
000003f0: 7602 8238 4b93 a23b f0d4 023c d963 523c

dnets.0.conv.weight f4 [48, 3, 7, 7]
-0.04180357 0.049888793 0.051102877 0.07226711 0.007252848 -0.055703737 0.004234501 0.044239804
-0.039351977 0.014863365 -0.08414567 -0.016294718 0.004976147 0.028744066 0.020378822 -0.069328874
0.06650134 0.01185191 0.0365039 -0.010525566 0.03555519 -0.06824465 0.02193686 -0.048700765
0.11562921 -0.037144493 -0.033141047 -0.011772442 -0.06443272 0.038525127 0.013212842 -0.014000913
0.040263295 -0.027365848 0.0046940194 0.04192923 -0.04244927 -0.031898502 -0.052282404 0.00029808152
0.0030289814 0.0072009303 -0.014138365 0.0024597908 0.048236933 -0.08908644 -0.034562703 0.036386233
0.048189927 0.0050843386 -0.036735117 -0.05084028 -0.07883519 -0.005411472 0.010823305 0.036313225
-0.024273463 -0.0013297173 -0.02907701 -0.044501 -0.015587584 0.03587805 -0.013039798 0.057421245
-0.03919232 0.004890164 0.022530172 -0.03598266 -0.025740845 0.053247392 0.07804885 0.031978913
-0.097946905 -0.11976208 0.026699664 0.051662795 0.0817736 -0.05346564 -0.035650592 0.04504421
0.068059266 0.07630235 -0.057526134 0.040315617 -0.016037788 0.024441062 -0.025087642 -0.030703193
-0.027474903 -0.024958763 0.06281535 0.00895278 0.023994168 -0.00617653 0.077235386 0.029342085
-0.030725962 -0.041111227 -0.020164357 0.07416197 0.01447695 0.124772124 0.06287821 0.053099032
-0.0256798 -0.037185196 -0.0066402406 0.056942426 -0.034970365 -0.03742242 0.07118745 -0.064877056
0.07869028 -0.027736045 -0.07084315 0.0059012407 -0.06578265 -0.02556547 -0.038744356 0.03821666
0.07279334 -0.059912026 0.07058683 -0.029453335 0.0110908635 -0.065934055 -0.05963622 0.06763795
-0.047860965 0.10043579 -0.021618897 -0.026207872 -0.034193527 0.022385167 -0.04736671 0.022567594
-0.023935096 0.012452169 0.03098038 -0.06886224 0.065607995 -0.052298278 0.015192766 -0.090911016
-0.02093223 0.043568622 -0.010384602 0.022347013 -0.021859996 -0.029992769 -0.014331794 0.016329724
0.020160312 0.0074569383 0.026482023 0.0075776014 -0.06552672 -0.037373822 0.058330674 0.036284417
-0.013343598 0.044650026 0.01798114 -0.020429788 -0.07194716 0.03472633 -0.0026285637 0.020307733
-0.009189296 -0.0417828 0.03004165 -0.090247914 -0.13907233 -0.060837567 -0.017018216 0.015714467
0.051067308 0.15176457 0.10027811 -0.043301366 -0.021892093 0.012779316 -0.021410044 -0.024514385
0.031142136 0.08836205 0.0012896736 0.023515752 -0.022369238 -0.006655403 -0.022138266 0.0056780544
-0.0071385778 0.010532645 0.030209882 -0.0008646107 0.0054592113 -0.03098268 -0.04465293 0.005011238
-0.0012532274 0.02812003 0.018386744 0.0031634448 0.0036091194 -0.044216525 -0.02830317 0.047225438
0.026132677 -0.01611489 0.015032378 0.055430017 -0.03465246 -0.0722948 0.0140190935 -0.006292865
0.012778811 -0.035802905 -0.02901466 0.016186478 -0.09175389 -0.14433952 -0.048743334 -0.02513401
0.021229003 0.045294713 0.16364197 0.112494506 -0.06275054 -0.009814521 0.00041256164 -0.0040719723
-0.036436066 0.06422469 0.065117985 0.01893425 0.028212512 -0.019855876 -0.02579404 0.008724801
-0.004639971 0.016536653 0.025189523 0.027506491 -0.0036552963 0.002507685 -0.010842093 -0.042073343
-0.005059272 0.004118751 0.0154362805 0.00067188794 0.0072313016 0.014372908 -0.053648308 -0.022504613
00000000: 383a 2bbd 3158 4c3d 4051 513d c700 943d
00000010: 4ca9 ed3b 9a29 64bd 92c1 8a3b cc34 353d
00000020: 8a2f 21bd 7985 733c 9154 acbd 807c 85bc
00000030: f20e a33b ad78 eb3c 7df1 a63c 4cfc 8dbd
00000040: db31 883d 832e 423c 1d85 153d 6c73 2cbc
00000050: 52a2 113d dac3 8bbd eeb4 b33c 747a 47bd
00000060: 02cf ec3d d324 18bd e8be 07bd 33e1 40bc
00000070: 4df5 83bd 86cc 1d3d ad7a 583c 1664 65bc
00000080: 20eb 243d 582e e0bc 4ad0 993b fcbd 2b3d
00000090: 49df 2dbd 01a8 02bd 1326 56bd d347 9c39
000000a0: e081 463b c8f5 eb3b 9aa4 67bc 7134 213b
000000b0: 1794 453d f472 b6bd 9f91 0dbd bb09 153d
000000c0: cd62 453d 869a a63b 9077 16bd e63d 50bd
000000d0: 5874 a1bd b852 b1bb 3b54 313c 2dbd 143d
000000e0: 24d9 c6bc e949 aeba e932 eebc ae46 36bd
000000f0: 1163 7fbc ddf4 123d e0a4 55bc 8a32 6b3d
00000100: 2088 20bd ab3d a03b 3291 b83c 8e62 13bd
00000110: 77de d2bc f019 5a3d 13d8 9f3d 52fc 023d
00000120: 6398 c8bd d245 f5bd 41b9 da3c 5e9c 533d
00000130: eb78 a73d c9fe 5abd 5b06 12bd 4780 383d
00000140: a862 8b3d 6844 9c3d 86a0 6bbd fd21 253d
00000150: ae61 83bc 9f38 c83c 9984 cdbc 4385 fbbc
00000160: 0c13 e1bc 5276 ccbc 56a5 803d aeae 123c
00000170: 6b8f c43c 7d64 cabb 962d 9e3d d05e f03c
00000180: 03b5 fbbc 3f64 28bd b92f a5bc 3be2 973d
00000190: bb30 6d3c 8788 ff3d 4ac6 803d 5f7e 593d
000001a0: 725e d2bc 814f 18bd 6096 d9bb 763c 693d
000001b0: 163d 0fbd 4048 19bd baca 913d 43de 84bd
000001c0: 5f28 a13d b436 e3bc 3716 91bd 325f c13b
000001d0: 0eb9 86bd ad6e d1bc 67b2 1ebd 1389 1c3d
000001e0: ad14 953d 5066 75bd d48f 903d 1f48 f1bc
000001f0: 74b6 353c 6f08 87bd 1c45 74bd c485 8a3d
00000200: dc09 44bd 48b1 cd3d 1d1a b1bc e4b1 d6bc
00000210: 830e 0cbd 1961 b73c 9803 42bd addf b83c
00000220: 8913 c4bc 2f04 4c3c 91ca fd3c a507 8dbd
00000230: 7c5d 863d b836 56bd 14eb 783c 8e2f babd
00000240: 117a abbc 0375 323d 2d24 2abc 1511 b73c
00000250: bc13 b3bc 65b3 f5bc e7cf 6abc eac5 853c
00000260: 3d27 a53c 5559 f43b d4f0 d83c 874d f83b
00000270: df32 86bd 4b15 19bd 25ec 6e3d f89e 143d
00000280: 1b9f 5abc f2e2 363d 2f4d 933c 5f5c a7bc
00000290: 0859 93bd 323d 0e3d fb43 2cbb 675c a63c
000002a0: b38e 16bc 7124 2bbd e819 f63c e6d3 b8bd
000002b0: fa68 0ebe d030 79bd c969 8bbc a0bb 803c
000002c0: f42b 513d 2c68 1b3e 9c5e cd3d c65c 31bd
000002d0: 0c57 b3bc 5660 513c 1e64 afbc 64d2 c8bc
000002e0: cb1d ff3c 2af7 b43d 440a a93a 1ba4 c03c
000002f0: b13f b7bc 9115 dabb 4f5b b5bc f90e ba3b
00000300: bbea e9bb 1d91 2c3c b77a f73c 0ba7 62ba
00000310: 2fe3 b23b 64cf fdbc fee5 36bd 5035 a43b
00000320: 5543 a4ba fa5b e63c cc9f 963c cc51 4f3b
00000330: fa86 6c3b 631c 35bd 0ddc e7bc 766f 413d
00000340: 3214 d63c 6003 84bc 5d4a 763c 960a 633d
00000350: bdef 0dbd 4c0f 94bd 57b0 653c 6134 cebb
00000360: 385e 513c 11a6 12bd 27b0 edbc 8199 843c
00000370: 77e9 bbbd bdcd 13be 17a7 47bd d7e5 cdbc
00000380: 72e8 ad3c f386 393d c391 273e 8563 e63d
00000390: 5b83 80bd 16cd 20bc 164d d839 2e6e 85bb
000003a0: fc3d 15bd 3c88 833d 945c 853d 001c 9b3c
000003b0: ed1d e73c caa8 a2bc 064e d3bc 78f2 0e3c
000003c0: e60a 98bb e077 873c 425a ce3c 4b55 e13c
000003d0: b28d 6fbb f957 243b 09a3 31bc 1955 2cbd
000003e0: 40c8 a5bb 96f6 863b 74e8 7c3c a321 303a
000003f0: 8ef4 ec3b 587c 6b3c 54be 5bbd 985b b8bc

dnets.1.means f4 [63]
0.38952228 -1.1870972 1.5615225 2.6528912 -1.5012504 2.169793 -0.71044236 -1.2971531
1.0918868 0.82813925 -1.1163872 -0.3427839 -1.0660877 -0.23679155 1.2416987 -1.2380586
-1.8711852 2.8284838 -1.7303592 0.8772942 -0.71600354 -0.7135914 1.1198715 1.9813482
2.2227232 0.41802415 0.016037032 -0.32501665 0.08189705 1.4330919 -1.8583379 0.30696204
0.7250774 2.0273705 -0.46755618 0.62903243 0.3484651 0.38831878 0.9167647 1.732746
0.30683267 1.9187449 -1.1517076 -1.1271038 -0.7725814 -1.8432459 1.551078 0.025696367
-2.4020088 1.2870811 -1.2129452 -0.7833412 -0.077618144 1.3721128 -1.5174524 -0.6538817
-1.2922642 -2.2407928 0.77196467 2.173502 0.86149883 0.60528696 0.27466315
00000000: 776f c73e cdf2 97bf f8df c73f f8c8 2940
00000010: f928 c0bf e3dd 0a40 8ddf 35bf 1d09 a6bf
00000020: f2c2 8b3f ef00 543f c7e5 8ebf 5f81 afbe
00000030: 9075 88bf 7c79 72be fcef 9e3f b478 9ebf
00000040: ff82 efbf e105 3540 697c ddbf 5a96 603f
00000050: 024c 37bf edad 36bf f357 8f3f d19c fd3f
00000060: 1941 0e40 4307 d63e 1860 833c 9568 a6be
00000070: a4b9 a73d 8e6f b73f 04de edbf 212a 9d3e
00000080: ac9e 393f 70c0 0140 8663 efbe 4508 213f
00000090: 056a b23e b8d1 c63e 17b1 6a3f 9fca dd3f
000000a0: 2c19 9d3e 6f99 f53f 286b 93bf f044 90bf
000000b0: e5c7 45bf 7bef ebbf b989 c63f 3081 d23c
000000c0: 83ba 19c0 13bf a43f ca41 9bbf 0d89 48bf
000000d0: 43f6 9ebd 64a1 af3f e13b c2bf cb64 27bf
000000e0: ea68 a5bf 2669 0fc0 7a9f 453f a81a 0b40
000000f0: 308b 5c3f 16f4 1a3f a6a0 8c3e

dnets.1.std f4 [63]
1.7193838 0.40386614 0.7237376 1.0326358 0.5901308 -0.9683112 -0.3779757 0.63132006
1.3387558 2.0830975 0.025635244 0.51946956 1.6043164 1.2450149 1.5694977 0.6059477
-0.9092621 0.48031843 0.69802135 1.8350972 0.36112893 2.1837115 1.7672455 -0.1199521
1.0680133 -0.3466283 0.020793354 0.13669832 0.5140146 0.60038865 0.93551606 0.581114
2.44297 0.9129868 1.0955951 1.0276201 0.68032134 0.7597403 1.1308883 -0.42755276
0.53687674 0.31145254 0.36550868 2.0430226 -0.21544999 0.927795 1.4787537 1.9423671
1.5312401 0.5693984 0.52925915 0.40900022 -0.13156568 0.06986942 0.7597849 1.143355
0.43577456 1.1475466 0.81132746 1.0201147 0.6719892 1.4049163 -0.14422671
00000000: c514 dc3f 8bc7 ce3e de46 393f 692d 843f
00000010: d012 173f 3ee3 77bf 0886 c1be 319e 213f
00000020: 5a5c ab3f 7851 0540 0101 d23c f5fb 043f
00000030: 3d5a cd3f a65c 9f3f 4de5 c83f 631f 1b3f
00000040: 67c5 68bf 4cec f53e 87b1 323f 77e4 ea3f
00000050: e4e5 b83e eec1 0b40 1a35 e23f 72a9 f5bd
00000060: a9b4 883f 4479 b1be d356 aa3c a5fa 0b3e
00000070: 7696 033f 12b3 193f fb7d 6f3f e3c3 143f
00000080: 9f59 1c40 81b9 693f 763c 8c3f 0e89 833f
00000090: 8a29 2e3f 577e 423f f3c0 903f 32e8 dabe
000000a0: c170 093f b576 9f3e f423 bb3e e2c0 0240
000000b0: ec9e 5cbe f983 6d3f cd47 bd3f 7c9f f83f
000000c0: adff c33f 18c4 113f 877d 073f 7a68 d13e
000000d0: 27b9 06be b317 8f3d 4381 423f 7559 923f
000000e0: d81d df3e cfe2 923f 28b3 4f3f 1e93 823f
000000f0: 7c07 2c3f 4cd4 b33f 2bb0 13be

dnets.1.weights_rbf f4 [48, 63]
-0.00017658259 0.0024380337 -0.005784666 -0.0054344106 0.0030534526 -0.0049790437 0.0028707597 0.0021947375
-0.00088425516 -0.0004398734 0.015873017 0.0020408698 0.0002524944 0.00053499977 -0.00088056485 0.0024982675
0.0021022903 0.015886996 0.002836157 -0.0005226099 0.0053416197 4.9662747e-05 -0.0007080531 0.015873017
-0.0041076364 -0.00057432166 0.008519613 0.023508841 0.0013995066 -0.0065895575 0.0019587576 0.00049066084
-0.0003305065 -0.0051681986 0.00069150847 -0.00039185892 0.00017245035 2.7328153e-05 -0.00081400754 0.00083996914
0.0007583629 0.02040021 0.0021676093 0.00010902769 0.014852 0.0019738816 -0.001191888 5.143586e-05
0.00078764884 -0.007018472 0.003301332 0.0025775323 -0.0039115036 0.017842883 0.0017832731 0.00058821315
0.0026297278 0.0017004176 -0.00096411025 -0.0045396434 -0.0021699567 -0.00037293174 -0.00017382731 -0.0007385409
-0.0006271244 0.006228834 0.008287896 0.00045699233 0.005522921 0.0003308596 8.234496e-05 -0.00017041813
-0.0006913441 0.013759294 0.00035095573 -0.0009411607 -0.0008166959 -0.0002827032 0.00013269916 -3.574343e-05
0.015873017 0.00041698353 -0.0006260316 2.0312047e-05 -0.0009135505 -0.0004906989 0.015873017 0.0036507328
0.0031141276 -0.008578683 0.013056526 -0.0007731294 0.014633411 -0.00017786244 -0.00033907834 -0.00075184245
0.0057449904 -0.00085063535 -0.00034346597 -0.0005058575 -0.0005077666 -6.642332e-05 0.021706447 0.00011795866
0.015873495 -0.0019008169 -0.00094225537 -0.011248882 -0.00016743023 0.000107251275 -0.0008048863 -0.00056634354
0.0098969145 0.00047072637 0.00023947345 0.010925079 0.015873017 -3.4880264e-05 -0.0008779242 -0.0005843148
-0.00033248603 0.0005662667 0.004164911 0.0018601896 -0.00062930136 0.0041343914 0.000583172 0.00272669
-0.0027703643 -0.0035069117 0.0033751908 -0.0008699132 0.0071041943 0.005730224 -0.00046588812 0.00048602594
0.015873017 0.0014537786 0.0013891693 0.0010335662 -0.00023713471 0.005675958 0.003184927 0.015873017
0.003124395 0.0003017422 0.0049599074 0.0011933639 7.407299e-05 0.015873017 -0.00134556 -0.004061924
0.0064520403 0.016379647 -0.0017357443 -0.0068795704 0.004158142 -0.0020387543 0.0006848096 -0.0010748166
0.0012294443 -0.0005744237 -0.0012718627 -0.00096117426 -0.00071389176 0.019636385 -0.00281219 0.015873643
0.001209184 0.0013085188 0.0019492767 0.0041282615 -0.0005678118 0.00094664405 0.0027340853 -0.004881736
0.0039115194 0.0068807215 -0.0018870818 0.015873017 0.0050171916 0.0013357336 0.002575215 0.0035775618
-0.0015575546 -0.0011593504 -0.0021652924 0.00014567464 -0.0051128324 -0.00016587206 -0.0035579274 -0.0022190383
0.004288987 -0.004100269 0.0022090473 -0.0035805986 -0.0025981327 0.00029007322 -0.0001627597 0.015272709
0.0005398283 -0.0005269969 7.146519e-05 0.00015749752 -0.0029552858 -0.0028675036 0.015873017 -0.0038801222
-6.736715e-05 -0.006527388 -0.00040729746 2.7807395e-05 0.015873017 -0.00046247922 0.0018580682 -0.008062263
-0.0053587654 0.0019262617 0.005759049 -0.0021079702 0.0012543689 -0.000263284 0.0018791212 -2.6101809e-05
0.0004791285 0.00078061054 0.0006033506 0.00046293082 0.013437701 0.0019406123 0.015873017 -0.0015005865
-0.0005150773 0.0068177395 -0.0021556572 0.00019862271 -0.00020922357 -0.0007563656 0.00038883951 -0.0045323684
-0.0033122317 0.0009194316 0.015873017 -0.0020522901 -0.00025855706 -0.0031434565 -0.0017526047 0.0008485817
0.00022961157 0.0002893703 3.6358175e-05 -0.0006462414 -0.0008192109 -0.048104957 0.0319422 0.043993395
00000000: 0729 39b9 6bc7 1f3b 4c8d bdbb 2413 b2bb
00000010: 6f1c 483b 3f27 a3bb 5b23 3c3b 96d5 0f3b
00000020: 5ccd 67ba cf9e e6b9 2108 823c 1dc0 053b
00000030: 3a61 8439 3a3f 0c3a b5d5 66ba f9b9 233b
00000040: 94c6 093b 7225 823c d2de 393b c2ff 08ba
00000050: c108 af3b f84c 5038 a49c 39ba 2108 823c
00000060: 5a99 86bb 138e 16ba d995 0b3c 9d95 c03c
00000070: a66f b73a 37ed d7bb 805e 003b b19f 003a
00000080: d547 adb9 fe59 a9bb 5946 353a 6a72 cdb9
00000090: cad3 3439 c33e e537 1f63 55ba 6031 5c3a
000000a0: dfcc 463a 571e a73c 730e 0e3b cca5 e438
000000b0: ce55 733c 3d5c 013b 2039 9cba d6bc 5738
000000c0: 387a 4e3a 36fb e5bb 295b 583b d1eb 283b
000000d0: 122c 80bb 3d2b 923c b7bc e93a 5132 1a3a
000000e0: 8357 2c3b 8ce0 de3a 58bc 7cba 4ac1 94bb
000000f0: d535 0ebb 0d86 c3b9 6a45 36b9 a49a 41ba
00000100: 9b65 24ba 3f1b cc3b f5c9 073c 7998 ef39
00000110: 9ff9 b43b 3977 ad39 9db0 ac38 45b2 32b9
00000120: 513b 35ba a96e 613c 7b00 b839 3ab8 76ba
00000130: 8917 56ba c837 94b9 2925 0b39 37eb 15b8
00000140: 2108 823c 959e da39 451c 24ba ca63 aa37
00000150: 567b 6fba 3fa2 00ba 2108 823c 2241 6f3b
00000160: 6416 4c3b 9b8d 0cbc 0aeb 553c d6ab 4aba
00000170: f9c0 6f3c 9680 3ab9 53c6 b1b9 4b17 45ba
00000180: 7940 bc3b 2cfd 5eba 3913 b4b9 869b 04ba
00000190: a41b 05ba c04c 8bb8 b8d1 b13c 9360 f738
000001a0: 2209 823c d524 f9ba b001 77ba 3b4d 38bc
000001b0: 3690 2fb9 17ec e038 01ff 52ba ac76 14ba
000001c0: ab26 223c d3cb f639 2a1b 7b39 1aff 323c
000001d0: 2108 823c 664c 12b8 7f24 66ba b42c 19ba
000001e0: 8551 aeb9 8471 143a ce79 883b 9bd1 f33a
000001f0: b3f7 24ba ca79 873b 03e0 183a 44b2 323b
00000200: 008f 35bb 37d4 65bb 4e32 5d3b e30a 64ba
00000210: 4dca e83b 9ac4 bb3b 7242 f4b9 4cd1 fe39
00000220: 2108 823c b78c be3a c914 b63a ba78 873a
00000230: 5da7 78b9 63fd b93b 35ba 503b 2108 823c
00000240: a6c2 4c3b 2733 9e39 b886 a23b a66a 9c3a
00000250: a257 9b38 2108 823c 805d b0ba e319 85bb
00000260: a36b d33b 9c2e 863c ea81 e3ba 056e e1bb
00000270: 0641 883b 9f9c 05bb cb84 333a dce0 8cba
00000280: 4e25 a13a ec94 16ba a1b4 a6ba 50f7 7bba
00000290: 7724 3bba 7cdc a03c b84c 38bb 7109 823c
000002a0: 7b7d 9e3a 9b82 ab3a df7e ff3a 5e46 873b
000002b0: 34d9 14ba 3528 783a 572e 333b f8f6 9fbb
000002c0: 342c 803b ad77 e13b f557 f7ba 2108 823c
000002d0: 4167 a43b c813 af3a f0c4 283b 8775 6a3b
000002e0: dc26 ccba 58f5 97ba 94e7 0dbb 3dc0 1839
000002f0: 8c89 a7bb f1ed 2db9 1e2c 69bb 496d 11bb
00000300: a18a 8c3b 8d5b 86bb aac5 103b 7aa8 6abb
00000310: 6f45 2abb f814 9839 79aa 2ab9 623a 7a3c
00000320: 4483 0d3a 2a26 0aba 95df 9538 eb25 2539
00000330: 78ad 41bb baec 3bbb 2108 823c a649 7ebb
00000340: 7747 8db8 b3e3 d5bb 8a8a d5b9 ed43 e937
00000350: 2108 823c e978 f2b9 6c8a f33a 9517 04bc
00000360: 9598 afbb 9e7a fc3a 68b6 bc3b df25 0abb
00000370: a369 a43a 6109 8ab9 d84c f63a 35f5 dab7
00000380: 8a33 fb39 e3a1 4c3a 2c2a 1e3a 86b5 f239
00000390: ce29 5c3c 255c fe3a 2108 823c 54af c4ba
000003a0: 4106 07ba 5867 df3b ed45 0dbb 6145 5039
000003b0: 0663 5bb9 d646 46ba 28dd cb39 4384 94bb
000003c0: 0712 59bb 0306 713a 2108 823c b77f 06bb
000003d0: f18e 87b9 7302 4ebb a8b7 e5ba 5b73 5e3a
000003e0: e3c3 7039 a0b6 9739 4b7f 1838 8768 29ba
000003f0: 50c0 56ba b409 45bd d3d5 023d 6b32 343d

dnets.1.conv.weight f4 [48, 3, 7, 7]
-0.04410064 -0.013525386 -0.02878102 0.024439607 0.024650268 -0.07656768 0.014501249 0.060692724
0.06042707 -0.028461836 0.076795444 0.058338474 0.00810991 0.039601475 0.07025121 -0.063622
-0.018335005 0.074068695 -0.053614203 -0.083218046 0.06621332 0.014053383 -0.048349444 -0.0033379323
0.04279663 0.007050703 -0.04403328 0.05871829 0.02394066 0.0555948 -0.07772067 -0.033921275
-0.008158667 -0.047165535 0.016292999 -0.012575564 -0.050631866 -0.06531939 0.06566558 0.06880686
0.030280907 -0.06085468 -0.004538665 -0.04230463 -0.046157826 0.040885247 -0.03727398 -0.027742634
0.0068432926 0.022676086 -0.03209731 0.020862238 -0.04358782 -0.030866459 0.051245756 -0.010199692
-0.050404057 0.030183058 0.03283037 0.045553662 -0.03443397 0.013164265 -0.009563655 0.08458833
-0.003020946 -0.084610626 0.04193235 0.018256208 -0.03458438 0.028194126 -0.05309843 -0.017428067
0.024426814 0.06568017 0.004205316 -0.032972626 -0.027931415 0.04845211 -0.070423074 0.05518287
0.06597061 -0.0617524 -0.027084995 0.005376687 0.053207945 -0.02725067 -0.020066125 -0.014604572
-0.0059137945 -0.081507966 -0.06742976 -0.051791277 0.02684878 -0.0042344267 0.0747049 0.02470983
0.043256506 0.0136980135 -0.064836845 -0.07187975 0.057048805 -0.081718594 0.007034294 0.014325405
0.025152663 0.014937387 0.065263264 -0.02331567 -0.040143605 0.061153248 0.015236338 -0.054594167
-0.015157424 0.018771663 -0.012893628 0.059303943 0.024907334 -0.06549376 -0.08528799 -0.0045718467
0.04951794 -0.07920887 0.013600694 0.038811263 -0.10658751 -0.027177695 -0.01486618 0.06945846
0.05492701 0.06732216 0.04005736 0.021822896 0.034357276 -0.029108971 0.041020773 0.006236833
0.08066071 -0.042356804 -0.07209497 -0.010700248 0.010494527 -0.02542467 0.07077571 0.030947236
0.06633115 -0.08343376 -0.048208818 0.0045603653 -0.062314916 -0.052059334 0.0019028985 -0.006963194
0.003073461 0.03443867 -0.024239538 0.08983754 0.0026638154 -0.023827374 -0.012848382 0.048737273
-0.04740204 -0.0030682602 -0.016759338 0.087607384 0.026216373 0.073538326 -0.009848458 -0.029688058
0.087228775 0.004962169 0.08575036 -0.02902782 0.09255336 -0.0031421913 -0.067415945 -0.068971105
0.040298324 -0.030482389 -0.015253959 -0.012604563 -0.05903532 -0.060705584 -0.035424095 -0.06042684
-0.060602684 -0.041625183 0.0929273 -0.03985143 0.0070877955 -0.041340206 0.02205543 -0.030131437
0.08669359 0.07098459 -0.0022492118 0.012386435 -0.036734637 -0.068950444 0.02146387 -0.0029555499
-0.0069627226 -0.022677593 0.022642044 -0.036988318 0.036748145 0.024760274 -0.047103807 -0.054247502
-0.036343697 0.034475647 -0.031764496 0.0410785 -0.00086310494 -0.024698047 0.016868688 0.067387074
-0.03368032 0.028542314 0.050994672 0.041840717 0.08399148 0.045394156 0.056719676 -0.026838785
0.01797022 -0.034313574 -0.016354376 -0.05295827 0.010502209 -0.06953464 0.07251474 -0.038711797
0.04640827 -0.0030721475 -0.06653982 0.0075198095 0.03682858 -0.06507516 -0.021131331 -0.027097829
-0.006894476 -0.00045097328 0.07356072 -0.06618754 0.06831983 -0.0067951125 -0.04646415 -0.077795565
-0.046533167 0.008235822 0.076141775 0.066840015 -0.07931943 0.061027363 -0.06585653 -0.064934105
00000000: dfa2 34bd 9599 5dbc 2cc6 ebbc 9235 c83c
00000010: 5cef c93c 84cf 9cbd a696 6d3c ef98 783d
00000020: 6082 773d cc28 e9bc ee46 9d3d 53f4 6e3d
00000030: 6edf 043c 2835 223d dedf 8f3d 404c 82bd
00000040: 4b33 96bc 54b1 973d 919a 5bbd 396e aabd
00000050: d99a 873d 2940 663c 110a 46bd 36c1 5abb
00000060: 854b 2f3d 9509 e73b 3e5c 34bd 9782 703d
00000070: 341f c43c 5fb7 633d 042c 9fbd 09f1 0abd
00000080: eeab 05bc a630 41bd e578 853c bd09 4ebc
00000090: 5c63 4fbd 2cc6 85bd ad7b 863d 9cea 8c3d
000000a0: aa0f f83c c242 79bd 15b9 94bb 9f47 2dbd
000000b0: fd0f 3dbd 4a77 273d 9aac 18bd 8544 e3bc
000000c0: b33d e03b 33c3 b93c 7878 03bd 49e7 aa3c
000000d0: 2489 32bd a8db fcbc 12e7 513d 9c1c 27bc
000000e0: 7c74 4ebd 7642 f73c 2379 063d 7a96 3a3d
000000f0: a20a 0dbd eeae 573c e0b0 1cbc a53c ad3d
00000100: 10fb 45bb 5648 adbd 41c1 2b3d 0b8e 953c
00000110: 5aa8 0dbd 5ef7 e63c bd7d 59bd 4ec5 8ebc
00000120: be1a c83c 5383 863d bfcc 893b 4e0e 07bd
00000130: 6cd0 e4bc b875 463d f939 90bd 6f07 623d
00000140: 991b 873d 16f0 7cbd 5ae1 ddbc eb2e b03b
00000150: 93f0 593d cc3c dfbc b761 a4bc 0448 6fbc
00000160: 81c8 c1bb a6ed a6bd 9d18 8abd 1723 54bd
00000170: f9f1 db3c f2c0 8abb e2fe 983d 456c ca3c
00000180: bc2d 313d a26d 603c 2ec9 84bd b135 93bd
00000190: 02ac 693d 145c a7bd ef7f e63b 1ab5 6a3c
000001a0: f50c ce3c f1bb 743c bfa8 853d 8100 bfbc
000001b0: 9f6d 24bd d47b 7a3d d5a1 793c 229e 5fbd
000001c0: d856 78bc 08c7 993c cc3f 53bc b1e8 723d
000001d0: 770a cc3c 9821 86bd 78ab aebd 6ecf 95bb
000001e0: 53d3 4a3d 4338 a2bd 72d5 5e3c 8ff8 1e3d
000001f0: 8d4a dabd c2a3 debc 4791 73bc 3d40 8e3d
00000200: 25fb 603d 33e0 893d 3013 243d eec5 b23c
00000210: 37ba 0c3d f075 eebc 6605 283d 595e cc3b
00000220: 7131 a53d 547e 2dbd 87a6 93bd 1850 2fbc
00000230: 3df1 2b3c 6647 d0bc dbf2 903d 0f85 fd3c
00000240: a0d8 873d 52df aabd 9c76 45bd 1e6f 953b
00000250: ed3d 7fbd 2b3c 55bd ae6a f93a 812b e4bb
00000260: 1e6c 493b 900f 0d3d ff91 c6bc bffc b73d
00000270: 6893 2e3b a031 c3bc 0582 52bc bca0 473d
00000280: a428 42bd dd14 49bb e14a 89bc 806b b33d
00000290: b8c3 d63c 439b 963d 6d5b 21bc 5f34 f3bc
000002a0: 00a5 b23d b199 a23b e29d af3d c0cb edbc
000002b0: 9e8c bd3d 39ed 4dbb 5f11 8abd b940 8dbd
000002c0: db0f 253d 34b6 f9bc beeb 79bc 5e83 4ebc
000002d0: 05cf 71bd 6ba6 78bd db18 11bd 2282 77bd
000002e0: 853a 78bd 2b7f 2abd ab50 be3d 413b 23bd
000002f0: bd40 e83b 5954 29bd 97ad b43c 34d6 f6bc
00000300: 698c b13d 5e60 913d 8367 13bb 79f0 4a3c
00000310: 0f77 16bd e435 8dbd ffd4 af3c e6b1 41bb
00000320: 8d27 e4bb 5cc6 b9bc cf7b b93c 1081 17bd
00000330: 3985 163d 0fd6 ca3c ecef 40bd a132 5ebd
00000340: 21dd 14bd 5636 0d3d 7d1b 02bd ee41 283d
00000350: fe41 62ba 8f53 cabc 3430 8a3c 3c02 8a3d
00000360: 60f4 09bd 92d1 e93c cadf 503d 2c61 2b3d
00000370: ba03 ac3d 39ef 393d e452 683d 03dd dbbc
00000380: 4836 933c 648c 0cbd 9df9 85bc c5ea 58bd
00000390: 7511 2c3c 2d68 8ebd 9c82 943d 4390 1ebd
000003a0: 9916 3e3d 1556 49bb 0746 88bd bc68 f63b
000003b0: 91d9 163d 2046 85bd 9d1b adbc 44fc ddbc
000003c0: 0eeb e1bb 9c70 ecb9 01a7 963d 558d 87bd
000003d0: 44eb 8b3d 89a9 debb 3151 3ebd 4853 9fbd
000003e0: 9099 3ebd 8bef 063c 38f0 9b3d 6be3 883d
000003f0: 3a72 a2bd d4f7 793d cadf 86bd 2cfc 84bd

dnets.2.means f4 [63]
0.38952228 -1.1870972 1.5615225 2.6528912 -1.5012504 2.169793 -0.71044236 -1.2971531
1.0918868 0.82813925 -1.1163872 -0.3427839 -1.0660877 -0.23679155 1.2416987 -1.2380586
-1.8711852 2.8284838 -1.7303592 0.8772942 -0.71600354 -0.7135914 1.1198715 1.9813482
2.2227232 0.41802415 0.016037032 -0.32501665 0.08189705 1.4330919 -1.8583379 0.30696204
0.7250774 2.0273705 -0.46755618 0.62903243 0.3484651 0.38831878 0.9167647 1.732746
0.30683267 1.9187449 -1.1517076 -1.1271038 -0.7725814 -1.8432459 1.551078 0.025696367
-2.4020088 1.2870811 -1.2129452 -0.7833412 -0.077618144 1.3721128 -1.5174524 -0.6538817
-1.2922642 -2.2407928 0.77196467 2.173502 0.86149883 0.60528696 0.27466315
00000000: 776f c73e cdf2 97bf f8df c73f f8c8 2940
00000010: f928 c0bf e3dd 0a40 8ddf 35bf 1d09 a6bf
00000020: f2c2 8b3f ef00 543f c7e5 8ebf 5f81 afbe
00000030: 9075 88bf 7c79 72be fcef 9e3f b478 9ebf
00000040: ff82 efbf e105 3540 697c ddbf 5a96 603f
00000050: 024c 37bf edad 36bf f357 8f3f d19c fd3f
00000060: 1941 0e40 4307 d63e 1860 833c 9568 a6be
00000070: a4b9 a73d 8e6f b73f 04de edbf 212a 9d3e
00000080: ac9e 393f 70c0 0140 8663 efbe 4508 213f
00000090: 056a b23e b8d1 c63e 17b1 6a3f 9fca dd3f
000000a0: 2c19 9d3e 6f99 f53f 286b 93bf f044 90bf
000000b0: e5c7 45bf 7bef ebbf b989 c63f 3081 d23c
000000c0: 83ba 19c0 13bf a43f ca41 9bbf 0d89 48bf
000000d0: 43f6 9ebd 64a1 af3f e13b c2bf cb64 27bf
000000e0: ea68 a5bf 2669 0fc0 7a9f 453f a81a 0b40
000000f0: 308b 5c3f 16f4 1a3f a6a0 8c3e

dnets.2.std f4 [63]
1.7193838 0.40386614 0.7237376 1.0326358 0.5901308 -0.9683112 -0.3779757 0.63132006
1.3387558 2.0830975 0.025635244 0.51946956 1.6043164 1.2450149 1.5694977 0.6059477
-0.9092621 0.48031843 0.69802135 1.8350972 0.36112893 2.1837115 1.7672455 -0.1199521
1.0680133 -0.3466283 0.020793354 0.13669832 0.5140146 0.60038865 0.93551606 0.581114
2.44297 0.9129868 1.0955951 1.0276201 0.68032134 0.7597403 1.1308883 -0.42755276
0.53687674 0.31145254 0.36550868 2.0430226 -0.21544999 0.927795 1.4787537 1.9423671
1.5312401 0.5693984 0.52925915 0.40900022 -0.13156568 0.06986942 0.7597849 1.143355
0.43577456 1.1475466 0.81132746 1.0201147 0.6719892 1.4049163 -0.14422671
00000000: c514 dc3f 8bc7 ce3e de46 393f 692d 843f
00000010: d012 173f 3ee3 77bf 0886 c1be 319e 213f
00000020: 5a5c ab3f 7851 0540 0101 d23c f5fb 043f
00000030: 3d5a cd3f a65c 9f3f 4de5 c83f 631f 1b3f
00000040: 67c5 68bf 4cec f53e 87b1 323f 77e4 ea3f
00000050: e4e5 b83e eec1 0b40 1a35 e23f 72a9 f5bd
00000060: a9b4 883f 4479 b1be d356 aa3c a5fa 0b3e
00000070: 7696 033f 12b3 193f fb7d 6f3f e3c3 143f
00000080: 9f59 1c40 81b9 693f 763c 8c3f 0e89 833f
00000090: 8a29 2e3f 577e 423f f3c0 903f 32e8 dabe
000000a0: c170 093f b576 9f3e f423 bb3e e2c0 0240
000000b0: ec9e 5cbe f983 6d3f cd47 bd3f 7c9f f83f
000000c0: adff c33f 18c4 113f 877d 073f 7a68 d13e
000000d0: 27b9 06be b317 8f3d 4381 423f 7559 923f
000000e0: d81d df3e cfe2 923f 28b3 4f3f 1e93 823f
000000f0: 7c07 2c3f 4cd4 b33f 2bb0 13be

dnets.2.weights_rbf f4 [48, 63]
0.004064713 -0.06356451 0.015516374 0.031666577 -0.05375016 0.027945405 -0.032733764 -0.02457651
0.010032638 0.005513058 0.015873017 -0.013129176 -0.0007731304 0.0029108375 0.009485934 -0.029340357
-0.033057846 0.015887408 -0.050074954 0.006184116 -0.05719682 0.0022160942 0.007786859 0.015873017
0.019360963 0.0025526923 -0.0040231887 -0.071181536 0.0023100046 0.024811432 -0.022424884 0.00360623
0.004788194 0.027001133 0.0003136891 0.0072210934 0.003282054 0.003687356 0.010274097 0.016835378
0.0059050117 0.016494542 -0.065598726 0.00061718194 -0.020079795 -0.023008931 0.011576779 0.0037148707
-0.006805307 0.020124052 -0.051571913 -0.030327288 -0.06762926 0.016472334 -0.018710177 -0.0010838605
-0.06341517 -0.019485623 0.012199972 0.02252291 0.013420861 0.005168024 -0.026739147 0.0051149176
-0.05057963 0.045448616 0.0788759 -0.0451463 0.06147958 -0.04294586 -0.031236276 0.013763072
0.006893199 0.0151714785 -0.017970141 -0.0009923294 0.0034081996 0.012739833 -0.034909915 -0.031747084
0.015873017 -0.041875888 0.0078085004 -0.05920327 0.002711277 0.010058736 0.015873017 0.04138803
0.018659098 -0.017579775 -0.06933906 0.0036304267 0.08381667 -0.025680512 0.0066375 0.005951909
0.060646717 0.00014090328 0.009828425 0.0053943014 0.0056240642 0.014409059 0.024645532 0.010816169
0.0158861 -0.047911655 0.0007584891 -0.0072800433 -0.02610394 0.016743813 0.004559084 -0.00959911
0.0634949 -0.0473439 -0.04016434 -0.09072961 0.015873017 -0.025005903 -0.0015185241 -0.047747776
-0.021930067 0.019374574 0.04864614 0.02683078 0.0066121863 -0.0094972225 0.0017087909 -0.025644977
0.0013128875 0.022313803 -0.019035483 0.013815237 -0.00993627 -0.005658075 0.0029756809 0.0021911743
0.015873017 -0.0042488496 0.0006067192 0.001274427 0.00304871 -0.007803238 -0.009630404 0.015873017
-0.017104475 0.0022762576 -0.02055777 0.001444294 0.0027024886 0.015873017 0.005597123 -0.0077679567
0.003749498 -0.008222699 -0.00029216494 0.019242493 -0.005088225 -0.00054408674 0.0020850182 0.012715085
0.0005000795 0.0016715634 7.634072e-06 0.00032673674 0.0027304299 0.024511898 -0.00092994655 0.015916025
-0.02800108 0.0010289553 0.0136849675 -0.0053359848 0.0034918168 0.0017344786 -0.00012174782 0.0062737693
-0.01785081 -0.008704171 -0.023929156 0.015873017 -0.003287629 0.0002481269 -0.025861062 -0.0041718883
0.0023117976 0.008354044 0.0014866438 0.0017071022 -0.038396567 0.0009869742 -0.042253595 0.0050382507
0.0032563035 -0.025833236 0.0037047009 -0.009320702 -0.0057746354 0.0015460504 0.001255418 0.015873017
0.0026705044 0.000708441 0.0005897542 0.0016403914 -0.008050766 -0.008525315 0.016481884 -0.021384358
0.0013536408 -0.02155789 0.00061629695 0.0015367134 0.016475618 0.0033082424 -0.005915702 0.011215342
-0.009325968 -0.0018023861 0.004445057 -0.0032748112 -0.0014812568 0.0011025667 0.0039015491 0.000690349
0.0009719649 -0.00038382618 7.87753e-05 0.0013285552 0.036907867 -0.0025759751 0.016665699 -0.043464012
0.00063142873 0.02254214 -0.0035546334 0.0017700172 0.0007027579 0.0016440351 0.006810991 -0.021989679
-0.008671874 -0.00753351 0.01626348 -0.0022521284 0.0007662837 -0.042661186 -0.0018415005 0.000507563
0.003575167 0.00021522531 0.0011663191 -0.004891338 -0.00058299233 -0.013074891 -0.004436222 -0.024183214
00000000: 4931 853b 1c2e 82bd 6438 7e3c d0b4 013d
00000010: 2129 5cbd c3ed e43c d713 06bd ad54 c9bc
00000020: ef5f 243c e2a6 b43b 2108 823c c11b 57bc
00000030: e7ab 4aba c0c3 3e3b e46a 1b3c 305b f0bc
00000040: aa67 07bd 4f26 823c 651b 4dbd 20a4 ca3b
00000050: 3647 6abd e43b 113b e828 ff3b 2108 823c
00000060: e29a 9e3c 124b 273b f4d4 83bb a0c7 91bd
00000070: 7263 173b 5841 cb3c 64b4 b7bc 8056 6c3b
00000080: 48e6 9c3b 7b31 dd3c a376 a439 ec9e ec3b
00000090: bb17 573b 91a7 713b b054 283c 59ea 893c
000000a0: d47e c13b 901f 873c a058 86bd 61ca 213a
000000b0: 627e a4bc 3a7d bcbc 88ac 3d3c 3075 733b
000000c0: 0eff debb 32db a43c 123d 53bd ef70 f8bc
000000d0: 3681 8abd fdf0 863c 1646 99bc 5310 8eba
000000e0: d0df 81bd 50a0 9fbc 64e2 473c f781 b83c
000000f0: 2ce3 5b3c 8758 a93b 0e0c dbbc 0a9b a73b
00000100: 962c 4fbd 5428 3a3d b089 a13d 54eb 38bd
00000110: 03d2 7b3d 00e8 2fbd 38e3 ffbc 827e 613c
00000120: 58e0 e13b cb91 783c 1e36 93bc 0d11 82ba
00000130: 1a5c 5f3b bcba 503c b3fd 0ebd 3b09 02bd
00000140: 2108 823c 0d86 2bbd 73de ff3b 217f 72bd
00000150: aeaf 313b 66cd 243c 2108 823c 7f86 293d
00000160: f7da 983c 7603 90bc a301 8ebd 74ec 6d3b
00000170: 13a8 ab3d f05f d2bc 637f d93b 3b08 c33b
00000180: b168 783d 70bf 1339 6707 213c aec2 b03b
00000190: 124a b83b f913 6c3c 6de5 c93c 4d36 313c
000001a0: 9123 823c 033f 44bd 58d5 463a 6e8d eebb
000001b0: eed7 d5bc 522a 893c 5e64 953b 9645 1dbc
000001c0: 9d09 823d adeb 41bd 5d83 24bd 72d0 b9bd
000001d0: 2108 823c 2ed9 ccbc 3709 c7ba 2c93 43bd
000001e0: afa6 b3bc 6db7 9e3c 2d41 473d 39cc db3c
000001f0: 0aab d83b 3d9a 1bbc 82f9 df3a 6a15 d2bc
00000200: 3215 ac3a 70cb b63c 4df0 9bbc 4e59 623c
00000210: bdcb 22bc 6067 b9bb a403 433b ce99 0f3b
00000220: 2108 823c ef39 8bbb 3c0c 1f3a ad0a a73a
00000230: decc 473b 4eb2 ffbb d8c8 1dbc 2108 823c
00000240: af1e 8cbc 442d 153b c568 a8bc 774e bd3a
00000250: 3c1c 313b 2108 823c 1268 b73b 588a febb
00000260: 23ba 753b 80b8 06bc b72d 99b9 6fa2 9d3c
00000270: 20bb a6bb 0ba1 0eba cda4 083b ef52 503c
00000280: c417 033a 5c18 db3a 1714 0037 dd4d ab39
00000290: 03f1 323b 2dcd c83c a8c7 73ba 5362 823c
000002a0: 8562 e5bc 03de 863a ea36 603c 7cd9 aebb
000002b0: f7d6 643b 7257 e33a dd52 ffb8 3194 cd3b
000002c0: dd3b 92bc f09b 0ebc 1407 c4bc 2108 823c
000002d0: 4375 57bb 0717 8239 94da d3bc 56b4 88bb
000002e0: 8781 173b 66df 083c 7ddb c23a d8c0 df3a
000002f0: b845 1dbd 5c5d 813a 1b12 2dbd e917 a53b
00000300: b567 553b 39a0 d3bc 91ca 723b dcb5 18bc
00000310: 2739 bdbb d8a4 ca3a d78c a43a 2108 823c
00000320: a103 2f3b acb6 393a bc99 1a3a 6702 d73a
00000330: 5ce7 03bc c3ad 0bbc 0405 873c 402e afbc
00000340: a66c b13a 2c9a b0bc fd8e 213a 8c6b c93a
00000350: e0f7 863c 19cf 583b 81d8 c1bb 8ec0 373c
00000360: f2cb 18bc 0b3e ecba d7a7 913b 379e 56bb
00000370: bb26 c2ba 0084 903a 22b1 7f3b 8af8 343a
00000380: 76cb 7e3a 473c c9b9 2b34 a538 ea22 ae3a
00000390: b42c 173d b1d1 28bb 8186 883c 5207 32bd
000003a0: 7786 253a 4baa b83c daf4 68bb ecff e73a
000003b0: 4939 383a aa7c d73a bc2e df3b b323 b4bc
000003c0: 7a14 0ebc aadb f6bb fd3a 853c 7298 13bb
000003d0: 6ee0 483a 7fbd 2ebd 815e f1ba fa0d 053a
000003e0: 594d 6a3b 1bae 6139 2ddf 983a 8447 a0bb
000003f0: f4d3 18ba 1138 56bc ba5d 91bb e01b c6bc

dnets.2.conv.weight f4 [48, 3, 7, 7]
-0.029273614 -0.040840846 -0.023964597 0.105169855 -0.084926665 0.04812053 0.07369738 -0.0473486
0.10414496 -0.0036340102 0.028868778 -0.04736936 0.07937492 0.016058568 -0.03496258 -0.01472254
0.05732264 0.103147924 -0.067237765 -0.022651868 -0.068431295 0.026799412 -0.035206676 -0.030774085
-0.0708929 0.021681808 -0.10238678 0.019668778 0.04062627 -0.05919644 -0.046031628 0.0055028843
-0.03814817 -0.04222108 -0.04804774 0.057107054 0.011195793 0.0049989084 0.08308805 0.045154296
0.066516005 -0.013651879 -0.0808251 -0.00064260885 -0.02203964 -0.011956945 0.09053756 0.0125017
-0.026289532 0.061759546 -0.023472724 -0.048262358 0.008989689 0.018653588 -0.048606697 -0.04282824
-0.035137378 0.05394384 -0.010347746 -0.10126775 0.14041333 -0.055652425 -0.011146694 -0.039673064
0.020824818 -0.04500297 0.032158416 -0.07656944 -0.03718333 0.03873522 0.018015934 -0.0038799215
-0.009089423 0.02697717 0.098955944 0.024261774 -0.06814597 0.003087868 0.00011495236 0.088991985
-0.016464328 0.010248967 -0.052939337 0.061826296 0.005215102 -0.0443491 0.0843229 -0.08468942
0.030990388 -0.098314814 0.03879521 -0.010630081 0.016254118 0.0457881 0.043743543 -0.07459169
-0.0050101154 0.060922775 0.0038699391 -0.04846148 0.048325088 0.05395718 0.03621468 -0.019829806
-0.024596948 0.0078121815 0.016762406 -0.0524044 -0.05330824 -0.017857874 -0.06003842 0.060003206
0.03333516 -0.050049752 -0.040464144 0.05865658 0.046967767 0.06899783 -0.005605207 0.08566081
0.003605716 0.006839209 -0.11108202 -0.035851005 -0.0030104718 0.10316784 -0.01388285 -0.00075348717
0.030777514 0.048395798 -0.03701854 0.13407628 -0.045216866 -0.06192584 0.04809205 -0.115008526
0.03122968 0.026154324 -0.065689996 -0.035816588 0.06861219 -0.014191926 -0.0005615712 0.006660067
-0.06364884 -0.00028671933 -0.05312635 -0.029652623 -0.020784805 0.1037761 0.025442762 -0.048268113
0.029098956 0.0020429327 -0.025419826 0.09354645 -0.020130951 0.042527273 -0.06999897 -0.041316908
0.043863002 -0.06864238 0.067859486 -0.028960252 -0.0073189833 0.06446405 0.053340685 -0.10649311
-0.017921476 -0.06461242 -0.07070057 -0.1219497 -0.006631196 -0.032042723 0.082728796 0.026064193
-0.031288788 0.02472275 -0.03644808 -0.038957357 0.05146398 0.023998681 0.13268416 -0.041872483
0.007054859 0.019040992 -0.0631932 0.06316031 -0.005099648 -0.019374063 0.003069758 0.046823956
-0.04088577 0.0019523071 0.06945834 -0.031696923 0.05394134 -0.06531419 -0.08051595 0.042625085
0.02615466 -0.030250842 -0.004102328 0.022028724 -0.039329167 -0.018257277 -0.038243234 0.034202203
0.036192518 -0.0096849315 0.088306345 -0.058105662 0.10364314 0.016959816 0.09294253 -0.0023958115
-0.0013912426 -0.038745284 0.041997015 0.037520252 0.07740218 -0.04094046 -0.11336677 -0.0137195075
-0.02934529 -0.010057833 0.0068926355 -0.056626827 0.09840693 0.010095683 -0.02513909 -0.048414312
-0.024426896 -0.059932634 -0.00785635 -0.026855249 0.013170418 0.02523541 0.060224876 0.017374609
-0.061188787 0.060353257 0.00050764123 -0.08076693 0.0010023481 -0.024922112 0.09069062 -0.0430648
-0.047797512 0.017830977 -0.011163173 0.010626097 0.013143594 -0.03375847 -0.054269698 0.057263583
00000000: 38cf efbc bb48 27bd 6751 c4bc 4b63 d73d
00000010: 08ee adbd 081a 453d a7ee 963d 9bf0 41bd
00000020: f449 d53d 9328 6ebb 377e ec3c 6006 42bd
00000030: 518f a23d 428d 833c ec34 0fbd cf36 71bc
00000040: 25cb 6a3d 383f d33d f4b3 89bd 6990 b9bc
00000050: b525 8cbd 718a db3c e034 10bd ef19 fcbc
00000060: 4c30 91bd 0c9e b13c 29b0 d1bd 6b20 a13c
00000070: bb67 263d f777 72bd a98b 3cbd 8a51 b43b
00000080: 4141 1cbd 03f0 2cbd b5cd 44bd 16e9 693d
00000090: 8f6e 373c e2cd a33b 112a aa3d b6f3 383d
000000a0: 8b39 883d 21ac 5fbc a187 a5bd c074 28ba
000000b0: 7a8c b4bc 10e7 43bc c26b b93d eed3 4c3c
000000c0: 255d d7bc 94f7 7c3d df49 c0bc c0ae 45bd
000000d0: 7d49 133c 69cf 983c d117 47bd aa6c 2fbd
000000e0: 36ec 0fbd 37f4 5c3d 9889 29bc 7765 cfbd
000000f0: 83c8 0f3e ccf3 63bd a0a0 36bc 3980 22bd
00000100: cf98 aa3c 0955 38bd 8bb8 033d 70d0 9cbd
00000110: 8c4d 18bd d2a8 1e3d 2796 933c 4846 7ebb
00000120: ceeb 14bc 3aff dc3c 6aa9 ca3d a1c0 c63c
00000130: 1d90 8bbd d45d 4a3b 9412 f138 6e41 b63d
00000140: 33e0 86bc 49eb 273c ebd6 58bd 923d 7d3d
00000150: 72e3 aa3b 67a7 35bd 7cb1 ac3d a671 adbd
00000160: 8edf fd3c 4759 c9bd bae7 1e3d cb29 2ebc
00000170: 5b27 853c 4e8c 3b3d 6e2c 333d 87c3 98bd
00000180: e52b a4bb 298a 793d ce9e 7d3b 8b7f 46bd
00000190: 87f0 453d 3402 5d3d d855 143d 1e72 a2bc
000001a0: 8a7f c9bc 54fd ff3b 5051 893c ffa5 56bd
000001b0: be59 5abd ad4a 92bc d9ea 75bd ecc5 753d
000001c0: 738a 083d f800 4dbd bbbd 25bd e241 703d
000001d0: 4661 403d bc4e 8d3d e2ab b7bb ef6e af3d
000001e0: e04d 6c3b 711b e03b f87e e3bd 81d8 12bd
000001f0: 564b 45bb a949 d33d e574 63bc ab85 45ba
00000200: 2021 fc3c ac3a 463d c1a0 17bd 4b4b 093e
00000210: 5235 39bd f3a5 7dbd 2bfc 443d 9789 ebbd
00000220: 63d5 ff3c 9841 d63c 7a88 86bd 6ab4 12bd
00000230: 8c84 8c3d 4185 68bc 6836 13ba b13c da3b
00000240: 535a 82bd d152 96b9 049b 59bd 0fea f2bc
00000250: e544 aabc 9088 d43d 576d d03c c9b4 45bd
00000260: ef60 ee3c b9e2 053b 3d3d d0bc 4895 bf3d
00000270: aae9 a4bc 1431 2e3d 9f5b 8fbd eb3b 29bd
00000280: b1a9 333d 6094 8cbd eaf9 8a3d 0d3e edbc
00000290: 15d4 efbb ba05 843d c37b 5a3d 0f19 dabd
000002a0: 0fd0 92bc 8453 84bd 76cb 90bd c4c0 f9bd
000002b0: 814a d9bb 3b3f 03bd b76d a93d 9384 d53c
000002c0: ac28 00bd 5d87 ca3c 954a 15bd c091 1fbd
000002d0: e5cb 523d e298 c43c 5bde 073e 7b82 2bbd
000002e0: 722c e73b dbfb 9b3c 706b 81bd 315a 813d
000002f0: f31a a7bb 5bb6 9ebc fe2d 493b 7aca 3f3d
00000300: d677 27bd 8ee4 ff3a 2d40 8e3d a2d4 01bd
00000310: 98f1 5c3d 72c3 85bd 8ce5 a4bd a497 2e3d
00000320: 4c42 d63c 9dd0 f7bc d26c 86bb 9575 b43c
00000330: 9f17 21bd 4990 95bc f0a4 1cbd 9c17 0c3d
00000340: 9b3e 143d 8cad 1ebc f5d9 b43d 3400 6ebd
00000350: db42 d43d 50ef 8a3c a758 be3d 0c03 1dbb
00000360: 5b5a b6ba 60b3 1ebd 1005 2c3d d6ae 193d
00000370: 0985 9e3d 2fb1 27bd d62c e8bd c9c7 60bc
00000380: 8965 f0bc 9cc9 24bc 9edb e13b 88f1 67bd
00000390: 9389 c93d 5d68 253c 7ef0 cdbc 164e 46bd
000003a0: ea1a c8bc ec7b 75bd ecb7 00bc 8aff dbbc
000003b0: bdc8 573c 7eba ce3c 5cae 763d 3255 8e3c
000003c0: 18a1 7abd fa34 773d 3a13 053a 2269 a5bd
000003d0: 3961 833a 7529 ccbc 01bc b93d b764 30bd
000003e0: 53c7 43bd 4512 923c bee5 36bc 1519 2e3c
000003f0: 3b58 573c 5246 0abd e749 5ebd 388d 6a3d

dnets.3.means f4 [63]
0.38952228 -1.1870972 1.5615225 2.6528912 -1.5012504 2.169793 -0.71044236 -1.2971531
1.0918868 0.82813925 -1.1163872 -0.3427839 -1.0660877 -0.23679155 1.2416987 -1.2380586
-1.8711852 2.8284838 -1.7303592 0.8772942 -0.71600354 -0.7135914 1.1198715 1.9813482
2.2227232 0.41802415 0.016037032 -0.32501665 0.08189705 1.4330919 -1.8583379 0.30696204
0.7250774 2.0273705 -0.46755618 0.62903243 0.3484651 0.38831878 0.9167647 1.732746
0.30683267 1.9187449 -1.1517076 -1.1271038 -0.7725814 -1.8432459 1.551078 0.025696367
-2.4020088 1.2870811 -1.2129452 -0.7833412 -0.077618144 1.3721128 -1.5174524 -0.6538817
-1.2922642 -2.2407928 0.77196467 2.173502 0.86149883 0.60528696 0.27466315
00000000: 776f c73e cdf2 97bf f8df c73f f8c8 2940
00000010: f928 c0bf e3dd 0a40 8ddf 35bf 1d09 a6bf
00000020: f2c2 8b3f ef00 543f c7e5 8ebf 5f81 afbe
00000030: 9075 88bf 7c79 72be fcef 9e3f b478 9ebf
00000040: ff82 efbf e105 3540 697c ddbf 5a96 603f
00000050: 024c 37bf edad 36bf f357 8f3f d19c fd3f
00000060: 1941 0e40 4307 d63e 1860 833c 9568 a6be
00000070: a4b9 a73d 8e6f b73f 04de edbf 212a 9d3e
00000080: ac9e 393f 70c0 0140 8663 efbe 4508 213f
00000090: 056a b23e b8d1 c63e 17b1 6a3f 9fca dd3f
000000a0: 2c19 9d3e 6f99 f53f 286b 93bf f044 90bf
000000b0: e5c7 45bf 7bef ebbf b989 c63f 3081 d23c
000000c0: 83ba 19c0 13bf a43f ca41 9bbf 0d89 48bf
000000d0: 43f6 9ebd 64a1 af3f e13b c2bf cb64 27bf
000000e0: ea68 a5bf 2669 0fc0 7a9f 453f a81a 0b40
000000f0: 308b 5c3f 16f4 1a3f a6a0 8c3e
